Code-in-cloud/results/models/乳酸分类标签_backward_gru.pth (torch, 62216 bytes, 6 tensors)

gru.weight_ih_l0 f4 [192, 11]
00000000: 6be3 323d 8ef2 e73e 8e82 2a3d eed7 dd3c
00000010: 6dca 1f3c ea12 37bf e1f0 2d3e 0814 56be
00000020: bdea c33c 0163 a4bd 0e00 8cbd 4139 57be
00000030: c917 88bc bf74 a03e 9797 e8be a5f4 d9bc
00000040: 7ef1 4a3d 803b b63e ec5c 77be b1c2 8ebe
00000050: 0ffa bbbc e4c5 7b3e e952 8abd 6413 9bbe
00000060: 192d 9c3e 08e3 75be 5280 b2be 536e be3e
00000070: 7214 36bd 5241 dd3d d7ca fbbd 1a13 26bc
00000080: e9bb 0bbc 818a bbbd c440 cbbd 0986 b63e
00000090: fc23 02be 976b 5b3e fa3e 92be 4890 a2be
000000a0: 421f 04be 7efe a63e a561 f9bd 7f33 78be
000000b0: 519a 79be bd17 8bbe 0f55 01be 6210 87be
000000c0: b5bc a03e 8a08 30bf 7ec6 703d 5e56 093e
000000d0: bf39 873d 4b38 073e 0f07 d7be e8e8 9dbb
000000e0: 3110 813b dbe5 81bc 1d98 8fbe c0ba 8abe
000000f0: 2ee8 10be 5be0 60be 5e37 0a3e 3382 f4bd
00000100: 9ae7 303e a068 a13c 803f cb3e b32c 8c3d
00000110: 395b c5bc 8fe5 5bbd 8b0d 77be 6ce1 013e
00000120: 5c9c 15bf 6434 753d d60e e23e 64b9 3f3c
00000130: 6f5c 66be 67ba 8ebd 722e 9d3e 9c42 a43e
00000140: 3541 21be eb01 1a3d e5fa 3fbd 1e34 00bf
00000150: 60af 8b3e d7cf 833e 02df 3d3c 36c2 b3bd
00000160: cd08 babd 242a 943e b618 afbd 73b9 443f
00000170: b3e0 6cbd 0033 81bf 9c9b 253d 5ed6 46bc
00000180: 43d8 1cbe 3b24 b1bd 1e1f 963e 2801 f7bd
00000190: 89d7 053d e464 2c3e 08bd 6e3e 00a3 c4bd
000001a0: f2bb 5cbe 89fe 51be 115d b03b 861a 13be
000001b0: 1b55 19be 6ace c73e b3f4 7bbd cb2e 9e3d
000001c0: 4119 6ebc 14e8 42bc 9921 09be 3d8e 0b3e
000001d0: b655 c6bd b1e4 babd efb8 d6bd 7570 2abe
000001e0: 97fc b73d 4844 45bd d6ae 09bc 902d 423c
000001f0: 1ac5 083e 3035 98be 1b7f 93be 5080 b6be
00000200: a619 453d 4745 2bbe 512c 2cbe 3a67 a53e
00000210: 4d49 72be 6ad5 f93d 624b 553e 94cf b63d
00000220: c9e6 1bbd ca5c 083e 29d6 f8be e363 e33e
00000230: 8d4d 2a3e 6917 e93e a0c6 fbbe e31d 8dbe
00000240: 1983 43be 6816 9bbe ca33 b1be 33bf f93d
00000250: 35ef 23be bb40 c53d 4d05 e13d 21d5 973e
00000260: 2357 313e 6336 e7bd f506 23bc db16 813e
00000270: b592 053e 8984 61bb 8b88 f4bd dfd9 95be
00000280: bb51 983d e254 11be fb6d 8dbd 5151 8dbe
00000290: e904 c13e fdf0 fdbe 8cde 50bd 66b5 a83c
000002a0: 4d8d 863e 3c5f d7be 66f8 063e a08e 11be
000002b0: b695 ecbd 9fbf a3be 7fab d93b 178f 1f3f
000002c0: 107b 75be 659a 08bd 4330 4f3d 991e bc3d
000002d0: 8e51 9bbd 693b 9d3d d02b 88be af3a b53c
000002e0: 7e85 30bd 166f 06be 0fb1 af3e 29b9 9fbd
000002f0: 1a93 7bbe 7629 63be 47ce c5bd 9cdc 89be
00000300: cae1 003e 569c 05be bee8 b73d 99bb 6ebd
00000310: 364c 9bbd ad0a 19be 4f22 f03d 3d17 773e
00000320: e813 533d d416 4b3e 682a 1fbf 90c6 023d
00000330: 496a 553e 37d5 2bbd 0e43 29be a082 8bbe
00000340: c112 743d 566e f43c 6936 f33e 74e3 4a3e
00000350: 30e2 043f 0d93 99bd 3196 4cbf 95d5 3e3e
00000360: 0bde 37be 11a2 033e bd73 4bbe 1ab5 f13e
00000370: a30a 213c ba74 503e a678 223e 865d 1e3e
00000380: 5716 ddbd 0995 07bf 0971 8f3e 40fa 95bd
00000390: a039 893d d807 dd3d b5ab 3b3e c42d 1dbf
000003a0: a047 43bd 1039 993e 224a 9abd 901d a7be
000003b0: c447 9f3e 684d 92be b209 b83b 3fa8 88be
000003c0: 2125 673e 4a61 bf3e d712 bdbe c330 89bd
000003d0: f4be c53d ad49 78bd a103 d7bd 9a06 14be
000003e0: aefa 4cbd ea00 b4b9 2ddd a03d 5493 8fbd
000003f0: 89e7 4b3e a24d 9ebe 7d06 36be 5b78 c73e
0.043673914 0.45302242 0.041628413 0.027080502 0.009752852 -0.71513236 0.1698642 -0.20906079
0.023915643 -0.08026696 -0.06835948 -0.21017934 -0.016612904 0.3133907 -0.45428154 -0.026605913
0.04954671 0.3559227 -0.2415654 -0.27882913 -0.022946386 0.24587208 -0.06754095 -0.3028823
0.30503157 -0.24012387 -0.34863526 0.37193546 -0.044453092 0.108034745 -0.12294548 -0.01013639
-0.008528688 -0.09157277 -0.099244624 0.35649136 -0.1270904 0.21427761 -0.28563672 -0.31750703
-0.12902549 0.32616037 -0.12176827 -0.24238394 -0.24375273 -0.27166548 -0.12630104 -0.26379687
0.31393972 -0.6876303 0.058783047 0.13411853 0.06602811 0.13205068 -0.41997573 -0.0048190244
0.0039386977 -0.015856674 -0.2804574 -0.27095604 -0.1415107 -0.21960585 0.13497683 -0.11938896
0.17275849 0.01970321 0.39696884 0.06844463 -0.02409135 -0.05368572 -0.2412626 0.12683648
-0.5844171 0.059864417 0.44151944 0.011701915 -0.22496198 -0.06969147 0.30699497 0.3208207
-0.15747531 0.037599485 -0.04687013 -0.50079525 0.27282238 0.25744507 0.011588814 -0.08777277
-0.0908371 0.289384 -0.08549635 0.76845473 -0.057831477 -1.0093689 0.040431604 -0.01213607
-0.15316872 -0.086494885 0.29320616 -0.120607674 0.032676253 0.16835362 0.23314297 -0.09601402
-0.2155607 -0.20507254 0.005382188 -0.14365587 -0.14973871 0.3902467 -0.06151266 0.07723769
-0.014532388 -0.011896152 -0.13391723 0.13628478 -0.09684317 -0.09125651 -0.10484492 -0.16644461
0.089837246 -0.04816082 -0.008403501 0.011851683 0.13356438 -0.2972808 -0.2880791 -0.3564477
0.048120163 -0.16725646 -0.1681378 0.32305318 -0.23660775 0.121989086 0.20829538 0.08926311
-0.03806189 0.13316646 -0.4860089 0.44412145 0.16631146 0.45525673 -0.49174976 -0.27561864
-0.19092979 -0.30290532 -0.34609824 0.121946715 -0.16009219 0.09631487 0.10987339 0.29654792
0.17318396 -0.1128967 -0.009950389 0.2521275 0.13044246 -0.0034411272 -0.11940106 -0.29267785
0.07437464 -0.14192536 -0.06905743 -0.27601102 0.3769906 -0.49597922 -0.050993487 0.02059431
0.2627968 -0.42064846 0.13180694 -0.14214563 -0.115519926 -0.31982133 0.0066427584 0.6232771
-0.23972726 -0.033350367 0.050583135 0.091855235 -0.07583915 0.07677347 -0.26595926 0.02212271
-0.043096058 -0.13128313 0.34314772 -0.07798988 -0.24567834 -0.22183785 -0.09658485 -0.26926124
0.12586132 -0.13047919 0.08979939 -0.058284376 -0.075828955 -0.14945479 0.11725294 0.24129958
0.051532656 0.19832927 -0.6217408 0.031927645 0.20841326 -0.041951384 -0.16529486 -0.27248096
0.059588198 0.029837769 0.4750245 0.19813329 0.51907635 -0.07498751 -0.79916674 0.18636163
-0.17955796 0.12854792 -0.1986837 0.47208482 0.009829196 0.20357028 0.15866336 0.15465364
-0.107952766 -0.52961785 0.28015926 -0.07323122 0.06700444 0.10792512 0.1832722 -0.6139796
-0.04767573 0.29926348 -0.07533671 -0.32639742 0.3110944 -0.2857468 0.00561639 -0.26690862
0.22572757 0.37378913 -0.36928436 -0.06698754 0.09655562 -0.060617138 -0.10498739 -0.14455643
-0.050043754 -0.00034332956 0.07854686 -0.070105225 0.19912542 -0.30918604 -0.17775913 0.3895901

gru.weight_hh_l0 f4 [192, 64]
00000000: 2d39 26bd 75f6 e0bd dd1d 2abc a4d4 b7bc
00000010: be8b a0ba 1d1e 01bc 7712 e53d caa2 323d
00000020: c3db f03d 6248 aebd bdd1 ef3d 0888 a83d
00000030: 2974 873d 11d0 cc3c d879 633c 633f b2bc
00000040: b900 58bc f1c4 593d 5f63 d53c d7f2 ccbd
00000050: 5824 8d3d 91ca ea3d e6c1 603d ef59 d4bd
00000060: a148 843d edcc bdbd f2e1 ef3d 3231 bebd
00000070: cc03 1b3d 086a a2bb 9b02 ad3d 3d60 963c
00000080: dbf4 b93d 4797 8fbd 53b5 ba3d ba62 b3bd
00000090: abab ebbd 8e39 db3c faeb 8ebd bea8 903d
000000a0: 7f4c e9bd d84c b13d 516b 49bd 9a7d 933d
000000b0: 3b51 b13d 81ff 4e3d 2737 4a3d c516 bcbd
000000c0: 291b efbd 87c8 3ebd b4a2 c2bd 90f7 e6bc
000000d0: d9a8 aebb 0706 dc3d ba1f c7bd 2e8f ccbd
000000e0: d5c0 933d 3076 293d ff80 883d d192 e3bc
000000f0: 3f51 ca3d b775 963c 4e3e 933d 8f64 cabd
00000100: c08f 7d3c 723e 373d b35d 8a3c 33c9 f7bd
00000110: a7fd 9b3d 21a7 94bc aade 51bd 50e0 f03d
00000120: 6d0c e1bd c9af 9ebc d2de 8c3d d7e6 4f3d
00000130: 5528 d53d d850 a3bc cec8 7dbd 216f 483c
00000140: d569 a8bd 5c0c eebd d5e5 94bc 3682 963d
00000150: 5daf acbd 7531 5cbc 4b78 e9bd 070d 873c
00000160: 78e5 2d3c 2b15 18bc 8fc4 acbd 72a1 b1bd
00000170: 50b5 923d 2d19 da3d 7fcb 933d 219f 19bc
00000180: 77c7 cfbd 8833 4e3d b98d dc3d 0581 4ebd
00000190: b87a 14bd 7fdb 7dbc 9e98 17bd 541f 99bd
000001a0: 37b0 b4bd 43a1 c2bc 5c06 ea3d 84fe 85bc
000001b0: 08fe 8bbc 615f ec3d d88f b93d da1c ef3d
000001c0: 53d7 2ebc 025a 68bd 4653 7cbd c066 9cbc
000001d0: 2ca7 9b3d 9501 b6b9 21f2 a9bc 0d80 a8bd
000001e0: 35b6 b8bc 0698 a93c 529e eabd a449 78bd
000001f0: f24a 8e3d 9565 c03d 3c64 9c3d daba dbbc
00000200: 4126 7dbc 0266 adbc 51dd e93d f083 a43c
00000210: a7d6 ba3d 41bd bdbd 9943 ee3c 1cfd 553d
00000220: 0000 19bb 6b92 f3bd 1ea0 503d df82 493d
00000230: 1531 cfbc c715 563d 0882 b43d 2757 463d
00000240: f498 723d d6b5 e73d bdd3 003c fd7d d2bd
00000250: 2c27 f33c b25d eebc 0ff4 d1bc cee2 76bd
00000260: 65bd 81bd 48bc 02bd e5c2 cf3d ca9a d7bd
00000270: 1959 1ebc 867e bdbd 39e9 833c 0631 8abd
00000280: 1873 5ebc 497a cfbd 0788 a03c b677 13bd
00000290: cff3 8c3d a884 8bbd 1a0c b33d 5278 c6bc
000002a0: 84eb f43d ed72 7a3d 32bf e53d 580d 7c3c
000002b0: cbcb 943d 8458 b63d 85d2 cfbc d11e 983d
000002c0: 328c 6d3d b058 b83d 7f39 52bd 6158 353d
000002d0: 56a5 0b3d cc5d 8fbd 1466 3bbd f0a5 3bbd
000002e0: 3030 9c3d 58aa 57bd 189c 9f3d 4a9a e0bd
000002f0: 6bef f5bc 7be5 24bd 1869 a63c 3526 8a3d
00000300: 4594 b0bd 512c babc d499 0f3d eeac e83d
00000310: f079 cd3d 9321 6f3c 34d0 c5bd 142a d23d
00000320: db8f e3bc 9631 76bd fb3f 923d 9de6 91bc
00000330: 57f5 083b 357f 0f3c aa71 c1bd 7f97 e7bd
00000340: 7f80 5d3d de7c 1f3d 4a01 323c 99b2 743c
00000350: 4568 8f3d d6e6 bebd 84a3 883d 6efd 153b
00000360: 36b8 5b3d 9e65 8dbd 16d8 01bd 5b46 5dbd
00000370: 15c9 72bd 487c a1bd 8b28 57bd 98e2 2ebb
00000380: 9237 3bbd c3ed 61bd 97a8 cbbd 0d90 5e3d
00000390: 3223 9abd 14e0 053d 5a18 8e3d 0728 bdbd
000003a0: 7436 eabb 94e2 ce3a f9df bfbd cef8 e73d
000003b0: 680f b83d b95d 5cbd 128a e5bd 40d1 b6bd
000003c0: 975b dabd c909 babb 3b9f 963d 103b ffbc
000003d0: 95d0 923d 1588 b93d 3e43 0e3d 54e1 ab39
000003e0: 406e 1cbd 1491 8fbc c908 323d 5b2d d33c
000003f0: a79a b33d d652 db3d 9462 be3d 90e1 c0bd
-0.04058187 -0.10984508 -0.0103830965 -0.022440262 -0.0012248678 -0.007880715 0.111851625 0.04361228
0.11760666 -0.085099 0.11709926 0.08229071 0.06613953 0.025001558 0.01388403 -0.02175874
-0.013183766 0.053166334 0.02604836 -0.100072555 0.06891698 0.11464418 0.054872416 -0.10368716
0.06459165 -0.09267602 0.117130175 -0.09286727 0.037845418 -0.0049564876 0.084477626 0.018356437
0.090799056 -0.07011276 0.09116616 -0.08759065 -0.115073524 0.026760843 -0.06978603 0.07063435
-0.113915436 0.08657235 -0.04917461 0.07201691 0.086580716 0.050536636 0.049369004 -0.091840304
-0.11675102 -0.046577957 -0.095036894 -0.028194219 -0.005330187 0.10743337 -0.09722848 -0.09988247
0.07214514 0.041372478 0.06665229 -0.027779968 0.09878778 0.018366678 0.07189618 -0.09882461
0.015476167 0.044737287 0.016890382 -0.120989226 0.0761674 -0.0181461 -0.05123774 0.11761534
-0.10988698 -0.01937093 0.06878437 0.050757255 0.10408083 -0.01993601 -0.06195908 0.012233526
-0.08223311 -0.11623451 -0.018175999 0.073490545 -0.084318854 -0.013439526 -0.11399897 0.016485704
0.010613792 -0.009282391 -0.08435928 -0.086733714 0.07163489 0.10649333 0.07216548 -0.009376318
-0.10145467 0.050342113 0.10769219 -0.05041601 -0.036249846 -0.0154942265 -0.03701078 -0.074766785
-0.08822673 -0.023758536 0.11426994 -0.016356714 -0.017088905 0.115416296 0.09060639 0.11675425
-0.0106714545 -0.056726463 -0.061602853 -0.019091964 0.07600245 -0.00034714924 -0.020745339 -0.08227549
-0.02254782 0.020702373 -0.114559785 -0.060617104 0.069478884 0.09394375 0.07636306 -0.026822496
-0.015451015 -0.021166805 0.11419166 0.020082444 0.09122973 -0.09264613 0.029084967 0.052243337
-0.0023345947 -0.118931614 0.05093395 0.049197074 -0.025291959 0.052266862 0.08813864 0.04842296
0.0592279 0.11313979 0.007862982 -0.102779366 0.029681765 -0.029097412 -0.025629072 -0.06027489
-0.06334952 -0.03191784 0.10144595 -0.105275705 -0.009664797 -0.09252648 0.01610242 -0.06747632
-0.013577245 -0.10130746 0.019596113 -0.036002837 0.0688244 -0.068124115 0.087425426 -0.024227295
0.119589835 0.061144758 0.11218108 0.015384041 0.07265433 0.08903602 -0.025368938 0.07427753
0.05799503 0.09001291 -0.051324364 0.044273738 0.034093224 -0.07000312 -0.045751646 -0.045812547
0.076263785 -0.052652687 0.077934444 -0.10966928 -0.03002139 -0.040257912 0.020313784 0.06745569
-0.0862203 -0.02272621 0.03505881 0.11361109 0.10033023 0.014595407 -0.09658852 0.10261932
-0.027778557 -0.060105883 0.071411096 -0.01781016 0.0020898187 0.008758356 -0.09445508 -0.113081925
0.05407762 0.038937442 0.010864565 0.014935159 0.0700231 -0.09321372 0.06671813 0.0022886652
0.053642474 -0.069041476 -0.031700216 -0.054022174 -0.059273798 -0.07885033 -0.0525289 -0.0026685353
-0.045707293 -0.055158388 -0.09944265 0.054336596 -0.07526244 0.0326844 0.069382384 -0.0923615
-0.0071476046 0.0015784078 -0.09368891 0.113267526 0.089873135 -0.05380032 -0.112079754 -0.0892663
-0.106620006 -0.005677436 0.073545896 -0.031156093 0.0716869 0.09059159 0.034732096 0.00032783544
-0.03819108 -0.017525233 0.04346541 0.025778463 0.08769732 0.10709159 0.09296146 -0.09418023

gru.bias_ih_l0 f4 [192]
00000000: 7c66 453e 54a6 4d3e c15c 50bc 3d45 2f3e
00000010: 3918 cc3e c863 583e e850 d13d 1922 bf3e
00000020: ec70 f43d a107 b23d 1c70 56be c35c af3d
00000030: 900d 013e e2a3 e33e 4fea 583d 1125 12bd
00000040: f0c8 453e 27a5 2e3e 3e0e 063d 816f 213f
00000050: 9205 2f3e 6ebd 2dbd f998 5d3e 4c2a 7b3e
00000060: 0d59 8d3e a3ec 0abd 77c5 bb3e d94c 193e
00000070: 8910 f93e 205a aa3c cc10 193d 7030 893e
00000080: 936d 46bc ef9e d33e e9a5 013e 3914 0d3d
00000090: ac1f 453d 0ece 8a3e 2284 9a3e a0dd ff3e
000000a0: 97e8 a23e 9bdc 8a3e 77cd afbb e8b7 103f
000000b0: bc44 403d 445f 6abd fd84 e63e 6294 0a3e
000000c0: 713d 073d 938d db3e 287c c83d 36b5 8b3e
000000d0: fa6e 933e 775f 2fbe a253 a13d f9c2 af3d
000000e0: f0d2 d53d 73c9 ee3e 4e0a 1ebe f6ac c93d
000000f0: 9fb9 ae3d 5776 1f3d 0452 a43e 8de8 883e
00000100: c018 8bbe 44e5 cbbe 5598 f5be 4a3f b5be
00000110: 3985 9ebd 0af8 59be c628 05be 990c ebbe
00000120: 884f abbe 98bd b9be 8ef7 ee3d 47a0 e4bc
00000130: ea29 64bd 46be acbe 6888 efbd 32de a3be
00000140: 6351 cfbe 4c89 cabe e810 56bc 3c27 84be
00000150: 8942 05be 081f ecbe 9b18 b0be 9d96 2dbe
00000160: 76a4 a7be 39ce adbe 5966 e5be 455e f3be
00000170: 1343 febd 00c3 08bf 2b7f 9ebe 7a22 c4be
00000180: 7209 11be 4512 7fbd 2ce5 9dbe dd83 cebe
00000190: 4bec 0abf cc4e 84bc 0a2a 18be ca94 bbbe
000001a0: c92f a1be d63d 8bbe 1e4b d7bd 58a7 bbbe
000001b0: c3a2 1e3d d125 e73c c726 01bf ce84 e3be
000001c0: 3d76 0dbe 2a8c 0bbd bb34 93be 2ac0 08bf
000001d0: a3ed 9cbe d1a8 e8be 1880 74be d97e 243e
000001e0: 4b4c e0bd 8c5c c3be 8bae b1bd 6fc8 25bd
000001f0: 1bf4 86be 716a 88be 9e6e e2be 8fb4 04bf
00000200: d059 50be c007 98bd dbc7 5ebd d7a4 923e
00000210: 1b80 ab3e 2e2c 413e 1eca cc3a 2ab1 a9be
00000220: 31ee 47be b8d0 513e aed5 4abe 2607 69be
00000230: 6337 1bbe 0f6f 623e e052 8d3e 9805 cd3d
00000240: 6977 1ebd 03a6 acbe b719 d6bc ecba b9be
00000250: c918 a13e a230 ba3d 63a3 17be 3b7b 4c3e
00000260: 3986 573e 6106 0f3d 1408 b83e 8c9b 133e
00000270: eafc afbe a12a 0c3e c99a 3c3d 4841 bcbe
00000280: 2392 fcbc c31b cd3e 02e8 833e 339a 383e
00000290: 13aa 063e d2ed 39bd e159 923d 6bea 56be
000002a0: 0deb bcbe 9234 67be f53a 18bc df35 11bf
000002b0: f1bc a8bd 36dd b83c 270d e73e 0c05 803c
000002c0: f59c 7fbe 1653 9d3e fae2 423d 2c76 9dbe
000002d0: 3c79 8bbe 2888 24bd 6459 53be 5217 7b3e
000002e0: c1b9 8e3e f689 b53e 4692 253d 03bf dc3d
000002f0: 3c7c 9cbc 583d 6fbd f4a5 b9be 625f cbbe
0.19277376 0.2008298 -0.012717427 0.17116256 0.3986223 0.21131814 0.1022051 0.37330702
0.11935601 0.08692861 -0.20941204 0.08562615 0.1260283 0.4446097 0.05295783 -0.03567988
0.19314933 0.17055188 0.032728426 0.63060766 0.17091969 -0.042416982 0.21640386 0.24527854
0.27607003 -0.03391708 0.3667409 0.14970721 0.48645428 0.020794928 0.037369534 0.26794767
-0.0121110855 0.41332194 0.12660946 0.034443114 0.048125908 0.27110332 0.30178934 0.49973774
0.31818077 0.27121434 -0.0053650695 0.5653062 0.04694055 -0.05721976 0.45023337 0.13533166
0.03301758 0.4288145 0.09789306 0.2728669 0.28795606 -0.1712626 0.0787728 0.0858211
0.10440624 0.4663807 -0.15433618 0.09847443 0.08531498 0.038931217 0.32093823 0.26739922
-0.2716732 -0.39823353 -0.47967783 -0.35399848 -0.07740254 -0.21286026 -0.13003835 -0.4590805
-0.33459115 -0.3627746 0.11668311 -0.027908457 -0.055704035 -0.33738917 -0.11695939 -0.3200546
-0.4049178 -0.39557874 -0.013065554 -0.25811183 -0.13013662 -0.46117425 -0.34393772 -0.16951986
-0.3274266 -0.33946398 -0.44804648 -0.4753286 -0.12415137 -0.53422546 -0.30956396 -0.38307554
-0.1416376 -0.062273283 -0.30838907 -0.4033498 -0.54266804 -0.016150855 -0.14859787 -0.36636955
-0.3148177 -0.27195615 -0.10512374 -0.3665111 0.03872944 0.028216274 -0.50449795 -0.4443726
-0.13814636 -0.034069218 -0.28751168 -0.5341822 -0.30650052 -0.45441297 -0.23876989 0.16064014
-0.10952052 -0.38156545 -0.086758696 -0.04047435 -0.26358113 -0.26643708 -0.4422502 -0.5183801
-0.20346761 -0.07423353 -0.054389816 0.28641388 0.33496174 0.1886451 0.00156242 -0.33142978
-0.19524457 0.20489776 -0.19808075 -0.22756633 -0.15157847 0.22112678 0.2760229 0.100108325
-0.038688097 -0.33720407 -0.026135309 -0.36275423 0.31464222 0.09091307 -0.14808421 0.19968884
0.21047296 0.034918193 0.35943663 0.14414805 -0.34372646 0.13688137 0.046046052 -0.36768556
-0.030831402 0.40060243 0.25762945 0.18027572 0.13150816 -0.04539282 0.07146049 -0.20987861
-0.3689808 -0.22578648 -0.0092914 -0.56722826 -0.08239163 0.02256642 0.45127222 0.015627407
-0.24962218 0.30727452 0.047579743 -0.3075422 -0.27240932 -0.04016891 -0.20639569 0.24520615
0.27876094 0.35456818 0.0404227 0.1077862 -0.019102208 -0.05840811 -0.36259425 -0.3972121

gru.bias_hh_l0 f4 [192]
00000000: 9f39 563e abc2 6e3e 3602 f3bd f328 4f3e
00000010: bc17 703e fcb5 683e 56c5 c73d 3d73 2c3e
00000020: 6b23 0c3e c894 5ebd 79d6 76bd 1ace 3ebc
00000030: 6f31 6ebc 0083 c43e e026 903e eedd 42be
00000040: c90f a93d 5f24 2a3e 6cc3 643d 1eb7 023f
00000050: ea49 c33e 017e 143d b958 ac3e 14d8 263e
00000060: 0aaa d83e c995 033e 72e9 ed3e c549 593e
00000070: c3ea b63e 4f5b 0dbe 5df6 eb3d 66b4 8a3e
00000080: e830 2f3d aaec 013f f260 713d 7824 eb3d
00000090: 42fd 14be 39f4 1c3e 86a9 5e3e 039c a13e
000000a0: 464e b43e 55e1 883e 8d0f f2bb 71dd 243f
000000b0: 236d 263e 6012 183e 5723 a03e 1876 703c
000000c0: 4add cc3d 788e 0c3f d128 fcbd 86d1 ad3e
000000d0: e022 0b3e 624c 0bbe bd3d cf3d bedc 353e
000000e0: 4419 1a3e 63a5 023f 06ac 60bd cfc5 a43d
000000f0: f518 b83d 5fde 383e b6bf 8c3e b25d 2d3e
00000100: 7ada 92be 6470 d8be 5de2 16bf 2886 7ebe
00000110: 89ea f7bc 3327 34be 8c18 61be 965e adbe
00000120: 90ec 54be 1602 9cbe ca85 7b3c 3248 cebd
00000130: 11f2 bcbc f392 3fbe ad8d 91bd 32d4 dcbe
00000140: 2ee2 b7be 7814 adbe b71f 0e3e a673 5fbe
00000150: c0a4 0abd 4fb4 f8be f7e3 d4be 0f89 a9be
00000160: ce00 a3be d9f9 93be cb13 88be 1eeb afbe
00000170: 1fe3 82be 0f82 b6be ebc9 69be 6929 51be
00000180: 8c3e 82be e63c 20be 6a47 03bf b397 b9be
00000190: 5444 b0be c9e5 17be b955 03be 9d91 cfbe
000001a0: c5ea b2be fc9c acbe 64bf eebd 2c85 bcbe
000001b0: 6a0f 7c3c fb21 04be 856b 18bf 6b1c e0be
000001c0: 1cbb 6bbe f842 b03d 6961 8dbe 54ca 02bf
000001d0: 44de 99be 7206 d0be 5ea6 46be 75db 2c3e
000001e0: d219 32be 70bc e8be 940f aebd a7b6 3abe
000001f0: c011 43be 7f0b c0be 5b36 abbe ee18 afbe
00000200: 7eb5 a9be 2a41 dcbe 04ca 0ebe 4f3a e13e
00000210: b9b0 ea3e 69c5 933e 17e2 a03e 46a0 06bf
00000220: 6501 b1be 8454 a73d 25c1 94bc 2cc4 2bbe
00000230: b9e9 82be 54f2 c13e 5b6a a43e 091e 4cbe
00000240: c629 253e e5b1 67be 30ff 98be 1b1b 22bf
00000250: 9ecc ad3e 0050 9abe f2c2 8fbe e4aa 833e
00000260: 8b80 d93e 2158 493e 1449 e33e 2d14 b93e
00000270: d760 efbe 163e 853e 7490 9c3e 04f8 04bf
00000280: b0c9 573e af2b 403f c2fa 843e 76ed 1a3e
00000290: 16dc 0abe 9637 04bf b193 9f3e 03c7 01bf
000002a0: 36a7 b0be fbff dabe dd23 b1bc 2e21 3bbf
000002b0: 99ba a8be 22a0 a1be 899a ff3e 620b 6d3e
000002c0: 776f 6abe 2560 3d3f 67d6 20be a79a 18bf
000002d0: a84a 8cbe 550e a3be a5c5 bfbe 399f a83e
000002e0: ec58 a83e 597f 3a3f 19fa ca3d 71d7 c73e
000002f0: 5b9a bc3d be2a 5bbe 65ad c1be 548d b9be
0.20920418 0.23316447 -0.11865656 0.20230465 0.23446554 0.22725672 0.09754436 0.16840835
0.13685386 -0.054341108 -0.06026313 -0.011645818 -0.014538153 0.38381195 0.2815466 -0.19029972
0.08254964 0.16615437 0.05585043 0.51060665 0.3814233 0.03625298 0.3366144 0.16293365
0.4231723 0.12850107 0.46467167 0.21219547 0.35725984 -0.13804363 0.115215994 0.27090758
0.04277125 0.50751746 0.058930345 0.11481565 -0.14549735 0.15327539 0.21744356 0.3156434
0.35215968 0.26734415 -0.0073871077 0.6440039 0.1625257 0.1485076 0.31276962 0.014676593
0.10003145 0.5490489 -0.123124726 0.33948916 0.13587523 -0.13603356 0.101191975 0.17759988
0.150487 0.5103361 -0.054851554 0.080455415 0.08989135 0.18053578 0.27490014 0.16930273
-0.2868231 -0.42273247 -0.5893915 -0.24855864 -0.030263202 -0.17593078 -0.2198202 -0.33861226
-0.20793366 -0.3047034 0.015351722 -0.10072364 -0.023064645 -0.187084 -0.07107101 -0.43130642
-0.3591475 -0.3380468 0.13879286 -0.2182146 -0.033848524 -0.48575065 -0.41580173 -0.3311238
-0.3183655 -0.28901556 -0.265776 -0.34359068 -0.25563905 -0.35646102 -0.22830932 -0.20425953
-0.25438344 -0.15648231 -0.51280844 -0.3624855 -0.3442713 -0.1483375 -0.1282567 -0.40540782
-0.3494474 -0.3371352 -0.116575986 -0.36820352 0.015384534 -0.12903588 -0.5953906 -0.4377168
-0.23020595 0.08606523 -0.2761338 -0.5108998 -0.30052388 -0.40629917 -0.19399402 0.16880591
-0.17392662 -0.45456266 -0.08499065 -0.18233739 -0.1904974 -0.3750877 -0.33439907 -0.34198707
-0.3314628 -0.43018466 -0.1394425 0.43989798 0.45837954 0.2886155 0.31422493 -0.5258831
-0.34571376 0.08170417 -0.018158505 -0.16774052 -0.2556894 0.37880194 0.32112393 -0.19933333
0.16129217 -0.22626455 -0.29882193 -0.6332261 0.33945173 -0.3013916 -0.2807842 0.25716317
0.42480883 0.19662525 0.44391692 0.36148205 -0.4675357 0.2602393 0.3057896 -0.5194094
0.21073031 0.75066656 0.25972563 0.15129647 -0.13560519 -0.5164732 0.31167367 -0.5069429
-0.34502572 -0.42773423 -0.021623546 -0.73097503 -0.32954863 -0.31567484 0.49922588 0.23148873
-0.22894083 0.7397483 -0.15706788 -0.5961098 -0.27400708 -0.31846872 -0.37455478 0.32933977
0.32880342 0.7285057 0.099109836 0.39031556 0.092091285 -0.21403024 -0.37827602 -0.36240637

fc.weight f4 [3, 64]
00000000: 192f 94bd 558c 2dbf e9f1 0abf 8adb 62bd
00000010: 47a7 8cbd d6f2 543d a08c dabe 7cd8 1abe
00000020: 75b7 3abe b904 f43e 3d59 6fbc f214 223f
00000030: cfbe d8bd 027c 63bd a99e ba3e 0001 36bf
00000040: e457 1c3f efe7 e0be 5c09 f9be 3f6b cabe
00000050: 58a8 983e 7e0c 3ebf fe22 00bf 0359 033f
00000060: 4d1a 0a3f 2ef3 3b3f a6be a53e 392b fd3e
00000070: 8ab1 1bbe f6e4 473f c530 1a3f 7d87 a1be
00000080: dc55 0f3f 4716 bd3e 3cf9 043f 9071 033f
00000090: 6db2 043f e1a4 35bf 0758 153f bc7e dcbe
000000a0: 2281 b0be 1d9b e3be b076 9a3e 2159 a5be
000000b0: 6804 13bf 0607 223e 53c8 1d3e 1969 4f3f
000000c0: 1752 943e bc9b 2e3e e84a 08bf 06d1 7cbe
000000d0: 71ee c4be d63a 1cbf 21b3 18bf 3614 0e3f
000000e0: fe2e bc3e 9920 243f b5ce 9bbe 9fae 233f
000000f0: 3469 ee3e eadc 2fbf 2945 f3be 4769 d9be
00000100: 11f5 8abe b505 263f a4ca 943e 4eba cf3e
00000110: 0aa6 e13e 4591 8d3e 4d41 113f dd40 0bbe
00000120: 9c27 88be 78ec 37be c58d a8be 8d4e 28bf
00000130: 9c36 01bf 4e45 093f 1d5e 38bd 04e3 cd3e
00000140: e966 3ebe 2231 5ebb 6a81 c83e 0405 80be
00000150: 19b9 da3d b497 7b3e 4504 ab3d 2dd6 3bbe
00000160: d69a 33be bfc7 b8be 71dc 253d d87f c2be
00000170: b4fe 44be 3f3c b6be 2989 cfbe ffb6 00be
00000180: f4c4 14bf 63ae 183f 9d41 b7be 03a7 d2bd
00000190: c8f8 babe 6e4e 033f 6055 f1be 3465 f0bd
000001a0: 954f 4dbd e07f d8bd 6b6e e0be bcec dabe
000001b0: ee0d 313f 74df d2be 388f 893e d327 cdbe
000001c0: df68 ffbe c5b5 e93e 1d6c dc3e 7fe2 99bd
000001d0: b54d 283e fb42 5e3e 21b7 013f a754 d2be
000001e0: 112e 04be d42d 943e 547f d43e 68aa e2be
000001f0: 6234 eebe 417e 843e 3731 02be b6e6 1bbe
00000200: 5236 0d3f 8215 e3bd 481d f4bb 0d18 08bf
00000210: 9ff2 22bf 93fe bdbe 1c70 71be 816d ec3e
00000220: 536b ee3e cbae edbe 7bb4 1d3f e1c5 973e
00000230: 89d9 2d3f 2bc2 20bf ac18 f3be b4b7 023f
00000240: e736 a0be f19b e43e 5d92 93bd e18b 2c3f
00000250: d32d edbe b6b6 ed3e 8632 f63e a466 cdbe
00000260: 5972 a5be 3e4e a1be b596 05bf 57e9 8cbe
00000270: 0dd5 243f 6708 efbd a564 56be 450e 313f
00000280: bd5f 3b3e 346b 49bf 793c 7abe aae5 edbe
00000290: 15e7 d7be d6dd 953c 6ac6 d0bd c94e fa3e
000002a0: ee3e 1f3f cb38 103f 5b0c 803e 5bea 363f
000002b0: 6b0d 0ebf cd49 6c3e 2191 33bf b9c3 c9be
000002c0: 4c57 003f 9b00 40bf 81df 4c3e 1bf0 123f
000002d0: 05e8 f13e 324e c83e 5f94 babc 2097 33bd
000002e0: 9f9a 94be 0319 2ebf 9f72 96be c9c8 30be
000002f0: 6d88 37bc 75d3 4a3e dbbd c63e 8ad1 163f
-0.07235546 -0.67792255 -0.54275376 -0.05538515 -0.06867843 0.0519894 -0.42685413 -0.15121645
-0.18234046 0.47659853 -0.014608678 0.6331321 -0.10583269 -0.055538185 0.36449173 -0.71095276
0.6107161 -0.4392695 -0.48639953 -0.39534947 0.29815936 -0.7423781 -0.50053394 0.51307696
0.5394638 0.7341794 0.32372016 0.4944704 -0.15204445 0.7808374 0.60230666 -0.31548682
0.55990386 0.3693106 0.519428 0.5134516 0.51834756 -0.7095471 0.58337444 -0.4306544
-0.3447352 -0.4445428 0.30168676 -0.32294562 -0.574286 0.15822992 0.15408449 0.8101974
0.2896888 0.17051595 -0.532393 -0.24689111 -0.38463166 -0.61027277 -0.5964833 0.5549959
0.36754602 0.6411224 -0.30431142 0.63938326 0.4656464 -0.68696463 -0.47513703 -0.42463133
-0.27140096 0.6485246 0.29060853 0.40571827 0.4407199 0.27649894 0.56740266 -0.13598962
-0.2659272 -0.179613 -0.32920662 -0.6574486 -0.5047395 0.53621376 -0.04501163 0.40212262
-0.18593945 -0.0033903797 0.39161235 -0.25003827 0.10679836 0.24569589 0.08350424 -0.1834342
-0.17539534 -0.36089894 0.040493432 -0.37988162 -0.19237787 -0.3559284 -0.40534332 -0.12569807
-0.58113027 0.59641093 -0.35792246 -0.10285761 -0.3651793 0.5129155 -0.47135448 -0.11738053
-0.050124723 -0.10571265 -0.43834242 -0.4275874 0.6916188 -0.41186106 0.2686708 -0.40069446
-0.49884698 0.45646492 0.43051234 -0.07513904 0.16435893 0.21705239 0.5067006 -0.4108021
-0.12908198 0.28941214 0.41503394 -0.44270635 -0.4652434 0.25877574 -0.12714086 -0.15224728
0.5516101 -0.11088087 -0.0074497797 -0.531617 -0.6365146 -0.37108287 -0.23577923 0.46177295
0.46566257 -0.4642242 0.61603516 0.29643157 0.6791006 -0.62796277 -0.4747976 0.5106156
-0.31291887 0.44650224 -0.07205651 0.6740094 -0.46324024 0.4642846 0.4808542 -0.4011737
-0.32313803 -0.31505007 -0.52183086 -0.27521774 0.6438759 -0.116715245 -0.2093683 0.691624
0.1829824 -0.78679204 -0.24437131 -0.46464282 -0.4216849 0.018294256 -0.101940945 0.48888233
0.622054 0.5633666 0.25009426 0.7145135 -0.55489224 0.23075028 -0.70143324 -0.39407137
0.50133204 -0.75000924 0.20007135 0.5739762 0.4724733 0.39122158 -0.022775827 -0.043845296
-0.29024217 -0.68006915 -0.29384324 -0.17264093 -0.01120196 0.19807227 0.38816723 0.5891348

fc.bias f4 [3]
00000000: 5b83 413d aac0 2a3e 7db5 80be
0.04724441 0.16675058 -0.25138465
