Code-in-cloud/results/models/乳酸分类标签_forward_cnn-lstm.pth (torch, 145344 bytes, 8 tensors)

conv1d.weight f4 [64, 11, 3]
00000000: 6030 06bd bb9e 85be 6c0e a9bc db7d 383d
00000010: 93e7 c63d 0dd2 19be 6b3f d5bd 8864 1ebd
00000020: 262b f0bc 8f5b c73d 3589 2c3e 97bd 233e
00000030: 65e9 0f3d 2a29 5ebe 0e11 0cbe c4a3 7b3d
00000040: 78c2 383e c5db 0f3e b7b4 f33d dc58 f3bc
00000050: 8993 9e3c 5e7b 853d a618 aa3d f1cd ee3d
00000060: 2fb4 26be 3f54 1ebe 05ea ba3d 3438 f83d
00000070: fc25 a4be ca58 1abe e623 e93d 96bc 393d
00000080: c406 863d 0270 633c 9849 79be adfd 553d
00000090: d5b2 ee3d 6209 79bb a993 e43d 072b a6bd
000000a0: e342 d73d 08f0 8c3d fb61 1ebe c616 1e3e
000000b0: 5ab4 103c 833f 8fbc 59fe 87be 5149 afbd
000000c0: e389 983d 3775 413e bc0d a9bd 8265 c7bd
000000d0: fa35 45be 43e3 b5bd 0c25 a73c d528 9c3d
000000e0: 2cf7 1fbd 8fd9 033e b846 c8bd 6dda 15be
000000f0: 9906 67bd d3e1 ce3d 05cc e7bd 4e40 dfbd
00000100: 5a64 503e 5ef1 cbbb 13ea 27be 673e 61be
00000110: 09c8 14bd 385b fe3d edcd e53d 0783 c5bd
00000120: 8541 08be 54b5 fd3d bf2a 2a3e 9501 15be
00000130: ffba 79bc 9217 cc3c 54ff a73c 000f 513e
00000140: 7974 15be 6163 5a3d 30b0 f43d 6374 4e3d
00000150: e37c dfbd 3d0d 84bd 9a57 2cbd c0c5 01be
00000160: 4148 693e 9e92 e73d b465 10be 999f 553e
00000170: bfe7 dc3c 626f 033e 8242 7d3e c22a 2ebd
00000180: 9627 19be 69ec f3bd 48c7 be3d 24e0 f2bd
00000190: 843e 4dbd acc1 01bd 0789 d33d 880d acbc
000001a0: c273 6ebd da58 96bd fdab 3ebe e6a5 f1bd
000001b0: 025c 80bc d4e9 a0bb 9dd5 1e3e 278b e0bc
000001c0: 536f 313e c0f0 cebd 56ce 2bbe 851b 343b
000001d0: d781 0d3e 5c70 de3c 8e8f 883c aa2d 0c3e
000001e0: 8111 1dbd 7ba9 35be 02d3 95bc ff14 1ebe
000001f0: 14a8 e2bd d3dc 4c3d 20b9 903b 4af0 893e
00000200: 9cd8 523d 31c6 0dbe a9c0 00be c76a 15be
00000210: d4b9 c03d 91b3 6e3e f6cd c33d 8f7f 0b3d
00000220: 0b2d babd 8a50 50bd dcf7 1f3e 119d 283c
00000230: 3fb6 12bc 4714 53bb e0ed 803e 418f 07be
00000240: 09c0 56bd 95f5 6c3d 49e6 193e a387 b43d
00000250: 145a bcbe e9bb 0cbe 5f49 93bd e863 903d
00000260: d05d ebbd 4f36 19bc f854 3ebe eb25 15bd
00000270: c67f 82bc 202b 8e3d 4651 ee3d 7568 8cbd
00000280: ec39 b93a 0064 98bd e641 94bd cf76 83bd
00000290: 12e5 d7bd 9d5c ea3d 600f ddbb 2bdc 15be
000002a0: 14e4 b03d c14e b13d ac70 41bd 029a d43c
000002b0: 91f2 d2bd 3089 45bd 167a 28be d545 5bbd
000002c0: 78a4 053d 825c 1f3e 8690 c43e 5e64 a5bd
000002d0: 1b7d b5bd 3962 03be 47e5 bcbd 93e6 ee3d
000002e0: 9516 2b3e 9faf 3ebd fddd 413d e267 3c3e
000002f0: d576 dbbd 2653 e03d cf68 adbe cd70 19be
00000300: 6855 833d 3116 8f3e 6a8b a7bd 0bfd 21be
00000310: 6794 56bd c4dc 71bd c248 16be b068 3f3e
00000320: 0d44 0abd ea78 24be 5d40 3fbd 65c4 66bd
00000330: 429e 153e dacc 1d3d 16c9 17be 144a e53d
00000340: eaf5 a63d 1040 94bd adf3 1bbe 7ab0 a8bd
00000350: 101e 01be efb4 acbd ee53 13bf d1e3 44bd
00000360: 4669 723d f3ce 513e 5eb0 b4bd be75 1ebe
00000370: b20d a6bc b06b f4bb c451 1bbd b069 39bc
00000380: b9d2 41bd 2ded b63c 0be1 e9be d09b 253e
00000390: 9387 093e c5b4 7f3e 18f5 05be 92bf 2c3e
000003a0: 45e7 2ebd e1e3 1fbe eeb1 123e 2718 21bd
000003b0: 13e3 88bb 3fe0 953d 9e9a 2c3e 0a0f 243d
000003c0: 35d9 c73b 7e10 f33d badf 3ebd af77 e33d
000003d0: 391d b139 1c9a 0dbe 9bcb 3fbd 8788 0cbe
000003e0: 8346 0fbe bd73 ddbd f736 283e fca3 c93d
000003f0: cc2b d4bb f1a3 303e 05f2 0f3e b500 0abe
-0.032760978 -0.26097664 -0.02063676 0.0450419 0.09712138 -0.15021534 -0.10412487 -0.038670093
-0.02931745 0.0973426 0.16849215 0.15990292 0.03513469 -0.2169539 -0.13678381 0.061435476
0.18042934 0.14048679 0.11899703 -0.029705457 0.01935746 0.06517671 0.083054826 0.11660374
-0.16279672 -0.15461825 0.09126667 0.12120095 -0.3206023 -0.15072933 0.113838 0.045345865
0.06544259 0.013881685 -0.2434448 0.052243877 0.11655203 -0.0037999977 0.111609764 -0.081136756
0.105108045 0.0688172 -0.15467064 0.15438375 0.008832062 -0.01748634 -0.2656124 -0.08558906
0.07448175 0.1889237 -0.08254573 -0.09736158 -0.19258872 -0.08881237 0.020403408 0.076249756
-0.03905408 0.12875961 -0.097791135 -0.14634104 -0.056402776 0.10101666 -0.113182105 -0.10900937
0.20350781 -0.0062238416 -0.16397886 -0.21996461 -0.03632358 0.12419742 0.11220918 -0.09644132
-0.13306244 0.12388101 0.16617869 -0.14551385 -0.015242337 0.024913583 0.020507492 0.20415878
-0.14595212 0.05331743 0.119476676 0.050403964 -0.10912492 -0.064478375 -0.04207573 -0.12673092
0.22781469 0.11307262 -0.14101297 0.20861663 0.026965974 0.12835458 0.24732402 -0.042521246
-0.14956507 -0.11910326 0.09315354 -0.11859158 -0.050108448 -0.03167884 0.1032887 -0.021002546
-0.058215864 -0.07341166 -0.18620296 -0.11799221 -0.015668873 -0.004910687 0.15511174 -0.027410103
0.17327623 -0.10104513 -0.1677793 0.0027482223 0.13819061 0.027153187 0.016670015 0.13689294
-0.03834677 -0.17740433 -0.018289093 -0.15437697 -0.110672146 0.050015282 0.0044166 0.26941139
0.051476106 -0.13845135 -0.12573494 -0.14591514 0.09410444 0.23310687 0.09560768 0.034057196
-0.090906225 -0.050858058 0.15621895 0.010291354 -0.008954584 -0.003220813 0.25181484 -0.13238241
-0.052429233 0.057851393 0.15029253 0.08814933 -0.36787474 -0.13743557 -0.07191729 0.070503056
-0.11492503 -0.009351327 -0.185871 -0.036413115 -0.015930068 0.06941819 0.116365954 -0.06855861
0.0014131642 -0.074409485 -0.07239132 -0.06419145 -0.105417386 0.11443446 -0.0067462176 -0.14634769
0.086372524 0.08657599 -0.047226593 0.025952343 -0.10300172 -0.048226535 -0.16452822 -0.053533394
0.032627553 0.15562633 0.38391513 -0.08075784 -0.088617526 -0.12830438 -0.09223419 0.11665072
0.16707833 -0.046554204 0.047330845 0.18399003 -0.10716025 0.10953359 -0.33869025 -0.14984436
0.06412774 0.27946618 -0.08180888 -0.15819184 -0.05238762 -0.05904843 -0.14676192 0.18692279
-0.033756305 -0.1606175 -0.04669224 -0.05633964 0.14611152 0.03852544 -0.14822802 0.1119577
0.08152373 -0.072387815 -0.15229674 -0.08236785 -0.12609124 -0.08432948 -0.5754994 -0.048068825
0.059182428 0.20489101 -0.08822702 -0.15474603 -0.020270202 -0.0074591264 -0.037919775 -0.011316702
-0.0473201 0.022329891 -0.45679507 0.16172719 0.13430624 0.24971302 -0.13081777 0.16869953
-0.042701025 -0.15614273 0.14325687 -0.039329674 -0.00417746 0.07318162 0.16855857 0.040053405
0.006098891 0.1186838 -0.04660008 0.11106812 0.00033781843 -0.1382832 -0.046825033 -0.13723956
-0.13991742 -0.10813091 0.16427217 0.09845731 -0.0064749476 0.17250039 0.14057167 -0.13476832

conv1d.bias f4 [64]
00000000: 8ef0 f03d 933f 353c 5486 55bd 1c2c 293e
00000010: 9a27 1e3e e002 fdbd 5757 cc3d 8361 febd
00000020: d849 2d3c dac9 e9bb 0f89 963d 1d8a 613b
00000030: 62bd 603e add0 6fbd 8e6c 893e c83e 0b3d
00000040: a151 37bc 1b83 7a3e 5ecb 2a3d d06d 093e
00000050: 0634 903e f784 823b 9ceb 013e a557 0a3e
00000060: aa27 ab3d 7abb 0b3e 6318 b13d 4dbe 813e
00000070: 8b37 823e 22ce b53d e8e5 a93d b305 ba3e
00000080: f8d8 8f3d 6ae2 ec3b 8503 833e 042f 103e
00000090: 8e54 503c 024e e43d 874c 073e c5bb 493c
000000a0: e017 483d fbdc 9e3d 3b9b 963e 491c f33d
000000b0: dc11 193e 2f93 af3d e9b6 a53d 47c6 2f3e
000000c0: 2888 2b3e 43e6 6b3e 81d3 eb3d 78f6 803e
000000d0: 71b5 8bbc f569 663e f923 843e d372 053e
000000e0: 95bf 983e 15a6 943e 9de8 1cbc 4e52 6f3d
000000f0: 971e 84bd a560 f73d b2d3 c23d 48c9 d33d
0.11764632 0.011062521 -0.05213006 0.16520733 0.15444794 -0.12354064 0.09977596 -0.12420943
0.010576688 -0.0071346583 0.073503606 0.0034414597 0.21947244 -0.058548618 0.26840633 0.03399542
-0.011188895 0.24464075 0.041697852 0.13420796 0.2816469 0.003983136 0.12687534 0.13509996
0.08357175 0.13645735 0.086472295 0.253405 0.25433 0.08877207 0.08295804 0.36332473
0.070238054 0.007229139 0.25588623 0.14080435 0.012715472 0.11147691 0.13212787 0.012312834
0.048850894 0.077569924 0.29415306 0.11870629 0.14948219 0.08572995 0.08091528 0.1716548
0.16751158 0.23037057 0.115149505 0.2518804 -0.017054291 0.22501357 0.25808695 0.13032083
0.29833665 0.2903296 -0.009576944 0.0584281 -0.06451147 0.1207898 0.09513034 0.10341126

lstm.weight_ih_l0 f4 [256, 64]
00000000: 0e6b 2c3e f1cf 513e d21b 8c3e 9dfa b03d
00000010: e033 803e 87f0 a83d 52c2 a83e 2e7d 623e
00000020: 620b 7b3e 891b 1d3e a9a7 a93e 790e 153e
00000030: 7caf 313e 5b44 933e ccd8 973e fa7c ad3e
00000040: 508c d9bb d676 973d dc96 b03e 71ca e23d
00000050: ed2e aa3e 71c2 613d 621f 5d3d a6ef a33d
00000060: b694 84bc b769 f43d 7d05 163e d6d8 2c3e
00000070: 2362 a23d 828e 163e 65d3 a53c 6c26 783e
00000080: 6e88 0b3e 8f25 803e be58 7a3e fcd9 ee3d
00000090: 1eda 2f3e aef0 853e 0d3d 533e 8abe efbd
000000a0: c29b 5b3e 68d6 803e c886 973e 7ce4 9a3d
000000b0: d7e0 ff3d 9d89 563e 3ee1 393e d768 483e
000000c0: f549 3a3e 4200 283e c1d5 463e 4890 7d3e
000000d0: 302c f8bc 301f 8d3d f403 733e 7ece cd3c
000000e0: eb4e 023d 9933 683e b318 cf3d 3fe5 333e
000000f0: 7342 d7bd aaed dc3d fd48 f73d 05dc 0f3e
00000100: 44bb 0c3e 1714 51be 45e0 e9bd eb0a a53d
00000110: 2713 493c 9d5b 64bd c917 2f3e 87f4 4e3e
00000120: 1151 623e e9e3 1dbe b35c bf3e 1e49 963e
00000130: 63ff 83bc ad68 d43d 9cda e23c 32ba cf3d
00000140: 6087 12bc b79a 9fbd 28a1 79bd 2a7e 723d
00000150: 8f5c a53e 9614 d93b 22d2 e2bd 55e0 c13d
00000160: 5855 4dbc ddaa 943c 9cf0 393e 70cc a5bd
00000170: ead1 3ebd eef8 953e 01e3 213e c2f1 cf3c
00000180: 05b7 b43e 0853 e33d 159e 6f3e 7b90 f93d
00000190: caaa be3d 5009 1c3e 418e 073e 4742 7bbe
000001a0: 04db d73d da18 193f e796 1a3e 83fe 67bd
000001b0: d419 d9bd 5a74 a7bc ff25 8e3c e156 68bd
000001c0: 52eb 10bd b8e4 3c3e 0e64 ff3d 319b 593e
000001d0: 27f0 c0bc 8e7b 863e fdef aa3d 0bf5 7b3e
000001e0: e031 ea3d 92f2 c93d 9708 673e c995 c2bd
000001f0: 786e cc3d 6d08 e3bd ae31 b9bd 5664 21be
00000200: 04bc 7a3d ec4d b43d 7582 f83d 303e 913e
00000210: 0a4a d03d 5e2a 523e ecf9 193d 718c 9b3e
00000220: c684 a03e 704c 193e 3f41 a13e ff8c 9d3e
00000230: 5d46 4e3e 3699 0e3e fe67 843d ca22 8f3e
00000240: f3a7 533e 3292 edbb f570 8d3e a809 043e
00000250: 62e5 883e 93ab 023e fc84 6f3d 1179 ea3c
00000260: 8d78 c63d 52f6 4c3e cb2b 5c3e 7016 ed3d
00000270: 6ba5 f23d 6966 7c3b d540 043e 64b0 58bb
00000280: d1b6 233e e18d 663e 5a5c 3b3e b0cf 093e
00000290: 5e33 ac3d 60f3 cb3d e7ed 283e 966a d13d
000002a0: 2fd1 803e fa45 153e 2ff7 963e 3264 7e3d
000002b0: 094f 173e 8d47 f83d 9326 923d 43e5 6f3e
000002c0: 7679 163e c381 253e 005b 883e a8a3 423e
000002d0: de99 1e3e c52c 803e a234 443e f6d5 a63e
000002e0: 1006 6e3e b5cb 0a3d 7907 153e 6a53 833e
000002f0: 95aa 153e c60b fe3d fda3 583e 1600 253e
00000300: f077 2c3e d5fd c43d 5f34 713e 8517 98bd
00000310: d7a4 5d3d 6b04 03be b628 7d3e 9225 393e
00000320: 1876 123e 3448 0d3e e857 153e 6cfd c93e
00000330: 9dc2 dfbd ae1c 663e 5b3c 3b3e b0d6 43bb
00000340: 9822 873e 85a8 7cbe 3a2a 1abe a6a0 cd3d
00000350: 1a61 473e 802d 883e 198e 873e 6712 d43d
00000360: a049 a13e 2701 c53e 1e90 9e3e 290b 7a3e
00000370: 179b 033f 38d1 973e a2ad fd3d 592d 793e
00000380: cc87 1b3e 7ce4 f63d e199 913e ed78 a33e
00000390: 70d4 b83e 5c80 4c3e 2780 803e b86b 883e
000003a0: d886 533e 7720 e03d bc8a 023f d84b d3bd
000003b0: b450 943c 40c7 4e3e 8145 2a3e b5a8 40be
000003c0: 9af1 393e 7461 223e 393b 8e3d 3323 cc3d
000003d0: 8ba5 9d3d e5a8 513e 8088 3e3e 2cd4 d33e
000003e0: 7c32 043e a1ea 7bbd eda9 973e 726f 2a3e
000003f0: 3f57 0b3e 6595 bbbd 0201 933e 3085 cdbd
0.16837713 0.2048948 0.27364975 0.08641551 0.25039577 0.08249002 0.32960755 0.22118065
0.24516061 0.15342535 0.33135727 0.14556302 0.17352098 0.2876309 0.2965759 0.33884412
-0.006639041 0.07395713 0.34490097 0.11073769 0.33238927 0.055117074 0.053985007 0.08004694
-0.016184192 0.11934226 0.14650531 0.16879591 0.07928874 0.147028 0.020242402 0.24233407
0.13626263 0.25028655 0.24447915 0.11662671 0.17173049 0.26160187 0.20628758 -0.11706264
0.21446136 0.2516358 0.29595017 0.07563111 0.12494057 0.20950933 0.1815233 0.19571243
0.18192275 0.16406348 0.19417478 0.2476207 -0.030294508 0.06890714 0.23731977 0.025122877
0.031813543 0.22675933 0.10112133 0.17567919 -0.10510721 0.10787518 0.12074468 0.14048775
0.13743311 -0.2041782 -0.11419729 0.08058723 0.012272633 -0.05575143 0.17098917 0.20210467
0.22101237 -0.15418972 0.3737541 0.2935266 -0.016112989 0.10371528 0.027692132 0.10142936
-0.008943409 -0.077931814 -0.060944706 0.05920235 0.3229718 0.0066247685 -0.11075236 0.09466616
-0.012532555 0.01814788 0.18158191 -0.08095634 -0.04658691 0.2929148 0.15809251 0.025383834
0.35295883 0.11099821 0.23400147 0.121857606 0.09309919 0.15237927 0.1323786 -0.24537002
0.10539821 0.59803545 0.15096627 -0.056639206 -0.106006294 -0.020441223 0.017352102 -0.05672348
-0.03538067 0.18446624 0.12470256 0.21250607 -0.023552014 0.2626614 0.083465554 0.24605195
0.11435294 0.0986072 0.2256187 -0.095012255 0.09982008 -0.110855915 -0.09042679 -0.15760931
0.061214462 0.08803925 0.12134258 0.28367758 0.10170372 0.20523974 0.03759186 0.30380586
0.31351298 0.14970565 0.3149509 0.30771634 0.20144029 0.13925633 0.064651474 0.2795623
0.20669536 -0.007250094 0.27625242 0.12894309 0.26737505 0.12760763 0.058476433 0.028622182
0.09690962 0.20015839 0.2150108 0.11576545 0.11847957 0.003851319 0.12915356 -0.0033064121
0.15987708 0.2251506 0.18296948 0.13458133 0.08408235 0.099585295 0.16497003 0.10225408
0.25159594 0.14577475 0.2948546 0.062107272 0.14776243 0.12123022 0.07136264 0.234273
0.14694771 0.16162781 0.26631927 0.19007742 0.15488383 0.25034156 0.19160703 0.32585114
0.232445 0.033885676 0.14553632 0.25649577 0.14615853 0.12404589 0.21156307 0.16113314
0.16842628 0.09618727 0.23555134 -0.07426361 0.05411228 -0.12794654 0.24722561 0.18080738
0.14302862 0.13797075 0.14584315 0.39451158 -0.109257914 0.22471878 0.18284743 -0.0029882602
0.2639358 -0.2467366 -0.1505517 0.10040407 0.19470635 0.26597214 0.264756 0.103550725
0.31501484 0.38477442 0.30969328 0.2441832 0.51408523 0.2965181 0.123866335 0.24333705
0.15188521 0.12055299 0.28437713 0.31928197 0.36099577 0.1997084 0.25097772 0.26644683
0.20656908 0.10943692 0.5099294 -0.103172004 0.018104888 0.20193195 0.16628076 -0.18814357
0.1815857 0.15857488 0.069448896 0.09967651 0.076975904 0.20474584 0.18606758 0.41372812
0.12909883 -0.061503056 0.2962183 0.16644076 0.136075 -0.09159354 0.28711706 -0.10035169

lstm.weight_hh_l0 f4 [256, 64]
00000000: da08 413d fb4a f23d 9b00 7a3d 9074 b1bd
00000010: cb60 653d bb34 e43d 9e41 edbd 6e24 52bd
00000020: 749f 0f3d e087 f33d 8b2b f0bc fb80 523c
00000030: 9f69 b3bd bde6 013d 2f3e 823d 9698 ec3c
00000040: 3f88 08bd c71a 023d 3879 e0bd 81e3 cebd
00000050: 5348 8c3c 2898 c5bd b9a0 f83d 067e 95bd
00000060: f46c 45bd f061 373d 63b3 98bd a22b 92bc
00000070: 3a7c 57bd c757 1e3d 5244 e8bd 152e 85bb
00000080: a59d ddbd b021 20bc 24f2 603d 6984 2e3d
00000090: d94a 943d bf5e e13d 93f4 1ebd dda8 cabd
000000a0: f84f be3d a99e 9a3d 8fe0 613d b8b5 26bd
000000b0: 02ce 03bb 5c13 babd 211c e4bd 7189 993d
000000c0: 478c d43c f8ca 27bd d2d4 c03d 78a5 263d
000000d0: 4caa 9c3d 00e2 69bc d710 443d 87fd e6bc
000000e0: 18cd 40bd 4f34 37bd 5a3a c9bd 18fb b5bd
000000f0: d343 a639 e0a3 b53d 320a 81bd 5e37 1cbd
00000100: 774e 903c 77ec d1bd 8200 313d f15f 97bc
00000110: 33ba b839 052e 85bd 6b5c b1bd bf4b c73d
00000120: 7968 88bd dd63 383d 0dc5 bc3d f19c d33c
00000130: 201f 36bd e145 df3d 6837 c43d 5c87 37bd
00000140: 0bbc 0d3d 151d 14bc e049 8ebd a206 f73d
00000150: 835b 6ebc 9068 d9bd 483f ab3d 574e de3a
00000160: 3da9 693d f25f 253d a53e a5bd ba23 e7bd
00000170: 6f47 bd3d 50ab 83bd a236 7abd 1347 bbbd
00000180: 64cd 053c f5ae 683d 6a2f ccbb e119 643d
00000190: a947 923d f413 ea3d 317c b1bd 71aa 223d
000001a0: 6e29 963d c67a 6b3a 4672 683c 097f 373d
000001b0: 483e c5bd 2a23 c7bd 61bd ddbd a33d d7bd
000001c0: 9415 883d 9749 89bd 9662 90bd df43 99bd
000001d0: 29b1 99bd da5d ee3d d161 ddbc b337 e1bd
000001e0: f7f5 15bd a074 b13d f90e 82bd dc66 f4bd
000001f0: 0a7e a03d 4ec2 b5bd c314 a4bd 231c 5e3d
00000200: 3fe1 613d bc10 3c3d 03fd 8fbc caca df3d
00000210: 716b 193d d6a6 6e3d dd2f 843d 224d 32bd
00000220: f68f eebd 87c0 b63d 2011 aebd 9c79 973d
00000230: d611 23bd 067e e73c 6b2c 17bd 06b9 db3d
00000240: 5ed3 fa3d 05f7 92bd c7a3 8b3b 002d 5dbd
00000250: 4b6d 82bd 309e c73d ae03 6dbd 4f48 25bd
00000260: 4887 da3c 7a33 813d d159 723d 9457 b93d
00000270: dfc7 cc3b 17d4 1ebd 8e30 5c3b ba7d e8bd
00000280: 5ee0 dcbd 7ce7 92bd 81d5 dfbd 5a5e 64bc
00000290: 0dc0 77bd 7b45 593d 9844 ad3d 4016 53bb
000002a0: 2882 963d ecba 64bd 92ac d8bc 59df 3a3d
000002b0: 575c cb3d 785d b23d 7425 d8bc ba47 ab3d
000002c0: 9b37 853d 4193 633d f664 abbc 66cd 833b
000002d0: 3479 5cbd 2713 2abd 8ad8 a6bd c777 32bd
000002e0: ef48 d3bd 33f7 683d 14a4 913d bb0e 6d3c
000002f0: f605 babd 70ce 36bd 9268 cb3d 5fa8 e53c
00000300: 0921 33bd 3c97 fc3c e594 d3bd e6f9 c7bd
00000310: e1f9 4a3d bdde 1abd 784f e2bd 67a1 973d
00000320: 3922 313d a104 e13d df86 4e3d 356f 57bd
00000330: 8e52 d0bd 2874 2a3d 5f77 bf3d e69e 4d3d
00000340: 8438 1d3c 41e0 383c 1583 40bc 6dce 3e3d
00000350: 82ef 923d ed37 bd3d b195 253d 557a cc3d
00000360: 9186 c93d e3ea 183d a610 bebc acde 29bd
00000370: 0b1a 993d da05 8d3d 0723 783d 95cd fb3c
00000380: 5edf 903d 7169 6ebd 9811 833d 0c57 a03c
00000390: 5beb d23b fcf3 c23d c00c 253d f859 edba
000003a0: e32d dfbd 17d1 f0bd 7dcf 1dbd c417 ac3d
000003b0: e99b dfbd ad53 953d 23f9 96bd 7cf4 7abd
000003c0: 69c6 933d 0b7d 28bd 077b c93d 5f01 df3d
000003d0: 492e 753d 2f07 84bc 7b99 13bc 3db7 ce3d
000003e0: f768 5e3d 7e0d 42bd 1acd e8bd 428f dfbc
000003f0: af1d e9bd 07f2 9ebb 81bd d53c 0117 88bc
0.047127582 0.11830708 0.061035734 -0.08664811 0.056000512 0.1114287 -0.11584781 -0.051304273
0.035064176 0.118911505 -0.029317638 0.012848134 -0.0876038 0.03171419 0.06359517 0.028881352
-0.03333306 0.031763818 -0.10960621 -0.10101987 0.01712433 -0.09648162 0.121400304 -0.07299428
-0.04819961 0.044771135 -0.0745609 -0.017843071 -0.052608706 0.03865793 -0.11341156 -0.0040643313
-0.10821084 -0.009773657 0.054918423 0.042606745 0.072408386 0.110043995 -0.038807463 -0.09895489
0.092925966 0.07549793 0.055145796 -0.040700644 -0.0020111804 -0.09085724 -0.11138178 0.07496918
0.025945796 -0.04096505 0.09415592 0.040685147 0.07649669 -0.014275074 0.047867622 -0.028197063
-0.047070593 -0.04472762 -0.09825583 -0.08885783 0.0003171252 0.08869147 -0.06300773 -0.03813874
0.01761554 -0.1025018 0.043213375 -0.018478366 0.00035233944 -0.06502918 -0.086602055 0.09731244
-0.066605516 0.045017112 0.09217272 0.025831671 -0.044463277 0.10902 0.095808804 -0.044806823
0.03460316 -0.009040137 -0.06947684 0.12061812 -0.014548185 -0.10615647 0.08361679 0.0016960603
0.057046164 0.040374704 -0.08068589 -0.11286111 0.092421405 -0.0642916 -0.06108726 -0.09144416
0.008166645 0.056807477 -0.006231238 0.055688743 0.07142574 0.11429587 -0.08666266 0.039713327
0.07332121 0.0008982833 0.014187401 0.044798885 -0.0963102 -0.09723504 -0.10827137 -0.10509803
0.06644741 -0.06703489 -0.07050054 -0.074836485 -0.07504494 0.116389945 -0.027024182 -0.10996952
-0.036611523 0.086648226 -0.06350512 -0.11933681 0.0783654 -0.08874951 -0.080117725 0.054226052
0.055146452 0.045914397 -0.0175767 0.10927351 0.03745598 0.058264576 0.06454442 -0.04353059
-0.11648552 0.089234404 -0.0849936 0.07396242 -0.03981193 0.028258335 -0.036907595 0.1072865
0.12247346 -0.071760215 0.004261467 -0.053997993 -0.06368502 0.09746969 -0.057864837 -0.040352162
0.026675835 0.063086465 0.059167687 0.09049907 0.0062494124 -0.038776483 0.0033598277 -0.113521054
-0.10784982 -0.071730584 -0.109293945 -0.013938511 -0.06048589 0.053044777 0.08460349 -0.0032209307
0.07349044 -0.055842325 -0.026449475 0.045623157 0.09929722 0.08709234 -0.026385047 0.0836329
0.065047465 0.055560354 -0.020922165 0.004022288 -0.053826526 -0.04152217 -0.0814677 -0.04357126
-0.10316645 0.056876373 0.071113735 0.014468844 -0.09083168 -0.044630468 0.099320546 0.028034387
-0.043732677 0.030833833 -0.10331134 -0.09764461 0.04955471 -0.037810076 -0.11050314 0.07403832
0.043245528 0.10987211 0.05042159 -0.05259629 -0.10171996 0.04161468 0.0934894 0.050200365
0.009595994 0.011283935 -0.011750002 0.04658358 0.07174589 0.092391826 0.04042596 0.099842705
0.0984012 0.03733338 -0.023201298 -0.041472122 0.074756704 0.06885882 0.06058028 0.030737678
0.07073854 -0.058206026 0.0639984 0.019572757 0.006436748 0.095191926 0.040295362 -0.0018108478
-0.10897424 -0.11758631 -0.038527954 0.084029704 -0.109184094 0.072913505 -0.07371738 -0.061268315
0.07215578 -0.041134875 0.09837919 0.108889334 0.059858594 -0.016116707 -0.009008761 0.10093544
0.05429932 -0.04737615 -0.11367245 -0.02728999 -0.11382615 -0.0048506293 0.026091339 -0.016612532

lstm.bias_ih_l0 f4 [256]
00000000: f753 523e 39c7 103e e18c 143e 8656 cc3d
00000010: c8ec af3d ab6e 3c3e c866 283e f410 013d
00000020: a782 433e 698b 253e 2c26 5d3e c2be 983d
00000030: c957 5e3e 934f 193e c3f3 683e 0032 823e
00000040: 6e40 bf3c 2aba 8a3e beb2 ff3d 2b72 983e
00000050: 3387 843e 280a cc3d 7d10 493e 25bb 833e
00000060: 1a50 a53e 742b 9d3e 2ed5 dd3d 76b9 883e
00000070: 9b07 773d 9bbd 8d3e bd71 853e 2af6 883e
00000080: 319f 923e 92ab 953e e54e 393d f0ef 443e
00000090: 1451 833e 1736 5a3e e9bc 7c3e e26c 133e
000000a0: 8562 763e 76a9 8f3e 1ce8 823d 5481 413e
000000b0: 1f21 183e d51a a03e 4b9a 983e 2b8f 543e
000000c0: eea7 133e 8ca2 583e c6ec 733e 7e66 203e
000000d0: e8d7 b93e 506f 803e 231a 623e 883c e33c
000000e0: 031d 7e3e 64b6 eb3d 262c cc3d 7e11 543e
000000f0: b3c1 5a3e 020e 393e 1209 523e b02a 873e
00000100: ca10 69bd bf51 bdbd 609a d93d a118 bf3a
00000110: 18dd a63d dab7 e2bd 08bd 283d 054f 563d
00000120: 4ec3 debd 5f03 9e3d b408 f43d 9bb6 2cbc
00000130: 5180 1a3d f1ac 8fbd 4172 69bd 6536 803d
00000140: e121 9f3d ab27 b3bd 1634 d1bd 5b9d 003c
00000150: 0411 dc3d fcf8 ee3d 3c85 6fbb 5982 65bd
00000160: 49c9 eabd cc84 ad3d 127d 9b3d 619c 92bc
00000170: a412 34bd 40b3 983c 67cc 8e3d 282a 4c3b
00000180: d9b3 eebd 943c 0c3d df61 6abd ee79 7d3d
00000190: 6aa2 babd 841b 4cbd 4471 63bd 6f41 c9bd
000001a0: 4ca7 573d 4e6f b53c 9103 7abc 8bec 0ebd
000001b0: d187 783d 53de bf3c fb96 563d 60c0 d1bd
000001c0: a4a4 8dbc 7625 a7bd a780 dbbd bd1a e43c
000001d0: 92b0 4c3d 043e 45bc 7c35 183d 7a39 e9bd
000001e0: 024d dd3d ba7b c1bd 6eae 813d a032 15ba
000001f0: 3da4 8e3d f8ad 67bd 36e2 f8bd 8b62 f43d
00000200: fe1e d43b cecb 90bd e0f5 d2bd 94ed 04be
00000210: 64ee 403e ed24 e83d 912a 173e ef0d ad3d
00000220: e5c5 1abe 566d 483d e856 cc3c 4580 eebd
00000230: 5c89 bb3c 9a16 1c3c 6b2c 0cbb 26fb 8f3c
00000240: 5127 c43d 10ca e73d 80c0 e8bd 116f 09be
00000250: 08b8 bcbd b810 a138 e6d0 a93d 8af9 443b
00000260: 4616 04be 88a1 bd3d 8a39 24bc 3f00 813d
00000270: a7f8 8f3d 0aa5 b53c 8842 11be a885 75bd
00000280: 8d5d 62bb cb6b 7b3d 00fb c43d 2d09 6e3b
00000290: 1eb6 8a3b 607e e3bc be10 43be 3d74 dc3d
000002a0: e05e ba3d ec15 f23c db56 93bd 1b29 c03d
000002b0: d10c fabd eee5 97bb c804 9b3d 3baa 35be
000002c0: 8246 573c 4914 f5bc cb58 963d e044 0cbd
000002d0: fe1b 693d aab3 2abe 0e64 f7bd 8746 66bd
000002e0: fa4d 12be 4b9a f1bd 8a7a 50bd a978 ccbc
000002f0: e143 81bd 4a43 a93c 0cd6 ce3d b1ef cf3d
00000300: 5386 203e 8265 45bc b48f 903e 13c8 983e
00000310: 99f2 0e3e 3e5a 613e f755 503e ecf0 4f3e
00000320: 2cd9 b33d b784 2d3e c3a5 2e3e 9a14 0a3e
00000330: 3fd9 aa3e b19a 653e 2019 4c3e ec13 073e
00000340: 9730 d73d 00de 8f3e ed3a 493e 9f4f 1b3e
00000350: d192 573e d6c0 243e 2d3b 903e 1a06 c03e
00000360: e18e bd3e 5bf8 913e b946 573e 0253 0f3e
00000370: 78f5 053e 8320 5b3e 89a5 853e aa66 993e
00000380: 0182 8a3e 0b4a 8d3e e424 af3d 795c c83e
00000390: ff81 663e a97c 0f3e 29ff 4c3e ae24 663e
000003a0: 9e41 c73d 8290 413e e5be 033e 416c 8a3e
000003b0: e628 6f3e edd8 7a3e 4764 9b3e 014b d03e
000003c0: 06a3 563e 9f9e 633e 401f 523e ea5c 6d3e
000003d0: 568e 9e3e 20f1 5b3e 954d 0b3e c0b4 853e
000003e0: 369b 8b3e 3e03 903e aabf 433e 38aa d63d
000003f0: cfe4 013e 6159 2a3e deb0 813e 5343 4f3e
0.20539843 0.14138497 0.14506866 0.099774405 0.08590084 0.18401591 0.16445458 0.03151031
0.19092809 0.16166462 0.21596593 0.07458259 0.21713175 0.14971761 0.22749238 0.25428772
0.023346152 0.27095157 0.12485264 0.29774603 0.258844 0.09962875 0.19635196 0.25728717
0.32287675 0.30697215 0.108316764 0.26703995 0.060309988 0.2768372 0.26063338 0.26750308
0.28637078 0.2923246 0.045241255 0.19232154 0.25647795 0.21309696 0.24681439 0.14397004
0.2406102 0.28058976 0.063919276 0.18896991 0.14856385 0.3127047 0.29805216 0.20757739
0.14419529 0.21155757 0.2382079 0.15664098 0.36297536 0.25084925 0.22080283 0.027738824
0.24815755 0.115093976 0.09969358 0.20709798 0.21362953 0.1807175 0.20511273 0.26399755
-0.056900777 -0.092441075 0.10625148 0.0014579484 0.08147639 -0.11070223 0.0411959 0.052321453
-0.10877095 0.07715487 0.119157225 -0.010541583 0.03772003 -0.07015408 -0.056993727 0.06260375
0.07770134 -0.087478004 -0.10215013 0.0078500165 0.10745433 0.11668584 -0.003654792 -0.056032512
-0.11464173 0.084725946 0.07592215 -0.017896833 -0.04396309 0.01864016 0.069725804 0.0031153057
-0.11655397 0.03423746 -0.057222243 0.06188386 -0.09113009 -0.04983093 -0.05552794 -0.098269336
0.05264978 0.0221478 -0.015259639 -0.034893554 0.0606764 0.023421442 0.05239008 -0.10241771
-0.01729042 -0.08161442 -0.10717898 0.027844781 0.049973078 -0.012038711 0.03716038 -0.11387916
0.10805704 -0.09447427 0.06332098 -0.00056914426 0.0696492 -0.056562394 -0.12152521 0.11932858
0.006473421 -0.07070123 -0.10300803 -0.12981254 0.18840939 0.11335168 0.14762332 0.08449923
-0.15114553 0.048932396 0.024943784 -0.11645559 0.022892646 0.009526873 -0.002138878 0.017575812
0.095778115 0.11317837 -0.113648415 -0.13421275 -0.09214789 7.680192e-05 0.08291797 0.0030055963
-0.12899122 0.09259325 -0.010023484 0.06298875 0.070298485 0.022173423 -0.14185536 -0.059941918
-0.0034540624 0.061382096 0.09618187 0.0036321387 0.004233136 -0.027770221 -0.19049355 0.10764358
0.09100127 0.029551469 -0.07194301 0.0938284 -0.12209476 -0.004635564 0.07569271 -0.17740719
0.013139369 -0.0299169 0.07341155 -0.03424537 0.05691146 -0.16670099 -0.12079631 -0.056219604
-0.14287558 -0.11797007 -0.050898112 -0.024959879 -0.06311775 0.020661969 0.1009942 0.101531394
0.1567624 -0.012048127 0.28234637 0.29840145 0.13959731 0.22007081 0.20345293 0.20306748
0.087816566 0.16945158 0.1705542 0.13484421 0.3336887 0.22422291 0.1993146 0.13191193
0.10507315 0.2809906 0.19651385 0.15167092 0.210521 0.16089186 0.28170148 0.37504655
0.3702307 0.28509793 0.21023072 0.13996509 0.1308192 0.21399121 0.26102856 0.2996114
0.2705231 0.27595553 0.08551958 0.3913305 0.22510527 0.14012398 0.20019211 0.2247493
0.09729312 0.18902782 0.12865789 0.27035716 0.23355445 0.24496813 0.30349943 0.40682223
0.20960626 0.22228478 0.20519733 0.23179975 0.3096797 0.214787 0.13603814 0.26114464
0.27266854 0.28127474 0.19116083 0.104816854 0.1268494 0.16635658 0.2533025 0.20240526

lstm.bias_hh_l0 f4 [256]
00000000: 0251 a13e bb89 a33d 1ab6 253e 4d8e 873e
00000010: a9ce 9e3e 8431 1b3e 9883 733e a484 6f3d
00000020: 7f8b 773e b3b4 233e cad9 993d 34f6 2c3e
00000030: 8785 f33d ec25 3c3e 1047 d73e 99a9 983e
00000040: d101 2a3e 2830 a03e 30f0 a03d 9566 533e
00000050: 71e3 873e f5d4 593e 5029 183e 7bcd 2e3e
00000060: ca90 c63e c98b 803e 904c 6a3e 5c63 813e
00000070: 9258 723e 25c0 873d 587d c23e 9b3c 5d3e
00000080: 819c 5e3e b03c 3f3e e3b2 4d3e 5cfa b43e
00000090: 442b 9a3e 9149 103e 6d91 393e eaf3 323e
000000a0: 41b0 143e 827e ac3e 30f6 2b3e bbaa 5d3e
000000b0: 940a 7d3e f9cc a83e 5e3b 833e df21 cd3e
000000c0: bb7e 373e 8e8a 013e 80f9 963e ce0f a23d
000000d0: 940e 863e 0a48 553e d4dc 2f3e e5e6 263d
000000e0: 5e34 593e 0e4d 2c3e dd3e e03d b53e 7c3e
000000f0: 7933 9b3e 385f a13d 0916 103e 150a 5c3e
00000100: e6b4 a7bd b14f d53d 6d6d 923d 7083 dfbd
00000110: 2e7f f33d 143b 91bd f906 943b 116f d3bc
00000120: 96dd 2d3d d7b4 aebd 60eb 603d 7b36 43bd
00000130: fbd3 c439 53d2 723d 34ec f33c b534 fb3c
00000140: a7e7 0abd 709d 623d 945d 1f3d c3a8 963d
00000150: c6b8 a9bd 11f5 65bc 1c42 d7bd f54e d43d
00000160: 8c8d 67bd 2878 63bd 9e10 603d 97b1 2dbc
00000170: 5d5f edbb e076 c4bd b2d9 903d d311 3bbd
00000180: 48ef ec3d 3bf5 d8bd b4d1 40bd 2aa4 8a3c
00000190: 9742 e23c d88e d13d 7a7e b0bd 90b9 f33b
000001a0: 36e0 4d3d d7f8 1f3c 1167 d9bd 1aee fabd
000001b0: f1e8 493d dbaf 02bd 6cb1 3a3d e1bc 27bc
000001c0: 79e1 e3bc a5c6 a5bd b6ee 243d c024 f83d
000001d0: 5272 05bd 5f19 773b 5fcc 13bc 8755 0935
000001e0: 9655 7cba 996b e1bd f4b8 6abd e59f f73b
000001f0: 1d04 f0bd 07f6 c7bd d0c4 7cbd 4b4f 43bb
00000200: 6e77 713c 13a6 413d cc72 2d3d 0100 3abe
00000210: f882 e33d 0255 1b3e 7efa e33c aff4 963d
00000220: b88d 25be 68ea 05bc f8f9 423c a08e 363b
00000230: a54f 2e3d eba5 f4bd 3c74 89bc adba 693d
00000240: e93d f53d 9c6d 62bd f6d2 9ebc c1c2 493d
00000250: 5d5c e93b 0069 75bd fbb9 ddba 0124 5cbd
00000260: bada 18be fb87 9d3d 6802 483e 2800 dabd
00000270: ce28 9c3d 4d12 97bc fa1f 12be d1c8 143e
00000280: 9411 89bc eb33 07be d5f0 003e c6a4 033d
00000290: 4a55 2bbd 1824 c6bd 2fac eebd 0e6d d63c
000002a0: 0a68 173d 89a6 7c3d 2e12 e4bb 8836 4cbd
000002b0: 6fbb c83b c504 28bd 2a93 983b 76fa fdbd
000002c0: 35dd 443e fde8 2f3d c20f e2bd 9d8f a6bc
000002d0: df3a f23d f243 7c3d c1c7 d2bd dec2 02be
000002e0: ed96 5fbd 414d 79bd 06a7 b3bc 0755 5dbd
000002f0: 84fa c93d 2e21 be3d bb87 cb3d 2b52 223d
00000300: 0c8c ab3e 30ec db3d 665a 4a3e 32b1 7a3e
00000310: e69b f83d 5403 083e c614 103e 49b4 4a3e
00000320: 4a0e 363e ffd7 673e 6e8c 163e 5b4c d13d
00000330: 3cda 923e c50c b83e fe17 c53e aaac 4d3e
00000340: 330d 233b 1223 7d3e cc9b 7b3e 6738 1d3e
00000350: 8e18 7d3e eb0b 603e 1fab 623e b91b 123e
00000360: 3742 ae3e 1264 8e3e a61b 883e f02a 323e
00000370: 14b5 393e 338e 863e a921 fe3d 53a7 2b3e
00000380: 7f96 013e 1c46 8a3e 6144 3b3e d676 bf3e
00000390: 268a 343e a8e2 9f3e 8558 0f3d fdab 9a3e
000003a0: 4ba1 763c f568 913e def9 863e d344 a23e
000003b0: 1577 b83e b27f 8e3e f5f9 d73d 8ecb 843e
000003c0: a6c1 623e 55c6 663e 7b55 843e 4a4b b13d
000003d0: 79b2 e43d 6d4b b83e 0383 633e c420 193e
000003e0: efa9 653e cefd 853e 00ad 443e d8f9 c53d
000003f0: 3cbe 8d3e 447f 313e 1cb4 303e b1dc c63d
0.31507117 0.079852544 0.16182747 0.26475754 0.31017044 0.15155607 0.23780668 0.058476105
0.24174307 0.159869 0.07512243 0.16890794 0.11890703 0.18373841 0.42046404 0.29816893
0.16602255 0.3128674 0.07858312 0.206446 0.26540712 0.21272643 0.1485951 0.17070572
0.3878234 0.25106648 0.22880769 0.25271118 0.236666 0.066284455 0.37986255 0.2160515
0.21739389 0.18675494 0.20087771 0.3534726 0.30111134 0.14090563 0.18121882 0.17475858
0.1452036 0.33690268 0.16793132 0.2164716 0.24711066 0.32968882 0.2563123 0.40064904
0.17919438 0.1265051 0.29487228 0.07913171 0.26182997 0.20828262 0.17174083 0.040747542
0.21211383 0.16826269 0.1094949 0.24633296 0.30312708 0.0787949 0.14070906 0.21488221
-0.081888005 0.104155906 0.071497776 -0.109137416 0.11889492 -0.070913464 0.004517433 -0.025809797
0.04244765 -0.08530586 0.05491197 -0.04765938 0.0003754197 0.059282612 0.029775716 0.030664781
-0.033912327 0.055325925 0.038907602 0.073564075 -0.08287196 -0.014035479 -0.10510656 0.10366622
-0.056531474 -0.05553451 0.054703347 -0.010601423 -0.007244034 -0.09592986 0.07072772 -0.045671295
0.11569077 -0.10593649 -0.04707499 0.016923983 0.027619643 0.102323234 -0.086178735 0.0074378923
0.050262652 0.009763918 -0.106153615 -0.122524455 0.049294416 -0.03190599 0.04557936 -0.010237903
-0.027817475 -0.08094529 0.040266715 0.121163845 -0.032579727 0.0037704331 -0.009020894 5.1160936e-07
-0.00096257904 -0.11006851 -0.05730529 0.0075569027 -0.117195345 -0.09763723 -0.061711133 -0.00298019
0.014737947 0.04727752 0.042345807 -0.18164064 0.11108965 0.15169147 0.027829405 0.073708884
-0.16167343 -0.008173563 0.0119004175 0.0027856007 0.042556424 -0.11945709 -0.016779058 0.057062794
0.11974699 -0.055280313 -0.019387703 0.049257997 0.0071216063 -0.05991459 -0.0016916388 -0.053745274
-0.14927188 0.07691952 0.19532168 -0.10644561 0.076249704 -0.018441344 -0.1427001 0.1452973
-0.016732015 -0.13203399 0.1259187 0.032139562 -0.041829385 -0.09674853 -0.11653935 0.026175048
0.036964454 0.061682258 -0.006960175 -0.049856693 0.0061258595 -0.041020174 0.004656215 -0.12401287
0.19225009 0.042946804 -0.11038162 -0.020332152 0.11827635 0.061588235 -0.10292006 -0.12769648
-0.054587293 -0.06086469 -0.021930229 -0.054036167 0.09862235 0.09283672 0.09937998 0.039629143
0.33505285 0.107384086 0.19761047 0.24481657 0.1213911 0.1328252 0.14070424 0.19795336
0.17778888 0.2264099 0.14702007 0.10219642 0.28682125 0.35947242 0.38494867 0.20085397
0.0024879694 0.2472041 0.2457115 0.15353547 0.24716398 0.21879546 0.2213559 0.14268388
0.34034893 0.27810723 0.26583594 0.17399192 0.18135482 0.26280364 0.12408764 0.16763048
0.12655066 0.27006614 0.18287803 0.37395352 0.17630824 0.31227612 0.03499653 0.30209342
0.015053104 0.28400388 0.2636251 0.31693134 0.36028352 0.278318 0.105457224 0.2593655
0.22144184 0.22536595 0.25846466 0.086569384 0.111668535 0.35995045 0.22217946 0.14953905
0.22428106 0.261702 0.1920662 0.096667945 0.276842 0.17333704 0.17256206 0.09710062

fc.weight f4 [3, 64]
00000000: e708 acbe 24e6 483e d98f 9dbe d756 18be
00000010: b7a6 fa3d fa36 5e3e fe16 9d3e 9d53 14be
00000020: 02f9 51be b16c cdbe 783e d0be 467d b63e
00000030: dd82 cd3e 5d81 dfbe 8f85 10bf 7816 813e
00000040: 5729 babd 6ca5 56be 02da 91be fe3a 31be
00000050: 992b 65be 985e bfbe ddd9 e73e ae71 1dbe
00000060: d14c fabd 5b8b 863e d712 453e 0877 99be
00000070: 6ab6 033e cb98 8c3e e923 62be 4b51 b13e
00000080: 7c52 d4be e545 d8be c0c1 ccbe 90f3 dcbe
00000090: bbbd d03e 1bd4 c8be 841e 31be cd74 c53c
000000a0: bde1 323d 4d68 863e 2d02 e33e 2794 d93e
000000b0: a410 e0bd 8350 03bf bdb2 a73d 2eef 30be
000000c0: 8a3d 823e 232d d1be c34e c1be 471c ab3e
000000d0: ec05 253e 6700 cebe 903a 62be f2ae ddbe
000000e0: d5d6 09bf 3710 74be e327 cd3e 4bdb a6be
000000f0: 670a aebe a594 bc3e 4488 c23e 401e 863e
00000100: b6eb be3e 2948 b4be b959 363e fe8a 05be
00000110: 8ad5 2e3e f419 613d a50c 9abd 55f8 983e
00000120: 45f9 9cbe f127 c73c 546f 483e 0aff acbe
00000130: 2860 65be 0c6d 823e 2424 f23d 8581 ac3d
00000140: 7ce9 683e c68c 073f 7382 9b3d a121 86be
00000150: 6869 56be 037c bb3e 6c62 f0bd 3cf7 33be
00000160: 4fd0 3abe 380c cebe e35a 893e e503 213e
00000170: 7be0 6c3e 18b9 91be 2f13 8cbe 27ef 83be
00000180: 061d d63e 79ee 233e 9710 5c3e 3754 953e
00000190: f5ed aebe 32f8 d13d f7a8 94be 5704 f9be
000001a0: 44e2 c23e 32ae 853e c001 ebbd 8df4 78be
000001b0: f8a1 f8be 96ca 723c 1149 d2be d6a4 76be
000001c0: 6559 e93d 3198 e03d 14cc bb3e d18b 3fbe
000001d0: bfb1 803e 73b4 593e b987 423d 870e 313e
000001e0: 92ca 853e 20d8 60be e3b6 2abe d276 b43c
000001f0: 94b8 073e db6e 87be 2cd4 edbd ec16 bb3d
00000200: 8b96 95bd d4b7 763e 533c 933e 6e80 103f
00000210: a001 08bf 560c d0be d15d a4be b5e6 4ebe
00000220: 6a85 0d3f 0e9f be3d 5231 06bd ddcf d93d
00000230: e6ed f93b 45ae 163d 3091 813d 7fb0 a2be
00000240: d3e9 67be 1096 1dbf f969 1e3e 4707 023f
00000250: bc68 f43e 2252 04bc bc62 96be 091c 033f
00000260: e3ea f93e a1b6 fb3d ad97 04bf 4c85 933e
00000270: 05f9 08bf 60bd 54bd 46c2 f93e e18c c2bd
00000280: 55e5 26be 2085 483e 1914 2ebe 6ca8 5cbe
00000290: def5 5f3d 6a15 283e 33f2 de3e 5d67 ae3e
000002a0: 4e50 1fbf a19e 0ebf 5217 4dbe 3a53 f1bd
000002b0: 18a4 183f d099 b93c 35b0 9d3e ca98 053f
000002c0: 2c82 eabe 1d29 4a3e a092 67bd 11ac 89be
000002d0: 49b7 ebbe e9f3 273e 47e0 eb3e 9703 843e
000002e0: 17b9 a13d c9ab c13e e5a5 82be 8e2f f53d
000002f0: a460 3e3e 0037 8f3d e3f2 adbe ae10 b2be
-0.33600542 0.19619042 -0.3077381 -0.14876877 0.122388296 0.2170066 0.30681604 -0.14485021
-0.20505145 -0.40121987 -0.4067266 0.3564245 0.40138903 -0.43653384 -0.56453794 0.25212455
-0.09089916 -0.20961541 -0.2848664 -0.1730766 -0.22379912 -0.37376857 0.45283404 -0.15375397
-0.12221683 0.26278195 0.19245468 -0.29973626 0.12862554 0.27460322 -0.22084011 0.34632334
-0.4146918 -0.42240825 -0.3999157 -0.43154573 0.40769753 -0.39224324 -0.17296797 0.024103547
0.043672312 0.2625145 0.44337597 0.42495844 -0.10940674 -0.51294726 0.081883885 -0.1727874
0.25437576 -0.4085475 -0.37755403 0.3342001 0.1611554 -0.40234682 -0.22092652 -0.43297535
-0.5384343 -0.2383431 0.40069494 -0.32589182 -0.3399231 0.36832157 0.37994587 0.26194954
0.37289208 -0.35211304 0.17807664 -0.13041303 0.17073646 0.05495639 -0.07521943 0.29876962
-0.30658928 0.024311038 0.19573718 -0.3378833 -0.22399962 0.2547382 0.118232995 0.084231414
0.22745317 0.5294918 0.075932406 -0.26197532 -0.20938647 0.3661805 -0.117375225 -0.17574781
-0.18243526 -0.40243697 0.26827154 0.15724142 0.23132508 -0.28461528 -0.27358386 -0.25768396
0.41819018 0.16008939 0.21490704 0.29165813 -0.34165922 0.102524176 -0.2903516 -0.48636124
0.38063252 0.26109463 -0.11474943 -0.24312039 -0.48561072 0.014818808 -0.4107137 -0.24086317
0.11394004 0.10966528 0.36679137 -0.1870568 0.2513561 0.21260242 0.047492716 0.17290698
0.2613111 -0.21957445 -0.16671328 0.022029314 0.13254005 -0.26451764 -0.11612734 0.091352314
-0.073041044 0.24093562 0.2875696 0.5644597 -0.5312748 -0.40634412 -0.32102826 -0.20205195
0.552817 0.09307681 -0.03276188 0.1063535 0.0076272367 0.03678729 0.063265204 -0.3177528
-0.2264779 -0.615571 0.15470113 0.50792354 0.47736156 -0.008076223 -0.29372203 0.51214653
0.48812017 0.12290693 -0.5179394 0.28812635 -0.53504974 -0.051938415 0.4878103 -0.09499527
-0.1629842 0.19582033 -0.16999854 -0.21548623 0.054677837 0.16414419 0.43544158 0.34063235
-0.6223191 -0.557108 -0.20028427 -0.11783452 0.5962539 0.022656351 0.30798498 0.5218626
-0.45802438 0.19742246 -0.056536317 -0.2688909 -0.46038273 0.16401638 0.46069548 0.2578399
0.07896631 0.37826374 -0.25517192 0.11971961 0.18591553 0.06992912 -0.3397437 -0.3477835

fc.bias f4 [3]
00000000: af61 583c d82e be3d 239d 3f3c
0.013206883 0.092862785 0.011695179
