Code-in-cloud/results/models/乳酸分类标签_backward_lstm.pth (torch, 81928 bytes, 6 tensors)

lstm.weight_ih_l0 f4 [256, 11]
000000 c0 ca 56 be bf eb 31 3e f9 a0 6b be 01 df d1 3d
       -0.2097578 0.17375086 -0.23010625 0.10247613
000010 c4 7f a9 3e c9 9e bf 3e 16 29 e7 be f6 ab aa 3d
       0.3310529 0.3742583 -0.45148534 0.0833358
000020 f3 48 66 bd 7e fd 23 3f 3d b7 39 bd 3a a8 cf 3d
       -0.056221914 0.64058673 -0.045340765 0.101395085
000030 75 c1 99 bd 8a cf c6 be 18 e0 bd bc 9a 5e b8 be
       -0.07507602 -0.38830215 -0.023178145 -0.36009675
000040 c3 1c 1a bf 33 ae 58 3e 1d 16 dd be 53 a6 c6 be
       -0.60200137 0.21160202 -0.43180934 -0.3879877
000050 8c 30 4f bc ba 6a a4 bd 27 a1 87 3e 80 4e 4c 3e
       -0.012645852 -0.08028169 0.26490137 0.1995182
000060 93 d4 f1 be bf 9b fb be a8 ff f8 3c c1 35 97 be
       -0.47232494 -0.49142262 0.030395344 -0.29533198
000070 d6 d9 bb 3d cf 62 5c 3e c4 fd 16 be 04 60 64 3f
       0.09172408 0.21522067 -0.14745241 0.8920901
000080 03 83 1d 3e 12 4f 91 bd a1 1c 4c 3e 9c 3a bf be
       0.15382008 -0.070951596 0.19932796 -0.37349403
000090 69 07 15 3e a7 aa 87 3e 4f 53 e5 3e 03 5b f3 be
       0.14553608 0.26497385 0.44790122 -0.47530374
0000a0 af 15 67 bd b2 07 d3 bd 78 92 45 3f 29 b5 a7 3e
       -0.056417163 -0.10304202 0.7717662 0.32755402
0000b0 c2 c2 43 3c e7 6e 4b 3e 6a a2 f1 be fd d4 ca 3e
       0.011948289 0.19866525 -0.47194225 0.39615622
0000c0 a0 2a 05 3f 7a 52 77 be 73 f6 a9 3d 57 73 52 be
       0.52018166 -0.24152556 0.082989596 -0.20551811
0000d0 a9 04 0c bd 00 4e 50 bf 67 18 61 3f 6a 4e ad be
       -0.03418413 -0.8136902 0.8792786 -0.33848888
0000e0 e6 85 b5 be a5 ac 63 be 2e 2c 05 3f 1f 64 b0 bd
       -0.3545372 -0.22233827 0.5202054 -0.086128466
0000f0 9c 5e 03 3e 92 c8 be be 16 a2 ae 3d 1d ec e9 be
       0.1282906 -0.37262398 0.08527009 -0.45687953
000100 d6 26 3d 3e 6d 7d 02 3f 21 ad 61 3e 51 3a fa 3e
       0.18471846 0.50972635 0.220387 0.48872617
000110 e6 2b f3 be 4a a3 f5 bb 13 49 1e 3f b3 6f 32 bf
       -0.4749443 -0.007496272 0.6183025 -0.6970169
000120 5b f5 b2 3e f0 84 79 bd f3 41 21 bd 30 13 64 ba
       0.34952816 -0.060917795 -0.039369535 -0.0008700369
000130 4f 34 12 3e c7 69 ab be 69 a7 b4 3e 36 59 13 bd
       0.14277767 -0.3347914 0.35283974 -0.03597375
000140 aa b1 25 3e 47 d3 84 3e 82 45 b1 3e 27 64 b6 be
       0.16181055 0.25942442 0.34623343 -0.35623285
000150 78 6b 49 3d 1e d8 93 3d d6 6a 32 3f 00 b7 93 be
       0.049174756 0.072189555 0.6969427 -0.28850555
000160 8e 7d 5c bd a6 23 b8 bc 09 9a eb 3d 97 5c f3 be
       -0.053830676 -0.022477936 0.11503989 -0.47531578
000170 dc f0 9e be 58 6f f6 be 08 46 09 3f 46 c5 6d be
       -0.31043136 -0.48131824 0.53622484 -0.23219785
000180 04 17 87 be e9 66 38 3f d9 9e c6 3c 44 09 88 3e
       -0.26384747 0.7203203 0.024245666 0.2656957
000190 1c 06 0e bf ad 3f 7c 3e 18 a3 0a 3d 9e 30 0c 3b
       -0.5547807 0.24633665 0.033846945 0.0021391283
0001a0 ab 41 9f bc 8c 2c c8 be 7c f9 c5 3d cd b1 bc be
       -0.019440493 -0.39096487 0.09666726 -0.368544
0001b0 a6 4e 04 bf 4a 59 e9 3e 04 7a 3f 3f ee c9 88 3e
       -0.5168251 0.45575935 0.74795556 0.2671656
0001c0 fc 16 5d 3c 85 c1 d7 3e 7b 56 c2 be 76 90 c1 be
       0.013494249 0.4213983 -0.37956604 -0.37805527
0001d0 db 9f 8f 3e f4 6e 0c be 60 83 fc 3c cb 1a 1d 3e
       0.28051648 -0.137142 0.030824363 0.15342252
0001e0 09 46 d0 be 6a 39 b7 bc 8b 00 6b be 14 6c 78 3d
       -0.40678433 -0.022366244 -0.22949426 0.060649946
0001f0 bc a9 ab 3e a8 47 75 be 07 e3 4b be a1 de 78 be
       0.33527935 -0.23953116 -0.19910823 -0.24303676
000200 37 0d 93 3e f7 99 40 3d 32 92 3a bf fb 36 00 be
       0.2872102 0.047021832 -0.72879326 -0.12520973
000210 74 42 cf be c5 41 ec 3e 26 28 c0 be ca 52 34 3e
       -0.40480387 0.46143928 -0.3753063 0.17609707
000220 39 27 85 3d 0b 95 af 3d e6 7a 89 bd 5b 34 44 be
       0.06501622 0.085733496 -0.06712894 -0.19160597
000230 f5 b3 02 3e 5b a8 00 3f 0a 49 05 3f 03 b9 31 be
       0.1276396 0.5025689 0.52064574 -0.17355733
000240 d5 a0 13 bf a7 ed ba be 0d 10 07 3f c3 69 18 3d
       -0.57667285 -0.3650944 0.52758867 0.037210237
000250 04 6b 44 3e 21 a0 82 be 9d ae 32 3e 1e 56 96 bd
       0.19181448 -0.25512794 0.17449422 -0.07340644
000260 25 cf 32 be 93 55 06 3f 1a 6d 57 3e 84 3a ae 3e
       -0.17461832 0.52474326 0.21037713 0.3402902
000270 b6 fd 0d be f7 11 86 3e 01 09 28 3f a6 88 44 bf
       -0.13866314 0.2618558 0.6563874 -0.7677101
000280 55 5c d6 3e 4a a8 40 be 33 26 de bd b4 19 41 be
       0.4186732 -0.18814197 -0.1084713 -0.18857461
000290 31 3d e9 3d 4e 8b 68 bd a3 6b 1c 3e cb d1 12 be
       0.113886245 -0.056773476 0.15275435 -0.14337842
0002a0 60 2b aa 3e 69 74 6b bd 87 4f 03 3e e8 2e 5b be
       0.33236217 -0.057484064 0.12823306 -0.21404612
0002b0 16 15 a4 3e 54 76 9a 3d 42 ad 8d be 90 4b 30 be
       0.32047337 0.075421005 -0.27671248 -0.17216325
0002c0 87 ff 3d 3d 6c 5b 80 bd e2 83 5e 3d ec 47 d3 be
       0.046386268 -0.06267437 0.054324992 -0.4126581
0002d0 ea 99 f8 3e 27 b7 29 bf 00 f5 63 3e 40 fd 2f be
       0.48554927 -0.66295093 0.22261429 -0.17186451
0002e0 c6 ac 7b be 96 02 ab be 6d e4 18 bf cd 9b 93 be
       -0.24577627 -0.3340041 -0.5972355 -0.28829804
0002f0 2a 13 c9 be a0 62 58 be fc 84 8f be 52 30 0a 3e
       -0.39272434 -0.21131372 -0.28031147 0.13494995
000300 0a da e4 be c5 a0 2d be 55 6b ce be 09 b4 b9 be
       -0.446976 -0.1695586 -0.40316263 -0.36270168
000310 d9 eb 56 3f e0 20 81 3e d5 db 5b be 47 b1 d7 be
       0.83953625 0.25220394 -0.21470578 -0.4212744
000320 a8 ff 82 be 33 a5 08 bd 65 36 ce bc 2b c6 2e 3d
       -0.25585675 -0.03336067 -0.025172422 0.042669456
000330 3c a9 7d be e0 50 c5 bd ff 8b d4 be 73 1c 52 3f
       -0.24771589 -0.09634566 -0.4151306 0.8207466
000340 f9 68 78 3e 97 5d 2c be d3 c2 23 be b8 d4 cd bc
       0.24258794 -0.16832577 -0.15992288 -0.025125846
000350 d7 12 b5 3d 43 8d 00 3d 98 34 86 bf 00 43 25 3e
       0.08841484 0.031384718 -1.04848 0.1613884
000360 9e 7f 91 be 9b cd 90 be 0c 8d 0c 3f 45 0f 8c 3e
       -0.28417677 -0.28281865 0.5490272 0.273554
000370 58 d7 9d 3e 51 91 02 3e be 85 80 be 68 4b 59 3e
       0.30828357 0.12750746 -0.25102037 0.21220171
000380 e8 1b 18 bf f8 69 74 be 68 28 49 3e 5a b5 bc be
       -0.5941758 -0.23868549 0.1964432 -0.3685711
000390 c1 62 fa be 27 2c 3c bf 53 91 4c 3e 4c 7f 63 bc
       -0.48903468 -0.7350487 0.19977312 -0.01388533
0003a0 e7 e2 a0 3d d4 e0 22 3e 42 08 d9 be b4 ec 7e 3e
       0.07855778 0.15906078 -0.42389113 0.24894983
0003b0 18 ed b7 3e 78 df 1c be bd 04 bf 3e 6b 30 18 be
       0.35923076 -0.15319622 0.37308303 -0.1486222
0003c0 51 f4 1b be b1 71 af bd 6a f5 89 be ce a5 b8 3d
       -0.15229918 -0.08566607 -0.2694505 0.09016
0003d0 ad e8 8f 3c 3f 57 a9 3e d9 a9 83 3c 71 a9 47 bf
       0.017567003 0.33074376 0.0160722 -0.7799292
0003e0 95 6c b8 3e cc 36 99 be 0d 87 dc be 1b 51 1d 3f
       0.36020342 -0.2992462 -0.43071786 0.6145188
0003f0 eb 77 74 3e af 91 61 be 82 1b ab bd e8 e1 c0 be
       0.2387387 -0.2202823 -0.08354856 -0.37672353

lstm.weight_hh_l0 f4 [256, 64]
000000 8e 19 dd 3d 7d e4 03 bd 93 9b e2 3d 0d c1 c4 3c
       0.1079589 -0.032200325 0.1106483 0.024017835
000010 b4 56 12 3d 41 16 e2 3d 4d 13 bd 3d 70 ae 0f bd
       0.035727218 0.11039401 0.09232197 -0.035078466
000020 e1 eb db bd c9 14 af 3d 7b d2 cf 3d 18 2a 11 3d
       -0.1073835 0.08548886 0.10147568 0.035440534
000030 91 95 76 bc 9e 32 d0 3d 94 b1 b8 3d c6 d9 a2 bc
       -0.015050308 0.101659045 0.09018245 -0.019879233
000040 83 b8 3c 3c d3 9e ba 3d 34 f8 c1 3d ce 58 29 3c
       0.0115186 0.091123246 0.09471169 0.010336114
000050 34 2a bc 3d 16 55 04 3d 66 a7 bb bd 69 69 60 3c
       0.09187737 0.032307707 -0.09162788 0.013697007
000060 cf cd c9 3d 14 62 8b 3d 5b fb f7 bd 6f 05 de bd
       0.09853708 0.06805816 -0.12108489 -0.1084088
000070 3f 5a cb 3d 07 1c bc 3d cc 83 d5 3d f0 a9 87 3d
       0.099293225 0.09185033 0.10425529 0.0662421
000080 52 79 cd bd 41 2a d7 3d 7f 42 5f 3c a1 cd 36 bb
       -0.10032906 0.10506106 0.013626694 -0.002789356
000090 f7 8a d7 3c 66 df 2b 3d d8 65 19 bd e8 00 a9 bd
       0.02631138 0.041961096 -0.03745064 -0.08252126
0000a0 41 d9 27 3d 61 4c a1 3c 97 73 78 bd 9c c6 42 3d
       0.040978674 0.01968974 -0.06065711 0.04755269
0000b0 a8 71 7d bd 05 52 d4 bd ea e0 de bd e2 6d a3 bd
       -0.06187597 -0.103672065 -0.10882743 -0.07979943
0000c0 00 c1 9b 3b 3f 26 d6 3d 41 da 6d 3d 7c d7 ce bd
       0.004753232 0.104565136 0.05806947 -0.10099694
0000d0 9e 95 dc 3d e6 63 9e bd 8a d3 95 3d 27 dc ca 3d
       0.10770725 -0.07733898 0.073157385 0.09905272
0000e0 d0 b0 c1 bd cf 14 7e bd ba 03 b4 bd ab 2e d6 bd
       -0.094575524 -0.062031563 -0.08789773 -0.1045812
0000f0 0c 0d b0 bc 2b 19 ad bd 2c 74 59 bd 1e 3e 52 3d
       -0.021490596 -0.08452066 -0.053089306 0.05132877
000100 fc 76 a1 3d da fc 99 3d 98 62 43 3d 1a 91 b8 bd
       0.078840226 0.07518931 0.04770145 -0.09012051
000110 6f a3 a9 3d 9a a3 d5 3b bb d0 49 3d 07 d9 6e bb
       0.082831256 0.006519747 0.049271327 -0.0036445276
000120 e0 d6 af 3d 0c c2 22 bd 12 96 da 3d a0 64 e4 bc
       0.08585906 -0.03973584 0.10673155 -0.027880013
000130 93 c7 e8 3d 10 6b a5 bd 28 aa 71 3d 01 0b a6 3d
       0.11366191 -0.08077061 0.059000164 0.081075676
000140 74 c3 9a 3d 67 22 96 bd c7 a8 6a 3d dd 35 a2 bc
       0.07556811 -0.073307805 0.057289865 -0.019801075
000150 25 e4 88 bd 60 64 a5 3d 37 ee 8a 3c de 64 e3 3d
       -0.0668414 0.08075786 0.016959293 0.11103223
000160 88 90 92 bd 1d 7e 95 bd 25 bc cf 3c d3 1b 3f bd
       -0.071564734 -0.07299445 0.025358269 -0.046657395
000170 98 34 c8 3d 48 bb 82 bd b8 d1 ae 3c 71 c5 35 bd
       0.097756565 -0.06383377 0.021340236 -0.044377748
000180 b9 be 95 bc 7a 4a ed 3d ae 92 d4 bc 08 d1 94 3c
       -0.01827942 0.11586471 -0.025948849 0.01816608
000190 2d 7f 1e 3d 82 cd cd 3d 96 25 ef 3d 75 57 88 bd
       0.038695503 0.10048963 0.11677091 -0.06657306
0001a0 c7 68 1b bd bd fa 3d 3b 9b 73 c4 3d f8 09 ea 3d
       -0.03794172 0.0028988563 0.095923625 0.11427683
0001b0 6b 8e b6 bd 4c c6 e8 3d f4 88 b8 3c f5 f8 df 3d
       -0.08913883 0.11365947 0.022526242 0.10936157
0001c0 38 bd 41 bd 49 92 cc 3d 75 1e ac 3c e2 03 be bd
       -0.047299594 0.09988839 0.021010617 -0.09278084
0001d0 6e 0f 81 3d 4e ec 7c bd 27 35 d7 3a 3d 60 03 3d
       0.06301771 -0.061748795 0.0016419039 0.0320742
0001e0 a0 49 cc bd 7e c4 5e bd bd e8 61 3d 61 35 e2 3d
       -0.0997498 -0.05438661 0.055153597 0.110453375
0001f0 ae 5a bb bc ae b5 b9 3d d4 2d 65 bd a8 12 ac 3d
       -0.022870388 0.09067856 -0.05595191 0.08401996
000200 f6 6a fc bc dc 33 cf 3d 63 48 9b 3c 5c 24 6a bd
       -0.030812722 0.10117313 0.018955415 -0.05716358
000210 2a 9e a0 bd 8a 9a 90 bd 6d 83 e6 3d 02 e3 b6 3c
       -0.078426674 -0.07060726 0.11255536 0.022325043
000220 b6 43 ba 3d c8 65 9f bd a7 25 f1 bd 3b 46 2b 3d
       0.09094946 -0.07783085 -0.1177476 0.041815024
000230 38 89 21 bd e9 de 39 3d da a6 1d bd 5f 35 c9 bc
       -0.039437503 0.0453786 -0.0384892 -0.024561582
000240 39 ce de bc ef 08 13 bd 59 5e 6c bd 73 77 26 bc
       -0.027197944 -0.03589719 -0.057707164 -0.010160315
000250 26 b7 e8 3d 5c b3 05 bd b0 10 25 bc fe 1e e3 bd
       0.11363058 -0.032641754 -0.010074779 -0.11089896
000260 94 97 db bd bf b8 ae bd ca 26 34 bd eb 70 c7 3d
       -0.107222706 -0.08531331 -0.043982305 0.09738334
000270 93 80 52 bc e9 ca 36 3d 2e 74 85 bd b3 b2 87 3d
       -0.012848037 0.044627104 -0.065163 0.06625881
000280 e9 bc 63 bd c4 32 f7 3d 15 9a 4e 3d 5d 27 89 3d
       -0.05560008 0.1207023 0.050439913 0.06696961
000290 18 63 5e 3d 8f 3a 9d bd e7 d3 f6 3d 6f 8b 3e 3d
       0.054293722 -0.07677185 0.12052136 0.046519693
0002a0 11 fa f0 3d 1b 58 23 3b 5f d1 d7 3b b1 d2 87 3d
       0.117664464 0.002492434 0.0065862383 0.06631983
0002b0 8b 05 aa 3d 66 c1 88 bd 2d a6 f1 bd eb 2f f1 bd
       0.083018385 -0.06677513 -0.11799274 -0.11776718
0002c0 b8 65 9c 3d a1 33 50 3d 05 57 69 bd d9 1c 38 bd
       0.07636589 0.050830487 -0.056967754 -0.044949386
0002d0 03 f1 c9 3d 1a d8 97 3d fa ac 54 bd 4d a6 aa bd
       0.098604225 0.07414265 -0.051922776 -0.083325006
0002e0 8f 65 8e bb 84 ef e3 3d 25 92 e2 bd 05 60 d6 bd
       -0.004345603 0.11129668 -0.11063031 -0.10467533
0002f0 eb 35 b7 3d 82 42 0f bd 30 7c d5 bd 96 93 35 3d
       0.08945831 -0.034975536 -0.104240775 0.044330202
000300 60 6a 6a bd 5e 2b fc 3c 5a dc ef bc 03 60 14 ba
       -0.057230353 0.030782398 -0.029279877 -0.0005660059
000310 6f 25 c6 bd 71 99 a0 3d 8d f5 f7 bb 03 bd 9d 3c
       -0.09675109 0.078417666 -0.0075671137 0.019255167
000320 47 2c bd bd 39 0d 8d bb 05 c5 8a bd 02 a7 ea 3d
       -0.09236961 -0.004304555 -0.0677586 0.114576355
000330 af 47 1d bd 22 df a9 bd 4b ad 9e bc a5 df 9e 3d
       -0.03839844 -0.08294512 -0.019369742 0.077575006
000340 3c d7 f4 bd 31 6b 51 bd 69 b8 a3 bd 64 7f a3 3d
       -0.11955115 -0.051127616 -0.07994158 0.07983282
000350 5e 8a 72 3b 61 11 e2 bd 00 bc f6 bb 76 8a b0 bc
       0.0037008743 -0.11038471 -0.0075297356 -0.021550398
000360 1a e0 01 bd ee 47 4b 3d 57 bf e3 bd 06 67 13 bd
       -0.03170786 0.049629144 -0.111204796 -0.035986923
000370 b0 f9 ed 3d e5 75 92 3d f9 a1 c3 3d 7c b4 6c 3d
       0.1161989 0.07151393 0.09552378 0.05778931
000380 79 0e ce 3a 0b 6d f8 bc c5 10 8c 3d d4 11 03 3c
       0.0015720866 -0.030325433 0.06839136 0.007999856
000390 43 02 eb 3d 43 46 c8 bd d3 08 c8 3c ba 0e e6 bd
       0.11475041 -0.09779026 0.02441827 -0.112332776
0003a0 a9 d6 ab bd 1a 19 d8 3d 23 4e a1 3d 85 c8 c2 3d
       -0.083905526 0.10551663 0.078762315 0.09510902
0003b0 f3 e2 88 bb c3 64 49 3d fd c3 c9 3d 81 d3 de bc
       -0.004177445 0.04916836 0.09851835 -0.027200462
0003c0 f4 60 f3 bd 5b 4a 9f 3c 4d 19 5f bd 99 78 7b bc
       -0.11883727 0.019444635 -0.054467488 -0.015348577
0003d0 33 b8 c4 bd 84 fb 48 bd 02 47 03 bd 05 e6 b7 bb
       -0.09605446 -0.04906799 -0.03205014 -0.0056121373
0003e0 d2 53 64 bd 73 d4 6f bb 23 c7 d1 3b 46 2c ed bd
       -0.055744 -0.0036595135 0.006401913 -0.1158071
0003f0 e3 b7 ca 3c fd 85 f1 bd 15 15 cc bd 2d 1d d0 3d
       0.024745887 -0.11793134 -0.099649586 0.10161815

lstm.bias_ih_l0 f4 [256]
000000 87 d8 d2 3e a1 ed b9 3e 69 6b 5f 3e b9 6c f9 3e
       0.41180822 0.3631411 0.21818317 0.4871576
000010 e7 92 0c 3e 68 8d 30 3f f8 ec b8 3e 22 ba 01 3f
       0.13727914 0.6896577 0.36118293 0.5067464
000020 87 e6 9f 3e 2e 99 12 3f bc e8 06 3f 41 bc e6 3e
       0.31230566 0.57264984 0.52698874 0.450655
000030 14 83 f5 3e 7a da fa 3e 9a ae 06 3f 12 f0 db 3e
       0.47951567 0.4899481 0.5261017 0.42956597
000040 35 3e b4 3e 53 82 97 3e 9f 64 0b 3f 44 39 9a 3e
       0.3520371 0.29591617 0.5445041 0.30121815
000050 5a 32 64 3e c9 68 ed 3e b9 ba 63 3e 4b c1 0c 3f
       0.22284833 0.46369007 0.22239198 0.5498244
000060 24 f5 d4 3e c6 0a 42 3f 7b 32 00 3f 75 3f 15 3f
       0.41593277 0.7579769 0.5007703 0.5829995
000070 dd a5 01 3f 94 37 91 3e a3 ff c7 3e 42 fc ef 3e
       0.5064371 0.28362715 0.39062223 0.46872145
000080 6b 1e d6 3e 70 f5 09 3e 3a 22 f2 3e c9 bf 98 3e
       0.41820082 0.13472533 0.47291738 0.2983382
000090 65 07 0c 3f d1 e3 c8 3e a0 b9 b5 3e fe 81 ee 3e
       0.54698783 0.3923631 0.35493183 0.4658355
0000a0 7d 4c 9a 3e b6 c5 ac 3e 15 7f f0 3e 4c 51 aa 3e
       0.3013648 0.3374459 0.46971956 0.3326515
0000b0 77 6c 14 3f da 63 0f 3f 92 63 3e 3f 36 f0 cf 3e
       0.57978004 0.56011736 0.7437068 0.40612954
0000c0 03 bd d1 3e e9 71 3d 3e a1 f8 9d 3e de 10 8e 3e
       0.40964517 0.18500485 0.3085375 0.27747244
0000d0 05 f7 c6 3e c2 16 d0 3e 9f ae 10 3f 3f 30 bc 3e
       0.38860336 0.40642363 0.5651645 0.3675556
0000e0 f6 bb c3 3e 75 6e c3 3e 0e 05 08 3f b7 e9 dc 3e
       0.3822934 0.3817021 0.5313271 0.4314706
0000f0 22 4b 24 3f 5a f9 a0 3e 0f fa a1 3e 60 4c c4 3e
       0.64177144 0.3144024 0.31636092 0.3833952
000100 81 48 0b 3d e0 df db 3c 3e a1 8f 3d 00 47 f4 3a
       0.034004692 0.02684015 0.070131764 0.0018636882
000110 a9 de 14 3d 18 ec eb bb a4 0d cf 3d 9e 83 b1 bd
       0.036345158 -0.0071997754 0.101100236 -0.08667682
000120 89 b5 bd 3b 7f b5 df 3c d2 d5 72 3d 84 ff a3 bd
       0.005789463 0.027308224 0.059285946 -0.0800772
000130 d0 a9 40 3d 28 6a a6 3c db ce 91 bd 03 85 56 bd
       0.047036946 0.020314291 -0.07119533 -0.052372944
000140 fa fa 5a bc d5 63 1f bd 19 52 80 bd ed b1 59 ba
       -0.013365502 -0.038913567 -0.06265659 -0.0008304406
000150 eb fe ae 3d 24 20 c1 bd 1e 30 1a bd 3a 9b 99 3d
       0.085447155 -0.094299585 -0.037643544 0.0750031
000160 b5 ae 96 bc 5d 10 5a bd 0f 90 a3 bd 0b 89 cd bd
       -0.018393854 -0.05323826 -0.07986461 -0.100359045
000170 b6 b8 b2 bc 24 7c 43 bc d1 45 ce 3d 9e 45 8e bc
       -0.021816593 -0.011931453 0.1007191 -0.01736718
000180 6f 31 52 bc eb e2 9d bd 7a d5 d9 bd fa 45 f1 bc
       -0.012829169 -0.07709297 -0.106364205 -0.029452313
000190 32 ff db 3c 35 7f d8 bd f9 31 5e 3d e3 b7 d5 bd
       0.026855085 -0.10571138 0.054246876 -0.10435464
0001a0 d7 c2 c9 bc d4 14 d0 bd 3a 5e e0 3b bb 98 bc bd
       -0.02462904 -0.10160223 0.00684717 -0.092088185
0001b0 bc 59 5b 3d a7 95 87 bd e6 bb 40 bd ee 23 95 3d
       0.053552374 -0.06620341 -0.047054194 0.07282244
0001c0 2e 4f 9f 3d 29 c0 9d 3d 5c c6 ad 3d 48 e1 82 bd
       0.07778774 0.07702667 0.084851 -0.06390625
0001d0 60 d2 bb 3d d8 85 36 3d 0d cb 50 3d 6a 69 f0 bd
       0.09170985 0.044561237 0.050974894 -0.11738856
0001e0 68 14 69 3c 9d d8 30 3d c0 1b 91 bc 24 54 5b bd
       0.014226057 0.04317533 -0.017713428 -0.05354704
0001f0 dd c6 e7 bb 8f 0b f7 bd 18 24 db bd 56 aa a5 bd
       -0.007073267 -0.120627515 -0.10700244 -0.080891296
000200 78 0f 89 3e 78 26 2f be dd 0d 40 be 8c 04 01 be
       0.26769614 -0.17104518 -0.18755288 -0.12599391
000210 a9 15 d5 bd eb 8d 6e be bd a1 c9 3e 67 95 b3 be
       -0.10404522 -0.23296325 0.3938121 -0.35074922
000220 a9 5d da be 4e 1c 35 be 76 60 ce 3e 14 5e 88 3e
       -0.42649582 -0.17686579 0.4030797 0.26634276
000230 90 be 48 be 71 6b d7 3d ce 4f 6f be ed d2 81 be
       -0.19603944 0.1051854 -0.23370287 -0.25356236
000240 6f d8 19 be 11 23 1c 3e f1 33 83 bd fc 83 02 bd
       -0.15023969 0.15247752 -0.064063914 -0.03186415
000250 1b 77 cb 3d 5a 63 d4 be 36 95 f1 bc 58 d5 f0 bd
       0.09934827 -0.4148205 -0.029490095 -0.11759442
000260 73 28 cc be 95 cb 34 3e 8f 9d 24 bd 49 b8 1c bd
       -0.3987461 0.17655785 -0.040189322 -0.038261686
000270 a4 f6 77 3e ab 3b 00 be 4d e0 10 3f cd 7f 9d 3e
       0.2421518 -0.12522762 0.56592256 0.30761567
000280 6f d6 db 3d 41 be d8 bd 59 ad 75 3e 6b be 84 3d
       0.10734259 -0.10583163 0.23991908 0.06481632
000290 79 05 c9 be b4 73 3a bd f7 cd 02 be 12 30 78 be
       -0.39261988 -0.0455205 -0.12773882 -0.24237087
0002a0 a0 d1 2b be e8 dc 08 3f 0c 77 49 be 3f 21 87 be
       -0.16779184 0.53462076 -0.19674319 -0.26392552
0002b0 a9 1f bc bd 44 7c f1 be 31 d0 ef bd f4 4d f5 bc
       -0.09185726 -0.4716512 -0.11709631 -0.029944398
0002c0 bb bc 4b be 5e d8 cf bd f9 52 3a be c8 eb f9 be
       -0.19896214 -0.10148691 -0.18195714 -0.488127
0002d0 3b e8 e8 be f5 8f 37 3e 9f 89 1b be 96 ab e2 3c
       -0.45489678 0.17926009 -0.15189217 0.02766971
0002e0 3f 56 6c 3e e3 25 98 3d aa a7 44 bd 3f 62 89 be
       0.23079775 0.07429101 -0.04801146 -0.26832768
0002f0 97 59 b9 3d fd 58 0b be 9a dc d3 bd de 24 17 3e
       0.09050291 -0.13608165 -0.10344811 0.14760157
000300 80 49 cd 3e bc 82 89 3e fd 72 83 3e 91 ed fa 3e
       0.4009514 0.26857555 0.25673667 0.49009374
000310 3c ed a0 3c 98 2b 3d 3f ca d9 d9 3e af 38 d5 3e
       0.019644372 0.73894644 0.42548972 0.4164481
000320 d9 06 82 3e 02 e7 fe 3e 35 91 ad 3e 61 06 09 3f
       0.2539585 0.4978562 0.33899847 0.5352536
000330 a6 3d 0a 3f 15 ba 05 3f cc 0a 94 3e 00 99 0e 3f
       0.5400032 0.52237064 0.28914487 0.5570221
000340 1b 06 08 3f ad 71 25 3e 71 ca 05 3f 12 3a b0 3e
       0.53134316 0.16156645 0.52262026 0.34419304
000350 72 04 79 3e 11 84 fb 3e 0e b8 5e 3e 62 88 d4 3e
       0.24318102 0.49124196 0.21749899 0.41510302
000360 00 74 bd 3e 79 6c 3d 3f de 2a c6 3e f7 b1 f1 3e
       0.37002563 0.7399364 0.3870458 0.4720609
000370 72 a2 e3 3e c6 98 f1 3e a4 71 02 3f 6b a2 14 3f
       0.44459873 0.4718687 0.5095465 0.5806033
000380 5a 44 70 3e 23 c5 07 3e c6 2c 10 3f da 21 c8 3e
       0.23463574 0.13258795 0.5631832 0.39088327
000390 53 a7 83 3e 64 a7 d6 3e a9 b5 b0 3e be 7e c8 3e
       0.25713596 0.41924584 0.34513596 0.39159197
0003a0 61 47 42 3e 4e 8a 84 3e 92 8f bb 3e c1 0b d6 3e
       0.18972541 0.25886768 0.36632973 0.41805843
0003b0 83 c9 03 3f dc b6 2c 3f 3f 95 28 3f 12 d2 ef 3e
       0.5147936 0.6746652 0.6585273 0.46839958
0003c0 36 23 c6 3e af 04 33 3e d5 6e a6 3e 93 a8 04 3f
       0.3869874 0.17482255 0.32506433 0.51819724
0003d0 ad 4e 0b 3f 5e a7 df 3e 75 1f fc 3e 6e 26 97 3e
       0.54416925 0.4368238 0.4924275 0.29521507
0003e0 8a d4 04 3f c9 48 ab 3e 30 a7 2e 3f c6 dc 0a 3f
       0.5188681 0.33453968 0.6822386 0.54243124
0003f0 58 2d 32 3f a2 b7 f0 3e ab 77 ff 3e a6 e7 89 3e
       0.6960044 0.470151 0.49895987 0.26934546

lstm.bias_hh_l0 f4 [256]
000000 32 ad 03 3f e4 15 a0 3e 96 3f 56 3e 65 23 ef 3e
       0.5143615 0.312667 0.20922694 0.4670669
000010 2a 61 04 3d 7d 7b 35 3f a0 56 94 3e 95 4e f8 3e
       0.032319225 0.70891553 0.2897234 0.48497453
000020 4c fd 98 3e 90 ae 02 3f 1e a4 fb 3e 19 6b 18 3f
       0.2988075 0.5104761 0.4914865 0.5953842
000030 6d bd 0a 3f 72 58 e1 3e 39 70 a9 3e 54 5e 18 3f
       0.5419529 0.4401279 0.33093432 0.59518933
000040 6c fb df 3e e6 6f 8d 3e 9e c5 13 3f 76 0c 7b 3e
       0.43746507 0.27624434 0.57723415 0.24516472
000050 bb d0 7f 3e b1 ca c0 3e 5e de 7c 3e 04 f0 0c 3f
       0.24981968 0.3765464 0.24694201 0.55053735
000060 47 b4 0c 3f 2a e5 59 3f 5f 00 be 3e 4e 97 15 3f
       0.5496258 0.851153 0.37109658 0.58434
000070 f4 ac f8 3e a6 4b a9 3e 70 41 01 3f 57 85 10 3f
       0.48569453 0.33065528 0.50490475 0.5645346
000080 a5 30 8f 3e 36 8e 12 3e a1 c2 24 3f ac 6f e1 3e
       0.279668 0.14312062 0.6435948 0.4403051
000090 2d ff c0 3e 50 b4 c9 3e ff b3 01 3f ab 64 03 3f
       0.37694684 0.3939538 0.5066528 0.5132548
0000a0 91 5c ae 3e b2 42 8e 3e 96 2c cf 3e 9e 4d b4 3e
       0.34054998 0.2778526 0.40463704 0.35215467
0000b0 fe 52 19 3f b6 45 0c 3f 18 1b 46 3f 6a b7 ec 3e
       0.5989226 0.5479387 0.7738509 0.46233684
0000c0 2c 6c 8e 3e 90 ff 8c 3e a4 12 e2 3e 8d 8b 94 3e
       0.27816904 0.2753873 0.44154847 0.2901272
0000d0 6e 8e aa 3e d1 03 b0 3e 2f ec ba 3e ce 87 bd 3e
       0.3331179 0.34377912 0.3650832 0.37017673
0000e0 50 3f dd 3e 11 01 97 3e 53 70 45 3f 75 d9 06 3f
       0.43212366 0.29493 0.7712452 0.52675563
0000f0 48 d8 3b 3f 70 0b d3 3e 2c fd ce 3e 9c 7b c6 3e
       0.73376894 0.41219664 0.4042753 0.3876618
000100 70 8f 0b bd 1e cf a9 3d 87 48 24 bc 76 c4 30 bc
       -0.03407234 0.082914576 -0.0100270575 -0.010789027
000110 63 c6 7b 3d 6a 4f c4 3c 33 73 02 3d 82 61 f0 bd
       0.061468493 0.023963649 0.031848144 -0.11737348
000120 98 ba be bc 8e 1d 9d 3c 61 45 13 3c 8c 53 a8 3d
       -0.023282334 0.019179132 0.008988709 0.0821906
000130 b7 96 16 bd 52 0b 8b 3c f5 29 a7 bd 38 4e b9 3d
       -0.036764827 0.016973171 -0.081622995 0.09048122
000140 2e 6f af 3d f4 b4 4f bc 19 01 45 3d 0c 97 db 3c
       0.08566128 -0.01267742 0.04809675 0.026805423
000150 fd cd df bd 8e ec b1 bd c7 29 80 bd 42 db b1 bd
       -0.10927961 -0.08687697 -0.062579684 -0.08684398
000160 56 d0 eb bd fa 84 ea bc f6 94 18 3b e9 07 20 3c
       -0.11514346 -0.028627861 0.0023282147 0.009767511
000170 02 27 3c 3c b0 27 96 3d 5b 58 ca 39 8f 3e 3a bc
       0.01148391 0.073317885 0.00038594272 -0.011367454
000180 bc b8 5e b8 74 a9 8a bd b6 92 48 3c 96 b4 8a 3c
       -5.3100972e-05 -0.06770602 0.01224201 0.016931813
000190 72 2a 12 bd ef 72 e8 3d 55 7b 80 3d 8e 85 e8 3d
       -0.03568501 0.11350047 0.06273524 0.113535985
0001a0 e9 91 4a 3d cf 58 e7 bd 3c 98 69 3d d9 71 d6 bc
       0.049455557 -0.11296236 0.057029948 -0.026177334
0001b0 08 88 0c 3b b0 47 4d 3d 5f bc 12 bc 0e c7 94 3b
       0.0021443386 0.050117195 -0.008956044 0.0045403307
0001c0 7a 29 8f bc 8b 0d 9e 3d c5 73 e5 3b 15 b9 c4 3b
       -0.017475832 0.07717427 0.007002326 0.006003509
0001d0 d5 a4 8a 3d b7 3a 03 bb a3 e5 7e bd 26 75 db 3d
       0.067697205 -0.002002401 -0.062230717 0.10715704
0001e0 3d 15 a9 3d 6c e8 ce bd 06 e7 a6 3d ad 67 7b 3d
       0.08256004 -0.10102925 0.08149533 0.06137817
0001f0 bc fb 69 3c 45 3e a9 bd 10 1c c6 3d bf 75 d6 3d
       0.01428121 -0.0826383 0.09673321 0.10471677
000200 8f 97 a1 3e 48 a9 7e be ef 51 5f be 46 16 71 be
       0.31560943 -0.24869263 -0.21808599 -0.23543653
000210 9a 3b 9f bd 12 b6 e8 bd 84 61 cb 3e 62 3f da be
       -0.0777504 -0.11362852 0.39722836 -0.42626482
000220 78 a2 c1 be d7 87 b0 be 36 1d 9c 3e 98 fa 25 3e
       -0.37819266 -0.34478638 0.30491036 0.16208875
000230 77 46 6e bd 34 0c 2d 3e a3 b7 a9 be b2 14 13 be
       -0.05817267 0.16899186 -0.33147916 -0.14363363
000240 71 9c 93 bd 23 3f 83 3e fe 3e 2a bd 3e 93 bc bc
       -0.07207573 0.25634107 -0.04156398 -0.02301943
000250 f8 8b fe 3d 08 c8 6d be ec e2 16 3d cf 4a ca bc
       0.12429041 -0.23220837 0.036837503 -0.024693875
000260 76 ac aa be 26 be b8 bc 56 1e 20 3d e8 11 39 3e
       -0.33334702 -0.022551607 0.03909143 0.18073237
000270 a4 c3 30 3d a0 c2 60 be d1 6f ef 3e 68 69 90 3e
       0.043155327 -0.21949244 0.46764997 0.2820542
000280 3f f8 29 3e 01 0e 7a be 13 37 99 3e db 5c e0 3d
       0.16598605 -0.24419405 0.2992483 0.10955211
000290 91 0c c5 be 1c 9c 67 be b7 f1 ad bc fd b3 b4 be
       -0.3848615 -0.22618145 -0.021233423 -0.3529357
0002a0 f9 e0 15 be 8d 08 be 3e 6a b8 08 be 3a a6 6a be
       -0.14636602 0.371159 -0.13351598 -0.22914973
0002b0 d4 87 9a be 39 4f d5 be 55 bb 45 be 7f 7f 0e be
       -0.30181754 -0.41662005 -0.19309743 -0.13915823
0002c0 7f c9 0d be ef 50 53 be 26 94 18 be a4 7b 12 bf
       -0.13846396 -0.20636342 -0.14900264 -0.5721991
0002d0 f5 06 e0 be 7f d1 0f 3e 2e d6 82 be 42 fb f1 3d
       -0.43755308 0.1404476 -0.2555403 0.11815502
0002e0 53 82 49 3e 43 c6 2a 3d 56 cf 50 3d b8 b6 8f be
       0.19678621 0.041692983 0.05097898 -0.2806909
0002f0 f7 75 b6 3d 34 43 bb 3a 2e 71 18 be 19 c5 46 3e
       0.08909219 0.0014286996 -0.14886925 0.19411124
000300 4f 42 0b 3f 03 cb a4 3e 8f df a3 3e 0b cc db 3e
       0.54398054 0.32186136 0.320065 0.4292911
000310 65 9b 1f 3e 41 b5 33 3f cf 8b ec 3e c5 25 04 3f
       0.15586622 0.70198447 0.46200415 0.5162013
000320 50 c2 8a 3e 78 d2 19 3f d5 eb aa 3e 60 46 1a 3f
       0.27101374 0.60086775 0.3338305 0.60263634
000330 fb 88 c7 3e 90 0f 00 3f 50 7d da 3e 9b 39 fa 3e
       0.38971695 0.50023746 0.4267373 0.48872074
000340 91 2e d0 3e 14 7c 60 3e 40 bf 32 3f 6f c3 a2 3e
       0.40660527 0.21922332 0.69823074 0.3178973
000350 ef df 04 3e 08 4b d2 3e a3 b2 8c 3e 45 53 c3 3e
       0.12976049 0.4107287 0.2748004 0.38149467
000360 78 4a bd 3e 46 db 44 3f a3 a9 c4 3e a2 1f 23 3f
       0.36970878 0.76897085 0.38410673 0.6372014
000370 ce 0d ae 3e 12 03 b0 3e ae 76 bc 3e a7 eb ca 3e
       0.33994907 0.34377342 0.36809295 0.39632913
000380 43 6b 6d 3e 07 00 82 3e 2a 1f 0e 3f 39 d9 bf 3e
       0.23185448 0.25390646 0.555163 0.37470415
000390 71 18 d0 3e 64 b1 e0 3e 12 cc e6 3e 2c 35 f7 3e
       0.40643647 0.43885338 0.45077568 0.48282754
0003a0 93 5d 61 3e 54 7d 7b 3e b5 91 ee 3e 23 20 b2 3e
       0.22008352 0.24559528 0.4659554 0.34790143
0003b0 86 4b 00 3f ce ce 45 3f 17 4c 34 3f 5e 02 c0 3e
       0.5011524 0.77268684 0.70428604 0.37501806
0003c0 90 11 14 3f c3 56 7b 3e 5b af e1 3e 3b e8 e1 3e
       0.578393 0.24544816 0.44079098 0.4412249
0003d0 9b 82 c5 3e 2b 38 af 3e 6d f3 15 3f b2 6a e9 3e
       0.38576207 0.3422254 0.58574563 0.45589215
0003e0 21 e5 b0 3e 5b 8b cc 3e f3 03 35 3f 50 84 10 3f
       0.3454981 0.3995007 0.7070915 0.5645189
0003f0 3e 1c 50 3f d0 b8 a8 3e 97 bb 05 3f 2e ce c7 3e
       0.81293094 0.329535 0.52239364 0.3902449

fc.weight f4 [3, 64]
000000 40 46 c5 3e d1 52 c0 3e 1b f6 56 3e 1c 3d 2c bf
       0.3853016 0.37563184 0.2099232 -0.67280746
000010 4a f7 c0 bc 35 e5 09 bf 72 d1 10 bd 8c 0b da be
       -0.023555417 -0.5386537 -0.035355993 -0.42586935
000020 f6 1e 52 bf 30 e3 c3 be 7e 40 4e 3e c8 db 1c 3f
       -0.8207849 -0.38259268 0.2014179 0.6127286
000030 6a 5e 09 bf 04 ef 1b 3f 8d 95 c1 bd 53 b5 0d bf
       -0.5365969 0.60911584 -0.09452353 -0.55354804
000040 6b bc 05 3f 33 46 21 3f cd 42 37 bf 7a 89 75 be
       0.5224063 0.6299774 -0.71586305 -0.23978224
000050 68 27 39 3f 58 5c d7 be 8e 84 d8 be 14 25 0e bf
       0.72325754 -0.4206264 -0.4228863 -0.55525327
000060 0d 20 80 be cb 13 41 3f 6f 9e 5e bf 01 d3 06 3f
       -0.25024453 0.75420827 -0.869605 0.52665716
000070 b9 02 17 3f 96 8b 01 bf 51 a9 83 3e e7 6c 34 3f
       0.5898853 -0.50603616 0.25715116 0.7047867
000080 40 f8 46 3f 7f 34 1b bf 0e f4 84 3e d4 62 26 3f
       0.7772255 -0.6062698 0.2596745 0.6499455
000090 3c 46 27 bf 79 13 28 bf 44 9c 02 bf 1e 07 fb be
       -0.65341544 -0.6565471 -0.5101969 -0.49028867
0000a0 a6 21 be be fb 0e 82 3e 47 6c 25 3e a7 c9 3e bf
       -0.37135047 0.25402054 0.16154586 -0.7452645
0000b0 11 63 cb be df cb da be 93 b8 66 bf 59 47 33 bf
       -0.3972402 -0.42733666 -0.9012539 -0.7003074
0000c0 e9 23 29 bf cc a3 f5 bd f4 87 f1 3e ed 2c 97 be
       -0.6607042 -0.119941324 0.47174037 -0.29526463
0000d0 79 62 1f bf f2 fc c2 be d3 68 23 bf 0c 35 5f 3f
       -0.6225963 -0.38083607 -0.63831824 0.8719032
0000e0 c2 50 ea 3e 3c 4a 33 bf 34 56 75 bf 62 1d cf be
       0.45764738 -0.7003515 -0.9583466 -0.40452105
0000f0 ab 0c 5c 3f ed 92 43 bf da 19 55 bf 79 58 39 3f
       0.8595683 -0.76396066 -0.8324257 0.72400624
000100 dd 4b 86 3d 31 c9 09 bf 16 c2 39 bf 1a 5c 54 3d
       0.065574385 -0.5382262 -0.72561777 0.051845647
000110 25 70 39 bf 5d 21 ca 3c 79 60 2f 3f 45 5a aa be
       -0.72436744 0.024674112 0.6850658 -0.33271995
000120 43 7a 37 3f fc cb 9f be 7d d9 0b 3f 9c 3e 1b bf
       0.7167093 -0.31210315 0.54628736 -0.6064241
000130 55 ca 9b 3e 44 4d 20 3e e2 bf d9 be 08 e4 7d 3e
       0.30427805 0.15654474 -0.42529207 0.24794018
000140 91 9d 2a bf 91 94 28 bf 10 cf bc 3e 7e 38 1e 3f
       -0.6664668 -0.65851694 0.36876726 0.6180495
000150 69 db 1c bf 09 7f 50 bd 55 1f 36 3f 75 71 42 3e
       -0.61272293 -0.0509024 0.7114156 0.18988593
000160 91 48 93 be 9a fa 9e be a4 d9 43 3f 27 a4 45 bf
       -0.287663 -0.3105057 0.7650397 -0.772036
000170 ab f2 82 be 61 0c ad bc 55 86 16 3f c9 53 04 bf
       -0.25575766 -0.021124067 0.58798724 -0.51690346
000180 ee 5a 8b be 30 1b 60 3e 5a a2 12 3f 70 02 ad be
       -0.2721781 0.21885371 0.5727898 -0.33790922
000190 ac b3 40 bd 04 fe eb 3e 44 29 a4 3e 07 a4 09 3e
       -0.04704635 0.46092236 0.32062733 0.13441478
0001a0 69 ac 3e be 37 75 4d 3f ac a8 54 bf a0 32 06 3e
       -0.18620457 0.8025698 -0.8306987 0.1310525
0001b0 22 65 09 3e 3e be 02 be 9b 38 06 3f bc c6 0c 3f
       0.13417485 -0.12767884 0.52430123 0.54990745
0001c0 eb 27 1a 3d 50 93 cf be 20 45 d8 be f2 3a 6e be
       0.037635725 -0.40542078 -0.42240238 -0.23264673
0001d0 71 b3 73 3e 38 6c fc 3e 38 38 94 3e 99 b3 0f bf
       0.2379892 0.49301314 0.28949142 -0.5613342
0001e0 55 61 45 3e 48 f5 0f 3e 9b 98 80 3e 1b 31 8a be
       0.1927541 0.14058411 0.2511643 -0.2699059
0001f0 5e ab 1a bf 44 6c 30 3d 19 08 25 3f 07 32 fa be
       -0.60417736 0.043072 0.6446548 -0.48866293
000200 62 33 54 bf 2c 5c af 3e f8 bb 25 3f ec 00 17 3f
       -0.82890904 0.3425001 0.6473994 0.5898578
000210 c2 98 49 3f 95 f8 2c 3f 7d 2d 6c bf 5a 78 50 3f
       0.78748715 0.67566806 -0.9225691 0.8143364
000220 34 08 04 bc 12 c9 6b 3f 55 0c 4a bf 6a 7e 8b bd
       -0.008058596 0.92103684 -0.7892507 -0.06811221
000230 22 3c 0c 3f 5d 74 47 bf a6 05 ef 3e 36 82 1a 3e
       0.54779255 -0.7791193 0.46683997 0.15088734
000240 0f f3 b0 3e 5f b4 17 3e 22 82 17 3e a1 55 86 be
       0.3456044 0.148149 0.14795735 -0.26237205
000250 5b a7 ca bc 3a bc d7 3e d4 0d b1 be e1 7d ea 3e
       -0.024738004 0.42135793 -0.34580863 0.45799163
000260 5e 82 3c 3f b7 d2 39 bf 83 87 85 be d5 68 57 3e
       0.73636425 -0.7258715 -0.2607995 0.21036084
000270 5d 37 11 bf ba a1 ea 3e 4b 1e 55 bf 27 ef 02 be
       -0.567251 0.45826513 -0.8324935 -0.12786542
000280 7e 6c 9f be 04 25 d9 3e 87 f7 7d bf 04 02 c4 be
       -0.3113746 0.42411053 -0.9920582 -0.38282788
000290 1a 9a 4b 3f 51 94 b4 3e 11 e7 80 3e 17 66 07 3f
       0.79532015 0.35269406 0.2517629 0.5289015
0002a0 88 b5 45 3f 99 b0 7a bf f0 66 80 3f 23 cc 18 3f
       0.7723012 -0.97925717 1.0031414 0.5968649
0002b0 2f 61 2d 3f eb 81 4d 3f cc 4c 88 3e a5 36 2f 3e
       0.67726415 0.80276364 0.2662109 0.17110689
0002c0 c3 de ea 3e 21 8c 4e 3f eb 8e 6c 3e d9 67 29 3f
       0.4587308 0.8068257 0.23101394 0.66174084
0002d0 78 74 d0 3e ea 59 ce 3b 32 4e bf 3e 57 ee 1b bd
       0.4071386 0.0062973397 0.37364346 -0.038069095
0002e0 1c 8f 3a bf 11 68 b6 3e 27 c1 92 3e 49 5b 63 3f
       -0.7287462 0.3562627 0.2866299 0.88811165
0002f0 82 6f 8b be 5e 72 1f 3f 93 52 41 3e 54 1f 46 be
       -0.2723351 0.62283885 0.18879156 -0.19347888

fc.bias f4 [3]
000000 39 e4 b0 3d 79 88 8e 3d 68 82 f1 bd
       0.0863728 0.06959624 -0.11792451
