Code-in-cloud/results/models/乳酸分类标签_linear_lstm.pth (torch, 81928 bytes, 6 tensors)

lstm.weight_ih_l0 f4 [256, 11]
00000000: 94d1 8f3d 3421 de3e 80bf 943e 61c9 873e
00000010: 66d6 f83c d50b bebd b3b1 ef3c 5d99 f33d
00000020: 6d04 de3e 80a3 eebe 65f4 3ebe a0bc 9dbb
00000030: 526d 00be e591 0bbf d324 e9be 7b4a 3ebe
00000040: 0064 e6be 97cd a03e e828 ee3d f051 a13c
00000050: 28e1 473f d94d 44be 8c90 02be bb43 4a3e
00000060: 383e 39be 9c66 7a3e b71c 6bba f4d2 a13e
00000070: 48c8 adbe d6d6 463c 8765 a73e c76b ce3e
00000080: 894c 8a3e 3a38 59bd 5c72 0b3e 355b 5dbe
00000090: 5e11 b13e cf4c 0f3e b3fb 94bf b08e 213f
000000a0: 560f 4cbe 9f58 c5be a8f9 93be ff02 db3e
000000b0: 0591 aabe 860a f13e 4752 1f3e 2626 b13e
000000c0: 05cd 313f 5976 3abe 8652 623d b51e 2d3e
000000d0: f26c 283f 4b61 a93e c386 753e f37b a73e
000000e0: 9838 8e3e 8c4d 11bf 8c47 c23e 6d17 24bf
000000f0: d088 92be 0cf0 ff3e 6b53 91be 6459 f03c
00000100: 201d d8bd b23c 003f bf3b 8ebb 58b5 e03a
00000110: 64bf a3be 73c9 ca3e d560 95bd a17c 983e
00000120: 95d4 f2be e44c 60be 2d04 1ebd f198 573d
00000130: 8769 c63e 2a21 19be e3f2 20bc 10a8 90be
00000140: b20a d23e ba3a 033f e7b7 a63e 1442 a3be
00000150: 2c26 223e b0e8 ba3e b979 073f 5029 38be
00000160: 7e44 343e 3957 983e 09de 59be 58a4 cb3d
00000170: 719c f63e 685b 5bbe 64bc a93e ad80 f93d
00000180: 325d e5bd 518c 8dbd bc66 0c3f 4588 573e
00000190: 8878 46be 6ef6 14bf 3c49 2b3f f023 77be
000001a0: e353 9fbd b9c2 45bf 35ab a53e 9143 05be
000001b0: 96d0 bbbd bbf1 a83e 233c edbe 529c b0be
000001c0: 8e1a de3d a58b 59bc e62b 243f ddb0 5dbe
000001d0: 17e4 90be 5abf b2bd 1429 813d dfcc 663f
000001e0: 7bcc aabd a72b a23e 4b53 8cbe 2869 423e
000001f0: 2504 eebe 091d 18bf a5dc 563e 0535 033d
00000200: 7f21 fabd 83be f1be d1a8 09bf 79b3 3e3e
00000210: 35d1 e73d e80d e73c ed20 f8bd 9afd 823e
00000220: 4b27 af3e 114b 8bbd 93ac 363d a565 df3d
00000230: c6f0 f63d c87d 1bbe 1c98 4b3f 54f9 3bbe
00000240: eba4 77be 0cac f8be 2545 ef3e 58f1 563d
00000250: 1d45 61bb e8cd c4be c04c 0b3e aff7 fe3d
00000260: 9bf5 02be 43e7 3bbe 53c6 343f ea6f 1e3e
00000270: 4627 c53d 380e 48be d6da 0bbd a54d aabe
00000280: 8bc5 a03e a2c1 44be c6e4 83be f810 75be
00000290: 1cab b83e 7d97 f9bc b120 1cbf 64ea 583e
000002a0: 180a 0f3d 5d35 85be 5bc2 5dbd beea 05bf
000002b0: f49e a43e 39b9 5ebd 53c3 863e ac36 4dbe
000002c0: 17d4 60bd d5e4 0bbe b8ba 173f 1ee6 1cbe
000002d0: f614 843e 575f fdbd bb53 73be 3bf9 aebe
000002e0: 732c 9cbd 7c09 cd3d e5d1 c6be 8962 d8be
000002f0: f098 583d 3908 cf3c 14f3 783e fee2 fd3e
00000300: 5f0a 07bf 60ae 9b3e 425f 3f3d ea34 8f3e
00000310: ccb5 42bc 1fb1 e4be da7a f23d 083d edb8
00000320: a36f e6be 8482 403f abf6 10bf f5ba d33e
00000330: fdec 60bf b1c3 09be 7797 1ebe fd0b 3cbd
00000340: 88f0 183f 0413 593e 6e6c b3be 591a 99bd
00000350: 9f1a 3dbf fde9 a4be 071d 53be bd84 ab3e
00000360: 0487 dd3b c7e9 bd3e d1fe 363e cd47 c0be
00000370: d02b 09be f909 5abe 47d2 253e 21c1 893d
00000380: dbf7 3f3d 2182 8dbf 7c27 a43e 49f5 dcbe
00000390: f7f4 17be 456c 053f 9596 a43e e85e bbbd
000003a0: 967f 67be 3422 f03d f9e9 8dbe 593b b2be
000003b0: 0475 f6be 06f4 33bd 11e8 d5be d4b8 a0be
000003c0: a5e5 dc3e cba3 243d a5e1 14bf 9e6c 1dbf
000003d0: ba76 47be b43d aebe 30da c5bc 159a f5be
000003e0: a0d5 983c 1581 c5bd 4eea cbbe e56b 6b3f
000003f0: 3010 d43e 8e54 adbd c28a b33d a15f e7be
0.07022396 0.43384707 0.29052353 0.26520827 0.03037567 -0.092796005 0.029259538 0.11894486
0.43362752 -0.46609116 -0.18647917 -0.0048137456 -0.12541702 -0.5451949 -0.45535907 -0.185831
-0.4499817 0.31406853 0.11628896 0.019692391 0.78077936 -0.19170322 -0.12750453 0.197524
-0.18090141 0.24453205 -0.00089688174 0.31606257 -0.33941865 0.012136182 0.32694647 0.40316603
0.27011517 -0.053032137 0.13617843 -0.21616824 0.34583563 0.13994144 -1.1639313 0.6310835
-0.19927725 -0.38544175 -0.2890141 0.42775723 -0.33313766 0.4707834 0.1555873 0.34599417
0.6945346 -0.18209209 0.05525448 0.16906245 0.6579124 0.3308204 0.23977189 0.32711753
0.27777553 -0.5675895 0.3794521 -0.64098245 -0.28620005 0.4998783 -0.28383955 0.0293395
-0.1055243 0.50092614 -0.0043406184 0.0017143888 -0.31981957 0.3960682 -0.0729386 0.29782584
-0.47427812 -0.21904331 -0.0385782 0.05263609 0.38752386 -0.14954057 -0.009823534 -0.28253222
0.41023785 0.51261485 0.3256218 -0.3188635 0.15834874 0.3650565 0.5292011 -0.1798451
0.17604253 0.29754046 -0.21276106 0.099434555 0.4816623 -0.21421587 0.33151543 0.12182746
-0.11199416 -0.06911529 0.5484426 0.21048076 -0.19381917 -0.5818852 0.6690862 -0.24134803
-0.07779672 -0.7725025 0.32357183 -0.13014056 -0.09170644 0.32996926 -0.46334943 -0.34494263
0.10844909 -0.013277923 0.64129484 -0.21649499 -0.2829902 -0.08727904 0.06306663 0.9015636
-0.08339783 0.3167393 -0.27407297 0.18985426 -0.46487537 -0.59419304 0.20982607 0.032032985
-0.1221342 -0.4721566 -0.5377322 0.18623151 0.113192 0.028204873 -0.12115655 0.25584108
0.34209666 -0.06801427 0.044598173 0.10908059 0.12057643 -0.151847 0.79528975 -0.1835683
-0.24184005 -0.4856876 0.4673244 0.052476257 -0.003437347 -0.38438344 0.13603497 0.12449586
-0.12789004 -0.18349938 0.7061512 0.1547238 0.096266314 -0.19536674 -0.034144245 -0.33262363
0.31400713 -0.1921449 -0.25760478 -0.23932254 0.36068046 -0.030467743 -0.60987383 0.21183163
0.034921736 -0.26017275 -0.05414043 -0.52311313 0.32152522 -0.05437586 0.26320896 -0.20040387
-0.054889765 -0.13661511 0.59269285 -0.15322158 0.25797242 -0.123717 -0.2376241 -0.34174523
-0.076256655 0.100115746 -0.38832012 -0.42262676 0.052880228 0.025272476 0.24311477 0.49587244
-0.527502 0.30406475 0.046721704 0.27970058 -0.011884164 -0.44666383 0.11839838 -0.000113124086
-0.45007047 0.7519915 -0.56626385 0.41353574 -0.87861615 -0.13453557 -0.15487467 -0.04590987
0.5974202 0.2119866 -0.35043663 -0.074757285 -0.73868746 -0.3220977 -0.20616542 0.3349971
0.00676048 0.3709242 0.17870642 -0.3755478 -0.1339562 -0.21292867 0.16193496 0.067262895
0.046867233 -1.1055337 0.32061374 -0.43155888 -0.1483954 0.5211833 0.32146135 -0.09148961
-0.22607264 0.11725274 -0.2771757 -0.34810904 -0.4813615 -0.04393389 -0.41778615 -0.31391013
0.43143955 0.040195268 -0.58156806 -0.6149386 -0.19478884 -0.3403145 -0.024151891 -0.47969118
0.018656552 -0.09643761 -0.39827198 0.9196151 0.414186 -0.08463393 0.087667 -0.45190147

lstm.weight_hh_l0 f4 [256, 64]
00000000: 8bc3 2ebd 3384 acbc b1c3 a03d 419a b9bc
00000010: 7ede a53d 99c5 afbd 2c14 cdbd e90e 01bd
00000020: 8025 58bd 7e55 f43d 4790 7a3c 7934 963d
00000030: a152 b13c 60d3 453d d054 b2bd a8e8 efbd
00000040: 3aaa 67bd 19e5 6f3d 6fc3 253c 140a 50bd
00000050: 8a5b 48bb e014 e03d 820f d9bd dd27 d53d
00000060: 512d 27bc 56d7 ccbb beb1 213d 28b4 813d
00000070: 1116 c9bd 7593 003d d6b1 21b8 ce31 f13d
00000080: 4c61 e9bd 2c5e 2dbd 112f 5e3d 0581 c6bc
00000090: cf01 c93d 6ff3 cb3d 4f34 cfbd 78f8 80bd
000000a0: 0923 053c e55b 803d d4a2 f43d 5540 bf3d
000000b0: f86e e23d 6313 e1bd 5964 b7bd 5552 783a
000000c0: b3ac dc3b 5da1 673d 0032 b83b 1208 b5bd
000000d0: 2aec 823d cb7f 2bbd 6c96 c63c 4181 ba3d
000000e0: cd27 22bc dc64 7cbc 60aa 6abc 980b e83d
000000f0: 96d1 1f3c 8bc6 48bd 1ec8 e4bd aab4 a7bd
00000100: 3c98 f43d d8f0 26bd 5fce d13c 291c 6bbd
00000110: 7295 353c fd00 5e3d cbac b2bd 0e6b 7fbd
00000120: 6471 bbbd ee5f 95bd f228 bebd d785 f33d
00000130: c130 c73c 4b2d d1bd ca60 473d be4c 423d
00000140: da63 ab3d 4568 f93c 9f3c a03c b6aa 313d
00000150: 771a 7ebd 73ff 6abd 18d5 573d 459c 9abc
00000160: 1145 e9bd fbf3 833d 9f8a 5a3d b4f5 eb3d
00000170: f99e 663d de9f a9bd 952b 823d 0cb9 bebd
00000180: e963 4abd 267c a23c c95b 793d be6d 81bd
00000190: 389e bbbd 881c b83d d893 efbd e0a4 853c
000001a0: 7411 c4bd 4026 c6bc 3711 003c 3523 94bd
000001b0: b2ac 903c f441 4dbb c79f e63c 6210 dcbd
000001c0: 7666 b0bd 52a0 583d 3c9d 3c3d 9863 dd39
000001d0: dbec 69bd dbf7 263d d2ba b83d b5df 013d
000001e0: 5d2c dd3c 6ec1 bd3c 2617 a43d 9a76 17bd
000001f0: 545d 953d 57f8 e5bd b72f e63d 4907 a7bd
00000200: c553 4bbd 56bf e93d 3157 8c3d 5534 e5bd
00000210: 7301 a53d 1c1e 433d ae12 b93d 881e 8b3d
00000220: 3b08 f8bb 63a2 883b 7767 973d 1a2c 1fbd
00000230: 47f4 ddbd dba3 a0bd 4a48 9abd 7b69 5fbc
00000240: dcdd 4ebd a0b9 d0bc 050e f33c 532d e0bc
00000250: 3e5d d8bc 4765 e9bd ce47 1a3d e1e0 773d
00000260: 0ff9 48bd 7796 aabd efe3 e5bd 619c df3d
00000270: fe18 5abd 1280 bcbc 68f7 c63d f9d8 c33c
00000280: 0c47 9d3d 1cdd f33c 9212 bc3d 67e2 b1bd
00000290: 008b 1d3d bc00 b13c d857 143d 3260 b6bd
000002a0: 5b31 cc3d 89f8 d83d 2344 f73d 9762 eb3d
000002b0: 35fe d43d 39c7 b33d 311f 113d cbd6 85bd
000002c0: 5bba 8abd 023d bfbd a06a 883c 7547 da3d
000002d0: b0d7 863c f779 cc3d 303f edbc 34a4 1abd
000002e0: 0645 60bc 8570 74bd 08e0 a43d c2d2 b2bd
000002f0: 11d0 93bd adf1 dc3d 828e 813d 02a5 37bc
00000300: bd42 2dbc 5555 7ebd 160e 883d 25b4 6c3d
00000310: 9e89 103c 1709 9abd 4e1a bbbd 7c19 833c
00000320: e1bb efbd eb62 6c3d cfb2 debd f58c ae3d
00000330: 2d9a f3bd 9e7a a23d 7329 893d 25e7 793c
00000340: deba db3d 2eb5 f3bd ae30 20bc 8b13 133d
00000350: c1e5 103d 4ef5 18bc bc9d 4d3a a05f 97bd
00000360: 3e0b 8e3d 4a86 64bd 62c2 01bd cdf5 633c
00000370: bb4b ae3d 21e0 4cbd ef89 cabd af93 1f3d
00000380: 0c54 963c dc4f 85bd 0eec 8b3d e338 803d
00000390: dfe4 523d 6b60 d83d 7139 823d f6bd b23d
000003a0: a313 c7bd 6a99 b4bd 881c f2bd 6b21 c83d
000003b0: d434 cebd 51af 81bd ea51 b4bd b0ad 933d
000003c0: c516 bcbd baaa 903c bd59 6ebd a481 dabc
000003d0: f2fa d23d a9b2 e3bc 5260 1fbc f719 91bc
000003e0: 2e33 d63d 6e46 ec3d b32d 21bc 20f1 bc3c
000003f0: 0df9 6abd c3ea ca3d 2c0d 5a3b fd9c a13c
-0.042666953 -0.021059131 0.07849825 -0.022656562 0.08099078 -0.08582611 -0.10013613 -0.03150836
-0.052770138 0.11930369 0.015293187 0.07334227 0.021645846 0.048297286 -0.08707583 -0.117142975
-0.056558825 0.058568094 0.010117396 -0.05079086 -0.003057214 0.109414816 -0.10598661 0.10407994
-0.010203675 -0.006251256 0.03947615 0.0633319 -0.09818662 0.031390626 -3.8551014e-05 0.117770776
-0.11395511 -0.042326137 0.054244105 -0.024231443 0.09814798 0.09958541 -0.10117399 -0.06297392
0.008126029 0.062675275 0.119451195 0.09338442 0.11056322 -0.10990026 -0.08954687 0.00094727176
0.0067344545 0.056550372 0.005621195 -0.0883943 0.06392701 -0.04186992 0.024241649 0.091066845
-0.009897185 -0.015404906 -0.014322847 0.11330336 0.009754559 -0.04901747 -0.11170982 -0.08188756
0.11943099 -0.04075703 0.0256111 -0.057399902 0.011082994 0.05420016 -0.08724364 -0.062357955
-0.09152487 -0.07293688 -0.092851534 0.11890762 0.02431524 -0.10213717 0.04867629 0.04743647
0.083686545 0.030445227 0.019560156 0.043375693 -0.062036958 -0.05737252 0.052693456 -0.018873343
-0.113901265 0.0644302 0.053354856 0.115214735 0.056303952 -0.08282445 0.06355969 -0.09312639
-0.049411688 0.01983459 0.06087855 -0.0631976 -0.09161037 0.08989817 -0.11698121 0.01631397
-0.095736414 -0.02418816 0.007816604 -0.07233278 0.017660473 -0.0031319829 0.02815236 -0.10745312
-0.08613293 0.05288727 0.046048388 0.00042226608 -0.05711065 0.040763717 0.09020008 0.031707484
0.026998693 0.023163524 0.08012228 -0.03697834 0.072931916 -0.11229008 0.1123957 -0.081556864
-0.049640436 0.114134476 0.06852568 -0.11191622 0.08056917 0.047636136 0.09036766 0.06792933
-0.0075693405 0.0041697486 0.07392781 -0.038860418 -0.10837608 -0.07843753 -0.07533319 -0.013635988
-0.05050455 -0.025479138 0.029669771 -0.027365362 -0.026411649 -0.1139627 0.037666135 0.060517196
-0.049065646 -0.0832948 -0.112251155 0.10918499 -0.05324649 -0.023010287 0.09715158 0.023907172
0.07679567 0.02976852 0.091832295 -0.08685761 0.03846264 0.021606795 0.036216587 -0.089050665
0.09970351 0.10594279 0.12073543 0.11493414 0.10400049 0.08778233 0.035430137 -0.06535109
-0.06773826 -0.09337808 0.016652405 0.106581606 0.01646027 0.099842004 -0.028960794 -0.037754253
-0.0136883315 -0.05967762 0.08050543 -0.08731605 -0.0721742 0.107882835 0.06326009 -0.0112087745
-0.010574994 -0.062093098 0.06643312 0.057788987 0.008821873 -0.07521265 -0.091358766 0.016003363
-0.11705757 0.057711523 -0.10873949 0.08522979 -0.11894641 0.079335436 0.06697359 0.015252863
0.107290015 -0.11899792 -0.009777231 0.03590731 0.03537536 -0.009335829 0.00078436336 -0.07391286
0.06935738 -0.05579213 -0.03167952 0.013913584 0.08510538 -0.050018433 -0.0988959 0.0389592
0.018350624 -0.065093726 0.06832133 0.0626085 0.0514878 0.10565265 0.06358612 0.087276384
-0.09720542 -0.08818324 -0.11821848 0.09771999 -0.1006867 -0.06332267 -0.08804686 0.07210863
-0.091840304 0.017659534 -0.05819105 -0.026673146 0.1030177 -0.027795153 -0.009727554 -0.017712576
0.104589805 0.11536871 -0.009837556 0.023064196 -0.05736642 0.099080585 0.0033272011 0.019728178

lstm.bias_ih_l0 f4 [256]
00000000: 9cca 083f 73a2 633e eca5 d13e 1813 483d
00000010: 6d20 db3e 9dff f83e 5d29 093f 0466 dd3e
00000020: 3c1c 123f dcb9 223f 6bea ce3e ae12 fd3e
00000030: 4767 f23e 2978 1c3f 95d3 3c3f aafc f23e
00000040: d6a4 833e b812 e43e ef27 3f3f 8f36 ac3e
00000050: 3c1b 283e 3436 083e 0254 9f3e e757 1e3f
00000060: 2de0 e43e 16d4 fc3e c3ab 023f 95f8 a73e
00000070: 4601 7a3e b098 e33e 3f01 ae3e a78e ca3e
00000080: 51b5 e33e deb0 c83e bf63 f33d f94b f13e
00000090: 70fd cf3e 599f 133f 04dc 5d3f 6ba2 a53e
000000a0: cc03 0b3f acb9 4e3f 9157 d63e 3c59 043f
000000b0: 8ab4 d93e bd56 c53e dcff 213f 67a4 123f
000000c0: bc68 303f 4210 bd3e 9c0a bf3e 2ed1 f73e
000000d0: 5184 d53e 8fa5 083f c239 333f 2aad c63e
000000e0: 2f23 ea3e 968a d83e b257 7f3e ea02 173f
000000f0: b92a fe3e 61ff a23e 5ffd 3c3e 3be0 373f
00000100: e9f3 1dbd cdde ae3d 609a b13d 275c de3d
00000110: eb35 e1bc cdae 54bd acf0 aaba 1ab1 563d
00000120: 9592 2f3d e988 843d f27a a2bd c903 723c
00000130: 93d9 8ebc 7b26 91bd 0963 8c3c 531a d1bd
00000140: 81fa 5bbc f38d 6d3d 44cb e3bb 8f9d d13d
00000150: 2a03 f0bc d746 c63d 07bf 95bd 143f 363c
00000160: bb5a edbc 848b ebbc fc97 973d bb1c 963d
00000170: 7ea3 833d 1f35 b0bc f0ab a13c 4882 f0bd
00000180: 31b7 4ebd b6ac eb3d 7fcc e7bd f2b5 bb3c
00000190: 2438 e43d 91c0 d9bd 1b8e 3abc dec0 633d
000001a0: 0be8 683d 29b4 2d3d ad7b b6bd c1ba b03d
000001b0: ec65 993c e02e 803d 7fd7 b93d 9f85 3ebc
000001c0: cf16 51bd 07c5 ec3d 17ca 9f3d 4865 f53d
000001d0: e300 f0bd 03b3 8d3d 0b27 3f3d c4d1 873c
000001e0: 7873 75bd 8d27 843c 1359 b73d 26ac da3d
000001f0: c100 52bc 0915 6e3d b0ce 00bd 960e adbd
00000200: 002b 403e e06b 2dbd f6d2 9f3d b75f 29be
00000210: e86b a23e 4bdb f5bd c691 5fbc f566 793c
00000220: 1993 e03e 8702 083d 445c 0cbe 6080 74bd
00000230: dc5d 88be d039 093e b25d d4bd 37dc c1be
00000240: e349 d33c a1eb 9abc 9b2a 9b3c ca98 3b3d
00000250: f3b9 a13d ba13 94bd b03d 293e 3bcc 0bbe
00000260: a3b9 493d f7e3 cebd fc79 ebbd e4c2 9bbd
00000270: 02de 583d acca 91be 256a c3be 4e02 b3be
00000280: dd15 d9be 8a5d 8f3e 91d7 d0bd f245 5ebe
00000290: dbe4 5d3d 59e6 623e c227 543e 382a cc3d
000002a0: 7e6a 94be 82fd 20be 71b3 bcbe 0fe7 aa3e
000002b0: 994d 723d d8a9 2d3e f2a0 b83e 3d55 d73e
000002c0: 5ead a0be 324e 37be 24a0 c4be 5aa2 3b3e
000002d0: 2ea8 643d 424f 9fbe 3dc1 103b 5e7a 723e
000002e0: 1624 643e caa1 1a3e 217e 20be aad0 1a3e
000002f0: c1b0 033f ca55 b0be f451 35bd 9638 83be
00000300: 8810 cd3e f6c2 123e c457 143f 134d 6f3e
00000310: 6834 0b3f e135 c73e 3e41 043f 9180 f83e
00000320: ed07 093f 29bc 1a3f 3b94 e43e 5fa1 f63e
00000330: c6a8 a23e 155a 2b3f fb38 433f fec6 113f
00000340: b8a5 2a3e f49b c13e 0720 3d3f 7c6a 2d3e
00000350: 00a3 813e 6791 0a3e 669b e73e 409a 093f
00000360: 302d ea3e 0328 ae3e 883c 053f 4621 103f
00000370: a9fa af3e 9d35 073f 40e3 883e 2ea3 063f
00000380: 6e99 d73e d935 a83e 0636 583d 97f0 ec3e
00000390: c51b 963e 03d8 1e3f 01ac 223f 40a6 773e
000003a0: 7894 223f 228f 493f 1eb1 243f e56e 113f
000003b0: 21ed 193f 3b37 dc3e fcae e63e 3fc2 0f3f
000003c0: 78df 533f 8505 cf3e 629a 063f 9435 c23e
000003d0: 1afc 053f 2cca ed3e 34aa 273f a9a8 c83e
000003e0: 574e ca3e a5e4 103f 0045 513e ec24 2f3f
000003f0: 5752 103f 49c3 e73e 36dd 503e 340a f13e
0.5343416 0.22229938 0.409469 0.048846334 0.42798176 0.48632517 0.5357874 0.43241894
0.5707433 0.6356485 0.40413222 0.49428314 0.4734442 0.6112085 0.7376035 0.47458392
0.25711697 0.4454553 0.7467031 0.33635375 0.16416639 0.13301927 0.3111878 0.6185288
0.44702283 0.4938056 0.5104334 0.3280684 0.24414548 0.4445243 0.33985326 0.3956196
0.4447427 0.3919744 0.118842594 0.47128275 0.40623045 0.5766502 0.8666384 0.32350478
0.5430267 0.8075206 0.41863683 0.5169866 0.42520553 0.3854274 0.63281035 0.5728211
0.6890981 0.36926466 0.37312782 0.4840178 0.41702512 0.5337762 0.70010006 0.3880399
0.45729968 0.42293233 0.24935797 0.5898882 0.4964197 0.31835464 0.18456028 0.71826524
-0.03856269 0.085385896 0.08672023 0.108574204 -0.02749153 -0.051924516 -0.0013041697 0.05241499
0.0428644 0.06471426 -0.07933606 0.01477141 -0.017437732 -0.07087418 0.017137067 -0.10210099
-0.013426424 0.0579967 -0.0069517214 0.1023513 -0.029298384 0.096814804 -0.07311826 0.011123437
-0.028973928 -0.02875305 0.074020356 0.07329699 0.06427668 -0.021509705 0.019735307 -0.11743599
-0.050467674 0.11507551 -0.113183014 0.022913907 0.111435205 -0.10632432 -0.01138642 0.055603854
0.05686192 0.042408142 -0.08910308 0.086293705 0.018725358 0.06258941 0.09074306 -0.011628537
-0.051047143 0.115610175 0.078022175 0.119822085 -0.11718919 0.069189094 0.046668094 0.016579516
-0.059924573 0.01613214 0.089525364 0.10677366 -0.012817563 0.05812553 -0.031447113 -0.08450048
0.18766403 -0.042339206 0.078039095 -0.16540419 0.3172295 -0.120047174 -0.013645595 0.015222301
0.43862227 0.033205535 -0.13707072 -0.05969274 -0.2663411 0.1340096 -0.103694335 -0.37863323
0.025792068 -0.018911185 0.018941214 0.045800008 0.07896795 -0.07230325 0.16527438 -0.13652126
0.049249303 -0.101020746 -0.11497876 -0.07605532 0.0529461 -0.2847494 -0.3816692 -0.34962696
-0.42399493 0.28001052 -0.10197366 -0.2170637 0.05417333 0.22158183 0.20718291 0.0996899
-0.28987497 -0.15721706 -0.36855653 0.3337941 0.059156034 0.16959321 0.36060292 0.4205722
-0.3138227 -0.17900923 -0.38403428 0.18323651 0.05582445 -0.31115156 0.0022087835 0.23679492
0.2227939 0.1510078 -0.15673114 0.15118662 0.5144158 -0.34440452 -0.04426761 -0.2562911
0.40051675 0.14332184 0.5794642 0.23369245 0.5437684 0.38908294 0.5166205 0.48535588
0.5352772 0.6044336 0.4464434 0.4816999 0.3176939 0.6693433 0.7625882 0.56944263
0.16664779 0.37814295 0.73876995 0.16935152 0.25319672 0.13532029 0.45235747 0.5375099
0.457376 0.34014902 0.5204549 0.5630077 0.34370926 0.5281618 0.26735878 0.5259274
0.42109245 0.32853583 0.052785896 0.46277305 0.2931806 0.6204836 0.6354371 0.24184513
0.63507795 0.7873403 0.6433276 0.56809837 0.60127455 0.43010888 0.45055377 0.5615577
0.8276286 0.404339 0.5257932 0.37931502 0.523378 0.46443307 0.65494084 0.39191177
0.39512894 0.56598884 0.20436478 0.68415713 0.5637564 0.45266178 0.20396885 0.47078097

lstm.bias_hh_l0 f4 [256]
00000000: 2149 0a3f 55e1 c73e e89b f13e f0e2 633d
00000010: 85ee cc3e 77ae dc3e 32ce f73e 9e7d 9e3e
00000020: e814 2e3f e45f 253f b5a0 c13e 777e bc3e
00000030: 7738 113f 0518 fe3e 68cd 1e3f 772c 113f
00000040: a617 843e 1b2c f23e a2de 103f d721 643e
00000050: 96bd 863e 8739 0a3e 4793 973e 4232 e73e
00000060: ef45 e33e e32b e13e d7fa f53e 1dc8 0d3f
00000070: a50b 4b3e dd36 cc3e c060 513e d738 c73e
00000080: 4465 0a3f 717d de3e a027 513e df8c c73e
00000090: c659 bd3e 4105 103f a981 2b3f 43f9 c63e
000000a0: 9912 2c3f 2998 393f dec3 223f ac6b 1b3f
000000b0: 7270 fb3e 3b51 b43e e0c6 ed3e e877 383f
000000c0: 812a 203f e736 be3e 55de f03e ca43 ca3e
000000d0: 1544 a63e 1bdf 033f 66b7 203f c2a1 ba3e
000000e0: fa6d 043f 0a9f 133f 90ce 893e f631 093f
000000f0: 42eb 293f fffe ae3e 1678 293e 9d24 313f
00000100: cc1f b33d a928 373c a07b 3ebc 675b e7bd
00000110: 53f9 d33d f816 d53d 9f4e 89bd 9e35 c03d
00000120: f479 d1bd 3f19 b63d eb8f f6bd 9833 e4bd
00000130: cf99 743d f631 bd3d 6ee0 a93d 9adc dbbc
00000140: a831 413d c0f8 61bd b3a4 4abc 9d7c 3abd
00000150: 8d42 94bc d1cb afbd e351 a63c aa8c 4ebc
00000160: a12f 2f3d 53f3 f2bd 49b9 c3bd 1703 d6bd
00000170: 990d 9abc 85a2 10bc 8a11 a0bd 0661 5b3d
00000180: 7c16 df3d cb52 ceba 46f6 853d 0968 9cbd
00000190: 85ae c93d 314d 543d 566d 493d 4cec 95bd
000001a0: 6906 413d 5107 c9bd 9514 4c3d 8599 c23d
000001b0: bdef 39bd 72a3 be3d f8c1 aabd 8537 413c
000001c0: 79e1 a73d 56a6 e0bc e4e0 e43d 76ed abbd
000001d0: 9d22 dfbd 7c13 dc3d 8e8b 633d 411a b6bd
000001e0: 0675 9abc a8b7 dbbd 9840 eb3d 986c ce3d
000001f0: 0cb7 adbb f4d7 30bd 7d33 9abd bfc3 f03d
00000200: 36fb 883e b9fa 34be 67d9 c73a b912 2dbe
00000210: 3994 e43d b287 1a3b 1748 a93d 8b08 0cbd
00000220: b438 f53e e555 503e 8f54 693d b5b2 2ebe
00000230: 636f a6be 3415 143d dca3 423c 184c b2be
00000240: 3fe6 453e 1203 66bc 7eb3 8cbd f3a0 bf3d
00000250: 5989 753d 318b 7a3d b065 763e 695f b9bc
00000260: c55e d13d 3529 44bd 61d2 47be da39 38be
00000270: 235a a13d aeaf acbe d435 08bf df61 a4be
00000280: 20dd 99be c778 883e af6b 1bbe 408c 4abe
00000290: 641d 0a3e 20a1 913e 93fb 713e a61a a43d
000002a0: 5bc3 b2be 0632 84be ac9e a4be 8682 de3e
000002b0: 6f6c 593e 4176 673e c0cc f83e df6f a93e
000002c0: c207 83be bc7f 55be 37b9 b4be 9182 523d
000002d0: 7a4a 7fbd 5e06 cfbe b8c3 58be 5631 fc3d
000002e0: 844d 483e 2ec7 c83d e700 ec3c f549 633e
000002f0: 73c3 d83e d0e6 68be 0cc6 443d 50ac 74be
00000300: 8c34 103f 2c8f a73e d483 f83e 1798 933e
00000310: d5c8 f33e 0cf1 083f 9bde 0b3f 0d95 103f
00000320: e01b 083f 1f82 123f 7403 ac3e 03ff 113f
00000330: 04e8 e73e c28b 0d3f 7a21 3e3f b1b4 063f
00000340: d12d 853e ab98 cd3e 1568 393f c167 8a3e
00000350: 7dec b43e 8212 1f3e a7fa cd3e a504 073f
00000360: 2506 8f3e 3c32 e03e 3e23 c73e 75fc c93e
00000370: 0396 9d3e c611 c03e 4a35 423e 68cd 073f
00000380: b540 f33e 4dfb b63e d9c7 283e a615 d23e
00000390: 863f 813e a68e 0c3f 0b12 033f 767f e93d
000003a0: 6cfc 0f3f d255 5b3f c265 063f b9dc 0b3f
000003b0: 6f3f 053f 1e0a de3e c914 0e3f 0bb8 053f
000003c0: f5d0 2f3f 3f3d cc3e c2ea f03e 5e4e f93e
000003d0: 6741 e03e 5d23 0b3f c673 433f db3e b53e
000003e0: 33c7 163f 54ae e23e d2fa af3e 9e9a 133f
000003f0: da88 2f3f 36b0 b43e ce30 a33e abc2 103f
0.54017836 0.39039102 0.4718926 0.055636346 0.40025726 0.43101856 0.48399502 0.30955213
0.6800065 0.6459944 0.37817922 0.36815235 0.56726784 0.496277 0.62032175 0.5670847
0.25799292 0.47299275 0.5658971 0.22278534 0.26316518 0.13498507 0.2960455 0.4515553
0.44389293 0.43978795 0.48042938 0.55383474 0.19828661 0.39885607 0.20447063 0.38910553
0.5406077 0.4345508 0.20425272 0.38974664 0.36982554 0.56258017 0.6699472 0.38862047
0.6721588 0.724978 0.6358012 0.6071117 0.49109226 0.35218224 0.46440792 0.7205796
0.62564856 0.37151262 0.47044626 0.39504844 0.32473817 0.51512307 0.62779844 0.36451536
0.5173031 0.5766455 0.26915407 0.5359186 0.663746 0.34178922 0.16549715 0.6919649
0.08746299 0.011179128 -0.011626154 -0.112967305 0.10350289 0.104047716 -0.06704449 0.09385227
-0.10228339 0.08891534 -0.12039169 -0.11142653 0.059716996 0.09238045 0.0829476 -0.02683859
0.047166497 -0.055168867 -0.012368369 -0.045528997 -0.01809814 -0.08583797 0.020302719 -0.012606779
0.04277003 -0.11862817 -0.09556825 -0.10449808 -0.018805312 -0.00882781 -0.07815845 0.053559326
0.108929604 -0.0015741227 0.065411136 -0.07637031 0.0984774 0.051831428 0.049176537 -0.07320461
0.047125254 -0.098158486 0.049824316 0.09501938 -0.045394648 0.093085185 -0.08337778 0.011793022
0.08197302 -0.027423065 0.11175707 -0.083949015 -0.10895274 0.10745904 0.05555301 -0.08891726
-0.01885463 -0.10728389 0.1148693 0.10079306 -0.005301362 -0.0431747 -0.07529352 0.117560856
0.2675416 -0.17673768 0.0015247286 -0.16901673 0.11161084 0.0023579416 0.08265703 -0.034187835
0.47894824 0.20345266 0.056965407 -0.17060359 -0.32506856 0.036153033 0.011879887 -0.3482368
0.19326113 -0.014038818 -0.06870173 0.093568705 0.059945438 0.0611679 0.24062228 -0.022628503
0.10223154 -0.04789086 -0.19513847 -0.17990819 0.0787852 -0.33727783 -0.53207135 -0.3210592
-0.30051517 0.26654646 -0.15177797 -0.19780064 0.13487774 0.2844324 0.23631124 0.08012895
-0.3491467 -0.25819415 -0.32152307 0.43458956 0.2123277 0.22603704 0.48593712 0.33093163
-0.25591856 -0.20849508 -0.35297558 0.05139405 -0.062326886 -0.40434545 -0.21168411 0.123140976
0.1956082 0.098036155 0.028809024 0.22196181 0.42336616 -0.22744298 0.048040435 -0.23893857
0.5633018 0.3272642 0.48538077 0.28826973 0.4761416 0.5349281 0.54636544 0.56477433
0.53167534 0.572298 0.33596385 0.5702974 0.452942 0.5529138 0.7426983 0.52619463
0.26011518 0.4015554 0.7242444 0.27032283 0.35336676 0.15534404 0.40230295 0.5274146
0.27934375 0.43788326 0.38894075 0.39450422 0.30778512 0.3751356 0.1896564 0.530478
0.47510305 0.35738602 0.16482486 0.4103214 0.25243777 0.54905164 0.51199406 0.11401264
0.5624454 0.85677826 0.5249902 0.5463367 0.52049917 0.43367094 0.55500466 0.5223395
0.6867822 0.39890477 0.47054106 0.48692602 0.43799898 0.54350835 0.7634853 0.35399517
0.58897704 0.44273627 0.34371048 0.576578 0.68568194 0.35290688 0.31873173 0.5654704

fc.weight f4 [3, 64]
00000000: 2c9e 1e3f 3928 e5be 629a 1d3f 7d3e 443e
00000010: 5b12 4a3f 5470 04bf ee27 4cbf cb72 3dbf
00000020: 6163 e13e 630e 583f 7deb 43bf d2d5 28bf
00000030: 25cd 8ebe 4aff 313f ad95 0bbf a851 babe
00000040: a574 51be dcc3 09bf f468 9cbf ecc5 0ebf
00000050: d207 b33e 4ca7 a2be 64d3 333f 1b4e c73e
00000060: 2a46 003f 8e54 083e cc5c fabe e480 39bf
00000070: 4bf6 d5be 5d8c 21bf ec75 8cbe bdda b4be
00000080: 11b3 f3be 981d 6c3f 964d bb3e 37de 03bf
00000090: 3342 053f 0890 243f 9f5f bf3e 780e a7be
000000a0: f2e2 c2be def5 5abf a0ba ccbe f7d2 d63e
000000b0: 3a2c de3e 9904 2c3f 832c 953e acf8 b93e
000000c0: 5bba 04bf 7e17 08bf 8d59 bfbe 7cb9 02bf
000000d0: 8498 453f 26c9 0cbf 054d 42bf 308e 053d
000000e0: d9a5 f73e 9810 3d3f 35e8 0bbf b2a8 983e
000000f0: bde0 1d3e 8fa9 28bf 6454 15bf e437 25bf
00000100: b438 5dbe 3b2d 723f b3c5 2bbe 3bb5 15bf
00000110: 02c9 24bc 300c 5f3f 70b3 bb3e 89cb 1a3e
00000120: d11e d63e e7f4 13bf 2c42 2e3f 186a 2a3f
00000130: 6102 ecbe 412b aebe 6746 463e 2fba dcbe
00000140: 8335 003f 7124 cb3e 98b4 eb3e 65a8 163f
00000150: f6c6 20bf df03 023f 5e62 15bf d3d6 0bbf
00000160: ab77 7ebe 4551 26bf 7c5b e03d 3fd9 bd3e
00000170: 4582 c63e f9e0 19bd 2045 02bf 33cf 60be
00000180: 68b7 96be 0f18 53bf 9a03 f7be d58a aabb
00000190: eebe afbe aa6e 00bf c600 a73e a877 323f
000001a0: 637d 96bd 7f8b 0a3f 9fe5 d3be fb16 803d
000001b0: c553 d1be 8349 7fbe e27c 933e 4caa 7a3e
000001c0: d3e0 303f 0da6 9c3e bb6e 51bd 16ec 483f
000001d0: ad54 d0be 5e71 943d f813 e83e f4e4 0e3f
000001e0: 6b3c 7f3e 584a a3be 46e8 033f 78f2 003f
000001f0: 94f2 2d3f 1fc0 a4be b908 453f ee6e 21be
00000200: bf1c b2be 13a2 0fbf 3560 02bf 2ad0 fc3e
00000210: bfd9 45bf 040a cfbe c7da bb3e 0ecc b13e
00000220: 2b42 4fbf f488 82bd c705 c2bc 4c10 0bbe
00000230: 740d 603f 7ea1 cfbd 5034 1f3f 437c 643f
00000240: 2a9e 9bbe 8cf6 9a3d b460 1b3e cd74 1bbe
00000250: ae32 583e 81f8 13be 717a a5be 02e5 f7bb
00000260: ece5 53be 776a 203f 070f d63e 50f3 b03e
00000270: 5287 a6bd 0344 523f 4db3 7a3f b162 4b3f
00000280: 14c1 483f 9257 6f3e 893b 8b3e 8780 323f
00000290: 50f9 31be 3fb8 e6bd a8ab f1be 6f9b abbe
000002a0: 775e 4e3f 3434 9f3e 22dc 753f 746e 1abf
000002b0: 2621 22bc 0866 d1be eb5b 63bf b528 40bf
000002c0: e16a 263e f690 943e 33c6 1e3f 23e4 cbbd
000002d0: d030 cfbe e77d 173f dbe3 fc3e b036 3abf
000002e0: 01b8 4bbf 2073 0bbf 7e3d b43d 3394 2cbf
000002f0: 7e02 7fbf 1315 723f 068b 15bf b94e 2c3f
0.619601 -0.4475725 0.61563694 0.19164462 0.7893426 -0.517339 -0.7974843 -0.74003285
0.44021133 0.8439695 -0.765312 -0.65951264 -0.27890888 0.69530165 -0.5452526 -0.36390424
-0.20454653 -0.5381448 -1.2219529 -0.55770755 0.34966904 -0.31768262 0.7024443 0.38926777
0.5010706 0.13313505 -0.48898923 -0.72462296 -0.4178947 -0.631048 -0.27433717 -0.35323134
-0.47597554 0.92232656 0.3658263 -0.5151095 0.52054137 0.64282274 0.3737764 -0.32628226
-0.3806377 -0.85531414 -0.39986134 0.41957828 0.43393117 0.67194515 0.29135522 0.36322534
-0.51846856 -0.53160846 -0.3737301 -0.51064277 0.77185845 -0.5499443 -0.7589877 0.032606304
0.4836872 0.73853445 -0.54651195 0.29816204 0.15417762 -0.65883726 -0.58331895 -0.6453841
-0.21603662 0.94600266 -0.16774635 -0.5847966 -0.01005769 0.8712797 0.36660337 0.15116705
0.41820386 -0.57795566 0.6806972 0.66568136 -0.46095565 -0.34017375 0.19362794 -0.43110797
0.5008165 0.3967624 0.4603622 0.588507 -0.6280359 0.50787157 -0.5835322 -0.5462467
-0.24850337 -0.6496776 0.10954949 0.37079808 0.38771263 -0.037568066 -0.50886726 -0.2195404
-0.29436803 -0.82458586 -0.48244935 -0.0052045383 -0.34325355 -0.5016886 0.32617778 0.6971383
-0.07348134 0.54119104 -0.41386124 0.06254383 -0.40884224 -0.24930386 0.28806216 0.24479026
0.69093055 0.30595437 -0.05113099 0.7848524 -0.40689602 0.072481856 0.45327735 0.55818105
0.24925391 -0.31892657 0.51526296 0.5036998 0.6794827 -0.32177827 0.76966435 -0.15764973
-0.34787557 -0.5610668 -0.5092805 0.49377567 -0.7728538 -0.4043733 0.3669035 0.34725994
-0.8096034 -0.06373778 -0.023684395 -0.13580436 0.8752053 -0.10138224 0.621892 0.8925211
-0.30394107 0.07566556 0.15173608 -0.15181275 0.21113083 -0.14450265 -0.32319978 -0.0075651417
-0.20693177 0.6266245 0.4180834 0.34560633 -0.08131279 0.8213503 0.9792984 0.79447466
0.78419614 0.23373249 0.2719386 0.6972737 -0.17380261 -0.11265611 -0.47201276 -0.33517024
0.8061289 0.31094515 0.9603902 -0.6032479 -0.0098955985 -0.40898156 -0.8881213 -0.75062114
0.16251709 0.29016846 0.6202118 -0.09955623 -0.40466928 0.59176487 0.4939259 -0.72739697
-0.7957764 -0.5447254 0.08800791 -0.67413634 -0.9961318 0.94563407 -0.5841526 0.6730762

fc.bias f4 [3]
00000000: 1065 3a3e 9e85 fc3d f1b4 15be
0.18202615 0.12330173 -0.14619805
