Code-in-cloud/results/models/乳酸分类标签_forward_gru.pth (torch, 62216 bytes, 6 tensors)

gru.weight_ih_l0 f4 [192, 11]
000000 64 5d 25 be d8 15 83 3c a0 c1 25 3e 8e 02 a2 bb
       -0.16148907 0.016001627 0.16187143 -0.004944152
000010 47 d6 4f be ce c7 07 bd 93 2a 03 be 50 b9 b6 3a
       -0.20296584 -0.033149533 -0.1280921 0.0013940725
000020 4f eb cd 3d 45 44 16 bc 32 1d df 3e ac 6a da bd
       0.10054647 -0.00917155 0.43576962 -0.10664877
000030 e9 fa c4 3c 76 01 1c bd d9 69 ad bd 20 ac fe bd
       0.024045425 -0.03808733 -0.084674545 -0.12435174
000040 c7 5a 94 bd 42 11 98 3b 53 51 05 3e d7 9e 85 bc
       -0.07243877 0.004640729 0.13019304 -0.016311092
000050 84 6d c5 3e ca d0 9c bc d6 e2 b9 3d 0f fb e3 3e
       0.38560116 -0.019142527 0.09076469 0.4452748
000060 7b 21 da bb 69 97 83 3e dd f8 8e be 6b 05 00 3f
       -0.006656823 0.25701454 -0.27924243 0.5000827
000070 70 15 06 3e 4f 8f 2c be e5 24 b1 be f4 c2 c9 be
       0.13094115 -0.16851543 -0.3459846 -0.3940655
000080 31 54 8f 3e 2a 30 a1 be 5c ed b3 3d 1e e5 58 3e
       0.2799392 -0.3148206 0.08785507 0.21181151
000090 2a 20 8c 3e ec df 7d bd b7 ad 7d bd 70 6f b9 b9
       0.2736829 -0.061981127 -0.061933246 -0.00035368977
0000a0 8b 46 66 bc 1c 40 c0 bd 0d 73 ca 3d 20 03 84 bd
       -0.014054905 -0.09387228 0.098852254 -0.064459085
0000b0 cb f2 60 be 1b f0 ca bd 0e 8e b7 3d 71 cc 89 3e
       -0.21967618 -0.09909078 0.08962642 0.2691379
0000c0 0b a9 e5 bd 66 27 9b bd be 35 8e bd a2 8d db b8
       -0.11213883 -0.07575874 -0.06943844 -0.00010469115
0000d0 bb a1 86 bd a1 ac 4b 3e 9f 72 d7 3e 9c dc 99 be
       -0.065738164 0.19890071 0.42079636 -0.30051124
0000e0 83 10 04 3e 19 32 1a 3d 3c e4 c9 3d 04 65 8e be
       0.12896924 0.037645433 0.098579854 -0.27811444
0000f0 4d 2e 3e bd 26 e7 04 be d8 c9 4a be 20 ee 02 3b
       -0.046430875 -0.12978801 -0.1980356 0.001997836
000100 60 c7 40 be 54 0c 56 3e 35 e0 22 3e 3f 8f d8 bd
       -0.18826056 0.2090314 0.1590584 -0.10574197
000110 68 cc fe 3d 72 a0 10 3e 0c 5f ba be 0a a5 c9 bd
       0.12441331 0.14123705 -0.3640064 -0.09845932
000120 8e 0d 16 bf 59 d9 94 bd 17 92 dc 3e c2 30 80 3e
       -0.5861443 -0.07268018 0.43080208 0.250372
000130 d0 49 4a 3d 03 61 ee be db 7c 28 3d 20 75 68 3e
       0.0493868 -0.4655839 0.041134696 0.2270093
000140 d2 d9 07 3e 7b b0 af be c1 86 b2 3d a3 83 dd bd
       0.13266686 -0.3431433 0.087171085 -0.10816123
000150 0a 45 e8 bd ad 45 28 be 70 3b 3b be 35 2f bb 3e
       -0.11341293 -0.16432829 -0.18284392 0.36559454
000160 a2 78 c4 be 02 14 fe bd c8 4b 04 3e a2 e1 37 bd
       -0.38373286 -0.1240616 0.12919533 -0.044892915
000170 e7 73 a6 be d2 07 04 3e a5 73 8e be 9f d0 0b 3e
       -0.325103 0.12893608 -0.27822605 0.13653801
000180 75 50 84 be 71 41 19 3d 75 f0 92 3e 42 97 1a bf
       -0.25842634 0.037415925 0.2869908 -0.6038705
000190 82 1d 16 be c5 15 3e bc a1 42 15 be 54 83 3b be
       -0.14659694 -0.01160187 -0.14576198 -0.18311816
0001a0 0f ab 19 be 47 b1 ac 3d 2d 2a 63 bd b5 44 9d be
       -0.1500666 0.084322505 -0.055460144 -0.30716482
0001b0 1b d6 7c 3e da d0 04 3f ba cd b5 3d a2 1b 5a be
       0.2469105 0.5188118 0.0887713 -0.21299604
0001c0 7b 63 7b 3e 60 19 86 be 57 57 d1 3d 42 dc e1 be
       0.24549668 -0.26191235 0.10221737 -0.44113356
0001d0 5f 62 cc 3d fe 87 10 bb 67 87 84 3e be 10 6e 3e
       0.099797 -0.0022053714 0.25884554 0.23248574
0001e0 2f e9 43 be 6d 2f 82 be a2 86 91 3b de e7 28 3e
       -0.19131921 -0.25426808 0.0044410983 0.164947
0001f0 3c 63 10 bf 31 ff e6 3d 65 c9 10 be e1 13 2f 3f
       -0.5640142 0.11279143 -0.14139326 0.6838971
000200 fc 27 cf be a5 bc e2 be 26 8a 2a 3e ac e4 c9 3e
       -0.40460193 -0.4428455 0.16654262 0.39432275
000210 5e f1 57 bd 67 ed c9 bd cb 52 d9 3d c9 b8 b0 be
       -0.05272042 -0.09859734 0.10611495 -0.3451598
000220 c3 25 ba 3e c5 e7 4b bd 31 42 28 be 9b 57 81 bc
       0.36356935 -0.04978158 -0.164315 -0.015788844
000230 ae be 1f 3f 37 85 c9 3d 88 bb 7d 3e 09 c2 aa be
       0.6240033 0.09839862 0.24778569 -0.33351162
000240 24 bf 8d bc 25 fc 77 3e 5a 8f 63 bd 4b ba 41 be
       -0.017303057 0.2421728 -0.055556633 -0.18918721
000250 f1 c7 22 be 3f a5 ab 3d 15 98 a0 bd 3d 27 c5 bc
       -0.15896584 0.083811276 -0.07841507 -0.024066562
000260 cd 65 49 3e cf d6 c6 3e d6 09 4d bd d8 39 70 3e
       0.1966774 0.3883576 -0.05005821 0.23459566
000270 72 99 a1 3e 0b 57 00 3d 1e 6f 37 3c 14 3d f6 3e
       0.31562382 0.03133301 0.011195926 0.48093474
000280 13 4e 6f 3e bf 14 fe bc 64 c9 84 bd da 29 67 be
       0.23369627 -0.031015752 -0.06483725 -0.22574559
000290 9d 73 83 3e d2 c9 f5 3b d2 06 03 be 90 da c6 3e
       0.25674143 0.0075008655 -0.1279557 0.38838625
0002a0 3f b6 c1 bd eb bd 90 3e 1e d0 11 be 01 30 3e be
       -0.09458589 0.28269896 -0.14239547 -0.18573
0002b0 15 54 f8 bc 95 f2 cc 3e 91 22 97 3e 4a 94 21 bd
       -0.030313531 0.40028825 0.2951856 -0.03944806
0002c0 9c 09 c7 3e b4 6b c0 3d c9 37 bc 3d be f2 12 3b
       0.3887452 0.09395543 0.09190328 0.0022422518
0002d0 eb 7f 94 be c2 53 7f 3e 29 ab 75 bf 3f 8d 0b 3e
       -0.29003844 0.24934295 -0.95964295 0.136281
0002e0 30 50 29 3e c0 a6 9f 3e 22 8f c2 be f8 49 8b 3e
       0.16534495 0.31181908 -0.37999827 0.2720487
0002f0 9a 59 ba bd 25 9e 11 be 82 90 da 3e 59 94 b9 bd
       -0.090991214 -0.14220484 0.42688376 -0.09061498
000300 4f 03 51 be 23 ae 0a bf b8 0d c3 3d 6e 3a 33 be
       -0.20411418 -0.5417196 0.09524101 -0.17502758
000310 18 3c ab be 8a 2a b0 bd 64 25 b9 be ba b3 03 bd
       -0.33444285 -0.08601864 -0.3616134 -0.032153822
000320 8f 8b 14 be 06 df 17 3e 09 15 9f be 72 28 07 bd
       -0.14506362 0.1483117 -0.31070736 -0.032997556
000330 cb 11 b1 bd dd 3d 10 be cc 96 87 be e8 29 4f be
       -0.08645972 -0.14086099 -0.26482236 -0.2023083
000340 7e 01 8a 3d 79 62 82 be 4d 9d 00 be ec cc 2b 3e
       0.06738566 -0.25465754 -0.12560005 0.1677739
000350 e2 be 4b be d1 34 e9 3d 72 7d 7a be ef c6 76 3e
       -0.19897035 0.11387027 -0.24461916 0.24099325
000360 9c af 12 be 8e 9f 5e be 1b c9 40 3e 44 6a c3 3e
       -0.14324802 -0.21740553 0.18826716 0.38167012
000370 0c 9c db be c4 db 30 be 6d ca f1 3d 55 9d ad 3e
       -0.42892492 -0.17271334 0.11806188 0.33909097
000380 0f 3c 55 be e9 d0 3f 3e 5b 47 25 be 2b c1 db 3c
       -0.20823692 0.18732037 -0.16140501 0.026825508
000390 d8 f3 82 be 33 b2 6e be 3b 61 db 3e a5 06 4d be
       -0.25576663 -0.23310165 0.42847618 -0.20022066
0003a0 3f 1b e0 bd 46 e4 42 3e 89 8c 8e bd 3f 60 1b be
       -0.10942697 0.19032392 -0.06960399 -0.15173434
0003b0 37 e5 3e be 8e 78 95 3d 80 58 db 3d 13 b9 0a 3e
       -0.18642126 0.072983846 0.107102394 0.13547163
0003c0 ca 4a e6 3c f3 9d 89 bd 3d 7d e3 bd 17 1c c5 3e
       0.028111834 -0.067195795 -0.11107872 0.38497993
0003d0 68 e2 0b 3e 44 32 1e 3d a2 0f 11 be 0e 1f 0e bf
       0.13660586 0.038622156 -0.1416612 -0.55516136
0003e0 66 df 99 3e 91 3f 29 be 20 18 8b 3d 57 33 a2 3e
       0.30053252 -0.16528155 0.06791711 0.31679794
0003f0 76 b9 dc be aa b8 80 bd 40 74 2e ba 40 d6 63 3e
       -0.43110245 -0.06285222 -0.0006654896 0.22249699

gru.weight_hh_l0 f4 [192, 64]
000000 ed b5 5e bd 49 c1 04 3c 7f e1 8f bc 76 5e 92 3d
       -0.054372717 0.008102723 -0.01756358 0.07146923
000010 7b 33 f0 3d 88 bb 29 bd f3 59 f2 b9 97 7f 91 3d
       0.11728569 -0.04143861 -0.00046224854 0.07104414
000020 8c 95 60 bd 14 63 38 3d a7 b0 51 bd 28 47 d5 3d
       -0.05483012 0.045016363 -0.05119386 0.104139626
000030 45 cf 35 3d e6 37 80 3c b3 3e 4c bd 2c 7f 11 bd
       0.04438712 0.015651654 -0.049864482 -0.03552167
000040 3c 12 a0 3d 1e a6 72 bd 45 9c db 3a 36 94 3c bd
       0.07815978 -0.059240453 0.0016754946 -0.046039782
000050 73 ab 86 bc 0e 4a a3 3d a1 c1 13 3d 90 a6 bb 3d
       -0.016439175 0.07973109 0.03607333 0.09162629
000060 ff 0e 11 bd 25 ef 7e 3d f8 fd 92 bd cb d7 03 bd
       -0.035414692 0.062239785 -0.07177347 -0.032188218
000070 29 68 b4 3d ae 2f c6 3d c8 04 10 bd 6e f3 95 3d
       0.088089295 0.09677063 -0.03516081 0.07321821
000080 5a bf c0 bd 2f 1f 8a 3c f3 44 a1 3d 51 97 91 3d
       -0.094114974 0.016860573 0.07874479 0.071089394
000090 65 35 c5 3c 0f 5f f3 3d ad a3 20 bd d1 0f d0 bd
       0.024073312 0.11883365 -0.039218593 -0.10159267
0000a0 58 db 6c bd eb c5 68 3c 74 d3 c1 bd 13 1a 93 3a
       -0.05782637 0.014207344 -0.094641596 0.0011222981
0000b0 41 39 e3 3d b0 59 b3 bd 11 fb a9 bd 55 30 55 bd
       0.11094905 -0.08757341 -0.0829984 -0.052048046
0000c0 29 a3 cf bd 88 25 f5 3c 1d 29 a2 bd 42 7d 91 3d
       -0.10138542 0.029925123 -0.07917998 0.07103969
0000d0 e7 b4 9d bb bd 9f e6 3d 67 bd b3 3d cc d6 18 bd
       -0.004812825 0.112609364 0.0877636 -0.03731422
0000e0 a6 97 f1 3b 8e f8 23 bd 25 ff d6 3d 63 8f f3 bd
       0.007372814 -0.040031962 0.10497884 -0.11892583
0000f0 fa c1 85 bd 6e 0c e9 bd 17 51 48 3d d1 4b 8e bd
       -0.06531139 -0.11379324 0.04890546 -0.069480546
000100 a0 37 86 bd 63 5b b2 bc 26 61 85 bd a3 6b 4b 3d
       -0.065535784 -0.021772092 -0.0651267 0.049663197
000110 6a 63 c0 3d 4c 1b c1 bd e3 31 95 3d 2c e0 d6 bd
       0.09393962 -0.094290346 0.07284906 -0.10491976
000120 57 8e 5f 3d 94 96 66 3d f9 13 cd 3c 4f 2a f7 bd
       0.054579105 0.056295946 0.025033938 -0.120686166
000130 1c cf eb 3d 80 01 8d bd b2 66 c4 3d 5b 82 a3 bd
       0.11514112 -0.06885052 0.095899 -0.07983848
000140 e7 06 49 bd f4 a7 87 3d 15 ee a1 3d 36 62 67 3d
       -0.04907885 0.066238314 0.07906739 0.056490146
000150 bc ee 41 bd eb 24 ea bd 7a 8e cd bd d9 4c af bd
       -0.047346815 -0.11432823 -0.10036941 -0.085595794
000160 1d fd 11 bd 8a 23 89 bd 1c 9d dd bd c9 56 0a bd
       -0.03564178 -0.06696232 -0.10820982 -0.03377417
000170 c0 b0 ec 3c 53 a2 0d 3d 15 9e 7a bc 18 77 14 bd
       0.028892875 0.034578633 -0.015296479 -0.03624639
000180 8c 9b 70 3d d3 13 52 bc 15 a0 ea bc 1c de 81 bd
       0.05874209 -0.012822109 -0.028640786 -0.06341192
000190 4e 07 9f 3c 5c bb cd bc 5f e0 8c bd 02 1e d9 bd
       0.019412663 -0.025113754 -0.06878733 -0.10601427
0001a0 bf 58 dc 3d 59 69 88 3d 35 2d 1e bd b7 d3 93 bd
       0.107591145 0.066607185 -0.03861733 -0.07218116
0001b0 71 7f 8c bd 7c 39 2a 3d 81 61 74 bd f1 ee ca bd
       -0.06860245 0.041558728 -0.0596633 -0.09908856
0001c0 9b 31 b8 bd 3e 38 47 bd 3b ab ec bd cb b5 bc bd
       -0.089938365 -0.04863762 -0.11556097 -0.09214362
0001d0 03 07 84 bd d6 3a c4 bd 64 a7 31 3d 76 f7 10 bb
       -0.0644665 -0.095815346 0.043372527 -0.0022120154
0001e0 5a 52 eb 3c 1f ee df 3d 35 55 d6 3d be 8c 56 3d
       0.028725792 0.1093409 0.10465471 0.052380316
0001f0 7e 8a 11 3d fb 99 ed bd 4f bb 8f bc 2b eb a9 bd
       0.035532467 -0.11601635 -0.01754537 -0.08296808
000200 e2 b7 22 3c fd 6a 83 bc 1a 60 ed bd 71 2a dd 3d
       0.009931536 -0.016042227 -0.115905955 0.10799111
000210 4f ae 18 bb e4 6a 39 3d 7a c0 bf bd 8a 67 6e bd
       -0.0023297255 0.045267954 -0.09362884 -0.05820421
000220 bd 14 a2 bc 92 05 d4 3d 77 3f 5b 3d a0 43 33 bd
       -0.01978528 0.10352625 0.05352732 -0.043765664
000230 29 d1 df 3b 07 a4 ce 3d 5f 70 49 3c 9f 73 e3 bc
       0.0068303538 0.100898795 0.012294858 -0.027765093
000240 9d 64 5c 3d 9d 49 04 3d 6f 9c af bd 20 5a ee 3d
       0.05380689 0.032296766 -0.08574759 0.11638284
000250 8e ab da 3c a9 fa 99 bb fd 45 44 bd 8e b2 83 bb
       0.026693132 -0.0046990705 -0.04791831 -0.004019088
000260 b5 e8 d9 bd b0 7f f4 3c 66 9a 81 3d 75 dc c4 3d
       -0.106400885 0.029846042 0.06328277 0.09612361
000270 af a1 db 3d 3b c3 b0 3b e5 5c a8 3d 15 88 79 3d
       0.10724198 0.005394367 0.08220843 0.060920794
000280 96 ff a3 bd 80 70 2f bd 33 52 d1 bd 3f bd eb bd
       -0.080077335 -0.042831898 -0.102207564 -0.11510705
000290 2d 7c e8 bd 21 d4 70 bd c2 f2 71 3d d0 cc d7 bc
       -0.1135181 -0.058796052 0.059069403 -0.02634278
0002a0 89 77 a1 bd db b3 13 bd e8 5c fd 3b ca 0a a7 bc
       -0.07884128 -0.036060195 0.0077320226 -0.020390887
0002b0 ac 71 33 3b f3 5f 60 bd 03 93 2e bb 25 b0 e1 bd
       0.0027380986 -0.054779004 -0.0026637919 -0.11019925
0002c0 06 6b 72 bd b7 c7 ec 3d df de e2 bd 5b fe 9a 3d
       -0.059184097 0.1156153 -0.110776655 0.07568046
0002d0 b6 9b 21 bc a5 cf 44 bc 87 af c8 3c f3 84 f2 bd
       -0.009863785 -0.012012397 0.02449776 -0.11841764
0002e0 3e af c7 3d 6b 1b 91 bd 55 3d ee 3d 09 0d 81 bc
       0.09750222 -0.07085308 0.11632792 -0.015753286
0002f0 47 a8 4e bd b0 4c 8c bd de b4 da bb 82 ca be 3d
       -0.05045345 -0.068505645 -0.006674393 0.09315969
000300 e1 24 ec 3d 05 0c c3 3c 2f 02 81 bd 04 3e a1 3d
       0.115304716 0.023809442 -0.062992446 0.07873157
000310 73 a0 16 bd 0d 73 43 ba d7 11 93 3d b4 cd 88 3c
       -0.03677411 -0.00074558036 0.07181137 0.01669965
000320 b3 73 c8 bd a8 1d e8 bd b4 fd c1 bd 71 99 4c bc
       -0.09787693 -0.113337815 -0.09472218 -0.012487755
000330 1b 0a 7f bd ef 25 3e 3b 60 bc 9e 3d c6 94 d5 3b
       -0.062265497 0.002901431 0.077507734 0.0065179793
000340 b3 44 3a 3b 82 a8 a9 bd 04 fa 5e bd 77 40 e9 bd
       0.0028422296 -0.082840934 -0.054437652 -0.11389249
000350 8d 6f c6 bd ff 94 9e bd fc 86 7e 3d b5 fa 36 3d
       -0.096892454 -0.077432625 0.06214045 0.044672687
000360 a2 af 7e bd 01 6d cf bd 0f 07 de 3d 73 a9 d4 bd
       -0.062179215 -0.10128213 0.1084119 -0.103838824
000370 a4 3b c5 3c bf d7 85 bd 5b e7 80 3c f1 ed cb 3d
       0.02407629 -0.06535291 0.015735319 0.09957493
000380 1f ce b0 bd 63 e7 a1 3c a4 96 3d 3d c6 8e 9b 3d
       -0.086330645 0.019763654 0.04628624 0.07595591
000390 e5 53 8b 3d e1 85 76 bd 7b 3d 80 3d 4a e0 bb 3c
       0.06803111 -0.06018627 0.062617265 0.022934098
0003a0 fc 70 58 bd a0 9b 57 bd ee d5 fb bc 01 32 45 3d
       -0.052842125 -0.05263865 -0.030741658 0.04814339
0003b0 e2 dc 02 3d 56 ea 8e bd f4 30 15 bc dd c6 99 3d
       0.03194893 -0.0697829 -0.00910591 0.07508633
0003c0 5c 6b bf 3d a9 3e 9a bd 8a 54 dd bd c2 8a 41 3d
       0.09346649 -0.07531483 -0.1080714 0.04725147
0003d0 22 13 3d bd e9 11 cb 3c 74 da c9 3d ad 1b 44 bd
       -0.046160825 0.024788814 0.0985612 -0.047877956
0003e0 03 0d 75 bd 33 49 c9 bd ac 94 64 3c e7 6c bf 3d
       -0.059826862 -0.09828415 0.013951462 0.09346943
0003f0 55 38 d2 3a 08 a9 e6 3a b8 b0 2d 3d ac 8d 1d bd
       0.0016038517 0.0017597983 0.04240486 -0.038465187

gru.bias_ih_l0 f4 [192]
000000 db 1e a7 3e 0b 0d 46 be da b6 60 3d 02 d6 e6 3e
       0.32640728 -0.19340913 0.05486188 0.4508515
000010 d2 84 02 be cd ba 19 3d de aa d4 3d 7f 64 c8 bc
       -0.1274598 0.037531663 0.10384153 -0.024461983
000020 31 05 00 3e 7f 92 65 3e aa cc 46 3e e5 67 32 3e
       0.1250198 0.22419165 0.1941401 0.17422445
000030 4c 19 97 bd ee 9a 7f 3e 23 6c ae bb 51 14 da bc
       -0.07377872 0.24961445 -0.0053229495 -0.026621016
000040 98 9f 26 3e 31 ed a9 bd ae 9c 69 3a 49 e0 39 3e
       0.16271818 -0.08297194 0.0008911592 0.18151964
000050 a0 bb 11 3e 09 c5 d2 3e 8f cb da 3e 25 e3 ac 3e
       0.1423173 0.4116595 0.42733428 0.33767048
000060 a0 1f 8f 3e e4 54 d4 3e 44 b1 a5 3e 50 fd da 3d
       0.27953815 0.41471016 0.32361805 0.10692847
000070 59 07 7b 3e 14 1d 9a 3e 90 d5 9e 3e 6f 5f b2 3d
       0.24514522 0.3010031 0.3102231 0.08709609
000080 5c a6 d8 3c 53 8d c7 3e 15 51 d3 3e 0e 3b 7e 3e
       0.026446514 0.3897501 0.41272798 0.24827215
000090 99 d5 c2 3d 0e 91 79 3e f7 15 3f 3e 2a 47 ec bd
       0.09513397 0.2437174 0.18660723 -0.11537011
0000a0 ec a0 27 be 99 a7 56 3e 1a f1 9d 3e 63 58 97 3e
       -0.1636998 0.20962371 0.30848008 0.2955962
0000b0 1c 16 73 3e 85 50 94 3a 28 4a 3b be be 6c bd 3e
       0.23738903 0.0011315501 -0.18290007 0.36997026
0000c0 9a dd b2 3e f4 47 52 3d 0d 04 ed 3d 24 d8 29 bc
       0.34934694 0.05133815 0.11573038 -0.010366473
0000d0 76 09 f8 bd 70 a7 49 3d f3 a9 3a 3d b9 05 f6 3e
       -0.121111795 0.049231946 0.045572232 0.4805124
0000e0 30 4f ed 3a 2d f7 c1 3e 63 16 cd 3e e4 fd c0 bd
       0.0018105265 0.37883893 0.40056142 -0.09423426
0000f0 b6 8b 1b 3e 7d 86 fc 3d 39 c9 ae 3e 92 b3 35 bd
       0.15190014 0.12330339 0.34137896 -0.044360705
000100 59 88 d6 be fe bf 63 be 3c a0 cc bd 5d a6 9c be
       -0.419009 -0.22241208 -0.099915 -0.30595675
000110 6f 6e e3 be bb 29 ae bb 92 2a 86 be 67 cc a9 be
       -0.44420192 -0.0053150333 -0.26204354 -0.3316376
000120 d9 c9 c9 be 76 f5 aa be 7a bb 21 bd 5f 7d dc be
       -0.3941181 -0.33390397 -0.039485432 -0.430644
000130 40 72 b2 bc 3d 5b ae be 50 4a 6b be 48 d1 33 3d
       -0.021782994 -0.34053984 -0.22977567 0.043900758
000140 84 7b ce be d1 ae 2d be 97 3a 96 be 7a bf d1 be
       -0.4032861 -0.16961218 -0.29341576 -0.40966398
000150 74 2b a8 be d1 c1 dd be 21 3a a1 be a9 29 80 be
       -0.32845652 -0.43311933 -0.3148966 -0.25031784
000160 f6 16 e4 be 98 a6 bf be 4d 55 fe be 0a 77 b2 be
       -0.44548768 -0.37431788 -0.49674454 -0.34856445
000170 ae 3b 7e be 13 ce 8a be b1 4c 95 be f9 8f 1f bd
       -0.24827453 -0.27110347 -0.29160073 -0.038955662
000180 87 7f 22 be d8 27 ec bd 16 84 71 bd c4 aa e0 be
       -0.1586896 -0.11531037 -0.058963858 -0.43880284
000190 25 79 f5 be 7a f1 93 3d 67 db f4 bd ea 0c a2 be
       -0.47943988 0.072237924 -0.1195591 -0.31650478
0001a0 9a b6 33 be b4 d9 70 be d9 7d 46 be f3 0b 73 be
       -0.17550126 -0.23520547 -0.19383945 -0.23735027
0001b0 e1 8b 03 be 93 63 4f be 5b 12 c3 be 86 75 83 be
       -0.12846328 -0.20252828 -0.38099942 -0.256756
0001c0 51 11 8b be 4a d1 06 bf f0 e8 5f be ab ec c5 be
       -0.2716165 -0.526631 -0.21866202 -0.38657126
0001d0 81 0a 74 bd 6d 87 9a bc d2 98 ff be 71 ba 99 be
       -0.05958033 -0.018863404 -0.4992128 -0.30025056
0001e0 6a c7 bd bd 79 49 fb be 5a 1a 8e be 93 7a d7 be
       -0.09266551 -0.49079493 -0.2775448 -0.42085704
0001f0 38 16 8e be de 14 0c 3b 08 cd d8 be c9 13 9a be
       -0.27751327 0.0021374743 -0.42343926 -0.3009322
000200 6f 3c 54 be 7b 30 71 3e 8c 60 3f 3e 37 1b c0 be
       -0.20726179 0.2355365 0.18689173 -0.37520763
000210 c5 f2 5f 3d 9e 2a f3 bd 38 0b 8f be 48 c2 23 bd
       0.054674882 -0.11873363 -0.27938247 -0.039980203
000220 9d 04 98 bb ee 82 37 be 5c c1 1d be 2b 0e 48 be
       -0.004639222 -0.1792104 -0.15405792 -0.19536655
000230 2e 27 db 3d 29 6a 69 bd ec 95 fc 3c 55 c1 93 3d
       0.10700832 -0.056986008 0.030833207 0.072146095
000240 46 97 97 3e 1b 68 23 3e f7 5f 72 bd 26 85 33 be
       0.296076 0.15957682 -0.05917355 -0.17531261
000250 c1 37 85 3d b9 3b b3 3e 75 48 4a 3e b8 f7 99 3e
       0.06504775 0.35006502 0.19754203 0.30071807
000260 f7 f7 64 be b1 82 2f be bb 6a b0 3e f7 cd 5f be
       -0.22360216 -0.17139699 0.3445643 -0.21855913
000270 f3 35 8b 3e 1c 24 0a 3e a4 2b 5b 3e 4b 05 05 bd
       0.27189597 0.13490337 0.21403366 -0.03247575
000280 71 29 04 3e 74 45 06 3e 27 57 e0 3e ce 98 c0 be
       0.12906434 0.13112432 0.43816492 -0.3761658
000290 89 35 3b 3e 80 17 7e 3e 34 57 2b 3e 6c 65 9b 3d
       0.18282141 0.24813652 0.16732484 0.07587704
0002a0 69 12 b6 bc 8b 9f 17 3e 81 bf 64 be c4 a1 d0 be
       -0.022225576 0.14806955 -0.22338678 -0.40748417
0002b0 8e 37 a5 be f2 ee bd 3d 7e 4d a6 bd 45 c2 88 be
       -0.32268947 0.09274091 -0.08120249 -0.26710716
0002c0 4b b9 b4 3e c5 a4 95 be 73 b5 9b be 7d 70 84 3d
       0.35297617 -0.29227272 -0.30411872 0.06466768
0002d0 62 80 03 3e c3 e6 46 3e 3e c4 0e 3d 67 80 c7 3e
       0.12841943 0.19423966 0.03485512 0.3896515
0002e0 0b f3 af 3d 1c f0 8f be 67 ed cb be 1c 9a a3 bd
       0.08591279 -0.28112876 -0.3982956 -0.079883784
0002f0 21 7e 92 bd 05 68 f7 bd c2 58 e0 be a2 ad 54 3c
       -0.071529634 -0.12080387 -0.43817717 0.01298085

gru.bias_hh_l0 f4 [192]
000000 c0 ac 35 3e 4a 43 41 be 94 8e dd 3d cb 37 c3 3e
       0.1774168 -0.18873325 0.1081821 0.38128504
000010 d4 b1 64 be 5b c3 be 3d 2e 72 dd 3d 50 9b 14 3e
       -0.22333461 0.09314605 0.10812794 0.14512372
000020 66 b2 1a 3d d5 1f e1 3c dc 30 de 3d 4d db b4 3d
       0.03776779 0.027480999 0.10849163 0.08830891
000030 5c 8a 81 bd 5d 8a 32 3e 45 04 fe bd 49 b0 08 be
       -0.06325218 0.17435594 -0.12403158 -0.13348497
000040 1d f9 23 3e 36 82 6a be df 31 b2 3c 16 65 82 3e
       0.16012998 -0.22901234 0.021752296 0.25467747
000050 76 d5 87 3c 76 c0 b5 3e a9 cf 96 3e 21 47 9f 3e
       0.016581278 0.354984 0.29455307 0.31108955
000060 91 3f 19 3e b5 a2 61 3e 2a 95 ec 3e 2c 1b 3c 3e
       0.14965655 0.22034724 0.46207553 0.1836974
000070 f3 e2 53 3e a5 29 69 3e b6 bf e3 3e b6 be 4c bd
       0.20692043 0.22769792 0.444822 -0.049986564
000080 f7 b6 83 3d 58 5b 64 3e 33 05 05 3f fd a4 e2 3e
       0.06431382 0.2230047 0.5196106 0.442665
000090 71 2b 35 3e 07 5b 9e 3e b3 54 cc 3d d6 ba 9a 3a
       0.17692353 0.30928823 0.099770926 0.0011804949
0000a0 8f e0 a3 bd 77 47 2c 3e cd 99 88 3e a3 c1 b2 3e
       -0.080018155 0.16824137 0.2667984 0.34913358
0000b0 da 5f 4c 3e 44 fd 8f bd 6c b5 c3 3c 8d 63 99 3e
       0.1995844 -0.070307285 0.02389022 0.29958764
0000c0 4c 22 13 3f be 53 2b 3e 6c 62 23 3e 0c 0e f0 bd
       0.5747421 0.16731164 0.15955514 -0.11721429
0000d0 54 9c 4f bd 2a de dd 3d 5a 26 ad bc 62 6b eb 3e
       -0.050686195 0.1083339 -0.021136452 0.45980364
0000e0 e9 92 8d bd 1e 40 ac 3e 2b b2 f7 3e e2 de a6 3c
       -0.069127865 0.33642668 0.4837812 0.02036995
0000f0 e4 f2 f2 3d ae a1 ad bd 5f a2 b1 3e 03 40 3d 3d
       0.11862734 -0.084781036 0.34694192 0.046203624
000100 34 74 8d be 93 f8 68 be f5 55 e7 bd 2f a2 e1 be
       -0.27627718 -0.22751074 -0.11295692 -0.4406905
000110 b3 fd e1 be ac 5d 16 be 42 b6 d6 be b7 3a ce be
       -0.4413887 -0.1468417 -0.41935927 -0.4027917
000120 54 06 a7 be 94 07 00 bf 07 84 ac bd c0 4a e9 be
       -0.32622015 -0.50011563 -0.0842362 -0.45564842
000130 0f ed 4e bd 60 2f c4 be 43 b3 fe bd c3 0f a4 bd
       -0.050519045 -0.38317394 -0.12436535 -0.08010819
000140 81 a6 be be d2 4f 42 be 39 03 11 be 37 ef e5 be
       -0.37236407 -0.18975762 -0.14161386 -0.4490907
000150 92 1a a5 be c3 ce d7 be 69 95 c4 be fa ef 5f be
       -0.32246834 -0.42149934 -0.3839524 -0.21868888
000160 24 2a 0a bf 9f d8 b6 be 62 43 ed be e9 3e a3 be
       -0.5397055 -0.35712144 -0.46340472 -0.31883934
000170 fa 6e 98 bd bb dc 71 be 22 ab 93 be 2c 02 35 be
       -0.07443042 -0.23619358 -0.288415 -0.1767661
000180 b8 ea 25 be 70 51 17 be 1e 46 28 bd 81 b5 01 bf
       -0.1620282 -0.1477716 -0.041082494 -0.5066758
000190 b6 b8 de be 04 40 ec 3d b1 9a 54 be 34 db 7e be
       -0.43500298 0.115356475 -0.20762135 -0.24888307
0001a0 b1 dd 96 be 8c ce 3a be a4 f7 be be a0 77 17 be
       -0.29466012 -0.18242854 -0.3729831 -0.14791727
0001b0 6a 2f 7a be 8c 90 cd bd a0 7e ac be b2 f5 a4 be
       -0.2443215 -0.10037336 -0.33690357 -0.322187
0001c0 4d 5e cd be 8c 31 20 bf 97 f6 7f be 2c 8d ef be
       -0.40111008 -0.625756 -0.2499641 -0.46787393
0001d0 8f 28 85 be e6 5f 98 3d f0 d0 92 be f5 f1 b9 be
       -0.26007506 0.07440166 -0.28675032 -0.3631741
0001e0 31 62 da bd 54 15 bc be 0e b3 93 be 86 1b d7 be
       -0.1066326 -0.36735022 -0.28847545 -0.42013186
0001f0 9c 55 82 be 42 56 a0 3d 4d b1 d1 be bb ed c0 be
       -0.2545594 0.07828952 -0.40955582 -0.37681374
000200 89 89 9f be 13 91 43 3d 57 1b bb 3e 9d 1e f3 be
       -0.31159618 0.047745775 0.36544296 -0.47484294
000210 86 88 0b bc 7a 96 23 be 92 fa 9e be b1 87 27 3e
       -0.008516436 -0.15975371 -0.31050545 0.16360356
000220 8d f3 4b 3e ee a2 90 be 80 ac 7d be d3 db 25 bf
       0.19917126 -0.28249305 -0.24772835 -0.6478855
000230 2c cc 90 3e f6 f3 80 be c7 6c e0 bd 74 3d 0e be
       0.2828077 -0.25186127 -0.10958248 -0.1389063
000240 fd d0 b2 3e 2d 0d eb bd d8 39 3b be 07 0c be be
       0.3492507 -0.114771225 -0.18283784 -0.3711855
000250 42 f6 98 3e 75 c1 cd 3e f8 f6 f3 3e 70 79 0e 3f
       0.2987538 0.40186659 0.4764936 0.5565405
000260 78 92 bd be 47 cc ca be c9 b0 19 3f ad 5a 82 be
       -0.3702581 -0.39608976 0.6003538 -0.25459805
000270 c8 fe e7 3e 8e 5e d4 3e 1a 35 0a 3f 28 e6 63 3e
       0.4531157 0.4147839 0.53987277 0.22255766
000280 97 20 f8 3d 72 76 ea 3e f7 01 15 3f c2 26 c7 be
       0.12115591 0.45793492 0.58206123 -0.38896757
000290 7c ba cd 3e 6b ed b9 3e b3 9f c2 3e 95 b3 80 3e
       0.4018134 0.36313948 0.38012466 0.2513701
0002a0 c7 44 4b 3d 63 b9 0e 3f 38 ea 98 be b8 c6 e6 be
       0.049626138 0.5575163 -0.29866195 -0.45073485
0002b0 52 5d 7e be 5d 6c 4f 3e 43 da 33 bd 4d 79 02 bf
       -0.24840286 0.20256181 -0.043909322 -0.5096634
0002c0 49 f0 05 3f 39 70 b6 be 45 ae ab be c0 aa 85 be
       0.5231977 -0.35632494 -0.33531395 -0.26106834
0002d0 06 f7 0e be 58 2c 95 3e 7e 25 53 be eb 5d 01 3f
       -0.1396142 0.29135394 -0.20619771 0.5053393
0002e0 14 3b 90 be bc cc d3 be 20 d7 0f bf b2 ab 13 be
       -0.28170073 -0.41367137 -0.5618763 -0.14420965
0002f0 ae 77 49 3e 0a 47 76 be dc 10 5b bf 57 ed a6 bd
       0.1967456 -0.24050537 -0.855726 -0.08150738

fc.weight f4 [3, 64]
000000 c9 e3 86 be 56 97 f4 3e 22 b5 b8 3e ab 33 8c be
       -0.2634566 0.4777171 0.36075693 -0.2738317
000010 8f 3c 4f bf 30 7e 0f bf fa cf 5b bd 19 99 25 3f
       -0.8095178 -0.5605192 -0.05366514 0.64686733
000020 fe db 19 3f c2 a4 48 bf a3 c9 a8 be cc 34 38 bf
       0.60101306 -0.783764 -0.32966337 -0.7195556
000030 f9 1b 4b be 27 c4 1f bf 1e 45 05 bf fa 3c 04 3f
       -0.1983489 -0.6240868 -0.5205859 0.5165554
000040 88 c6 08 bc b3 dd 06 3f 6f 39 0b bf 33 82 f9 be
       -0.008348115 0.52682036 -0.5438451 -0.48732147
000050 b5 80 34 3f 7f 8d d4 3e 18 c4 4d 3e 1c c3 8c 3e
       0.7050889 0.41514203 0.20094335 0.27492607
000060 22 34 ed be 3a 2d bf be 7c 67 69 3e 65 86 dd be
       -0.46328837 -0.37339193 0.22793382 -0.43266597
000070 44 5d f5 3c 2d c3 a3 3e ff 50 0c 3f 41 41 eb 3e
       0.0299517 0.31984845 0.5481109 0.45948222
000080 5b 7b 28 bf 1a 59 d3 3e 90 4b db 3e c6 a5 1e bf
       -0.65813226 0.41278917 0.42831087 -0.619717
000090 74 34 30 3f 90 c7 3b bc 18 fe e4 be 03 7a 05 3f
       0.6883004 -0.011461154 -0.44725108 0.521393
0000a0 d6 e4 a6 be d1 e6 1d 3f 5e 57 94 be 0a fa 4b be
       -0.32596463 0.6168032 -0.28972906 -0.19919601
0000b0 c4 2b 11 bf 79 e1 8c bd 1d e1 e6 be 82 13 97 bd
       -0.56707406 -0.06878943 -0.45093623 -0.07376768
0000c0 62 12 fa 3e 84 92 ae bd 50 0d a9 be e2 1d 3d bf
       0.4884215 -0.085240394 -0.3301797 -0.7387372
0000d0 f6 5d 2d bf 90 2a 4f 3f 0b 1a 26 bf 16 c5 94 3e
       -0.677215 0.8092432 -0.6488349 0.29056615
0000e0 9f d0 3a 3f e9 9e fd be ea 72 a2 be 65 06 1b bf
       0.7297458 -0.495353 -0.31728297 -0.6055663
0000f0 1f df e2 be 2e a5 56 3e 26 b5 86 be 6a 1e 3d 3f
       -0.44310853 0.20961449 -0.2631008 0.73874533
000100 0a d1 bf bc ca 60 10 be 70 60 aa be 33 41 8b be
       -0.023415107 -0.14099422 -0.332767 -0.2719818
000110 d9 16 b1 3e b5 c7 b3 3e e7 3e 06 bf e9 9b 37 be
       0.34587744 0.35113302 -0.5243973 -0.17930569
000120 38 0a 08 be 0f eb ac 3e 21 79 03 bc 08 39 3d 3f
       -0.13285148 0.33773085 -0.008024485 0.7391515
000130 8f 81 a1 3e 84 37 27 3e 00 17 0f 3f aa 48 19 bf
       0.31544158 0.16329771 0.5589447 -0.598765
000140 54 2e bb 3e 6a 6d da be 87 8f d5 3e 74 7c 3e 3e
       0.36558783 -0.426616 0.41711065 0.18602163
000150 cd 89 fd 3c ed 54 30 3d 4f ab 97 3e 9e e2 b7 3e
       0.030949498 0.04304974 0.29622886 0.35915083
000160 83 f3 60 3e 6e ca cc bc e3 57 35 3e 3c 84 ba 3d
       0.21967892 -0.02499887 0.17709307 0.09107253
000170 cf 15 b5 3e 89 98 5d 3e 46 f1 b2 3e de f5 a9 be
       0.353682 0.21640219 0.34949702 -0.33195394
000180 6d 26 8b 3e ca 04 d7 3d da 72 56 3e e7 d9 15 3e
       0.27177754 0.1049896 0.2094225 0.14633904
000190 8a 59 1d bf 38 e1 02 3f b0 7e 03 3f 33 20 00 bf
       -0.6146475 0.51124907 0.51365185 -0.5004913
0001a0 68 8a b7 3e 67 1a fd be 80 53 9f bc 85 97 c0 be
       0.35847783 -0.49434206 -0.019448996 -0.376156
0001b0 2e 80 3f bd 30 b7 f7 3e 4a 1b 9b 3e f9 6d 10 bf
       -0.0467531 0.48381948 0.30294257 -0.56417805
0001c0 59 8e 51 3e d3 cf f2 be 3b 54 8a bd ec 68 a7 3e
       0.20464458 -0.47424182 -0.06754347 0.32697237
0001d0 d5 37 1e 3f 10 6b e6 be a1 5b 3d 3e 1d 43 ad 3e
       0.6180394 -0.45003557 0.18491985 0.33840266
0001e0 76 f9 10 bf 69 c8 cc 3b 23 6b 3a 3d bf 86 d2 3e
       -0.5663065 0.0062494767 0.04551233 0.41118428
0001f0 e7 2a da 3e 11 53 f4 be ab dc 0a bf ae 22 19 be
       0.42610857 -0.47719625 -0.5424296 -0.14954636
000200 64 bf dc 3e 4c ee fa be 2a a5 92 3d a4 fd 35 3f
       0.4311477 -0.4900993 0.07160409 0.7109015
000210 bb 13 c9 3e 67 6f e0 3d ff ef 17 3f 44 6c 32 be
       0.39272866 0.10958748 0.5935058 -0.17424113
000220 2e bc 79 be 52 9f 82 3e b5 52 a3 3e 2d f0 24 be
       -0.24388191 0.25512177 0.31899038 -0.16107245
000230 bb bb 96 be bd 4b 9f 3e c1 ed 41 be 4a 7c 00 3e
       -0.29440102 0.3111247 -0.18938352 0.12547413
000240 01 e2 11 bf 9f da cb bd 3b d2 f6 3d 90 b9 90 3e
       -0.5698548 -0.09953808 0.12051817 0.28266573
000250 4a eb fb be e7 d9 e9 be 54 f4 fd be 0b fa 1b bf
       -0.4920295 -0.4567406 -0.4960047 -0.6092841
000260 95 75 f4 3e 22 a0 c0 3e b4 de 31 bf 78 52 b1 3e
       0.47745958 0.37622172 -0.69480443 0.3463323
000270 5c 87 f9 be ec 6b 3b bf a0 19 5f bf 05 4d ee 3d
       -0.48736084 -0.7321155 -0.87148476 0.11635784
000280 07 4a 5c 3e ee 92 ef be 2b 5b 27 bf 19 50 ae 3e
       0.21512614 -0.46791786 -0.65373486 0.34045485
000290 8a 32 d9 3d 4f f1 2a bf ec ea a2 be 67 21 f3 3d
       0.10605343 -0.6677446 -0.31819856 0.11871605
0002a0 e2 2e 27 3c 6a 4e 47 3d 12 45 01 3f 52 32 15 3f
       0.010204049 0.048658766 0.5049602 0.5827991
0002b0 65 60 1c 3f 4b e6 c0 be fc e8 a4 3e 37 7a 32 3f
       0.61084586 -0.376757 0.32209003 0.69717735
0002c0 31 80 2a bf 4e 4f 2c 3f a9 46 9b 3e c2 a0 c6 3e
       -0.66601855 0.6730851 0.30327347 0.38794523
0002d0 92 93 00 be 37 1b 43 be cd 35 03 3f 85 89 32 bf
       -0.12556294 -0.1905335 0.5125397 -0.6974109
0002e0 3b a6 57 bc 59 75 0f 3f 7e 32 09 3f e6 f3 2c 3e
       -0.013162191 0.56038433 0.5359267 0.16889915
0002f0 02 17 d2 3d d0 a1 02 3f 87 af 6f 3f d0 86 ac be
       0.10258295 0.51028156 0.9362721 -0.33696604

fc.bias f4 [3]
000000 23 18 16 3d 6f 6b bf 3d 32 c8 87 be
       0.036644112 0.09346663 -0.26519924
