Code-in-cloud/results/models/水合状态分类标签_forward_cnn-lstm.pth (torch, 145344 bytes, 8 tensors)

conv1d.weight f4 [64, 11, 3]
000000 8e 83 4b bd 45 94 48 be 26 a0 7a bd 64 76 ba bd
       -0.049686007 -0.1958781 -0.061187886 -0.091046125
000010 31 0e cb bd ca 3b 2e 3e 3a 16 f8 3d bd 55 e1 bc
       -0.09914816 0.17014995 0.121136144 -0.027506704
000020 ae a1 1e be dc f0 10 be cd c5 48 3e 8a d6 82 bd
       -0.15491363 -0.1415438 0.19606705 -0.06388576
000030 2a bd 29 3e 02 7d c8 bd 6f 4f de bd 65 a5 c5 bd
       0.16576067 -0.09789468 -0.108549945 -0.09650687
000040 3f 8f 63 bd 32 f3 71 3d 7a 89 97 3d 9e 0f 5e be
       -0.055556532 0.05906982 0.073992684 -0.21685645
000050 2b 2a 1f bd ff c7 3a 3d 77 20 d5 3c ba da de 3d
       -0.038858574 0.045600887 0.026016457 0.108815625
000060 fb 27 a9 3b 7c 06 20 bc 09 cf e5 3d 24 75 83 bd
       0.0051622367 -0.009767171 0.112211294 -0.06418827
000070 7e f6 57 3d 51 c0 06 3d d2 28 ca bd 89 14 e7 3d
       0.052725308 0.03289825 -0.09871067 0.11283214
000080 59 94 bb bc 30 06 f0 bd 4c 4d 2c 3e 9b 6c 21 be
       -0.022897886 -0.1171993 0.16826361 -0.15764086
000090 9f 88 f9 3c d5 c8 67 3d d9 81 16 be 46 e6 46 3b
       0.030460654 0.056588013 -0.1469797 0.0030349656
0000a0 27 d0 68 be d7 97 2f 3e 9b 37 2c 3d 3e 35 96 3d
       -0.22735654 0.17147766 0.042045217 0.07334374
0000b0 d3 7a bb 3d 5c 44 ff bc 35 2a 68 be 80 0d 13 bd
       0.09154286 -0.031160526 -0.2267235 -0.035901546
0000c0 c8 74 14 3e d9 bd 6f 3c 9b 90 02 bd ef 18 1f be
       0.14497674 0.014632666 -0.031876188 -0.15536855
0000d0 f4 b4 2e be a8 f4 37 bd 95 a8 10 be 4c 8f d7 bc
       -0.17061216 -0.044911057 -0.14126809 -0.026313446
0000e0 42 77 0d bd 5a f0 a4 3d 8c dd 55 bd 0b 15 77 bc
       -0.03453756 0.08053656 -0.052213237 -0.015080701
0000f0 5a eb e4 3d 19 f8 a9 bd ea 21 c1 3d 12 ed 10 bd
       0.11177702 -0.08299274 0.09430297 -0.035382338
000100 2f f1 b9 3e 49 78 9d 3d 19 83 1b 3e ed a6 13 bd
       0.3631682 0.07688958 0.15186729 -0.036047865
000110 d9 bb 46 3c 49 6b b9 3d 87 f7 ce bd 38 00 9b ba
       0.012129747 0.09053666 -0.10105806 -0.0011825627
000120 06 85 40 bd 1c e0 c3 be 1a 6b aa bd b8 76 a8 bd
       -0.04700186 -0.3825692 -0.08321209 -0.08225769
000130 41 15 aa 3d 8d 12 95 bd 06 30 38 bc 2e 69 e3 3c
       0.08304835 -0.07278929 -0.011241918 0.027760115
000140 4e 74 fe bd 79 2a 05 be 2f b3 bc bd 14 21 4a 3d
       -0.12424527 -0.13004483 -0.09213864 0.049347952
000150 fa 28 d9 3d e5 98 a4 bd 62 d0 59 3d 52 ee 11 be
       0.10603519 -0.08036975 0.053177245 -0.14251068
000160 45 04 d3 3d cb 52 17 3e f2 c9 12 bd 26 6b b1 3e
       0.10303549 0.14777677 -0.03583712 0.3465206
000170 94 67 f0 bd 7c fb d0 3d 1b b8 21 3e ee 9e a3 bd
       -0.11738506 0.10204217 0.15792887 -0.07989298
000180 02 e3 27 3e 98 75 8e be b1 c2 e1 bc 07 90 85 3b
       0.1639519 -0.27824092 -0.027558656 0.0040760073
000190 86 98 9e be 78 3b e8 3d 7f 65 db bd 43 30 01 3e
       -0.3097574 0.11339468 -0.10712718 0.12616067
0001a0 81 56 c3 bd bb 38 b6 3d d7 5f 9d 3d 6a 87 44 bd
       -0.09537984 0.08897539 0.076842956 -0.047980703
0001b0 2d d2 b3 3d f4 36 5a 3e f9 e5 9f 3c df ac d6 3d
       0.08780322 0.21310025 0.01951884 0.10482191
0001c0 27 13 27 bd 75 a5 24 be 0e 33 e9 bd 86 8d a9 3e
       -0.04078975 -0.16078742 -0.11386691 0.33115786
0001d0 ca e8 aa bb 3e 33 02 be fa 0a e4 bd 77 57 77 bd
       -0.005215739 -0.1271486 -0.11134906 -0.060386147
0001e0 d9 9e d6 3d dd ae 0a 3e f9 7e dc bd 45 b8 de 3c
       0.104795165 0.13543268 -0.107664056 0.027187476
0001f0 dd 1c 79 3d 14 ff 22 be d1 86 3b 3d 1b bf a2 3d
       0.06081854 -0.15917617 0.045782868 0.07946607
000200 e9 47 ee bd 88 db 44 3d ea 45 a5 3d d8 11 ba bd
       -0.116348095 0.048060924 0.08069976 -0.09085435
000210 f3 a8 d2 bc 1c 57 25 3e ef de ca 3b ef 08 fa 3c
       -0.025715327 0.16146511 0.0061911265 0.030521838
000220 fc f8 db bc 38 17 f5 bd 71 02 05 3e b0 19 1e be
       -0.026852123 -0.11967319 0.12989213 -0.15439487
000230 10 5a bb bd 03 ae 79 bc 5e c8 0e 3d 86 88 e3 bd
       -0.091480374 -0.0152392415 0.034859054 -0.11110024
000240 a4 92 d6 bd 1d cb d1 bb 24 c3 f1 3d 22 43 1f 3e
       -0.10477188 -0.006402387 0.11804798 0.15552953
000250 d5 65 f7 3d 32 52 be 3d 02 d6 38 bc f1 11 04 3e
       0.1207997 0.09293021 -0.011281492 0.12897469
000260 91 4c 57 3d 7a 7d fc bc 3b 01 0c bd bf 06 cf 3c
       0.052563254 -0.03082155 -0.03418086 0.025271771
000270 f0 32 d9 3d cc b0 ae bd 8c 88 23 be 3d 00 02 be
       0.10605419 -0.08529815 -0.15970057 -0.12695403
000280 f2 15 9d be d5 33 27 be 0a 24 a0 3d 0f 6f 74 3d
       -0.30680805 -0.16328366 0.07819374 0.059676226
000290 a3 41 d1 3d 26 ec 1e be 8a 85 27 3e 61 35 23 be
       0.10217597 -0.15519771 0.16359535 -0.15938331
0002a0 88 d2 2b 3e cf b8 d2 bd d6 5e 5f bd 8b 1f 07 3e
       0.1677953 -0.10289156 -0.054533802 0.13195626
0002b0 c1 ca 10 be d2 9a 37 bc bc 2e 23 be da cb 3a 3c
       -0.14139844 -0.011206346 -0.15935796 0.011401141
0002c0 af 3b 1c 3d 8b 3d a4 3c 99 02 f6 bd e9 11 71 3d
       0.038142856 0.020048877 -0.12012214 0.05885497
0002d0 f4 bd b1 bd a8 58 b0 3c eb f1 fd 3d b7 cf 2c be
       -0.08678809 0.02152665 0.12399658 -0.16876112
0002e0 4a f2 7e bd a7 ef be 39 fd 4b 0f bd 0a 7b 28 3e
       -0.062242784 0.0003641818 -0.034984577 0.16453186
0002f0 7b 83 bf bb 37 1e 96 3d 8a 7b e3 bd 0d f9 14 be
       -0.005844531 0.07329982 -0.111075476 -0.1454813
000300 fa fc 0b be 5f d1 07 3d 5e a1 08 be 74 04 20 be
       -0.13670722 0.033158656 -0.13342807 -0.15626699
000310 2c f7 9e 3e 80 3e d8 3d 4d 0b 34 3d 3f 6c ba be
       0.31047952 0.10558796 0.04395609 -0.3641071
000320 75 aa ff 3a d3 ad 21 3e c8 fe 21 3e 64 4a 01 be
       0.0019505756 0.15788965 0.15819848 -0.12626034
000330 14 c4 19 be 85 b9 a9 bd 73 13 0f 3d 0d 07 2e 3e
       -0.15016204 -0.08287338 0.034930658 0.16994877
000340 5f f8 1f be 45 2a 23 3e 7b 40 c2 bd e8 05 f2 bc
       -0.1562209 0.15934093 -0.09484955 -0.029543832
000350 1f 4d 20 be 40 24 23 be dd 7d 82 bc a3 94 bd bd
       -0.1565442 -0.15931797 -0.015929157 -0.09256866
000360 f6 79 ea 3c 0b 60 a7 3e cf 2f 3e 3b 63 b0 c4 ba
       0.028622609 0.32690462 0.0029020195 -0.0015006181
000370 dc 9f 93 be 4d ea 92 3d d3 2b 1f 3e d2 91 2a 3e
       -0.288329 0.071735956 0.15544061 0.16657189
000380 4e e5 d7 3d 33 f1 2a 3c 16 38 bf 3c e3 c6 75 3d
       0.10541783 0.010433483 0.023342174 0.060004126
000390 4a 3d 29 bd c0 5e d5 bc c4 d1 27 3d b7 16 13 3e
       -0.041318215 -0.026046157 0.040971532 0.14364134
0003a0 cc 14 90 3b 6c 48 2a be a0 d0 5e bc fc 38 25 3d
       0.0043970104 -0.16629189 -0.013599545 0.040337548
0003b0 95 7f 90 3d 38 15 ac bd 95 31 2e 3c 75 79 24 be
       0.07055584 -0.08402485 0.010631938 -0.16061957
0003c0 3e 03 7c bd 73 b4 83 be a6 e2 42 3d 85 19 a4 3d
       -0.06152653 -0.2572361 0.04757943 0.0801268
0003d0 d9 1b 38 be c9 04 64 3d a5 a2 22 3e 1a e7 b3 3d
       -0.17979373 0.055668626 0.15882356 0.087843135
0003e0 43 d6 bf 3d 86 94 fb 3d 8b 11 bc 3d 17 9e 9c bd
       0.09367039 0.12284188 0.091830336 -0.07647341
0003f0 16 36 1c be 6a 0a 4a 3e 1d 5e 03 3e b2 45 99 3c
       -0.15255007 0.19730535 0.1282887 0.018709991

conv1d.bias f4 [64]
000000 63 0b ab 3e fe 85 da bd dd 4e f2 3d d2 a3 13 3e
       0.33407125 -0.10670088 0.11831448 0.14417961
000010 a6 27 86 3e 34 8a 16 3e 35 ab f7 bc 8c 29 35 3e
       0.26202124 0.14701158 -0.030233005 0.1769163
000020 85 68 2c 3d 09 03 9a bd 3a ed 83 3e 82 f1 34 3d
       0.042091865 -0.0752011 0.25766927 0.044175632
000030 28 87 99 bc 87 76 2d 3e 5c 0d 42 3e 29 05 d2 3d
       -0.018741205 0.16939746 0.18950409 0.102548905
000040 97 54 51 3e 68 3a b7 bc a9 dc 59 3e 40 04 91 bd
       0.20442425 -0.022366717 0.21275581 -0.07080889
000050 85 e3 3c 3e 3a c2 c3 3d 64 6d 67 3e 66 c9 55 3e
       0.18446167 0.0955853 0.22600323 0.20877609
000060 71 90 23 3e a7 33 94 3d 1a 54 e4 3d 63 2d 12 3c
       0.15973069 0.072364144 0.111488536 0.008921954
000070 7a ad 33 bd 40 e0 b7 b7 25 ee 03 3e 6e 8a cc 3d
       -0.043866612 -2.1919725e-05 0.12883814 0.09987341
000080 26 43 67 3d a1 2d af 3c 56 9f 14 3e 15 0f 1c 3e
       0.056460522 0.021384062 0.14513907 0.15240128
000090 0d 43 8c bd 6f 15 12 3e 86 a0 07 bd 1a 3c b6 3d
       -0.068487264 0.14265989 -0.03311207 0.08898182
0000a0 13 54 1a 3e 99 c3 99 3e f4 c0 9c bd 76 03 85 3e
       0.15071134 0.30032042 -0.076539904 0.25979203
0000b0 36 71 dc 3d 36 fd 2b bd 9d 12 9b bd b5 af 46 3d
       0.10763781 -0.041989528 -0.075719096 0.04850741
0000c0 6a 64 05 3e 16 de b7 bd a3 47 d8 3d 5f 63 4d bd
       0.13026586 -0.089779064 0.105605386 -0.050143596
0000d0 f0 82 94 3e bf e0 f6 3d 13 fe d8 3d 55 62 55 3e
       0.29006147 0.12054586 0.10595336 0.20838292
0000e0 9b ca 6f 3e 18 09 bb bd 76 c2 b6 3d 36 b9 cc bd
       0.23417132 -0.09132594 0.08923809 -0.09996264
0000f0 7a 0d f2 3d ea cc d8 bd a7 86 16 3e 5f 43 dd bd
       0.11818977 -0.10585959 0.14699803 -0.10803866

lstm.weight_ih_l0 f4 [256, 64]
000000 2c 61 90 3e 49 15 79 3e 15 37 db 3e e4 a0 4c 3d
       0.28199136 0.24324526 0.42815462 0.049958125
000010 62 4f 94 3e 3c 66 0a 3e e5 ef aa 3d e5 f3 42 3d
       0.28966814 0.13515562 0.083465375 0.047595877
000020 b0 5c 28 3b c2 a6 92 3d f2 40 20 3e a1 5d 95 3d
       0.0025690012 0.07160713 0.15649775 0.07293249
000030 92 28 3d 3e c5 e2 f5 3d f1 e1 82 3d 79 33 ec 3d
       0.18472508 0.120061435 0.06390751 0.11533255
000040 77 f4 4c 3e 26 c8 62 3d 56 01 83 3e 25 90 7d 3d
       0.20015131 0.055366658 0.25586957 0.061905045
000050 61 2e c1 3d 97 9c e1 3d e4 5f 39 3c 89 86 63 3e
       0.09432674 0.11016195 0.011314366 0.2221929
000060 54 6e 28 3e 22 de c1 3c e9 ea ae 3d 13 f7 2a bd
       0.16448337 0.023665491 0.08540899 -0.041739535
000070 cf a9 5c 3e 86 e7 38 3d 6e b3 bc 3d e1 1e b6 3d
       0.21549152 0.045142673 0.09213911 0.088926084
000080 e7 4f 9c 3e 79 0a 84 3e f6 44 81 3e b0 55 df 3d
       0.3052971 0.2578924 0.25247926 0.109050155
000090 47 7f 3c 3e ca 21 6c 3e d6 62 47 3e 9d d9 ed 3d
       0.18407927 0.23059765 0.19471297 0.11613772
0000a0 14 6e 70 3e 95 0c 7e 3e 77 ea 19 3e 6f 20 24 3e
       0.23479491 0.24809487 0.15030847 0.16027997
0000b0 c9 fe 35 3d 18 73 8e 3d 79 07 82 3e 93 5c 28 3e
       0.044432435 0.06955546 0.25396326 0.16441564
0000c0 d3 9e 7a 3e 3c a4 52 3e 68 e3 df 3c 36 26 a6 bc
       0.24474649 0.20570463 0.027330115 -0.020281892
0000d0 03 d4 20 3e 66 1e 4d 3e de e7 11 3e 8d 38 fd 3d
       0.15705876 0.20031127 0.14248607 0.12364302
0000e0 32 79 72 3e 64 9c dd 3c 1e 85 b9 3d 50 a2 5a 3e
       0.23679045 0.027052112 0.09058593 0.2135098
0000f0 28 fc dc 3b f6 db a8 3d 47 76 5f 3e c0 ac 5f 3e
       0.0067439266 0.08245079 0.21822463 0.21843243
000100 b9 42 14 3d 21 36 8a 3d b4 2e fd 3e 44 a9 55 3d
       0.036196444 0.067486055 0.49449694 0.052163377
000110 d6 e7 81 3e f3 56 f9 3c 2f 93 96 3e ee ce 0e 3e
       0.2537219 0.030436968 0.29409167 0.13946125
000120 c4 36 33 3e 9c 00 62 3e 49 d8 50 3e 9e 37 f7 3c
       0.1750136 0.22070545 0.20395006 0.030177888
000130 cf c4 b7 3d 3b 81 49 3e 23 ca b3 3d c8 cc 38 3e
       0.08973085 0.19678204 0.08778789 0.18046868
000140 38 bb 8a 3d 72 e2 52 3e 74 e6 99 3e fb 03 ea 3d
       0.067739904 0.20594195 0.30058634 0.114265405
000150 9f 0c 86 3e 8c 67 7c 3d 80 c7 aa 3c 75 89 9d 3d
       0.26181504 0.061622187 0.020847082 0.076922335
000160 95 6d 79 3e 61 29 e2 bc 69 93 07 3e 71 29 01 3c
       0.24358208 -0.027607622 0.13239826 0.007883416
000170 7c e2 c9 3d 13 28 a1 3a 90 bc 18 3e 70 ef f5 3d
       0.098576516 0.0012295268 0.14915681 0.1200856
000180 74 14 35 3e f9 92 be 3d e1 11 81 3d a6 96 36 3e
       0.17683583 0.093053766 0.06302238 0.17830905
000190 95 88 20 3e 8c 7f ed 3d cd ac e7 3d 7a 97 1f 3e
       0.15677102 0.11596593 0.11312256 0.15585127
0001a0 14 95 01 3e 82 87 e8 3d 84 b8 1b 3d ee 4e 77 3e
       0.12654525 0.11353971 0.038017765 0.24151203
0001b0 27 5c 2f 3d b3 30 8c 3e e9 cf 13 3e d8 1b 43 3d
       0.042812493 0.27380905 0.1443478 0.047633976
0001c0 6c ae 3d 3d ba fe a7 3c 83 5b c3 bc cd 30 90 3d
       0.04630892 0.020507205 -0.023847347 0.07040558
0001d0 d0 99 58 3e 0f 6c c8 3c 8a 88 94 3d a9 84 ad 3d
       0.21152425 0.024465589 0.07252605 0.084725685
0001e0 1e 93 15 3e ec 0b 74 3e c3 22 c2 3d 49 29 3e 3e
       0.14606902 0.23832673 0.094792865 0.18570437
0001f0 1b f2 2c 3e fc 83 2d bc d7 a8 31 3e c6 60 e9 3d
       0.16889231 -0.01059055 0.17349564 0.11395411
000200 ca b4 7c 3c c1 64 bd 3d cf 57 d4 3d a4 7b 29 3e
       0.015423963 0.09247733 0.10368311 0.16551071
000210 e1 85 ab 3d 33 f4 fe 3c c4 60 69 3e 63 aa 64 3e
       0.08375145 0.031122303 0.2279082 0.22330622
000220 8f 6c c5 3d d9 a7 04 3e e0 da e3 3d f6 fa 08 3e
       0.096398465 0.12954654 0.111257315 0.13376984
000230 09 ca 34 3d 6c 6e 6e 3e aa 54 57 bc 7c bd 4d 3c
       0.04413799 0.2328431 -0.013142744 0.012557384
000240 87 b9 a2 3d 12 8d d1 3c 00 59 8d 3e 1b 51 01 3e
       0.07945543 0.025579963 0.27606964 0.12628596
000250 d5 7f e6 3c de 19 9b 3d a5 f2 eb 3d 3d 08 0e 3e
       0.028137127 0.07573293 0.1152089 0.1387033
000260 7b 1d 9d 3d 8c e9 bb 3d 8e d5 ce bb b2 ce 2b 3d
       0.076716386 0.09175405 -0.006312079 0.041945167
000270 b1 47 21 3e 4b 81 f8 bc 07 fd f4 3d 27 6e 04 3e
       0.15750004 -0.03033509 0.11962324 0.12932645
000280 a5 c1 86 3e e4 44 31 3c 20 d4 6e 3e ea dc 36 3e
       0.26319614 0.010819647 0.23323107 0.1785771
000290 c0 16 92 3c ac 15 ad 3d e0 34 d2 3d 50 d2 1d 3d
       0.017833114 0.08451399 0.10263991 0.038530648
0002a0 59 91 91 3d 08 f6 48 3d ef ed 4c 3e a1 97 6a 3e
       0.07107801 0.04906276 0.2001264 0.22909404
0002b0 26 f6 45 3e 94 34 84 3e d4 95 83 3c 4d 49 84 3e
       0.1933218 0.25821364 0.016062655 0.25837174
0002c0 19 6f 81 bc 38 5f ee 3d 9b fe 32 3e 68 08 1c 3e
       -0.015800046 0.11639255 0.17479937 0.15237582
0002d0 79 e0 69 3d 79 e2 61 3e 45 26 af 3e a5 64 44 3e
       0.05709884 0.22059049 0.34208885 0.19179018
0002e0 c5 1d e6 3d cb ed f4 3c cc 9b 94 3d 2c 1b b2 3d
       0.11236147 0.029898545 0.072562784 0.08696589
0002f0 7e 4b 72 3d 78 56 39 3d 63 f8 4b 3e 47 e9 1e 3e
       0.059154026 0.04524848 0.19918971 0.15518676
000300 6c 4c 02 3f 78 cc 9b 3d 4f 0a fc 3e f7 7e a5 3e
       0.5089786 0.07607359 0.49226615 0.3232343
000310 f9 29 6c 3e 7e ed 2d 3e bf b8 5b 3d cd 0f d6 3c
       0.23062886 0.16985127 0.053642984 0.026130581
000320 8e 0c 30 3e 31 cf ae 3d c9 20 a8 3e b6 eb bc 3e
       0.17192289 0.085356124 0.32837513 0.36898583
000330 66 56 b5 3e 2d 0c 0e 3f 9b f2 eb 3e c0 f6 9f 3e
       0.3541748 0.5548733 0.4608353 0.31242943
000340 5a 2b 83 3e 00 28 8d 3e 84 76 b2 3e fc ea 2e 3e
       0.25619012 0.2756958 0.34856045 0.17081827
000350 b2 e7 db 3e 61 1b 50 3e 6a 25 64 3e 99 70 d6 ba
       0.42950207 0.20322944 0.22279897 -0.0016360461
000360 ce 33 87 3e 5b cc 8c 3e f3 18 bb 3d d3 5f ae 3d
       0.2640671 0.2749966 0.09135618 0.08514371
000370 76 79 c5 3e d0 a0 36 3c e3 4c 74 3e 33 23 a3 3e
       0.3856923 0.011146739 0.23857455 0.31862792
000380 e2 7c 07 3f b3 ca 16 3e 39 61 3f bd 34 23 2a 3e
       0.5292493 0.14725761 -0.046723578 0.16614991
000390 54 ec 11 be cf c8 89 3d 93 6b ac 3e eb 3b 60 3e
       -0.14250308 0.06727754 0.33675823 0.21897857
0003a0 26 10 ce 3e df 0c 47 3e b3 47 45 3e 43 43 1a 3e
       0.40246695 0.19438504 0.19265632 0.15064721
0003b0 d6 d8 86 3e 5c 34 84 3e 63 c7 36 3e 34 c6 3e 3e
       0.26337308 0.25821197 0.17849497 0.18630296
0003c0 64 42 4f 3d 11 4f d9 3d d5 d8 d6 3d 45 46 1c 3e
       0.050600424 0.10610784 0.10490576 0.1526118
0003d0 e1 ef 23 3e d1 6e f1 3d 22 70 29 3e 0b 8a 60 3e
       0.16009475 0.11788715 0.16546682 0.21927659
0003e0 72 2b 33 3e 01 af 07 3f 02 9e 8c 3e 87 40 f9 3d
       0.17497042 0.5300141 0.274643 0.12170511
0003f0 8c ba ee 3b 5a b1 85 3e d8 03 90 3e 09 00 9e 3d
       0.0072854217 0.2611187 0.28127933 0.077148505

lstm.weight_hh_l0 f4 [256, 64]
000000 db 95 4b bc 86 8f 10 bd c2 fb ed bd b4 1e bc 3d
       -0.012425865 -0.035293125 -0.116202846 0.09185544
000010 e6 63 ee bd 46 db bb bd a5 25 00 3d 80 4d 06 bd
       -0.11640148 -0.091726825 0.0312859 -0.032788754
000020 dd c2 34 3d 27 98 4e 3c 39 45 a9 3d c7 0b 90 bd
       0.04413115 0.012609518 0.08265156 -0.07033496
000030 22 b4 2d bd 0f 6a 9f 3b 0c 93 f3 bd 6e a6 c9 bd
       -0.042408116 0.004864938 -0.11893281 -0.09846197
000040 f5 28 92 bc 9f 88 98 3d 7d 49 d0 bd 19 27 b8 bd
       -0.017841795 0.074479334 -0.10170267 -0.08991832
000050 7a 8b bc 3d 0c 50 df bd c4 53 a3 bd 05 ac db 3d
       0.092062905 -0.109039396 -0.079749614 0.107261695
000060 95 38 de bd db 0e ca 3d a3 8d 50 bc 44 29 a2 3d
       -0.10850636 0.09866115 -0.012729081 0.07918027
000070 cf 7b d3 3d 3c f1 bb 3c 84 d7 e8 bd 3f 3a bf bd
       0.10326349 0.022942178 -0.11369231 -0.093372814
000080 41 6e c3 3d 42 33 91 bd b2 e2 97 bd 88 1d b9 bd
       0.09542514 -0.07089855 -0.074162856 -0.09038836
000090 36 a8 c4 bd dc 2f 8d bd 4f 1a 26 bd 59 50 c6 3d
       -0.09602396 -0.06893894 -0.040552434 0.09683294
0000a0 a6 66 a0 bc 20 ee c9 bd 70 e0 cb 3d c7 ca f9 bd
       -0.019580197 -0.09859872 0.099549174 -0.1219688
0000b0 1e bd 03 3d 50 65 81 bd 4e 39 19 bd fe d6 91 bd
       0.032162778 -0.06318152 -0.037408166 -0.07121085
0000c0 67 0d f5 3d 4b f4 bb 3b 26 f4 81 bd ac f1 bf bd
       0.11965447 0.005735909 -0.06345396 -0.09372267
0000d0 c9 5d 9a 3d fe 21 ec bd af e1 9b bd 3a 11 0a 3d
       0.07537419 -0.11529921 -0.07611405 0.033707835
0000e0 fa c0 7f 3d f4 d1 59 3d 3a 71 53 3d 1e 76 5c bd
       0.062439896 0.053178743 0.051621653 -0.053823583
0000f0 97 de 58 3d d7 2e 9d 3a 7c 65 ed bd a1 12 df bd
       0.052946653 0.0011992109 -0.11591622 -0.10892225
000100 54 95 e1 bd 83 f5 00 3d c1 4f b9 bd f9 f7 03 bd
       -0.1101481 0.03148414 -0.09048415 -0.032218907
000110 82 57 b8 bd 3b c0 40 bd 76 58 7a 3d 60 77 c2 3d
       -0.09001066 -0.047058325 0.06111952 0.09495425
000120 10 e4 f9 3d fe f0 c7 3c 63 f5 bc 3c 64 e5 83 3c
       0.122017026 0.024406906 0.023066228 0.016100593
000130 e4 af b6 3b f8 78 3f 3d a6 f1 dd 3d b4 fb 15 bd
       0.005575167 0.046746224 0.108371064 -0.036616996
000140 b0 59 a0 3d a2 dd c7 3b 33 87 fb bd 00 fb a1 bd
       0.078296065 0.0060994187 -0.122816466 -0.079092026
000150 e6 f2 28 3d bf aa 93 3d f4 d6 91 bd ad 27 2d 3d
       0.04124727 0.072103016 -0.07121077 0.042274166
000160 de 8c e2 3d 7a 8b d5 bd f1 47 34 bd bc 25 1e 3c
       0.110620245 -0.10426994 -0.04401392 0.009652551
000170 dd 4d f9 3d 52 13 fc 3d 3d 37 8a bd ab 66 b4 3c
       0.12173054 0.123083726 -0.06748817 0.022021612
000180 80 0c 9e bd c2 3c 58 3c 3f f0 33 3a d7 d1 dd bc
       -0.07717228 0.01319808 0.00068641076 -0.027077598
000190 37 20 dc 3c 51 52 31 bd 78 5c fc bc 5b b1 ef bd
       0.02687083 -0.043291394 -0.030805811 -0.1170375
0001a0 ef 1a b4 bd 2a 4b d7 3d 99 9c d3 bd fe 6f eb bd
       -0.087942 0.10512383 -0.10332603 -0.1149597
0001b0 dd 4d c0 3d df 88 38 bd ee de d9 bd b7 1f 0d bd
       0.09389851 -0.045052405 -0.106382236 -0.034454074
0001c0 c1 53 b0 bd d6 b4 b9 bd 1f c4 23 bd 8a 33 9c 3d
       -0.08609725 -0.09067695 -0.039981958 0.07627018
0001d0 c0 ec a5 3d eb bd 99 3d 94 19 e3 bd 73 16 59 3d
       0.08101797 0.07506927 -0.11088863 0.052999925
0001e0 a7 30 8c 3d 40 2e ef 3d a1 e2 61 3d b7 7c c9 3d
       0.06845217 0.11678743 0.05514777 0.098382406
0001f0 0d b6 99 3d f6 93 a7 bc f0 3d e2 3d 2c 5a df 3d
       0.075054266 -0.020456295 0.1104697 0.10905871
000200 74 75 dc bc d1 6e c2 bd d2 d8 6d 3c 19 11 f7 3d
       -0.026911475 -0.09493793 0.014517026 0.12063808
000210 96 d2 51 3d 66 7f 40 3c c9 98 8b bc 8d ff 33 bd
       0.05122622 0.011749124 -0.017040627 -0.043944884
000220 32 1d 68 bc f8 11 44 bd 2f 0e 9e bd a0 a9 0e 3d
       -0.014167117 -0.0478687 -0.07717549 0.034829736
000230 b4 ba e3 3b 9f bf f8 ba 8b 46 a9 bd d6 3d a1 3b
       0.006949747 -0.0018978006 -0.08265408 0.0049207015
000240 9b c4 fb bd 55 22 f4 bd 2e e0 9a 3d e7 7f f8 bd
       -0.12293359 -0.11920611 0.0756229 -0.121337704
000250 d0 ec e2 3c d4 b3 e2 bd f6 d6 fa bd 27 54 ce 3c
       0.027700812 -0.11069456 -0.12248032 0.025186611
000260 15 ee e3 3d 44 0c 40 3d 18 f2 b0 bd 32 f1 d2 3d
       0.11129395 0.046886697 -0.08639926 0.102999106
000270 34 4f b9 3b 89 a3 54 bd 3a aa 1e bd 84 70 d1 3d
       0.0056551937 -0.05191377 -0.03873656 0.10226539
000280 a7 a0 05 bd 34 1a b1 bb 04 64 b5 bd 9a b1 db 3d
       -0.032623913 -0.005404735 -0.08856967 0.10727234
000290 a1 fb 0d 3c 2c 70 f0 bd 47 9c b7 bc 32 e3 21 3c
       0.00866595 -0.11740145 -0.022413386 0.009880828
0002a0 b4 3e fc bd 9a fe c1 bd fc ef a2 bd ca 54 96 3d
       -0.12316647 -0.094723895 -0.0795593 0.07340391
0002b0 de 9d 2c bd 74 e7 ee bd 6c 2a e9 3d 45 b3 5f bc
       -0.04214274 -0.1166524 0.113850445 -0.013653581
0002c0 f3 1f 01 3c e6 94 f5 3d d5 13 e7 bc 15 75 9f 3c
       0.007881152 0.11991291 -0.028207699 0.019465009
0002d0 6f 90 ba 3c 02 8a 0e bd b4 4f f3 3c ee 6d 70 bd
       0.02277395 -0.034799583 0.029701091 -0.058698587
0002e0 5b be 82 ba 40 dd e1 3d 12 a9 02 3d b8 a0 03 3b
       -0.0009974943 0.11028528 0.03189952 0.002008481
0002f0 81 aa 55 bd 5d 32 c5 3b 44 22 e1 3d f6 66 c8 3d
       -0.05216456 0.0060179667 0.10992864 0.09785263
000300 97 5f e6 bc b3 8d 9a bd 5f 24 ee 3d f7 09 a2 bc
       -0.028121753 -0.07546558 0.11628031 -0.019780142
000310 70 62 2c bd bf 84 e6 bd 5c 51 de 3d 1d bd 77 3d
       -0.042086065 -0.11255788 0.10855362 0.060483087
000320 51 ad 1c bd 4d 3e 14 bd 76 53 8d bd a4 78 bd 3d
       -0.038251225 -0.036192227 -0.069006845 0.09251526
000330 66 99 94 bd dc 07 b3 bc b2 49 54 bd 3f b9 aa bc
       -0.07255821 -0.021854334 -0.051828094 -0.020840285
000340 91 1c b0 3d ea 8d fb 3d d2 78 b5 bb 42 70 bf bb
       0.085991986 0.12282927 -0.0055380845 -0.0058422396
000350 95 a4 13 bd 53 aa 1f 3c 91 de 82 3d d9 53 3a bd
       -0.03604563 0.009745198 0.063901074 -0.04549012
000360 b8 59 a2 bd 04 4d 73 3d 6c b4 45 3d f2 a3 aa 3d
       -0.07927269 0.05939962 0.048267767 0.08332051
000370 1e cc 83 bc 15 5b d8 ba 68 d2 93 bd 69 64 27 3d
       -0.016088542 -0.0016506637 -0.07217866 0.040867243
000380 ac d8 22 3d d5 8c ca bd 70 29 2a bc 26 7a e0 bb
       0.039757416 -0.09890143 -0.010385856 -0.0068504987
000390 02 8b 23 bd 11 68 4f bd e7 b9 e2 3d 80 fd e1 3d
       -0.03992749 -0.050636355 0.11070614 0.110346794
0003a0 d2 05 d5 bd 63 13 df 3c dd 92 78 bd a3 d5 38 bd
       -0.10401501 0.027230924 -0.060686935 -0.045125615
0003b0 9c cd 57 bd b9 9a f0 3d d8 7c 80 3d 57 be d6 3c
       -0.05268632 0.11748261 0.06273812 0.026213808
0003c0 57 b9 e2 3d 06 30 9c bd 4a d9 e9 bd ec 42 8e 3d
       0.11070507 -0.07626347 -0.11418398 0.06946358
0003d0 89 bb 85 bd 37 00 a9 bd b8 7c dc 3d 14 94 ed 3b
       -0.0652991 -0.08251994 0.10765976 0.0072503183
0003e0 62 e4 c2 bc e5 79 1f bd af a9 13 3b 85 ac e7 3d
       -0.023790542 -0.038934607 0.002253156 0.11312202
0003f0 ab 9c fa 3a d0 32 a9 bd 11 07 3c bb a2 bb 25 3d
       0.0019120177 -0.08261645 -0.0028690735 0.040462144

lstm.bias_ih_l0 f4 [256]
000000 15 88 4e 3e 2a e4 60 3e 18 87 49 3d 5b 8b 72 3e
       0.20169099 0.21962038 0.0492011 0.23685972
000010 17 a3 96 3e 78 b0 db 3e 3c 90 5b 3e b9 e1 26 3e
       0.29421303 0.42908072 0.2144174 0.16297044
000020 29 d2 0e 3e 91 f2 b1 3d 9e f3 61 3d fc ce 09 3e
       0.13947357 0.08688844 0.055163972 0.13457865
000030 a9 bb 42 3e 11 31 a9 3c 31 4b 0d 3e ed 1c 50 3e
       0.19016899 0.02065328 0.13798214 0.20323534
000040 58 99 82 3e b7 b6 b3 3d c7 14 0c 3e 1f d2 9a 3d
       0.25507617 0.087750845 0.13679801 0.07559609
000050 be 65 4e 3e e9 22 55 3e 21 54 4c 3d 75 94 cc 3c
       0.20155999 0.20814098 0.04988492 0.024973134
000060 6b bc 99 3e 21 b1 35 3e 63 0b 4d 3e f0 db 39 3e
       0.30026564 0.1774335 0.20023875 0.18150306
000070 80 2a c5 3d a6 c8 6f 3e af 07 98 3e 72 0d 1f 3d
       0.09627247 0.23416385 0.29693362 0.03883118
000080 91 2d 07 3d 42 46 9b 3e 88 89 52 3e ee c8 24 3e
       0.03300244 0.3032704 0.20560277 0.16092274
000090 3d 18 a3 3d 2c 6d dd 3d 42 6c 5b 3e a1 eb ea 3e
       0.079636075 0.108118385 0.21428016 0.45882896
0000a0 31 01 a3 3d 08 e4 87 3e f5 b4 04 3e 90 13 7d 3e
       0.079592116 0.26541162 0.12959655 0.24714494
0000b0 20 d7 8c 3e 76 03 b5 3e f0 8f 69 3e 04 61 a1 3d
       0.27507877 0.35354203 0.22808814 0.078798324
0000c0 cd ff 77 bc 03 ba 82 3e 18 d8 8d 3e cc 34 80 3e
       -0.015136671 0.2553254 0.2770393 0.2504028
0000d0 aa c8 8e 3e fb e7 59 3e 40 84 82 3e 7a 10 8f 3e
       0.2788747 0.212799 0.25491524 0.27942258
0000e0 bd 78 c2 3c 12 91 09 3e 21 ae 8b 3e 37 56 09 3e
       0.023739213 0.13434246 0.27281287 0.13411795
0000f0 93 33 08 3e 4c 27 4d 3e 97 80 1a 3e 34 03 04 3e
       0.13300924 0.20034522 0.15088116 0.12891847
000100 a1 df f3 3d 46 da 90 3d d2 bb c7 bd 8e c7 cd 3d
       0.11907888 0.07072882 -0.09752621 0.10047828
000110 3e cc 0e 3d 1a b3 c6 bc ee 15 89 3d f3 fc 33 3d
       0.03486275 -0.024255324 0.06693636 0.043942403
000120 38 d7 cd bc 14 45 36 bd 6d d3 b4 bd 6b ea 61 bd
       -0.025127038 -0.04449947 -0.08829389 -0.0551552
000130 c0 06 85 3b 30 38 7d bd a3 5a ce bc 75 7e 54 bc
       0.0040596426 -0.061821163 -0.025189703 -0.012969603
000140 d4 ec af 3d 2a 28 40 bd f2 ff c5 3d c1 0a ac bd
       0.08590093 -0.046913303 0.09667958 -0.08400489
000150 cf 89 d1 bd 5b c6 c9 3c fb ea 26 3d 7e c9 61 bd
       -0.10231363 0.024630716 0.04075144 -0.0551238
000160 4e 95 04 bd ee e7 b1 3d 84 58 f2 3d 8c 17 8e 3d
       -0.03236895 0.08686815 0.11833289 0.06938085
000170 4e b8 e8 bc d6 32 d9 bd ec a5 ca 3d 13 10 8e 3d
       -0.028408196 -0.10605399 0.09894928 0.0693666
000180 66 62 c4 bd eb 45 49 3d d6 92 ac bd 02 73 80 bd
       -0.095890805 0.049138945 -0.08426444 -0.06271936
000190 43 95 bb 3d ba 9b a2 bc be 4f b6 bd 30 30 1c bc
       0.09159329 -0.019849647 -0.08901928 -0.009532973
0001a0 bc a9 8c 3d c0 cf 20 bd 21 d2 c2 3d cb 8f 5e 3c
       0.06868312 -0.039260626 0.09512735 0.013584088
0001b0 b1 56 da bd ab 5d 82 bc d1 30 80 3d 10 c6 d7 bd
       -0.10661066 -0.015913805 0.06259311 -0.10535824
0001c0 e5 21 8a 3d 6b 4f d4 3d 36 99 7a bb 59 df 3c bd
       0.06744746 0.1036671 -0.0038238293 -0.04611144
0001d0 7a b7 63 bc 21 64 69 3c a0 69 7c bd 26 d4 b8 bc
       -0.013898725 0.014245064 -0.06162417 -0.022562098
0001e0 0c 6f de bd 6c d7 d6 3b 2b 36 e0 bd 1a 65 b1 bd
       -0.10861024 0.006556442 -0.10947832 -0.08661862
0001f0 81 bd a5 3d d4 23 77 3d 6b c8 ca 3d 49 3a dc bc
       0.080927856 0.060336903 0.09901508 -0.026883261
000200 2c 87 c6 bc 4e 6d 14 3e 52 ee 0a 3d 23 09 ef 3d
       -0.024234377 0.14494821 0.033918686 0.116716646
000210 ed 8f 77 bd 68 f5 94 bb ee 88 8f bd e4 a2 89 3d
       -0.060439993 -0.0045458563 -0.07008539 0.06720522
000220 39 43 02 bd 3f 10 f5 bc 70 a3 b4 3d 33 b0 11 bd
       -0.03180239 -0.029914973 0.08820236 -0.035568427
000230 b2 39 de bc 39 73 92 bd 6f c9 1c 3e 5a 8b 08 bd
       -0.02712712 -0.07150883 0.15311216 -0.03333602
000240 6d 10 1b be 17 f8 bb bd 08 d1 54 3d 3f 31 40 3d
       -0.15142985 -0.09178179 0.05195716 0.046921965
000250 ce f6 79 bd aa 15 92 3a 83 bc c7 3c 76 36 97 bd
       -0.061026387 0.0011145372 0.024381882 -0.073834345
000260 e3 9a 24 be 86 f9 0d 3e 06 73 b1 3d f7 eb c5 3d
       -0.1607471 0.13864717 0.08664517 0.09664147
000270 43 1e a4 3d e8 f2 28 be a9 f9 80 bc 6c 4e bf bd
       0.080135845 -0.16498911 -0.015744047 -0.0934113
000280 28 62 17 3c 70 84 33 bd fe 7e 01 3e 62 f8 a4 bd
       0.009239711 -0.043827474 0.126461 -0.08055188
000290 55 5e 4c bd 4d 32 01 3e 45 97 28 3e eb e2 d6 bd
       -0.04989465 0.12616844 0.16463955 -0.104925
0002a0 d9 c2 86 bd fa d7 66 3d cc f8 8f 3d 65 bc a9 3d
       -0.06580133 0.056358315 0.07029876 0.082878865
0002b0 73 81 09 bd 33 d4 22 bd 2c e7 13 bc 48 0b e3 bd
       -0.033570718 -0.03975315 -0.009027284 -0.11086136
0002c0 c4 f6 36 bd d6 99 00 be a0 7f fb 3c 45 9e b1 ba
       -0.044668928 -0.12558684 0.030700505 -0.0013551196
0002d0 0b 2e c2 3d 77 af 08 bd cb 60 da bb 8a b0 23 3d
       0.09481438 -0.03337046 -0.0066643707 0.039963283
0002e0 67 95 ac bd 58 66 84 3d 85 cb 26 be ce 26 52 3d
       -0.08426934 0.06464833 -0.16288574 0.05130654
0002f0 ef 03 b1 3b 0d 08 04 bc ae 56 b2 bd f2 c2 84 bd
       0.0054020802 -0.00805856 -0.08707939 -0.06482495
000300 d1 07 4d 3e 2e d7 7a 3e a4 67 9a 3d f4 35 d4 3e
       0.20022513 0.24496147 0.07539299 0.41447413
000310 1a b0 04 3e e9 49 ce 3e 44 05 fe 3d c3 d7 f6 3c
       0.12957802 0.40290764 0.12403348 0.03013218
000320 41 31 b5 3d 2a cd 4c 3e 3a 87 3d 3e fd 49 b2 3d
       0.08847285 0.20000139 0.18508616 0.087055184
000330 72 57 8a 3e 63 bd 27 3e d9 45 5d 3e ef 6a f2 3d
       0.2701984 0.16380839 0.21608676 0.11836802
000340 d4 97 23 3e 55 f2 7d 3e ec 5b ee 3d 24 b5 66 3e
       0.15975887 0.24799474 0.116386265 0.22530037
000350 2f ad 50 3e 92 9e 2c 3e c8 63 69 3d 40 60 59 bc
       0.20378564 0.16857365 0.056979924 -0.013267577
000360 be 7e 68 3e a7 32 f8 3d 1a 98 ca 3d 11 ea a6 3e
       0.22704598 0.12119036 0.09892292 0.32600453
000370 b4 fa 3f 3e 82 a3 1f 3e 9b 86 c8 3e ff 18 60 3d
       0.1874798 0.15589717 0.39165196 0.054711338
000380 38 66 fe 3a e3 24 a4 3e e9 dc 32 3e 3c c9 2c 3e
       0.0019409126 0.32059392 0.17467083 0.1687364
000390 c7 fb 71 3e af 6c 36 3e d1 b2 84 3e 75 82 cd 3e
       0.23631202 0.17814897 0.25917676 0.40138593
0003a0 5d cc 99 3d ae ec 4a 3e 63 a5 22 3e 07 96 97 3e
       0.07509682 0.19816849 0.15883403 0.2960665
0003b0 e7 2d 83 3e 2c 16 bc 3e f3 92 a2 3e 1f 15 80 3e
       0.25620958 0.36735666 0.31752738 0.25016114
0003c0 46 0e 37 3e 9d 3b c4 3e 73 bb c3 3d de 2f be 3e
       0.17876539 0.3832673 0.095572375 0.37145895
0003d0 90 98 b0 3e 07 05 02 3e 13 89 1c 3e d7 b4 c8 3d
       0.34491396 0.1269723 0.15286665 0.098001175
0003e0 86 53 c5 3d 3d c9 84 3e 41 dd a8 3d 24 31 88 3d
       0.096350715 0.25934783 0.08245326 0.06649998
0003f0 af a9 65 3e 15 5e fe 3d a0 c6 a4 3e 6c 21 a6 3e
       0.2242801 0.124202885 0.3218279 0.32447374

lstm.bias_hh_l0 f4 [256]
000000 58 aa 1d 3e 29 0b 2f 3e 19 f5 c4 3d a1 34 5e 3e
       0.15397012 0.17094101 0.09617061 0.21699764
000010 67 40 9f 3e 6a 1b 77 3e 93 68 2b 3e 96 a7 5e 3e
       0.31103823 0.24131551 0.1673911 0.21743616
000020 17 49 64 3e 2c 98 00 3e 70 3c 25 3e 8c 67 0d 3e
       0.22293507 0.12558049 0.16136336 0.13809031
000030 bd 85 01 3e c5 72 c2 3d 42 42 1b 3e 56 d5 6e 3e
       0.12648673 0.09494547 0.15161994 0.23323569
000040 50 fd 47 3e 23 7e d4 3d b2 6b 79 3e fa e9 82 3e
       0.19530225 0.10375621 0.24357489 0.25569135
000050 2d 96 1f 3e eb 7c 95 3e fa 8e aa 3d 11 72 9d 3d
       0.15584631 0.29196867 0.08328052 0.07687772
000060 da d7 27 3e cb 2e 17 3e 2a 0c 00 3e 39 25 21 3e
       0.16390935 0.14763944 0.1250464 0.15736856
000070 3a dd cb 3c cf 21 5e 3e cf 5d c3 3e 2c 79 6f 3e
       0.024885762 0.21692584 0.38157508 0.23386067
000080 f7 35 51 3e da 8a 2f 3e e0 82 25 3e c2 cb 81 3e
       0.20430742 0.17142811 0.16163206 0.25350767
000090 53 fb 00 3e 94 b8 b1 3d cf f0 36 3e 6f ed c1 3e
       0.12595873 0.086777836 0.17865299 0.3787646
0000a0 39 87 0f 3e 50 70 98 3e f6 b4 32 bc 41 27 ba 3e
       0.14016427 0.29773188 -0.010907402 0.36358073
0000b0 00 94 19 3e bf 20 6d 3e 6c 21 64 3e 88 c7 b8 3d
       0.14997864 0.23157023 0.22278374 0.090224326
0000c0 59 96 99 39 a1 51 a0 3e c0 a2 55 3e eb a2 0b 3e
       0.00029294452 0.31312278 0.20862865 0.13636367
0000d0 de 0e e3 3e 7b 30 56 3e 3c e9 76 3e e3 97 34 3e
       0.4434728 0.20916931 0.2411241 0.17636065
0000e0 33 b7 ff 3c 54 a6 c3 3d 94 24 1a 3e d2 67 10 3e
       0.031215286 0.09553209 0.15053016 0.14102104
0000f0 32 41 f5 3d 3d f1 49 3e cb 14 92 3e b1 2a 0a 3e
       0.11975326 0.19720931 0.2853149 0.13492848
000100 96 5f f5 bd 5f 91 31 3d 01 44 31 3c 9c 05 eb bd
       -0.11981122 0.043351527 0.010819436 -0.11475679
000110 9a f6 61 3c ab cb ed 3d 94 33 8f bd a6 2a f8 3d
       0.013791705 0.11611112 -0.069922596 0.121175095
000120 4b a7 64 bd 45 b3 73 3c e0 2c 56 bc 42 fb 7e 3d
       -0.055823606 0.014874284 -0.0130722225 0.062251337
000130 35 4a c6 bd 40 1b 8f 3d 92 92 f1 bd 7a 14 f2 3c
       -0.096821226 0.069876194 -0.11795534 0.02955078
000140 86 29 82 bc 36 ab c6 bd a9 f1 d0 bd 43 bc 60 3c
       -0.01588894 -0.09700625 -0.10202343 0.01371676
000150 c4 ce 47 3d b0 ba c2 3d cc 50 68 bc 29 d6 0c 3c
       0.04878117 0.09508264 -0.01417942 0.008595982
000160 f0 61 ed bd d1 fc fb bd cd ed 86 bd b1 ad f7 bc
       -0.11590946 -0.1230408 -0.06588326 -0.03023419
000170 12 bd f4 3c 14 6e e4 3d 46 94 d1 3d bc 8f 8d 3d
       0.029875312 0.11153808 0.10233359 0.06912181
000180 b6 ac 2b 3d f7 dc 87 3d c4 f2 f0 3c 86 7c 36 3d
       0.041912757 0.066339426 0.029412635 0.04455235
000190 76 61 b8 bc b7 04 be 3c 27 4d a1 bd 93 71 c1 bd
       -0.02250741 0.023195608 -0.07876044 -0.09445491
0001a0 5a bb ed 3d 70 8f 1f bd 72 fa d9 bd 69 57 93 3d
       0.11608 -0.038955152 -0.10643472 0.071944065
0001b0 3a 6b 86 3c 52 59 f7 bd 0b 5f e0 3d e2 7c ed bd
       0.016408551 -0.120775834 0.10955628 -0.11596085
0001c0 2a b4 eb 3d c9 a7 50 3d f1 84 b3 3d d9 c2 92 3c
       0.11508973 0.050941262 0.08765591 0.017915176
0001d0 6b ee 7f 3d 2e d2 80 bc d0 26 f4 3c 70 ef f1 3d
       0.062483232 -0.015725221 0.029803663 0.11813247
0001e0 77 8d 43 bc 17 ec 17 3d d4 a3 32 3c 23 eb 67 3d
       -0.011935583 0.037090387 0.0109033175 0.05662073
0001f0 fb 33 c2 bb a2 54 c7 3d 30 06 c8 3c f5 3b e9 bd
       -0.0059266067 0.09732939 0.024417013 -0.11388389
000200 ba 70 de bd 32 d9 fe 3d 2c 85 04 3d cc 77 4d bd
       -0.10861345 0.124437705 0.032353565 -0.050163075
000210 cd 2b 37 bd b1 e5 35 be 36 3c 11 be 31 fb 0a be
       -0.044719506 -0.17763402 -0.14183125 -0.13572384
000220 ae 56 16 be 40 6f ae 3d 8e 1f df 3b f0 4a 12 3e
       -0.14681503 0.08517313 0.0068091815 0.14286399
000230 0e b3 c3 bd 04 60 88 bd 2b e4 a1 3c bc 1b ac 3c
       -0.09555636 -0.066589385 0.01976212 0.021009319
000240 da 71 0f be 1d 2e 74 3d fb 4d 73 bd 63 95 1b 3e
       -0.14008275 0.05961429 -0.05940054 0.15193705
000250 77 47 5f 3c 0e fa 50 be ff 6c 8d 3c 1b a0 bc 3d
       0.013627878 -0.20407888 0.017263887 0.09210225
000260 5d 47 a4 3b b3 d3 ad 3c fe aa f6 bd 37 b5 69 3d
       0.00501339 0.02121911 -0.12044333 0.057057586
000270 c9 49 3a 3d 05 3b 10 3d 2f 7d 31 3d d1 f0 e5 bc
       0.045480523 0.035212535 0.043332275 -0.028068932
000280 25 80 b4 3d 17 77 f9 3d 1e ee 5b bd 27 5c 33 be
       0.08813504 0.12180918 -0.053693883 -0.17515622
000290 2b 32 ab 3d 9e d6 01 3e fa ee 1d 3e ed 01 30 bc
       0.08359178 0.12679526 0.15423194 -0.010742647
0002a0 f2 83 84 3c 12 b5 a8 bb ab 69 bd bc 4e a2 67 3d
       0.016176198 -0.0051485384 -0.023121675 0.05655127
0002b0 58 33 8b 3d 10 c3 c5 bd 6a cd b0 3d aa 32 a0 bd
       0.067969024 -0.09656346 0.086329296 -0.078221634
0002c0 94 95 3b bc 4f 13 1b be ea 93 5e bc dc 68 5e 3d
       -0.011449236 -0.15144084 -0.01358507 0.05429922
0002d0 68 3d 3c bd 2e a2 c0 3c 10 ce d6 bd c9 71 ff 3d
       -0.045957 0.023514833 -0.10488522 0.12472875
0002e0 24 1f 8c 3b 2c 60 99 3d 89 4b 20 bd c9 9d 15 3d
       0.004276173 0.074890465 -0.039134536 0.03652743
0002f0 20 8a be bd 48 b5 23 3e 48 bf d5 bd a0 54 da 3d
       -0.09303689 0.15987122 -0.10436875 0.10660672
000300 6a 46 94 3e 76 da 33 3e f0 3a 87 3e 01 6b c3 3e
       0.28959972 0.17563805 0.26412153 0.38167575
000310 1b de a8 3e 88 24 83 3e d0 36 31 3e 04 7a a5 3d
       0.32981953 0.2561381 0.17306066 0.08079913
000320 75 92 59 3e da af 76 3e 46 ca 0e 3e 50 dd 67 3e
       0.21247275 0.2409052 0.13944349 0.22643018
000330 fb a6 43 3e ee f9 3d 3e a6 d8 71 3e b2 5c 85 3e
       0.19106667 0.18552372 0.23617801 0.26047283
000340 02 bb 94 3e 44 0c 0a 3e 87 b7 02 3e 17 da 55 3e
       0.29048926 0.13481241 0.12765323 0.20883976
000350 13 03 b7 3d ef 4e 91 3e 94 42 29 3e 65 47 52 3e
       0.08936133 0.28380534 0.16529304 0.20535047
000360 b5 e6 73 3e 1b 5a 92 3e 39 67 67 3e 97 4e 8f 3e
       0.23818476 0.2858437 0.2259797 0.27989647
000370 1a 2f 81 3e 51 12 c8 3d d8 9a cb 3e 75 c7 6f 3d
       0.25231248 0.097691186 0.39766574 0.058539826
000380 70 c2 b3 3d 1a 7b a0 3e ea 80 86 3e cd 79 04 3e
       0.087773204 0.3134392 0.2627023 0.12937088
000390 94 b2 4d 3e e7 9a af 3d 6d 86 7a 3e 4a 2e cb 3e
       0.20087653 0.08574467 0.24465342 0.39683753
0003a0 d8 fc e8 3d f1 3a 5e 3e 22 89 3a 3e 18 d7 af 3e
       0.11376351 0.21702172 0.18216375 0.3434379
0003b0 06 ce 40 3e 70 34 9f 3e c7 04 84 3e 7f 8a 95 3d
       0.18828592 0.31094694 0.25784895 0.07301807
0003c0 e7 fa 01 3e 23 b7 85 3e 97 61 54 3e 47 21 51 3e
       0.12693368 0.26116285 0.20740353 0.2042285
0003d0 33 29 9c 3e 41 f9 6c 3e d5 58 02 3e 3a e1 a2 3e
       0.30500183 0.23141958 0.12729199 0.3181246
0003e0 60 62 64 3b 11 c4 28 3e 96 3c 25 3e 04 72 26 3e
       0.0034848675 0.16481043 0.16136393 0.16254431
0003f0 58 f6 59 3e 70 df af 3e bb f4 46 3e 3a 8c 95 3e
       0.21285379 0.34350157 0.19429295 0.29208547

fc.weight f4 [3, 64]
000000 4c 1d aa 3e e9 3a fe 3d b4 d2 8c be 3f cb b6 3d
       0.33225477 0.1241358 -0.27504504 0.08925485
000010 3a c5 7a 3e bc f4 16 be 37 21 a2 3e ce 45 87 3e
       0.24489298 -0.14741796 0.31665966 0.26420444
000020 a5 98 d9 3e 30 9b 43 3e 0f 9e b2 3e 9a 8c 38 be
       0.4249927 0.19102168 0.34886214 -0.18022385
000030 95 de 2b be 40 e5 1f be af 6c 8c be 96 fc 95 3e
       -0.16784127 -0.15614796 -0.2742667 0.2929427
000040 31 c1 ba 3e 11 d4 a8 3e 35 02 84 3e 0e e2 37 be
       0.36475518 0.32974294 0.25782934 -0.17957327
000050 00 08 05 be c5 12 c7 3e 1a a8 f1 3d 61 f1 61 3e
       -0.12991333 0.38881508 0.11799641 0.22064735
000060 b7 e6 33 be 2e 6d c1 be 6b 68 2e be 67 d0 54 be
       -0.1756848 -0.3777861 -0.1703202 -0.20782624
000070 b4 dd 93 be 6e 49 d3 3e bc 02 3d 3e 17 ba 8e 3e
       -0.28880084 0.4126696 0.18458074 0.2787635
000080 05 65 8f 3e e5 ff 52 be 66 f0 b1 be 95 57 ab 3e
       0.2800676 -0.20605429 -0.34753722 0.33465257
000090 92 bc c0 3d 1e 57 b0 be 20 fe c7 be 0e 21 66 be
       0.09410967 -0.34441465 -0.3906107 -0.22473547
0000a0 83 30 4f be 41 06 a2 be 3c af 59 3e 5f e9 3f 3e
       -0.2023335 -0.31645396 0.21258253 0.18741368
0000b0 e6 81 5b be 7b 2f a7 bd 41 4a 33 3e 8d 03 c0 3e
       -0.21436271 -0.08163353 0.17508794 0.3750271
0000c0 a4 37 47 be ea e5 e8 3e 17 c3 bd 3e b8 c6 9b be
       -0.19454819 0.4548791 0.37062904 -0.30425048
0000d0 37 2f f5 3d 60 56 8b be 60 e8 68 bb 55 a2 80 be
       0.11971896 -0.27214336 -0.0035538897 -0.2512385
0000e0 38 1f 2a be 62 90 a8 be f8 5e 88 3e 0a 07 d1 be
       -0.16613472 -0.32922655 0.26634955 -0.40825683
0000f0 2c dc 9b 3e b6 b9 c1 be 56 7b 9b 3e 39 10 95 be
       0.30441415 -0.37837 0.30367535 -0.2911394
000100 4a a5 38 be 35 4c 92 3d 26 10 1d 3e d8 fd a5 3e
       -0.18031803 0.071434416 0.15338191 0.3242023
000110 58 32 46 3e 6d fd ad be dc 9e 68 bd c6 67 7b be
       0.19355142 -0.3398241 -0.056792125 -0.24551305
000120 39 38 26 be c6 67 31 be 49 ba 84 bd 12 38 91 3e
       -0.16232385 -0.17324743 -0.064808436 0.2836309
000130 a2 ea 56 3e 8e 21 00 3e 71 db 29 3e 81 89 8d be
       0.20987943 0.125128 0.16587617 -0.2764397
000140 00 45 18 be 61 09 5e bc 41 72 bd be ce 7f 88 3e
       -0.14870071 -0.013552041 -0.3700123 0.26660007
000150 a4 e5 bd be 47 0c 91 be e2 f2 55 be b0 3d 69 bd
       -0.37089264 -0.2832968 -0.20893434 -0.056943595
000160 a2 03 c0 bd af 89 ba 3d ce 6f ae bc 3a 58 cf bd
       -0.09375693 0.09108292 -0.021293547 -0.1012425
000170 a7 31 c1 3c c9 54 5f be 26 ba 0e 3e 5c 0e 50 bd
       0.023583246 -0.21809687 0.13938197 -0.050794944
000180 21 ee a0 be 70 6a 92 3e a1 b1 79 3e cd e5 54 be
       -0.31431678 0.2859683 0.24384166 -0.20790787
000190 7d 7b ca bb 3c ca 78 3e 75 56 91 3e 7d d6 e6 be
       -0.0061792717 0.24295896 0.28386274 -0.45085517
0001a0 3d 73 44 3e a3 46 d2 3d 47 9c a1 be 13 3e 30 3e
       0.19184585 0.10267379 -0.31564543 0.1721118
0001b0 41 d7 a8 be 50 07 3b be d0 58 ab 3d 02 d0 97 be
       -0.32976726 -0.18264508 0.08366549 -0.29650885
0001c0 ae 6d 5f 3e 88 40 65 be 7f 29 29 be 9d c1 fd bc
       0.21819183 -0.22387898 -0.16519736 -0.030976111
0001d0 e9 3a b1 3e 83 f2 17 3e c8 d9 c5 be 2d 20 b7 3e
       0.34615257 0.14838605 -0.38642716 0.35766736
0001e0 84 70 16 3e 0b da 74 3e 69 f6 b6 be ef 15 02 3e
       0.14691359 0.23911302 -0.3573487 0.1270368
0001f0 14 22 a8 39 d9 b0 e8 3d 39 ab ca be 7a 60 81 3e
       0.00032068847 0.11361856 -0.39583758 0.25268918
000200 f9 4d 22 be 27 e6 9e be 2e 97 a0 3e eb ba 2c bf
       -0.15850057 -0.31034967 0.3136534 -0.67472714
000210 41 e4 06 bf 5d 03 3b 3f b8 a9 b3 be 66 cf 2d 3d
       -0.5269204 0.73052007 -0.35090423 0.04243412
000220 4e fe 72 be db b1 9a be d1 c2 99 be f5 ce 78 3e
       -0.23729822 -0.30213818 -0.30031446 0.24297698
000230 6f 34 ab 3e ff 9b 76 3e f3 88 07 3e 17 9a d7 bd
       0.3343844 0.24082945 0.13235836 -0.10527437
000240 2a 22 80 be bb 3a bf be ee e2 c3 bd 61 8a 37 3e
       -0.25026065 -0.37349495 -0.09564768 0.17923881
000250 07 fa f2 3e 98 c2 17 bc 6c a1 68 be 2f c1 32 be
       0.4745638 -0.009262703 -0.22717828 -0.17456506
000260 af b8 0f 3f 57 8b d0 3e a0 ce a2 3e 1b 63 f9 3e
       0.5614118 0.40731308 0.31798267 0.48708424
000270 45 50 a5 3e 1a 09 54 be ae b0 00 bf 19 5c fe bd
       0.32287803 -0.20706597 -0.5026959 -0.1241991
000280 72 5a 3b 3e f2 d4 8d 3d ca 95 3a 3e 53 89 92 bd
       0.18296221 0.06925382 0.18221202 -0.07155099
000290 57 30 dd be 64 3f 6d 3e e7 1a e9 bc 29 ea f3 3e
       -0.43200943 0.23168713 -0.02845521 0.47639588
0002a0 17 ae 4a 3e 13 95 2e 3e 04 dc 4b 3d ef 9a 1b bf
       0.19792973 0.17049055 0.04977037 -0.60783285
0002b0 a0 23 16 3f ac 63 0d 3f 6d f4 12 bf 6d b6 45 bd
       0.5864811 0.5523021 -0.57404214 -0.048269678
0002c0 89 06 f6 3b f0 06 82 be fc 23 23 be ea 63 ae 3e
       0.0075081033 -0.25395918 -0.15931696 0.34060603
0002d0 f4 70 0f bf 59 33 45 3e d3 f2 4f 3e 3c 6d 84 be
       -0.5603173 0.19257869 0.20307474 -0.2586459
0002e0 7e d0 f4 3d f6 a6 9c 3b 67 a8 31 3c f1 b7 b4 3e
       0.11953829 0.0047806455 0.010843373 0.35296586
0002f0 3c 9d 33 be 27 66 a8 3e 37 c9 93 bc ab ac 69 3e
       -0.17540449 0.32890436 -0.018040283 0.22819774

fc.bias f4 [3]
000000 d8 fa 65 bd bb 84 59 3d 37 8d 2d be
       -0.056147426 0.053105097 -0.169484
