Code-in-cloud/results/models/水合状态分类标签_linear_gru.pth (torch, 62216 bytes, 6 tensors)

gru.weight_ih_l0 f4 [192, 11]
-0.10985982 -0.112219356 0.2538189 0.0139805 -0.32876933 0.33461434 0.0007587215 0.14978161
0.15834652 -0.22248067 -0.104679845 -0.32992506 -0.13042581 -0.070226334 0.20183861 -0.3804993
0.11233249 -0.28681704 0.011565125 -0.0621115 -0.09133434 0.29127586 -0.34827414 0.16791904
0.19039398 -0.09786406 0.029246964 -0.08525854 0.100558236 0.06659326 -0.013588353 0.05262313
0.033609793 -0.4474201 -0.12332665 0.05168481 0.23582546 -0.33047497 0.31992528 -0.3457534
0.20429131 -0.23255709 -0.10119749 0.59305936 -0.38703847 0.027402751 0.028101603 -0.08713595
-0.38442326 0.16412424 -0.27353367 0.022220258 -0.08616398 0.050178695 0.23104608 -0.04585511
0.24574637 -0.11133791 -0.14746216 -0.2738669 -0.037102737 -0.0810637 0.065726615 -0.2358017
-0.42524266 0.20498927 -0.44285417 -0.007605204 0.051977172 0.34864935 -0.19867608 0.18890734
-0.3962676 0.056430385 -0.080439895 -0.096527405 0.48504773 0.16246048 0.027248092 0.0035926613
0.19484319 -0.09164357 0.31542742 -0.3979479 0.07893536 -0.084055915 -0.07527926 0.009318931
-0.23692381 -0.49599293 -0.11591119 -0.29038176 -0.21761931 0.16346677 -0.22742026 0.12179433
-0.0392041 -0.12724644 -0.04064576 -0.01809536 0.004486875 -0.48514274 0.2773526 0.33616805
-0.45394328 0.2361628 -0.5705105 -0.02231002 -0.03320496 -0.36043802 -0.0822532 -0.13867898
-0.07692373 0.3160412 -0.22953108 -0.02993181 -0.10896446 0.11999031 -0.18157752 0.07203192
0.15392202 0.11041184 0.015077634 -0.17204255 0.14140308 -0.3851062 0.7495537 -0.52076256
-0.12785757 -0.17547551 -0.48688146 0.16501872 -0.20070706 -0.1811603 -0.08804986 0.15899794
-0.10679232 0.004724286 -0.23536739 -0.03661952 -0.18290207 0.03536598 0.2819195 -0.48245224
-0.14693108 0.043491244 0.43162724 -0.36936712 0.3380886 -0.33631593 0.17976081 -0.39463133
-0.09728087 0.5618847 -0.20398028 -0.11165831 -0.121718325 0.30135062 -0.032124914 -0.455503
0.08647291 -0.15804027 0.19086312 0.07744349 -0.33449736 -0.38801715 -0.124682434 0.018647365
0.42084724 -0.169631 0.15110798 -0.32841346 -0.07775413 0.3539852 0.13079454 0.7374478
-0.23060018 0.2723263 -0.0028326917 0.0003636409 0.16245596 -0.19478962 0.07880181 -0.16054985
-0.07841083 -0.22394444 0.13288091 0.10160109 0.24924187 0.038587023 0.12734567 -0.40687332
0.054619405 0.08212317 -0.15052095 0.08403383 -0.16965778 -0.015685814 -0.272768 0.040798165
0.22678898 0.082116835 -0.075568885 -0.4091563 0.21383362 -0.12264668 -0.4405129 -0.0839216
0.011405018 0.0620237 -0.040777415 -0.25035802 -0.026465293 -0.18868177 0.068341985 -0.13963212
-0.03787129 -0.22581583 -0.48311272 -0.5147828 -0.07546395 -0.05246133 0.06750832 -0.123636074
-0.31227225 0.33911943 -0.16650791 0.05478751 -0.2655853 -0.23535074 -0.14858112 0.02091702
-0.15068196 0.009226667 0.059707645 -0.25270844 0.0940485 -0.28599218 0.11689051 -0.023082677
0.06683219 0.22270751 -0.19032414 -0.006705914 -0.015624802 -0.2760268 -0.051273707 -0.24512684
0.18513103 -0.14307208 -0.3411452 0.061348673 -0.013647928 -0.21398856 0.32947385 0.1309311
00000000: 2ffe e0bd 43d3 e5bd 8df4 813e 780e 653c
00000010: 7454 a8be 9252 ab3e f0e4 463a 5a60 193e
00000020: 9725 223e f9d1 63be 6362 d6bd f0eb a8be
00000030: 588e 05be d3d2 8fbd c8ae 4e3e ced0 c2be
00000040: 940e e63d afd9 92be a67b 3d3c a168 7ebd
00000050: 800d bbbd 1c22 953e fd50 b2be f8f2 2b3e
00000060: a4f6 423e f46c c8bd 5497 ef3c 089c aebd
00000070: 7af1 cd3d 0c62 883d afa1 5ebc 5a8b 573d
00000080: 6caa 093d 3f14 e5be af92 fcbd 74b3 533d
00000090: 3b7c 713e 0434 a9be 3fcd a33e 9706 b1be
000000a0: be31 513e 7223 6ebe a140 cfbd bdd2 173f
000000b0: e829 c6be bc7b e03c 5535 e63c 5574 b2bd
000000c0: 20d3 c4be 2f10 283e 9b0c 8cbe 4207 b63c
000000d0: be76 b0bd 2d88 4d3d 5897 6c3e 91d2 3bbd
000000e0: f0a4 7b3e 2105 e4bd 5200 17be 4838 8cbe
000000f0: 0af9 17bd ba04 a6bd ad9b 863d 0076 71be
00000100: 68b9 d9be b5e8 513e c8bd e2be 1335 f9bb
00000110: 04e6 543d 2b82 b23e be71 4bbe ed70 413e
00000120: 96e3 cabe 8c23 673d acbd a4bd 29b0 c5bd
00000130: 2d58 f83e 0a5c 263e 6437 df3c db72 6b3b
00000140: f984 473e a0af bbbd b47f a13e d4bf cbbe
00000150: dda8 a13d 8225 acbd 032c 9abd 6eae 183c
00000160: 289c 72be c9f2 fdbe d962 edbd ebac 94be
00000170: 99d7 5ebe d563 273e dbe0 68be 4e6f f93d
00000180: 7a94 20bd e44c 02be 2b7c 26bd b83c 94bc
00000190: a306 933b a164 f8be 2901 8e3e 381e ac3e
000001a0: 416b e8be a9d4 713e fa0c 12bf 81c3 b6bc
000001b0: ed01 08bd 558b b8be 5e74 a8bd dd01 0ebe
000001c0: 308a 9dbd 27d0 a13e 320a 6bbe 8e33 f5bc
000001d0: c228 dfbd 7bbd f53d 75ef 39be 7985 933d
000001e0: bc9d 1d3e 9a1f e23d 2e08 773c ec2b 30be
000001f0: f8cb 103e a42c c5be c0e2 3f3f b250 05bf
00000200: 18ed 02be daaf 33be 8748 f9be abfa 283e
00000210: 2786 4dbe 1682 39be 7c53 b4bd 5bd0 223e
00000220: efb5 dabd 2fce 9a3b 2604 71be 5afe 15bd
00000230: ae4a 3bbe ebdb 103d c157 903e fb03 f7be
00000240: 1a75 16be e023 323d 3ffe dc3e b01d bdbe
00000250: f319 ad3e 9a31 acbe 3813 383e 1e0d cabe
00000260: 313b c7bd add7 0f3f 35e0 50be 1dad e4bd
00000270: 7547 f9bd a14a 9a3e 6a95 03bd b037 e9be
00000280: b618 b13d 4fd5 21be 9f71 433e b19a 9e3d
00000290: 3d43 abbe 2faa c6be 8159 ffbd 5cc2 983c
000002a0: 4a79 d73e c0b3 2dbe 0dbc 1a3e cf25 a8be
000002b0: 8f3d 9fbd 8c3d b53e 01ef 053e 61c9 3c3f
000002c0: 7422 6cbe 5a6e 8b3e aea4 39bb 0ea7 be39
000002d0: db5a 263e ee76 47be d862 a13d 2e67 24be
000002e0: db95 a0bd b151 65be ef11 083e 3b14 d03d
000002f0: 4339 7f3e 6d0d 1e3d e766 023e b351 d0be
00000300: 99b8 5f3d 3130 a83d 2a22 1abe ee19 ac3d
00000310: c5ba 2dbe 897f 80bc 3fa8 8bbe fa1b 273d
00000320: 5f3b 683e df2c a83d dcc3 9abd ef7c d1be
00000330: 33f7 5a3e 2f2e fbbd e88a e1be 16df abbd
00000340: 1ddc 3a3c 900c 7e3d 3806 27bd ed2e 80be
00000350: becd d8bc cb35 41be e2f6 8b3d b9fb 0ebe
00000360: ed1e 1bbd 443c 67be 8d5a f7be cec8 03bf
00000370: d88c 9abd b1e1 56bd cd41 8a3d e934 fdbd
00000380: 26e2 9fbe 10a1 ad3e 0d81 2abe de68 603d
00000390: ccfa 87be c9ff 70be a625 18be 2c5a ab3c
000003a0: 5f4c 1abe 722b 173c 0190 743d 0063 81be
000003b0: 809c c03d 916d 92be 4b64 ef3d e217 bdbc
000003c0: 51df 883d 700d 643e 55e4 42be 49bd dbbb
000003d0: 2bff 7fbc 6253 8dbe 6104 52bd 8802 7bbe
000003e0: fd92 3d3e 7d81 12be 95aa aebe bf48 7b3d
000003f0: 8f9b 5fbc d11f 5bbe ccb0 a83e cd12 063e

gru.weight_hh_l0 f4 [192, 64]
-0.03948099 0.03454472 -0.04281771 -0.027820447 -0.08191672 0.061900973 -0.10231294 -0.076761164
-0.039702035 0.009753777 -0.047628596 0.086905785 0.06108993 -0.017409666 -0.07313002 -0.09682432
-0.09980629 -0.03021058 0.048916128 0.075652756 0.015565856 0.031948216 0.07422079 -0.08275776
-0.030188177 -0.066575006 -0.025355563 0.034182254 -0.057267357 -0.1145731 -0.024787584 -0.0022576242
0.0070006773 -0.058953337 0.08202406 0.030994764 0.06395107 -0.080346905 -0.028020041 -0.008808771
0.094078206 0.08482653 -0.014192052 0.09304383 0.07884001 0.040902637 -0.021446915 0.03126804
0.04154082 0.04310161 0.1209063 -0.05079312 0.1179789 -0.019095989 0.120930165 -0.11990972
-0.11068789 -0.08763448 -0.0663033 0.03591204 -0.10060798 -0.06269929 -0.06452907 0.044143878
0.101863846 -0.072261155 0.084124975 -0.06505682 -0.05896878 0.06290245 -0.00036417873 -0.093919724
0.07982305 -0.088611 -0.07869676 -0.114619315 0.03328883 0.11468468 0.069958754 0.08225077
0.00031786304 -0.029621888 -0.037109714 0.026818614 0.03234698 -0.056018744 -0.11900903 -0.09545642
0.015048106 0.00991607 -0.08796867 0.075291276 -0.04331461 -0.106458694 -0.09065124 -0.09480262
-0.06253207 -0.07441783 0.09609712 0.11219179 -0.010167664 0.118567325 0.0005565591 -0.08941819
-0.074467875 0.09488732 -0.019740814 0.049427677 0.11527713 0.049562443 0.062333733 -0.062488757
-0.11036202 0.11806008 0.09772828 0.09740079 -0.009490934 0.06389234 0.09076035 0.038212165
0.015781092 0.057644226 -0.11405898 0.09211348 -0.1205527 -0.009571871 -0.10688667 0.019845113
-0.081149474 0.07703134 -0.07457161 -0.003171811 0.09795794 0.11432636 -0.06421781 0.011809072
0.0961951 0.06945879 -0.019855447 0.112905584 -0.03228437 -0.0076914597 0.04912522 -0.06931571
-0.10323397 0.10378515 -0.012652942 0.12019519 -0.010214076 -0.04414876 0.014715702 -0.09334669
-0.02874256 -0.03445762 0.021723306 -0.019495456 -0.10781922 0.10675808 -0.0078810025 -0.037026398
0.0011790429 -0.08310439 -0.03421927 -0.07836728 -0.11583823 0.04089782 0.106544495 -0.09567525
-0.11658531 0.07082172 0.055598624 0.0621103 0.04808611 -0.10659543 0.053922705 0.012390749
0.045059957 0.10024335 0.07529889 0.0050473283 -0.035420243 0.052318443 0.037896212 -0.032033842
-0.075820595 -0.08550446 0.021395652 0.008863114 -0.049152877 -0.013437455 -0.092752464 0.06629161
0.11043813 -0.106737025 -0.077189304 0.09269738 -0.082726136 0.007039741 -0.09596779 0.100844465
-0.06859017 0.06752881 -0.050779317 -0.008061708 -0.06170883 0.081362925 0.12066507 0.078359656
0.06026992 -0.10793947 0.07962124 0.02374325 -0.1008326 0.06386241 0.09133635 -0.11919665
-0.028275792 -0.09810229 -0.042162795 -0.08544506 -0.049491357 -0.010776169 0.115742415 0.017719408
0.00089586613 0.09908555 0.067359455 -0.050000373 -0.101282306 -0.10456267 0.04054302 0.08348988
0.09599679 -0.08391104 0.0927284 -0.027583942 0.028381055 -0.11002378 0.012900519 -0.006985248
0.088569865 -0.11870605 -0.07585396 -0.0071243225 -0.037411556 0.0050997054 -0.030921776 0.020310706
-0.10648095 0.09644871 0.056730602 -0.018494427 -0.07828265 -0.109853454 0.09654237 -0.074165754
00000000: d2b6 21bd c47e 0d3d a061 2fbd b5e7 e3bc
00000010: f4c3 a7bd e08b 7d3d 7289 d1bd f534 9dbd
00000020: 9a9e 22bd 4ece 1f3c 3416 43bd a9fb b13d
00000030: 6f39 7a3d b79e 8ebc 31c5 95bd d44b c6bd
00000040: 3d67 ccbd 2e7c f7bc 475c 483d d5ef 9a3d
00000050: ef07 7f3c 22dc 023d 1201 983d e77c a9bd
00000060: 324d f7bc 7a58 88bd 78b6 cfbc b102 0c3d
00000070: 2d91 6abd 4da5 eabd 550f cbbc a6f4 13bb
00000080: f065 e53b 0e79 71bd 3bfc a73d bbe8 fd3c
00000090: c7f8 823d eb8c a4bd 498a e5bc aa52 10bc
000000a0: 13ac c03d 88b9 ad3d c885 68bc c38d be3d
000000b0: df76 a13d 8689 273d 71b1 afbc eb12 003d
000000c0: b526 2a3d 508b 303d b99d f73d 720c 50bd
000000d0: ec9e f13d 316f 9cbc 3caa f73d 3a93 f5bd
000000e0: 55b0 e2bd b579 b3bd 06ca 87bd 8118 133d
000000f0: 8e0b cebd 7c68 80bd d127 84bd 36d0 343d
00000100: fe9d d03d a8fd 93bd b749 ac3d 833c 85bd
00000110: 3f89 71bd 00d3 803d 3eef beb9 fc58 c0bd
00000120: 447a a33d af79 b5bd c42b a1bd 88bd eabd
00000130: de59 083d cddf ea3d 8946 8f3d 1773 a83d
00000140: dba6 a639 9aa9 f2bc 5b00 18bd b6b2 db3c
00000150: 447e 043d e973 65bd 02bb f3bd a87e c3bd
00000160: 558c 763c 0377 223c eb28 b4bd 5032 9a3d
00000170: a96a 31bd 0407 dabd 5ba7 b9bd e027 c2bd
00000180: d010 80bd 6068 98bd 91ce c43d cfc4 e53d
00000190: 4696 26bc 6dd3 f23d 0de6 113a e220 b7bd
000001a0: 9d82 98bd 4954 c23d 7db7 a1bc ad74 4a3d
000001b0: 6a16 ec3d fd01 4b3d a851 7f3d 36f4 7fbd
000001c0: 7c05 e2bd 7cc9 f13d c425 c83d 117a c73d
000001d0: dd7f 1bbc fdd9 823d 90e0 b93d 5c84 1c3d
000001e0: 5947 813c 5a1c 6c3d c197 e9bd fea5 bc3d
000001f0: 55e4 f6bd 56d3 1cbc 66e7 dabd 3892 a23c
00000200: b231 a6bd 9bc2 9d3d 00b9 98bd 29de 4fbb
00000210: 2c9e c83d f023 ea3d a184 83bd d77a 413c
00000220: f001 c53d 6940 8e3d e4a7 a2bc 0b3b e73d
00000230: 9e3c 04bd a408 fcbb 8737 493d 65f5 8dbd
00000240: 556c d3bd 4f8d d43d 494e 4fbc e528 f63d
00000250: f158 27bc 55d5 34bd 211a 713c 8d2c bfbd
00000260: 8475 ebbc 6f23 0dbd 13f5 b13c efb4 9fbc
00000270: 53d0 dcbd fba3 da3d 521f 01bc fea8 17bd
00000280: 1d8a 9a3a a232 aabd 8129 0cbd 067f a0bd
00000290: 983c edbd 7984 273d 0034 da3d 63f1 c3bd
000002a0: 47c4 eebd fa0a 913d 62bb 633d 5f67 7e3d
000002b0: f1f5 443d b44e dabd 0ede 5c3d 9102 4b3c
000002c0: ca90 383d 634c cd3d 4e36 9a3d 0f64 a53b
000002d0: d114 11bd dd4b 563d 0f39 1b3d eb35 03bd
000002e0: d447 9bbd f61c afbd ef45 af3c 9836 113c
000002f0: 8754 49bd c528 5cbc 01f5 bdbd e5c3 873d
00000300: 632d e23d f198 dabd 6d15 9ebd 20d8 bd3d
00000310: 526c a9bd a1ad e63b c38a c4bd 8b87 ce3d
00000320: 0179 8cbd 8b4c 8a3d f9fd 4fbd 4115 04bc
00000330: 66c2 7cbd 9ba1 a63d 401f f73d 077b a03d
00000340: 97dd 763d 5e0f ddbd 7610 a33d 3481 c23c
00000350: 5281 cebd 4cca 823d 8d0e bb3d 601d f4bd
00000360: a2a2 e7bc dae9 c8bd e5b2 2cbd d2fd aebd
00000370: 73b7 4abd 878e 30bc 5c0a ed3d 4b28 913c
00000380: 8fd8 6a3a 5ded ca3d c1f3 893d 31cd 4cbd
00000390: 196d cfbd f424 d6bd 7010 263d befc aa3d
000003a0: f799 c43d 8dd9 abbd 63e8 bd3d b8f7 e1bc
000003b0: 637f e83c 2654 e1bd b35c 533c 82e4 e4bb
000003c0: 1e64 b53d 281c f3bd 5259 9bbd 2673 e9bb
000003d0: dc3c 19bd 6e1b a73b aa4f fdbc a362 a63c
000003e0: af12 dabd e786 c53d 595e 683d a081 97bc
000003f0: a752 a0bd d9fa e0bd 02b8 c53d 37e4 97bd

gru.bias_ih_l0 f4 [192]
0.5415401 0.22841384 -0.068346545 0.0769419 0.33440682 0.4069034 0.17750366 -0.14318494
0.28945357 0.2704698 -0.06891494 0.4112366 -0.09406042 0.062614575 0.18336613 0.04035859
-0.025306435 0.1809146 0.04997614 0.32332465 0.41310534 0.12276023 0.14770606 0.005003935
0.19989917 0.091028504 0.19790335 0.5294863 0.092968225 0.1673054 -0.02058058 0.21166237
-0.036331065 0.10121977 0.40899795 0.37167582 0.22627051 0.2009476 0.32514754 0.3369048
0.06738681 -0.075443126 0.19740307 0.17127113 0.006888415 0.06008112 0.090613 -0.027673244
-0.091340736 0.038137622 0.26071295 -0.08561072 0.1830224 0.52785546 0.3879044 0.14800891
0.34857023 0.03799204 0.47310385 -0.06885148 0.23258813 0.047502708 0.3772876 0.28851974
-0.32803926 -0.5532624 -0.1682015 -0.4696888 -0.34608528 -0.238622 -0.33987632 -0.23615731
-0.19795173 -0.20442612 -0.7352127 -0.29881865 -0.56273955 -0.76601577 -0.22008175 -0.49942687
-0.10826781 -0.37086284 -0.2844803 -0.24217273 -0.28805038 -0.09898085 0.03190652 -0.10036068
-0.14612958 -0.38004416 -0.020376682 -0.19747597 -0.1829998 -0.564239 -0.14528152 -0.3181749
-0.1847995 0.10892979 -0.25048357 -0.23540732 -0.15807746 -0.21209285 -0.2661534 -0.05805058
-0.086876966 -0.15262112 -0.32988355 -0.3821562 -0.121487044 -0.11596407 -0.13961789 -0.5109012
-0.11792544 0.051366635 -0.35815227 -0.35180876 -0.71416783 -0.13189049 -0.32305902 -0.40759605
-0.23839937 -0.04963466 -0.23262182 -0.10661294 -0.2268499 -0.033272363 0.018364603 -0.34092036
0.37364063 -0.15828899 -0.18979825 0.18221925 0.326892 0.22658429 0.14162433 -0.2241982
-0.106079996 -0.21866883 -0.028100956 0.37831777 0.09221306 -0.018122844 -0.2583817 0.25690567
0.15803987 0.34051847 -0.08600587 0.25166905 0.28758252 0.18636847 -0.09977038 0.032449063
0.31343433 0.072869435 -0.17971241 0.4112646 -0.19332482 -0.19099107 0.09524924 0.39481622
-0.09880791 0.06827962 0.32872164 0.28935796 -0.13796352 -0.10271005 -0.38654974 0.30896294
-0.16893552 -0.17959814 0.2635321 0.34419745 0.06409521 -0.09799781 -0.050634753 -0.035042055
0.03887034 0.18716435 -0.3498157 -0.268015 -0.047270495 0.31760404 0.3975586 0.25482753
0.1598633 0.24067293 -0.31750232 0.10383773 -0.23001161 0.14456393 -0.20190813 -0.2287642
00000000: 5fa2 0a3f 51e5 693e 46f9 8bbd b793 9d3d
00000010: 5f37 ab3e a455 d03e 85c3 353e 139f 12be
00000020: 4233 943e 057b 8a3e 4723 8dbd 9b8d d23e
00000030: c0a2 c0bd 123c 803d 55c4 3b3e 0d4f 253d
00000040: 714f cfbc ad41 393e c8b3 4c3d cf8a a53e
00000050: 8b82 d33e b769 fb3d 4240 173e 0df8 a33b
00000060: 5eb2 4c3e 276d ba3d 2da7 4a3e 6a8c 073f
00000070: 2066 be3d 1b52 2b3e 9b98 a8bc 05be 583e
00000080: e2cf 14bd 504c cf3d 2e68 d13e 4b4c be3e
00000090: 75b3 673e 35c5 4d3e bd79 a63e c97e ac3e
000000a0: 1902 8a3d ed81 9abd 0824 4a3e b361 2f3e
000000b0: 37b8 e13b 9f17 763d 4f93 b93d 00b3 e2bc
000000c0: da10 bbbd 3236 1c3d 2b7c 853e ac54 afbd
000000d0: 396a 3b3e 8921 073f 689b c63e a68f 173e
000000e0: cc77 b23e 8b9d 1b3d ab3a f23e 0102 8dbd
000000f0: 952b 6e3e 3392 423d d72b c13e dcb8 933e
00000100: c3f4 a7be 9ba2 0dbf 043d 2cbe 0d7b f0be
00000110: 1732 b1be 5359 74be 4504 aebe 39d3 71be
00000120: dcb3 4abe 1555 51be e636 3cbf c2fe 98be
00000130: b30f 10bf 9c19 44bf 1c5d 61be e1b4 ffbe
00000140: 83bb ddbd bce1 bdbe 67a7 91be 21fc 77be
00000150: 577b 93be 79b6 cabd 69b0 023d e689 cdbd
00000160: fea2 15be 2695 c2be 00ed a6bc 2437 4abe
00000170: 4d64 3bbe f871 10bf aec4 14be d2e7 a2be
00000180: 153c 3dbe 9516 df3d 623f 80be 9e0e 71be
00000190: 0fdf 21be de2e 59be 4245 88be 72c6 6dbd
000001a0: 8dec b1bd b648 1cbe 7fe6 a8be faa9 c3be
000001b0: 33ce f8bd 927e edbd fef7 0ebe 6cca 02bf
000001c0: e582 f1bd d265 523d bc5f b7be 4720 b4be
000001d0: b4d3 36bf 4d0e 07be fe67 a5be 6eb0 d0be
000001e0: f71e 74be b74d 4bbd 6a34 6ebe e357 dabd
000001f0: 574b 68be 9a48 08bd 5d71 963c 1d8d aebe
00000200: d34d bf3e 8216 22be 795a 42be af97 3a3e
00000210: 635e a73e b605 683e f805 113e 3794 65be
00000220: 7840 d9bd b9ea 5fbe fa33 e6bc deb2 c13e
00000230: 33da bc3d 5c76 94bc 9b4a 84be 2489 833e
00000240: 34d5 213e 7058 ae3e d823 b0bd c4da 803e
00000250: 043e 933e 60d7 3e3e 6a54 ccbd 4fe9 043d
00000260: 777a a03e 923c 953d 8806 38be 4691 d23e
00000270: f1f6 45be 2a93 43be 0912 c33d 5a25 ca3e
00000280: cd5b cabd 2fd6 8b3d 344e a83e ba26 943e
00000290: 4f46 0dbe a659 d2bd d9e9 c5be 6430 9e3e
000002a0: 6ffd 2cbe 93e8 37be aeed 863e a63a b03e
000002b0: 5944 833d 13b3 c8bd 6366 4fbd 4288 0fbd
000002c0: 8136 1f3d 03a8 3f3e 0b1b b3be 4339 89be
000002d0: b59e 41bd ff9c a23e cd8c cb3e c178 823e
000002e0: 34b3 233e f772 763e aa8f a2be e0a8 d43d
000002f0: 2a88 6bbe 9108 143e 01c1 4ebe 2a41 6abe

gru.bias_hh_l0 f4 [192]
0.4218597 0.20543356 -0.0019767964 0.067418456 0.23971967 0.21446991 0.20415065 0.011910593
0.12823084 0.19526705 -0.240385 0.5456194 -0.094713934 0.08524666 0.32390025 0.05167516
0.052854747 0.007578709 0.163557 0.2710091 0.4920755 0.0046780272 -0.026827814 0.09255484
0.34803537 0.31094578 0.10764565 0.58054054 0.20100956 0.041761015 -0.0846719 0.1792553
0.018982995 0.061803132 0.47624248 0.25797915 0.26738253 0.21991552 0.25280088 0.3469264
0.081291705 -0.14261684 0.27947718 0.1888191 0.055344727 0.04382184 0.115271874 -0.07752387
-0.12297166 0.20829174 0.30032298 -0.0989808 -0.02394133 0.5048994 0.3482149 0.13597083
0.2668496 -0.02823502 0.29002556 -0.21839993 0.1544352 0.042364083 0.15573369 0.25435165
-0.34227374 -0.4272057 -0.24014731 -0.56399876 -0.32098278 -0.33851457 -0.22399086 -0.17920578
-0.23598933 -0.38107705 -0.7047831 -0.36960924 -0.5447598 -0.8573906 -0.27530786 -0.6195631
-0.30553862 -0.39020568 -0.20609483 -0.35288486 -0.365105 -0.2030399 0.08799298 -0.019880578
-0.19577603 -0.4684188 -0.117256925 -0.2341114 -0.2028545 -0.56253135 -0.118736506 -0.27932185
-0.16687955 -0.079786405 -0.30496845 -0.39582688 -0.12555051 -0.16538967 -0.29709065 -0.18695866
0.069119796 -0.123724915 -0.18407875 -0.244192 -0.041492514 -0.09971458 -0.13266757 -0.56781083
-0.2804097 0.029758455 -0.3287612 -0.3930424 -0.56703585 -0.15565287 -0.29179156 -0.23910797
-0.22839437 -0.1978526 -0.3379828 -0.15557599 -0.30166742 -0.073349215 0.026867166 -0.20496069
0.59635866 -0.2888297 -0.07118538 0.38245422 0.41400537 0.30106848 0.43802235 -0.09930947
-0.40584993 -0.5069046 -0.02367078 0.5894779 0.039027967 0.37508228 -0.26784483 0.28630862
0.07604161 0.18639849 -0.22834954 0.51833856 0.5258181 0.12071785 -0.2483952 -0.28933004
0.38364577 0.40585148 -0.34550256 0.67332834 -0.19279742 -0.28779733 0.10767187 0.32273337
-0.2808485 0.3820467 0.49479118 0.37143028 -0.31552 -0.16357267 -0.42511225 0.52581847
-0.25016284 -0.18014188 0.58500016 0.24170083 -0.2567736 -0.180306 -0.27046975 0.20009571
-0.03956406 0.14113045 -0.43173477 -0.27985597 -0.29242814 0.60390663 0.44880635 0.33788666
0.38845137 0.23691231 -0.4947668 -0.14693227 -0.14353734 -0.26531798 -0.32016477 -0.37570205
00000000: fffd d73e 2d5d 523e 248d 01bb b012 8a3d
00000010: 1379 753e 009e 5b3e de0c 513e a624 433c
00000020: f24e 033e 16f4 473e 7c27 76be b7ad 0b3f
00000030: 61f9 c1bd cd95 ae3d 41d6 a53e 55a9 533d
00000040: 387e 583d d256 f83b 7c7b 273e b4c1 8a3e
00000050: 52f1 fb3e 234a 993b 01c6 dbbc 648d bd3d
00000060: b131 b23e 4934 9f3e 5375 dc3d 4e9e 143f
00000070: 73d5 4d3e 990d 2b3d 7668 adbd b48e 373e
00000080: 3a82 9b3c 4825 7d3d 0ed6 f33e d815 843e
00000090: 5de6 883e 8931 613e 1e6f 813e 56a0 b13e
000000a0: 447c a63d 260a 12be a217 8f3e cb59 413e
000000b0: 27b1 623d 887e 333d a913 ec3d d6c4 9ebd
000000c0: 91d8 fbbd 6e4a 553e efc3 993e 72b6 cabd
000000d0: 9c20 c4bc 1641 013f 3949 b23e f03b 0b3e
000000e0: 83a0 883e 214d e7bc 3b7e 943e 3ba4 5fbe
000000f0: 4324 1e3e f685 2d3d a778 1f3e 613a 823e
00000100: 813e afbe b5ba dabe 2de9 75be 3962 10bf
00000110: db57 a4be c851 adbe dc5d 65be b881 37be
00000120: 30a7 71be 881c c3be aa6c 34bf 6c3d bdbe
00000130: 6175 0bbf f37d 5bbf 27f5 8cbe b09b 1ebf
00000140: 8f6f 9cbe 0ac9 c7be 860a 53be 53ad b4be
00000150: 0bef babe b1e9 4fbe aa35 b43d 98dc a2bc
00000160: 8379 48be 97d4 efbe 6624 f0bd e6ba 6fbe
00000170: 17b9 4fbe 0e02 10bf 202c f3bd 4603 8fbe
00000180: 79e2 2abe 0e67 a3bd d324 9cbe d2a9 cabe
00000190: 5090 00be e95b 29be 441c 98be 1772 3fbe
000001a0: ae8e 8d3d 7d63 fdbd 247f 3cbe 780d 7abe
000001b0: 0ef4 29bd 2837 ccbd 02da 07be 0d5c 11bf
000001c0: dc91 8fbe 01c8 f33c 6353 a8be da3c c9be
000001d0: 4329 11bf 7763 1fbe b465 95be b8d8 74be
000001e0: 37e0 69be df99 4abe 150c adbe 504f 1fbe
000001f0: 2774 9abe 1d38 96bd 8818 dc3c 37e1 51be
00000200: f6aa 183f 7de1 93be a4c9 91bd 0ad1 c33e
00000210: 83f8 d33e a625 9a3e 7744 e03e c362 cbbd
00000220: 90cb cfbe 80c4 01bf 39e9 c1bc 06e8 163f
00000230: cadb 1f3d c90a c03e f522 89be 0b97 923e
00000240: b4bb 9b3d 3fdf 3e3e 76d4 69be d6b1 043f
00000250: 049c 063f ec3a f73d 505b 7ebe 1123 94be
00000260: 386d c43e c4cb cf3e b6e5 b0be 3f5f 2c3f
00000270: b06c 45be 2c5a 93be 1283 dc3d 4f3d a53e
00000280: 60cb 8fbe a09b c33e 4555 fd3e 1c2c be3e
00000290: d68b a1be 987f 27be 50a8 d9be 0a9c 063f
000002a0: 5815 80be 1d77 38be 92c2 153f 6c80 773e
000002b0: d477 83be 23a2 38be 037b 8abe e4e5 4c3e
000002c0: ec0d 22bd 8084 103e 570c ddbe 4849 8fbe
000002d0: 24b9 95be a099 1a3f f2c9 e53e 7bff ac3e
000002e0: 19e3 c63e 2499 723e 1352 fdbe 6a75 16be
000002f0: 74fb 12be c2d7 87be a3ec a3be 055c c0be

fc.weight f4 [3, 64]
0.27920482 -0.6075438 -0.4209588 0.5621586 0.36865333 0.39772254 0.57529867 -0.4985165
0.2988417 0.2368265 -0.91208535 0.41835287 0.8139778 1.0508623 -0.15734206 0.76847726
0.49710536 0.3594135 -0.56745034 0.37338406 0.33827135 0.38611016 -0.43288383 -0.26776966
0.13788499 0.31973505 -0.040220767 0.28156272 -0.22692108 -0.62498105 0.37860435 0.3930315
-0.40816736 0.5447292 0.3441502 0.32671615 -0.36580876 -0.35200858 -0.54858696 0.38167223
-0.35495743 -0.64720947 0.2747642 0.2246268 -0.44939098 -0.18742555 0.28885794 0.6181763
-0.53808594 0.45711622 -0.36947054 -0.5201089 -0.93028224 0.25361004 0.4045645 0.50722
0.49373564 0.48235244 -0.3729791 -0.44688538 -0.33940327 -0.33179992 -0.38330156 -0.35876027
0.28938997 0.14369413 0.37483954 -0.38684845 -0.03787254 -0.03760488 -0.2230812 0.18959787
-0.5607703 -0.668727 0.594027 0.23459983 -0.46921736 -0.5831651 -0.37027243 -0.06944702
-0.44565743 -0.03668756 0.36094233 0.0494921 0.12470756 -0.29376832 0.31631035 0.45503297
0.2509427 -0.24744357 -0.4206464 0.4487279 -0.28464034 0.29019022 -0.31647566 0.12221914
0.5186639 -0.10451348 -0.027707893 0.025345506 0.026537828 0.1547245 -0.18444301 0.11678412
0.32107043 0.2499984 0.09385023 0.3053068 0.52418655 0.19354078 -0.44994515 -0.5447358
0.4888091 -0.27659035 0.0284612 0.26992452 0.4964456 0.49073765 0.12819834 -0.2477159
0.07376338 0.101360895 -0.18480316 0.7509017 0.18257846 0.37522167 0.16300865 0.013408176
-0.7809786 0.6437372 0.2100918 -0.4713947 -0.50138986 -0.59679496 -0.59076303 0.35130772
0.36948466 0.5264666 0.4311189 -1.0356529 -0.46178654 -0.49984077 0.59077084 -0.8894444
-0.4193367 -0.40229157 0.2208962 -0.6075035 -0.5545476 -0.15451238 0.10577211 -0.25921723
-0.47477737 -0.3554714 0.5422933 -0.86138046 0.6014584 0.4135595 -0.04145629 -0.7147939
0.2975148 -0.27554536 -0.6794977 -0.6456751 0.43767852 0.30893013 0.66320103 -0.44664884
0.3888994 0.31957686 -0.64097875 -0.55885565 -0.15848942 0.13390517 0.041695066 -0.21789235
0.27914652 -0.41253418 0.8278225 0.37141013 0.34831047 -0.7125572 -0.5999021 -0.45569527
-0.55621487 -0.44829422 0.7876878 -0.36882403 0.2900556 0.19069234 0.38551098 0.51193774
00000000: eff3 8e3e fe87 1bbf e987 d7be a0e9 0f3f
00000010: 21c0 bc3e 4aa2 cb3e c646 133f 8e3d ffbe
00000020: c801 993e a582 723e 6d7e 69bf 5932 d63e
00000030: d960 503f a882 863f 471e 21be edba 443f
00000040: 9884 fe3e 0c05 b83e 6d44 11bf 322c bf3e
00000050: e731 ad3e 3bb0 c53e f3a2 ddbe 1b19 89be
00000060: b931 0d3e 50b4 a33e 88be 24bd fd28 903e
00000070: 005e 68be c2fe 1fbf 6ed8 c13e 6d3b c93e
00000080: 50fb d0be 5f73 0b3f 7434 b03e 5747 a73e
00000090: 494b bbbe 783a b4be 3270 0cbf 8b6a c33e
000000a0: fbbc b5be 85af 25bf e5ad 8c3e 9104 663e
000000b0: 9316 e6be 7cec 3fbe 30e5 933e cd40 1e3f
000000c0: 00c0 09bf 230b ea3e 3e2b bdbe db25 05bf
000000d0: fa26 6ebf 2dd9 813e 1423 cf3e 2bd9 013f
000000e0: ebca fc3e e6f6 f63e 1ef7 bebe 29ce e4be
000000f0: 44c6 adbe aee1 a9be 1a40 c4be 6daf b7be
00000100: ec2a 943e 8e24 133e f8ea bf3e 0011 c6be
00000110: 3d20 1bbd 9307 1abd 666f 64be f225 423e
00000120: a48e 0fbf b131 2bbf 2712 183f f03a 703e
00000130: 423d f0be 4f4a 15bf 5994 bdbe 3d3a 8ebd
00000140: 362d e4be b245 16bd 6fcd b83e 3ab8 4a3d
00000150: ad66 ff3d cd68 96be 6ef3 a13e 15fa e83e
00000160: 907b 803e d961 7dbe f75e d7be aabf e53e
00000170: 61bc 91be d093 943e 1909 a2be 074e fa3d
00000180: 28c7 043f 2a0b d6bd aafb e2bc 61a1 cf3c
00000190: dc65 d93c 1970 1e3e a1de 3cbe 832c ef3d
000001a0: 5863 a43e 95ff 7f3e 8d34 c03d 2c51 9c3e
000001b0: 1731 063f 8e2f 463e 365f e6be ce73 0bbf
000001c0: 3045 fa3e 409d 8dbe 7627 e93c 8c33 8a3e
000001d0: 1e2e fe3e f741 fb3e 6d46 033e 3da9 7dbe
000001e0: 4111 973d 4d96 cf3d 0a3d 3dbe 183b 403f
000001f0: d9f5 3a3e 0e1d c03e bdeb 263e f7ad 5b3c
00000200: 37ee 47bf f6cb 243f 4e22 573e a55a f1be
00000210: 165b 00bf 8ec7 18bf 3f3c 17bf 9bde b33e
00000220: 182d bd3e 84c6 063f 9ebb dc3e 4690 84bf
00000230: 496f ecbe 21eb ffbe c23c 173f a1b2 63bf
00000240: 4db3 d6be 29f9 cdbe 9d32 623e 5985 1bbf
00000250: d5f6 0dbf 7e38 1ebe 0c9f d83d 1fb8 84be
00000260: 0516 f3be 5900 b6be bcd3 0a3f 6e83 5cbf
00000270: 2df9 193f 12be d33e 12ce 29bd bcfc 36bf
00000280: dc53 983e 4814 8dbe 90f3 2dbf f74a 25bf
00000290: 6617 e03e 172c 9e3e 8bc7 293f 28af e4be
000002a0: d21d c73e 949f a33e 2f17 24bf 2a11 0fbf
000002b0: 0d4b 22be 701e 093e 72c8 2a3d 2c1f 5fbe
000002c0: 4bec 8e3e ae37 d3be 2dec 533f 7829 be3e
000002d0: c055 b23e 266a 36bf 2f93 19bf e450 e9be
000002e0: 1964 0ebf d286 e5be e8a5 493f 81d6 bcbe
000002f0: 2b82 943e da44 433e b261 c53e 5a0e 033f

fc.bias f4 [3]
0.22623742 0.093181856 -0.34003052
00000000: c8aa 673e 21d6 be3d 7b18 aebe
