Code-in-cloud/results/models/水合状态分类标签_linear_cnn-lstm.pth (torch, 145344 bytes, 8 tensors)

conv1d.weight f4 [64, 11, 3]
000000 38 58 8f bd 12 87 a7 ba 37 f3 a2 bc fe 1f 6b 3d
       -0.06999248 -0.0012781343 -0.019891364 0.057403557
000010 83 7f 1e 3e af d8 bd bd f3 ad 41 bd 44 02 b5 be
       0.1547833 -0.09269845 -0.04728503 -0.3535329
000020 68 65 89 bb 2a 37 a1 3c ac 79 3b 3e 65 9a 02 3e
       -0.004192997 0.019679625 0.18308133 0.1275421
000030 f3 5c c1 bd 9e 1d 81 3e 6b d0 d4 bd 11 3a 1d 3e
       -0.09441557 0.2521791 -0.10391315 0.15354182
000040 95 f4 54 be 18 00 6d bd 68 fb 1b be c6 92 02 3e
       -0.20796426 -0.057861418 -0.15232623 0.12751302
000050 3e 2b 21 be e0 06 1c be 46 51 87 3d 38 9c 09 be
       -0.15739152 -0.15236998 0.066072986 -0.13438499
000060 c3 5f df 3d fc 17 96 3d c2 37 10 3e 6c 14 40 3c
       0.10906937 0.073287934 0.1408377 0.011723619
000070 a9 96 cb 3d 16 26 d4 3d d4 a2 0c 3e f6 dd 0a be
       0.099408455 0.10358827 0.13733989 -0.13561234
000080 76 60 d9 3d 9f 91 03 3e f9 dc 28 be 4b fb 54 3d
       0.106141016 0.12848519 -0.16490544 0.051997464
000090 02 85 2b 3e c2 66 f7 bb 72 d0 29 bc 5b 63 25 be
       0.16749957 -0.0075500915 -0.010364639 -0.16151182
0000a0 af c2 d4 bd 08 f7 5d bc 52 a9 1b bd 50 ac 3b 3e
       -0.103886954 -0.013547666 -0.038003273 0.18327451
0000b0 70 20 3a 3d 9c a0 eb 3d 57 1f 65 be e1 f8 a2 3d
       0.04544109 0.11505243 -0.22375236 0.07957626
0000c0 d1 ae 27 3e 91 b2 41 3d c0 36 9a 3d c5 f7 6b 3b
       0.16375281 0.047289435 0.07529974 0.0036005836
0000d0 6b 45 6c 3c e4 22 1c be 25 51 18 be 63 73 f3 bd
       0.014420847 -0.15247685 -0.14874704 -0.11887243
0000e0 66 eb af bd 7b 5b 87 3b 60 11 5b bd 1c 6f 05 3e
       -0.085898206 0.0041307784 -0.053483367 0.13030666
0000f0 dd c0 2e be d9 fc 8c bd 2e e6 61 bd 7e 46 13 3e
       -0.17065759 -0.06884164 -0.055151157 0.1438236
000100 01 44 4a 3e d7 05 e1 bd 5f 52 24 be e6 b4 2c be
       0.19752504 -0.10987442 -0.16047047 -0.16865882
000110 9e e6 2b 3e 5e 9b de bd cf 09 96 3c 5b e4 57 3d
       0.16787192 -0.10869478 0.018315224 0.05270801
000120 0f cb 5e 3d 17 3f d1 3d a7 9d e5 bd f5 27 71 bd
       0.05439287 0.102171116 -0.112117104 -0.058875997
000130 34 ad 57 be a6 9b 5e bd 83 d0 0c 3d 87 cd 29 be
       -0.21062165 -0.054347657 0.03437854 -0.16582309
000140 f2 18 ba bd 2e 6f 21 3e 95 50 75 bd a2 19 75 bd
       -0.09086789 0.15765068 -0.059891302 -0.0598389
000150 c8 06 08 3e a3 7e 49 bd 55 6a ea bd 55 05 f7 bd
       0.13283837 -0.049193036 -0.114460625 -0.12061564
000160 fa 3c 00 3e 3d d4 1b 3e 64 36 50 3d a0 4e 37 be
       0.1252326 0.15217681 0.05083312 -0.17901087
000170 c5 b7 4a bd e5 2e 2f 3d 9c 81 37 3d 6c ca d8 bc
       -0.049491663 0.04276933 0.04480134 -0.02646371
000180 37 88 9b bd e9 70 63 3e 78 5f a3 3d 9c fd 25 3e
       -0.0759434 0.2221104 0.079771936 0.16210026
000190 50 bc 85 be a3 8c 80 bd a0 a9 6d 3d f6 de 7e 3d
       -0.26120234 -0.06276824 0.058023095 0.06222435
0001a0 11 34 0e 3e 4d d6 89 3d 0e bf 79 3d 2e 49 e3 bd
       0.1388705 0.06730328 0.06097322 -0.11097942
0001b0 ec 7c ba 3d 03 1f 9e 3e 46 77 c4 3d 9c 57 ce bc
       0.09105858 0.30883035 0.09593062 -0.02518826
0001c0 4f 3e 04 be 46 29 30 3d 21 cf 7b 3c a0 e8 a8 3e
       -0.12914394 0.04300811 0.015369208 0.3298998
0001d0 5d 3f fe 3d 5a 29 0b 3e 36 0f 90 be 98 d2 82 3d
       0.12414429 0.13589993 -0.28136605 0.06387824
0001e0 b0 0b b8 3d 75 c2 30 bc 4c f8 dc 3d f2 c0 af bd
       0.08986604 -0.01078855 0.10789546 -0.08581723
0001f0 60 f0 0c be 56 28 f1 bd fb b3 83 3d 0c f2 13 3e
       -0.13763571 -0.117752716 0.06430813 0.14447802
000200 4a 0e c4 3d ac af bb 3d bf 96 de 3c be fd 88 bd
       0.09573038 0.09164366 0.02717149 -0.066890225
000210 a7 35 67 3d 1f 6d 12 be ff c6 bc 3d aa e5 ca 3c
       0.05644765 -0.14299439 0.09217643 0.024767715
000220 81 41 91 bd c7 46 ce bd ba 39 1d 3e f9 7b aa bd
       -0.07092572 -0.100720935 0.15354052 -0.08324427
000230 aa bf c9 bb 68 03 95 bd a0 0b 95 3e 25 7f c6 3d
       -0.0061568813 -0.0727604 0.29110432 0.0969222
000240 e1 81 00 3e fd c7 f2 bd d2 58 08 be 8f 25 47 3d
       0.12549545 -0.11854551 -0.13315132 0.048619803
000250 bb f5 1c 3e c3 02 0e be 7a d6 c8 bd 95 ae 55 3d
       0.15328114 -0.13868241 -0.09806533 0.052168448
000260 44 51 1c be 71 49 56 3d b3 70 9a 3c 50 ea a1 bd
       -0.15265375 0.052316133 0.018852567 -0.0790602
000270 7f 54 10 bd 65 fb 3c be 2c 9f 24 be 8e 50 53 3c
       -0.03523683 -0.18455274 -0.16076344 0.012897624
000280 2e 40 09 3e 95 85 09 be 1a 28 5a 3c ad 00 a0 3e
       0.13403389 -0.13429864 0.013315225 0.31250516
000290 23 3a 8a bb bd b1 8b 3d 0d 98 a2 be f6 53 1b 3e
       -0.004218356 0.0682101 -0.3175663 0.15168747
0002a0 b0 06 0a bd df 20 46 3d 64 02 ea 3d 15 03 98 3d
       -0.033697784 0.048371192 0.11426237 0.07422463
0002b0 d2 5f f7 3c 6d 51 fb bd 10 1c 15 3d 63 f0 2a 3e
       0.030197058 -0.1227139 0.036403716 0.16693263
0002c0 4f 52 28 3e de 11 1b 3e ae 6a 0a 3d d9 a0 ba bd
       0.16437648 0.15143535 0.033793144 -0.091127105
0002d0 33 41 84 3d a1 7a 8c 3c 53 d0 d6 bb f8 1c 02 3d
       0.06457748 0.017148318 -0.006555596 0.031765908
0002e0 87 3a f5 bd 24 58 94 bd 36 01 b9 bd 43 0b 18 3e
       -0.11974054 -0.07243374 -0.09033434 0.14848046
0002f0 27 99 80 bd ca 42 17 be 05 25 34 3e 05 78 18 3e
       -0.062792115 -0.14771572 0.17592247 0.14889534
000300 2e bb 20 be d6 53 aa bb 34 bb b1 bd 0a 6b 0e be
       -0.15696403 -0.0051979823 -0.08678284 -0.1390802
000310 9b 10 81 3e fb 6e bf 3d 2e 03 14 3c 52 30 73 be
       0.2520798 0.0934734 0.009033961 -0.23748901
000320 d7 45 50 3d c9 60 06 3e 61 b6 b8 3d 82 58 ac bd
       0.050847854 0.13122858 0.09019161 -0.08415319
000330 1a 4f d0 3c 64 6e 80 bd 9c fd c2 3d 13 fd fd 3d
       0.025428344 -0.06271055 0.095210284 0.12401786
000340 d2 6f 76 be f9 5d e6 3d 71 3e be bc f7 d5 32 3a
       -0.24066094 0.112483926 -0.023223134 0.00068220444
000350 1f 45 bc 3d 40 26 90 bd ed 9b da 3d f4 14 b3 ba
       0.09192871 -0.070385456 0.10674272 -0.0013662861
000360 35 bb a6 bd 9e d3 c1 3d be 86 bb 3d bd f1 20 bd
       -0.08141176 0.09464191 0.091565594 -0.03929304
000370 c5 c4 fd bd d8 f0 00 3e 48 29 8e bd 07 6c 39 3d
       -0.123910464 0.12591875 -0.069414675 0.04526904
000380 7d 8b c9 3c 2c fb 1c be f1 8c 52 be e5 a4 19 bd
       0.024602646 -0.1533019 -0.20561577 -0.03751077
000390 ba 78 70 3d 08 c5 22 3c 57 90 85 bd 84 c5 dc 3d
       0.058708884 0.009934671 -0.06521671 0.107798606
0003a0 4f 1e 3e 3e 2f b6 b4 3c 17 0e 26 3e 53 10 17 bd
       0.1856625 0.022059528 0.16216312 -0.036880802
0003b0 a0 64 04 3e 2b d9 f2 3c 60 39 eb bc 4c 1c ec 3c
       0.1292901 0.02964457 -0.028713882 0.028822087
0003c0 e0 f2 b5 3d 0b 2e 13 be 17 9b e8 3c d1 f4 aa 3d
       0.08884215 -0.14373033 0.028394265 0.08347476
0003d0 67 d7 86 be ee 71 01 be 80 6f 12 3e 6f c3 d9 bd
       -0.26336214 -0.12641117 0.14300346 -0.10632979
0003e0 b3 43 fe bd 7a 8e c8 bd 93 84 42 be 61 89 af 3c
       -0.12415256 -0.097928 -0.18995886 0.021427812
0003f0 28 d8 ee bd 57 bc fb 3b 32 f1 11 3e 8a e5 24 3e
       -0.11662322 0.007682364 0.14252165 0.16103187

conv1d.bias f4 [64]
000000 0f c8 c3 3b 66 af a3 bc 5e 56 ae 3d ab f5 12 3e
       0.0059747766 -0.019981097 0.08512567 0.14351527
000010 df 6d d5 3d 86 c4 07 3e a8 f2 cd bd 3c 4a 16 3e
       0.10421347 0.13258561 -0.10056049 0.14676756
000020 53 75 d6 3c 0f c0 77 3e 35 56 86 bd 0d 6f 8d bc
       0.026178991 0.24194358 -0.065594114 -0.017264867
000030 9a 3c bf bc d2 8a 29 3e 2a 38 61 3e 18 26 41 3e
       -0.023344327 0.16556862 0.21994081 0.18862188
000040 b7 22 f1 bd 4b 6c 7d 3e 0c ef 56 be a7 b8 41 3c
       -0.117741995 0.24748342 -0.20989627 0.01182381
000050 23 86 61 3e 23 a2 3e bd f5 9d df bc 47 61 cf 3d
       0.22023825 -0.046541344 -0.027297 0.10125976
000060 d5 fb 06 3e 41 48 9d 3e ff 85 b4 bc be 4b 3d 3e
       0.13182004 0.30719188 -0.02203655 0.18485925
000070 1e c3 83 3e fe a6 e5 3c ae 22 84 3e e1 4b f4 3d
       0.257348 0.02803373 0.25807709 0.11928535
000080 3a f0 ad bd c0 38 ba 3b ae 59 a5 3e 0b 53 63 3d
       -0.08493085 0.0056830347 0.32294983 0.055499118
000090 f9 39 95 3d 0f 85 5e 3e 92 da ed 3c cc 48 6a 3d
       0.07286448 0.21730445 0.029034887 0.05719833
0000a0 a7 8a 11 3e fd 66 37 3e 80 0f 98 3e 93 98 be 3a
       0.14213048 0.1791038 0.29699326 0.001454132
0000b0 12 f9 38 bc a0 a9 53 3c f9 3e 1c 3e 59 62 d9 3d
       -0.011289852 0.01291886 0.15258397 0.106144615
0000c0 07 82 76 3e a3 99 d6 bd f8 d8 0c 3e 1c 0b 06 3d
       0.24073039 -0.10478523 0.13754642 0.03272544
0000d0 4f 48 c4 3c 0f 45 dd 3d 8e 92 cc bd 38 9f 5f 3e
       0.02396026 0.108041875 -0.099888906 0.21838081
0000e0 e6 fe 01 3e 41 cf d7 3d 69 e3 8b 3e 8f ce f5 3d
       0.12694892 0.105375774 0.27321938 0.120022886
0000f0 2c aa 33 3e 8b d4 7f 3e dd da 15 bd 76 a9 d6 3d
       0.17545384 0.24983422 -0.036585677 0.10481541

lstm.weight_ih_l0 f4 [256, 64]
000000 fe 66 ae 3e b0 5b 85 3d 32 c7 a5 3d cb 4d 1a 3e
       0.34062952 0.06511629 0.08094634 0.15068738
000010 9c 48 80 3e d9 96 4b 3e 36 6a bf 3d 5e a1 b9 3d
       0.25055397 0.19881763 0.0934643 0.090639815
000020 5c a7 f2 3d 24 47 0a 3d 89 ac 4e 3e 78 08 17 be
       0.118483275 0.03375925 0.20183004 -0.14749324
000030 e3 49 1a bb 52 1c bd 3d a1 56 3b 3e 77 60 83 3e
       -0.0023542575 0.09233917 0.18294765 0.25659534
000040 38 ad 89 3e 73 ee 6c 3e e9 91 38 3e 6f aa 97 3d
       0.26889968 0.23137836 0.1802441 0.074055545
000050 fd d8 62 3e ce b7 63 3e 36 6f 36 3e de 1a bc 3d
       0.22153087 0.22238085 0.17815861 0.09184812
000060 b1 89 f5 3c f7 1b 3e 3e bd 02 9d bc 81 1a 21 3e
       0.029972883 0.18565355 -0.019166345 0.15732767
000070 a0 34 cb 3c 44 3a 2e 3d b4 7e 25 3d 97 db 77 3b
       0.024805367 0.042536035 0.040404037 0.0037820095
000080 a4 14 b6 3d ae 0f d4 3d e9 b7 51 3e a3 58 80 3e
       0.08890656 0.10354553 0.20480312 0.25067624
000090 84 77 81 3d 7c ae 48 3c 8e 28 3d 3e 79 8e f3 3d
       0.06321624 0.012248632 0.18472502 0.11892409
0000a0 4c 00 ba 3d 27 38 e8 3d cb 71 e1 3d 1b 1f 24 3e
       0.09082088 0.11338835 0.110080324 0.16027491
0000b0 7d 79 51 3e 99 e2 23 bd ab ba 18 3d 30 d5 7b 3d
       0.204565 -0.040011022 0.037287395 0.06148261
0000c0 f9 71 be 3d c4 f4 f9 3d 57 12 8e 3e c5 47 7b 3e
       0.09299082 0.122048885 0.27748367 0.24539097
0000d0 52 94 0d 3e 69 44 b2 3d 67 69 34 3e 19 64 74 3e
       0.13826111 0.087044545 0.17618333 0.23866309
0000e0 55 58 a9 3d ac 7e 02 3e 63 d4 42 3e d1 e4 92 3b
       0.08268801 0.12743634 0.19026332 0.0044828434
0000f0 a0 67 0e 3d 77 5e cd 3d 85 07 5b 3d 74 92 14 3c
       0.034766793 0.10027783 0.053473968 0.00906812
000100 76 22 7d 3e 45 6e 20 3e 4a f8 04 bd 94 b5 16 3e
       0.24720177 0.15667064 -0.03246335 0.14717704
000110 0f 58 b0 3d 78 d5 da 3d 93 b7 dd bc 88 4d 62 3e
       0.08610546 0.10685247 -0.027065074 0.22099888
000120 47 26 2f 3e 6e 54 93 bc 74 13 33 3e 46 ee a8 3d
       0.17104445 -0.017984595 0.1748789 0.08248572
000130 69 5b 36 3e 06 87 ea 3d d4 09 83 3e b7 42 7d 3e
       0.17808308 0.11451535 0.25593436 0.24732481
000140 ed 4a 50 3e e3 58 74 3e a4 c5 44 3e 57 fe ef bc
       0.20341082 0.23862033 0.19216019 -0.029296083
000150 ba bb 7c 3d 44 a4 7f 3d 42 c4 af 3d 66 06 50 3d
       0.061702468 0.062412515 0.08582355 0.050787352
000160 b8 7c 4c 3e 14 6c 6b 3d bb 5c e5 3d 30 e1 6c 3e
       0.19969451 0.05747612 0.111993276 0.23132777
000170 bf a4 9e 3d 17 c1 1a 3e f7 d7 1f 3e 93 c2 2c bc
       0.077462666 0.1511272 0.15609728 -0.010544437
000180 c2 61 0f 3e 15 98 6c 3d 89 1e 52 3d b0 11 1e 3e
       0.14002135 0.057762224 0.05129865 0.15436435
000190 38 76 8f 3e 02 1c 0d 3e 8b 78 56 3e 0a 48 af 3c
       0.2801988 0.13780215 0.20944421 0.021396656
0001a0 51 e8 fd bc 51 0b 82 3d b7 f1 9b 3e 1d 51 fa 3d
       -0.030994566 0.06349815 0.3045785 0.122225024
0001b0 51 61 25 3e ca 86 35 3e df a9 35 3e d2 3b fd 3c
       0.16150405 0.17727199 0.17740582 0.030912314
0001c0 65 7d 0e 3e 80 17 40 3e fd 3e 16 3e 5b 2b 46 3e
       0.13915022 0.18758965 0.14672466 0.19352476
0001d0 8d 37 bd 3d 18 1b 06 3e 26 dc 34 3e e7 4e 76 3e
       0.09239111 0.13096273 0.17662105 0.24053536
0001e0 c6 cc 1b 3e 6e fb 45 3e a0 00 8b 3e 63 1f 91 3d
       0.15214834 0.19334194 0.27148914 0.07086065
0001f0 dc 96 3c 3e ee 1a 3d 3e 97 b0 11 3e 03 35 2d 3e
       0.18416923 0.18467304 0.1422752 0.16914754
000200 3c 23 43 3e 2d 04 a1 3d 55 67 3f 3c 7c ff 0c 3e
       0.1905641 0.078621246 0.011682351 0.13769335
000210 e0 32 76 3e 18 58 0a 3e 79 58 59 3d e7 11 26 3d
       0.24042845 0.13510168 0.05306289 0.040544417
000220 82 9f e9 3d 6b fc 2a 3e 44 67 b4 3d 3f 5b 4a bd
       0.11407377 0.16697852 0.08808759 -0.049403425
000230 9d 68 c6 bc c5 58 f1 3d de e1 24 3e 1b fe 2a 3e
       -0.024219805 0.117845096 0.16101786 0.16698496
000240 07 89 c7 3d e9 69 24 3e 9e f1 6f 3d 2e a7 96 3b
       0.09742933 0.16056027 0.058580033 0.004597566
000250 27 d8 5c 3e 2a 7e 89 bd 54 2e ad 3d e9 d9 05 3e
       0.2156683 -0.06713517 0.08456102 0.13071407
000260 36 5e d9 3d 3b f2 a9 3e ef 23 80 3e 16 21 98 3d
       0.106136724 0.3319262 0.25027415 0.07428186
000270 36 dd 5f 3e f2 72 a6 3d 06 69 3b 3e 26 ce 0e 3d
       0.21861729 0.08127393 0.18301782 0.034864567
000280 13 1b 5f 3d 4e 96 f2 3d 9c 83 8f 3e 16 a0 61 3e
       0.05446918 0.118450746 0.28030097 0.22033724
000290 66 dd 1c 3d 01 02 8c 3d c5 30 ff 3d e7 13 69 3e
       0.03829708 0.0683632 0.12460474 0.22761498
0002a0 56 63 ae 3d 4b 14 bb 3d 7d eb 45 3e ff 01 9e 3e
       0.085150406 0.0913473 0.19328113 0.30860898
0002b0 e5 2b 1d 3e eb 55 43 3d 67 7d ac 3d 2a a6 b8 3e
       0.15348776 0.04768936 0.08422356 0.36064273
0002c0 71 ea 63 3e 68 ba b9 3d 3d 63 3c 3e 9b e4 17 3e
       0.22257401 0.09068757 0.18397231 0.148333
0002d0 6e 7c c9 3d 3c 14 bb 3d 44 f5 b5 3d 04 a1 db 3c
       0.09838186 0.09134719 0.08884671 0.026810177
0002e0 2b 06 2f 3e 99 8a 21 3e 2a f0 fe 3d 19 64 c4 3d
       0.17092197 0.15775527 0.124481514 0.095894046
0002f0 19 a1 08 3e 44 b6 6a 3d a3 d5 e5 3d bb 8d 23 3e
       0.13342704 0.05730273 0.112223886 0.15972035
000300 45 9c b1 3e 2e 81 46 3e 90 85 46 3e 17 bc c9 3d
       0.34689537 0.19385216 0.19386888 0.098503284
000310 7c c3 7e 3e fa f8 9e 3d 2d a8 1d 3c 94 b6 4a 3e
       0.24879259 0.07762332 0.009622616 0.1979621
000320 bd 7f 2c 3e 9e 5e 9f bb d7 d6 40 3e 95 82 e5 3d
       0.16845603 -0.004863574 0.18831955 0.11206547
000330 92 30 ec 3d 03 1f eb 3d 1c 0f 1d 3e 89 3b b4 3d
       0.115327016 0.114805244 0.15337795 0.08800418
000340 0b 73 25 be 28 3c b5 3e 4d 55 1a 3e 0c 7d 0f 3e
       -0.16157167 0.35397458 0.15071602 0.14012545
000350 2e 47 19 3e 73 cc 80 3e c9 7b cd 3d 3d 7d 0e 3c
       0.14968559 0.25155982 0.10033376 0.008696851
000360 bb a1 34 3e 03 f5 80 3e 11 6d 39 3e c2 34 0b 3e
       0.1763982 0.2518693 0.18108012 0.13594344
000370 41 21 21 3e 07 a9 3b 3e 74 14 fa 3d 0a 3c d4 bc
       0.15735342 0.18326198 0.122109324 -0.025907535
000380 ef 07 6a 3e c7 2d 67 3e d8 68 ab 3d 3b 30 a1 3e
       0.22854589 0.22576056 0.08369607 0.3148211
000390 7f 64 e9 3d f9 8c d0 3b 60 51 79 3c 6b c0 59 3d
       0.11396121 0.0063644615 0.015217155 0.05316202
0003a0 77 cc 42 3e 3b ce 82 3d 80 98 3a 3e 8c 5c 58 3e
       0.1902331 0.063869916 0.18222237 0.21129054
0003b0 2b c9 7c 3e 0a 12 f9 3d 53 c5 f1 3d 12 72 80 3e
       0.24686114 0.12161644 0.11805215 0.2508703
0003c0 39 92 80 3e c2 86 86 3e 4e 6b 56 3e 9a e4 c0 3d
       0.2511156 0.26274687 0.20939371 0.09418602
0003d0 3d 98 bd 3e e4 64 45 3e 26 cd 9d 3d 1d 07 61 3e
       0.3703021 0.19276768 0.077051446 0.2197537
0003e0 1b 85 fe 3d e2 0f 42 3e a9 9a ca 3e 9b 61 bc 3e
       0.124277316 0.18951371 0.3957112 0.36793217
0003f0 90 53 30 3e 7d 3f 57 3e 41 8c 59 3e bd e2 10 3e
       0.17219377 0.21020313 0.21244909 0.14148994

lstm.weight_hh_l0 f4 [256, 64]
000000 d4 ff 9b bd 4f 27 0d 3c 08 18 c3 bc fe ee d2 bd
       -0.07617155 0.008615329 -0.02381517 -0.102994904
000010 f9 a7 b3 bd ea a5 27 3d aa 4b 72 3d f3 80 2a bd
       -0.087722726 0.040929712 0.05915419 -0.04162688
000020 b4 41 55 bd 0a 01 db 3d bc c3 4e bc c6 96 e2 bd
       -0.052064613 0.106935576 -0.012619909 -0.11063914
000030 cb 55 bd 3d c3 ff d4 bc b3 e2 16 bc fd 35 d8 bd
       0.09244879 -0.026000863 -0.009209323 -0.105571724
000040 4d 4e 3d bd 39 c6 df bd 69 4b a6 3d a3 34 80 bd
       -0.04621725 -0.1092648 0.08119852 -0.0626004
000050 b0 e1 8c 3c a9 b7 a1 3d 18 44 ff bc 0a dc 70 bd
       0.01719746 0.078963585 -0.0311604 -0.058803596
000060 66 48 80 3d 09 b6 61 3d 0c 35 43 bd db 92 f4 3d
       0.06263809 0.055105243 -0.04765801 0.11942073
000070 62 88 0b bc b8 d3 d9 bd 73 54 0d bd e3 e3 4b 3d
       -0.008516403 -0.10636085 -0.034504365 0.049777877
000080 8b 70 81 bc fc fa 9a bd 5e 3a 09 3d e0 74 41 bd
       -0.015800735 -0.07567403 0.03350293 -0.0472306
000090 28 1c 57 bd 22 27 e4 3d c6 37 4c bd 4b 40 b4 3d
       -0.052517086 0.111402765 -0.049857877 0.088013254
0000a0 24 54 44 bd 42 e5 63 bc d8 1b 00 3d 5c 2b ae bc
       -0.047931805 -0.01390964 0.031276554 -0.02126091
0000b0 15 b6 a2 3d eb 27 2a 3d b6 b4 ad 3d b9 7d 8e 3d
       0.07944886 0.041541975 0.084817335 0.069575734
0000c0 2c 52 95 bd 19 c4 9d 3d 3d 94 67 3d 92 e3 96 3d
       -0.07291064 0.07703418 0.056537855 0.07367624
0000d0 c1 2f c9 bd c7 88 e0 bd 65 17 8b 3c aa 19 82 3d
       -0.098235615 -0.10963588 0.016978929 0.06352551
0000e0 9d e0 c0 bd be 9a a7 3d ce 4e e3 bc 2b 87 f6 bc
       -0.094178416 0.081838116 -0.027747538 -0.03009375
0000f0 b5 d7 83 3d 78 e1 72 bd c3 5f 8b 3d 57 5b 4a 3d
       0.06437627 -0.059297055 0.068053745 0.049403515
000100 6d cf c9 bb e2 26 9b 3d 56 1e 7c 3d c7 d2 e7 3d
       -0.0061587603 0.07575776 0.061552368 0.113194995
000110 84 00 f7 bc ec 47 da bd 3e c1 cd 3c 47 32 c9 bd
       -0.030151613 -0.10658249 0.02511656 -0.09824043
000120 df 1e cb bd 1b 52 34 3d cc 83 83 3c 76 5c c1 bd
       -0.099179976 0.044023614 0.016054057 -0.09441464
000130 6f a6 d0 bd 90 9f bc bd 93 ce 8e bd 64 e2 55 3b
       -0.10187995 -0.09210122 -0.06972995 0.003263616
000140 59 b0 de bd 2b dc 2f 3d 32 63 a3 3c ba 5f f2 bd
       -0.108734794 0.042934578 0.019944761 -0.11834665
000150 8d 5b c1 3d b2 f1 0c 3c c8 f8 d1 3c 58 d9 cc ba
       0.0944129 0.0086025465 0.025631323 -0.0015628738
000160 b9 99 24 bd a9 77 d6 3d 60 df 66 3d a1 e1 9a bd
       -0.040185664 0.10472042 0.05636537 -0.075625665
000170 e2 69 78 3d ac 9a cc bd d7 10 d5 bd 4e eb 84 bd
       0.060647853 -0.09990439 -0.104036026 -0.06490193
000180 84 45 50 3d b0 a4 ed bc e4 42 16 3d 3a e8 3d 3d
       0.050847545 -0.029009193 0.036684886 0.046364047
000190 f9 a2 27 bd 60 72 d0 3d 82 75 89 bd 09 35 e8 3d
       -0.040926907 0.10178065 -0.06711866 0.11338241
0001a0 9a 4a 77 3c 20 1f 07 3d 3c c3 d5 bd 1f df ca 3d
       0.01509347 0.032988667 -0.104376286 0.09905838
0001b0 76 59 96 bd a4 ab a6 bd b5 ef f9 bd b8 10 81 bd
       -0.07341282 -0.081382066 -0.122039236 -0.06302017
0001c0 94 2f 42 bc 17 b0 e2 3a be b5 13 3d 21 e3 f6 3c
       -0.011852164 0.001729491 0.036061995 0.0301376
0001d0 62 a5 05 bd 55 d7 e0 3c 44 90 44 3d e7 86 a3 3c
       -0.032628424 0.027446428 0.047989145 0.019961787
0001e0 1a cb 60 bc 6a 0b bc bd cf f7 a8 bd c8 93 17 bd
       -0.013720298 -0.091818646 -0.08250391 -0.03700617
0001f0 7a 6e ac 3d 71 ef 5f 3d 06 3e 06 bc 08 7f e4 3d
       0.08419509 0.05467171 -0.0081934985 0.11157042
000200 cf cf d6 3d 9f 66 b7 bd ca 2c d9 3c 97 24 db 3d
       0.10488855 -0.0895512 0.026510615 0.10700338
000210 6c 56 48 3d 60 8d c1 3d 2f 77 cb bc 5a aa a4 bd
       0.048910543 0.09450793 -0.024837105 -0.080403045
000220 7f 43 d2 3d 99 cc 46 3d a2 c7 bd 3d 4e 74 88 bd
       0.1026678 0.048534963 0.092665926 -0.06662808
000230 a2 84 9c bd bc 69 a2 bd 63 eb b2 3d 9d 99 e0 3d
       -0.07642485 -0.079303235 0.08736303 0.109667994
000240 a8 51 75 bd 31 cf 41 bd 9d 64 31 bd 23 1b dc 3d
       -0.059892327 -0.047316734 -0.043308843 0.107473634
000250 8d 22 ac 3c 2b c2 cf 3d c6 d6 a6 3d 29 f8 b7 3d
       0.021012569 0.101444565 0.081464335 0.0898288
000260 1b 3a aa 3d 37 5c d7 3c bc b9 f1 3d a7 e8 b6 bd
       0.08311864 0.026289089 0.11803004 -0.08931094
000270 eb 99 53 bc fe 01 58 3d e5 ba 89 bd 4b 53 66 3d
       -0.012915115 0.052736275 -0.067251004 0.056231778
000280 5c a9 36 bb f3 76 67 3d 78 1c 9b 3a d8 37 f0 3d
       -0.0027871942 0.056509923 0.0011834046 0.11729401
000290 d1 e1 bc 3d b1 9f d2 bd 45 02 4c 3d 2c 7e b0 3d
       0.092227586 -0.10284365 0.049806852 0.086178154
0002a0 cc 39 f3 bd 08 94 ac bd 1f 6f a5 bd 25 46 76 3d
       -0.11876258 -0.08426672 -0.08077835 0.06012549
0002b0 3d d8 eb bc 52 c9 94 bd ab 74 81 3d 05 ca 99 bd
       -0.028789634 -0.07264961 0.06321081 -0.07509235
0002c0 b6 3a df bd cf 37 3e 3c c8 fe dc bd cc 67 bf bd
       -0.1089987 0.0116099855 -0.10790783 -0.093459696
0002d0 cb 7e 29 bd f0 c5 3e bd c0 bb c7 3d d0 cd c5 bc
       -0.041380685 -0.046575487 0.09752607 -0.02414599
0002e0 a2 b2 28 3d d9 49 a4 3d 5d 93 b8 bd 14 f2 da bd
       0.041185983 0.08021898 -0.09012482 -0.10690704
0002f0 9b d4 d1 3d db 60 8c 3d 74 96 c8 3c b5 f7 d0 3d
       0.102456294 0.06854411 0.024485804 0.10203496
000300 e2 76 ab bb 90 60 b0 bd 93 2e 13 3d 51 b9 db bd
       -0.005232678 -0.08612168 0.03593309 -0.10728706
000310 05 f0 45 bc d0 12 06 3d a9 d5 03 bd ef 25 b5 3d
       -0.012081151 0.032732785 -0.032186184 0.08845126
000320 ec ab 4a bd a6 42 be bd 3b 39 aa bd 9b 7a eb 3d
       -0.049480364 -0.09290056 -0.08311697 0.114979945
000330 0e 86 e3 3d 6a 59 e1 3d 4f 59 9d 3c 68 ae cc bd
       0.11109553 0.110033825 0.019207625 -0.09994203
000340 a1 57 da bd 3a bb 9a 3d 1f c1 89 bd ff 03 99 3d
       -0.10661245 0.07555242 -0.06726288 0.07471465
000350 41 cb b3 3c 45 97 f9 3b c7 72 17 bd 57 da f7 bc
       0.021947505 0.0076169097 -0.036974695 -0.03025548
000360 79 d3 f8 bd ac f7 2a 3d 1c d0 73 3b 1c 34 d0 bc
       -0.1214971 0.041740105 0.00372029 -0.025415473
000370 b8 f6 ab 3d 15 21 e5 3d e8 fb 8b bc 45 9c 95 3d
       0.08396667 0.111879505 -0.017087892 0.07305197
000380 b7 e7 f8 3d 7f c1 49 3d 48 65 78 bd 83 bf 77 3d
       0.12153571 0.049256798 -0.060643464 0.060485374
000390 42 02 9d 3d 79 a2 78 3d 37 1b b8 3c af fb 80 3d
       0.07666446 0.06070182 0.022473915 0.06298005
0003a0 d7 99 f8 bd 33 81 a3 bd 8b 7a 62 bc 63 2b c5 3d
       -0.121387176 -0.07983627 -0.013823162 0.09627416
0003b0 e4 d0 c4 bd 2e 45 59 3d 6c 5a a1 bd 96 a5 1c bc
       -0.09610155 0.05304449 -0.07878575 -0.009560963
0003c0 92 5a 01 3d d7 92 c6 bc 31 9b e0 bd 60 c7 8d 3d
       0.031580515 -0.02423994 -0.109671004 0.069227934
0003d0 78 eb 4f bd 3a 69 bb 3d d5 53 eb 3d 0f 2e 91 3d
       -0.05076167 0.0915093 0.11490599 0.07088863
0003e0 db 6e 2d 3d 66 24 94 bb 1b cb 2f 3d f1 77 43 bd
       0.04234205 -0.0045209406 0.042918306 -0.047721807
0003f0 73 64 86 bd 18 a6 a5 bd 17 e2 0f 3d ff 8c db 3d
       -0.06562128 -0.080883205 0.035127725 0.10720252

lstm.bias_ih_l0 f4 [256]
000000 b9 c0 08 3e 11 2a 94 3e ef 0e 29 3e e5 f7 c4 3e
       0.13354768 0.28938344 0.16509603 0.3847038
000010 81 52 67 3e 40 18 1e 3e a9 9c 34 3e 8f 73 48 3e
       0.22590066 0.15438938 0.17637886 0.19575332
000020 44 23 d6 3d 70 b0 7c 3e 73 70 93 3d 36 33 16 3d
       0.10455945 0.2467668 0.07199182 0.036669932
000030 31 f5 d7 3e b1 02 70 bc 26 23 a7 3e 0f 51 27 3e
       0.42179254 -0.014649079 0.32644004 0.16339515
000040 3a 02 21 3e b9 4e 0d 3e e6 43 e7 3c 44 39 07 3e
       0.15723506 0.13799562 0.028230619 0.13205439
000050 64 73 41 3e fe f6 14 3e b8 c9 6d 3d b9 4f 80 3e
       0.18891674 0.14547345 0.058053702 0.25060824
000060 7c a3 ae 3e e0 8f 07 3e d9 e2 f8 3d 7e 3f 27 3e
       0.34109104 0.13238478 0.12152643 0.16332814
000070 6c f5 6f 3e 9c 6b 33 3e a1 f1 30 3e ef d6 28 3e
       0.23433465 0.17521518 0.17279674 0.1648824
000080 75 4e 0d 3e 8f 01 8b 3e 96 39 ae 3e 49 8e 09 3e
       0.1379946 0.27149627 0.3402831 0.13433184
000090 54 1e 72 3d 9c 5f b6 3d c8 5c 86 3e a5 74 3e 3e
       0.059110954 0.08904955 0.2624266 0.18599184
0000a0 bc 66 05 3e 70 ea 79 3e df b9 31 3e 7f 69 39 3e
       0.13027471 0.24405837 0.1735606 0.1810665
0000b0 11 81 4d 3e 4f a6 a6 3e d1 49 29 3e c2 24 81 3e
       0.20068766 0.32548758 0.16532065 0.25223356
0000c0 c5 04 18 3e e0 3d 63 3e 08 d9 5d 3e b2 ba 25 3c
       0.1484557 0.22191572 0.21664822 0.010115312
0000d0 98 34 9c 3e 39 d9 12 3e e3 23 db 3d 6b 4f a6 3e
       0.30508876 0.14340676 0.10700204 0.32482466
0000e0 12 b9 89 3e b7 ab 80 3e e2 3d a2 3e 03 75 ba 3d
       0.2689901 0.25131008 0.31687838 0.091043495
0000f0 83 f9 31 3e b6 ed 08 3e a8 44 0d 3e 9c 0a 1e 3e
       0.17380337 0.1337193 0.13795722 0.15433735
000100 96 d0 9a bd fd 2f d6 bd 53 d3 53 3d ba 3d d0 bb
       -0.07559316 -0.10458372 0.051715206 -0.0063550146
000110 1d 84 58 3d 71 b7 8b 3d 5c 81 46 3d 7c 8d 4b 3d
       0.052860368 0.06822098 0.04846321 0.049695477
000120 64 99 08 3d 0d dc 15 3d b3 89 46 bd 5e 09 7f bd
       0.03334941 0.03658681 -0.048471164 -0.062264793
000130 e5 0f 99 3d 93 c3 1a bd 60 ad 63 bd c3 e7 8d 3d
       0.07473735 -0.03778417 -0.055585265 0.06928971
000140 2c 86 48 3b 5d f1 4b bd e9 cf ec bd e8 a3 b6 bb
       0.003059755 -0.04979073 -0.11563093 -0.0055737384
000150 40 6f d6 3d 66 d9 08 3d 6d 97 23 3d 3d b4 98 bd
       0.10470438 0.033410452 0.039939333 -0.07456253
000160 68 bc da 3d 30 c7 17 bd 4d ed 87 bd c9 f6 f9 bd
       0.10680467 -0.037055194 -0.066370584 -0.12205274
000170 ee 54 ab bc 8f 54 99 bd cc b4 a0 3c a3 a3 c5 bd
       -0.020914521 -0.074868314 0.01961746 -0.09650352
000180 e5 3f 29 bd cc bf 82 3d 58 a8 eb 3d 28 97 92 3c
       -0.0413207 0.063842386 0.115067184 0.017894343
000190 ee 9d b7 bd c0 a9 cc 3d ec f3 a8 3c 83 3a ad bd
       -0.089656696 0.09993315 0.020624124 -0.08458426
0001a0 f2 90 61 bc ff ca 18 3c e2 fe de bd 60 0e ea 3b
       -0.013767468 0.009325742 -0.10888459 0.007142827
0001b0 15 b1 de 3d 6f e9 fb bc ad d5 a2 3a d1 7e da bd
       0.108736195 -0.030750958 0.00124233 -0.106687196
0001c0 db b1 d9 bd 49 be 7e 3d 8d a9 aa 3d 57 9e 95 3d
       -0.10629626 0.06219319 0.083331205 0.073055916
0001d0 8f d9 91 3d ca f7 c9 3d 31 48 e7 bd 59 e4 e8 3d
       0.07121574 0.09861715 -0.11293066 0.11371679
0001e0 b1 ae de 3d 4d 4f 98 3d 3d 8c 90 bd f9 97 c8 bd
       0.108731635 0.074370004 -0.07057998 -0.097946115
0001f0 65 64 60 bd 9e 02 b6 3d 6c aa c7 bc 98 93 ed bd
       -0.054783244 0.08887218 -0.024373256 -0.11600417
000200 50 ef be bd 5f 23 4f bd 99 c7 0b 3c d3 6f da bd
       -0.09322989 -0.050570842 0.0085314745 -0.1066586
000210 db 3c a8 bd 9a 4b c9 3c 26 2c 72 bd 6b 64 0f 3d
       -0.08214732 0.024572182 -0.059124134 0.035007875
000220 90 7a e7 3c a6 ab e0 3d 7f 82 4a bd 04 76 a6 3d
       0.028256685 0.10970239 -0.049440857 0.081279784
000230 01 04 6f 3d e0 28 3d bc 74 ab fa 3d 71 18 a7 3d
       0.058353428 -0.01154539 0.12239733 0.08158959
000240 39 70 f3 bd 89 eb d9 bb b4 cf a8 bc 29 4a 75 3d
       -0.11886639 -0.0066503924 -0.020606853 0.059885178
000250 43 5e 9e 3d 53 8b 0f 3d 0d 73 c2 3c 50 15 0e be
       0.07732823 0.03504498 0.023736501 -0.13875318
000260 3a 5c 21 3e 32 70 f8 bc 35 3d d1 bd 93 9a 90 bd
       0.15757838 -0.030326936 -0.102167524 -0.07060733
000270 e8 09 c6 bd f8 bd 6c bd 9e 07 15 bd b9 44 c0 3b
       -0.09669858 -0.057798356 -0.036384217 0.0058675674
000280 50 59 f0 ba 1d 93 f4 3c 8d f2 10 bd 9f 2e 13 3e
       -0.0018337164 0.029855305 -0.035387564 0.14373253
000290 dd 50 c6 3d fb 95 8d bb 19 cb cb bc 22 9b 6e 3d
       0.09683392 -0.0043208576 -0.024877118 0.058253415
0002a0 7d a2 a6 3d 26 f3 4a bd a3 8a 37 be 13 c5 93 3c
       0.08136461 -0.04954829 -0.1792398 0.018038308
0002b0 66 a4 95 3c b7 84 a6 bd c2 01 36 3d 43 1e 76 3d
       0.018266868 -0.08130782 0.04443527 0.060087454
0002c0 9f 2b 2d 3c 76 49 cf 3d 28 73 b3 3c 96 8d df bb
       0.010569482 0.101214334 0.021905497 -0.0068222983
0002d0 99 06 63 3c 4d ba af bc a7 ef 1c 3d d2 b9 de 3d
       0.0138565535 -0.02145114 0.038314488 0.10875286
0002e0 46 78 02 be ac dd e0 3b 2b c5 33 3b c2 4d af 3d
       -0.12741193 0.006862363 0.0027430754 0.08559753
0002f0 4d 2c bc bd ae 23 9d 3b b0 c8 42 3d aa 87 6b bd
       -0.09188137 0.004795513 0.04755467 -0.057502426
000300 db 3e 73 3d e8 21 b0 3d ab 7f 6c 3e 4c d3 c6 3e
       0.059386116 0.08600217 0.23095576 0.38833082
000310 b3 66 b8 3e b1 0e 84 3e 32 a2 96 3e f9 b2 71 3e
       0.36015853 0.2579246 0.2942062 0.23603429
000320 1d 30 82 3e 6c ea 2d 3e 03 ab 50 3e e3 8f a4 3d
       0.25427333 0.16983956 0.20377736 0.08035257
000330 bb 52 76 3e 74 1b 18 bc bc 82 cb 3d 1f b0 b2 3d
       0.24054997 -0.009283889 0.09937045 0.08724999
000340 3e df 8f 3e c7 e7 35 3e fe 54 07 3e 52 73 3f 3e
       0.28100008 0.17764197 0.13216016 0.18696335
000350 fb 02 99 3d 5e 70 84 3e b7 4e e9 3d 55 10 b9 3d
       0.074712716 0.2586698 0.11391967 0.09036318
000360 36 53 3d 3e e6 fd a3 3e 99 b1 68 3d d4 99 2f 3e
       0.18488774 0.32029647 0.056809995 0.17148525
000370 1b bb a2 3e bf 93 5a 3e 95 af 28 3e 9f 45 fd 3d
       0.31783375 0.21345423 0.16473229 0.12366795
000380 d7 77 29 3e aa cf f1 3d d5 b8 aa 3e 1a 04 7b 3e
       0.16549622 0.11807187 0.3334414 0.24513283
000390 28 e9 81 3e 9a 9e 46 3e 97 ec ce 3e a2 bd 8a 3e
       0.25373197 0.19396439 0.4041488 0.27097803
0003a0 9e 37 92 3e f6 78 47 3e c4 df 97 3e 43 53 99 3e
       0.28558058 0.19479737 0.29662907 0.29946336
0003b0 b1 b6 20 3e fd e4 97 3e 07 e9 1b 3e e1 90 4e 3e
       0.15694691 0.29666892 0.15225612 0.20172454
0003c0 44 80 8a 3e 5d 64 8e 3e 1f 55 15 3e 99 0f d9 bb
       0.27050984 0.27810946 0.14583252 -0.006624174
0003d0 da 6f 56 3e 98 08 d0 3d d5 9d 93 3d db 7b 8b 3e
       0.20941105 0.10157889 0.072078384 0.27242932
0003e0 e6 e1 9d 3e c8 05 a4 3e 0d 77 b1 3e ca 2a 38 3e
       0.3083641 0.3203566 0.3466114 0.17985073
0003f0 b0 07 78 3e 0d ec 27 3e ec d5 e7 3d 95 f5 9c 3e
       0.24221683 0.1639864 0.11320099 0.30656114

lstm.bias_hh_l0 f4 [256]
000000 cf 6f 5a 3e d1 3f 3d 3e e3 84 a2 3e c9 8a b6 3e
       0.21331714 0.18481375 0.3174201 0.3565276
000010 6a 04 91 3e d5 75 04 3e 24 c7 d2 3d 58 7c ac 3d
       0.2832368 0.12935574 0.10291889 0.08422154
000020 c6 bc 74 3e e9 66 dd 3d 31 2b 62 bc 1e d1 88 3d
       0.23900136 0.10810644 -0.013804243 0.06680511
000030 94 a7 c9 3e c2 82 2f bd 50 e5 4e 3e 3e 3c 5e 3e
       0.39385664 -0.04284931 0.20204663 0.21702668
000040 01 d1 24 3e 08 78 4d 3e 59 04 ba 3d ca 51 4e 3d
       0.16095354 0.2006532 0.090828605 0.05037097
000050 51 d1 c7 3c b2 81 69 3e a4 3e 3f 3d b9 5b 64 3e
       0.024391802 0.22803381 0.046690598 0.22300614
000060 0b 25 f5 3d f1 b3 7a 3e a5 d9 13 bc 0f 91 d8 3d
       0.11969956 0.24482705 -0.0090240585 0.10574543
000070 62 46 c0 3e 98 ba 22 3d e6 1e 7b 3e ad e7 83 3e
       0.37553698 0.03972873 0.24523506 0.25762692
000080 1a 55 f7 3c e2 65 4c 3e 90 d1 47 3e fe d5 8c 3d
       0.030191947 0.1996074 0.19513535 0.06876753
000090 1b 56 83 3e 3b 1d 4d 3e fa 99 d6 3e 58 6a 50 3d
       0.2565163 0.20030682 0.4191435 0.050882667
0000a0 70 d6 79 3e 22 71 9a 3e 15 73 ba 3e e9 89 23 3e
       0.24398208 0.30164438 0.36415926 0.15970577
0000b0 76 24 a7 3d 24 fc ce 3d c4 08 a4 3d 11 dc 65 3e
       0.08161251 0.10106686 0.080094844 0.2244723
0000c0 15 68 58 3e 35 af 8d 3e 32 fc 4c 3e 9b b3 dd 3c
       0.21133454 0.27672735 0.2001808 0.027063182
0000d0 42 7c a9 3e c9 53 b8 3d 32 b5 4f 3e b4 3f 0f 3e
       0.33102614 0.09000356 0.20283964 0.13989145
0000e0 55 45 19 3e 1b a3 d3 3e 00 34 77 3e f2 2c 80 3e
       0.14967854 0.41335377 0.2414093 0.2503429
0000f0 58 eb cd 3e dc 98 3c 3e d7 c0 0f bc 46 04 88 3e
       0.40218616 0.18417686 -0.008774004 0.2656576
000100 68 9b a0 3d 43 d1 c3 3c 0a 3a ab 3d 3b 9a bb bd
       0.078421414 0.023903495 0.083606794 -0.091602765
000110 40 bb 27 3d 35 1a 9b bc b8 ee cf 3d 09 cb f8 bc
       0.04095006 -0.018933395 0.10152954 -0.030370252
000120 eb 19 34 3c cb 17 d6 bd 0a 09 fb bd 50 e6 9a bd
       0.010992507 -0.10453757 -0.122575834 -0.0756346
000130 d3 d8 8e bd fa 09 28 bc af 34 96 bd 5a fc 99 3d
       -0.0697495 -0.010256285 -0.07334267 0.07518835
000140 67 1b 6e bd 92 b7 90 bd 77 8c 56 3d 6f ce d2 3d
       -0.0581316 -0.07066263 0.05238005 0.1029328
000150 cc e1 21 3d 49 e5 8f 3d ce 4b ea 3d 1f 61 c9 bd
       0.039521977 0.070261545 0.1144024 -0.098329775
000160 28 58 6b bd 64 53 55 bd 8d 12 85 bd ac e4 be bd
       -0.05745712 -0.05208148 -0.06497679 -0.093209594
000170 55 98 b0 3c 97 d3 83 bd 78 9b 02 3b bd 6e 02 3d
       0.021557013 -0.06436842 0.0019929092 0.03184389
000180 39 33 d8 bd 00 0c 05 bd 46 c3 71 3d d0 02 c6 bc
       -0.10556645 -0.032482147 0.059024118 -0.024171263
000190 4c 25 e1 3d 80 ba 1f 3d ac 93 14 bd 8b 8a 30 bd
       0.10993442 0.03899622 -0.036273643 -0.043100875
0001a0 1d 9e 21 bd 77 0f 37 bd c3 eb 43 bd 44 a4 a5 3c
       -0.03945743 -0.044692483 -0.04783226 0.02021993
0001b0 dd 54 cf bc 14 e4 71 3d 13 25 34 bd 2c ff 7b 3d
       -0.02530902 0.059055403 -0.04398067 0.061522648
0001c0 b1 34 d3 3d f0 53 7a bd 05 15 84 bd e0 42 f0 bd
       0.103127845 -0.061115205 -0.06449322 -0.117315054
0001d0 ca eb 3f bc e2 09 85 3d 25 39 c4 3c a5 7f b6 3c
       -0.011713931 0.064960256 0.02395303 0.022277663
0001e0 aa e4 5c 3d f3 7d 64 bc 44 dd 86 3d f3 63 23 bd
       0.05392901 -0.013946044 0.06585172 -0.03989024
0001f0 e1 8d 9f bd 00 11 02 bc 13 d2 f8 bc 65 0f a9 bc
       -0.07790733 -0.007938623 -0.030373609 -0.020637223
000200 b1 24 c5 3d 2f 8d c0 bd fe ec 04 bd 3c 9f 3f bd
       0.09626139 -0.09401929 -0.032452576 -0.046782717
000210 ea 9e ad 3d d3 29 20 be e8 fd 3b 3d 2d a3 3e be
       0.08477576 -0.15640955 0.04589644 -0.18616934
000220 44 50 99 bd b4 79 73 3c 16 5e 5c 3c 89 7c 8b 3d
       -0.074860126 0.014860559 0.013450166 0.068108626
000230 00 7b a0 bc 30 61 67 bd 2b ac be bd 75 23 20 bd
       -0.019589901 -0.05648917 -0.09310182 -0.039096314
000240 d3 a8 16 3d df 65 4b 3d af 52 38 3c 92 95 3c 3c
       0.036782097 0.0496577 0.011250182 0.01151027
000250 8f 80 d6 bc e5 4f 79 3d 64 fa c5 bd fc 15 f5 bd
       -0.026184348 0.06086721 -0.09666899 -0.11967084
000260 fe b8 13 3e c5 80 97 3c 3f 4d 42 3d e7 67 02 3e
       0.14426038 0.01849402 0.04743695 0.12734948
000270 c9 24 b6 bd 7f af ad 3d 6b 44 22 bd 39 a2 d0 bc
       -0.08893735 0.08480739 -0.03961603 -0.025467979
000280 34 a9 d2 bd 82 f0 d4 bc 7a c7 05 3e fc 3c d0 3d
       -0.10286179 -0.02599359 0.13064376 0.10167882
000290 94 81 8c bd c1 d4 0f 3e a7 17 0a bd 9f 95 a6 3d
       -0.068606526 0.14046003 -0.033713963 0.08134007
0002a0 3d ac b3 3d fd b9 c9 bb b8 39 cf bd 36 ce a1 3b
       0.08773086 -0.0061562047 -0.10118431 0.0049379123
0002b0 e1 b6 ef bb be 6d 0e be f6 fd 2b bd eb 6e db 3d
       -0.007315502 -0.13909051 -0.041990243 0.10714515
0002c0 58 c5 ac bd ac 23 a9 3c 78 b1 2c 3d f6 c8 32 3d
       -0.08436078 0.020646892 0.042161435 0.043648683
0002d0 fd ec 19 bd 87 b9 48 ba b4 90 cc bc 12 ff 55 3c
       -0.037579525 -0.000765704 -0.024971344 0.013061302
0002e0 86 3c 05 be 8f cc c5 3c db 07 e2 3d 34 bc e6 3d
       -0.13011369 0.024145393 0.110366546 0.11266366
0002f0 72 fe 9a bd 3f 05 24 be b0 5d 01 bd f8 51 aa bd
       -0.07568063 -0.16017626 -0.031583488 -0.083164155
000300 eb c3 84 3d 64 cb 43 3e dd ac 72 3e 04 05 8c 3e
       0.06482681 0.19120556 0.23698755 0.27347577
000310 d1 93 88 3e c4 f8 53 3e 57 49 03 3e 6b 45 2d 3e
       0.26675275 0.20700365 0.12820946 0.16921012
000320 e5 32 27 3e d9 a8 92 3e 57 d6 db 3d e3 3b 19 3e
       0.16328008 0.28644446 0.107342415 0.14964251
000330 20 59 c5 3e 45 08 14 3d 33 79 96 3e ae 9a 19 3d
       0.3854456 0.0361407 0.29389343 0.03750103
000340 83 a9 80 3e f1 72 df 3d c5 02 13 3e 71 9d 6b 3e
       0.25129327 0.10910595 0.14356525 0.23009278
000350 46 5a bb 3d a4 bb 18 3e 49 97 79 3e b2 04 76 3e
       0.09148078 0.14915329 0.24374117 0.24025229
000360 f7 d2 1a 3e 76 40 98 3e 09 58 7e 3e 71 f2 86 3e
       0.15119539 0.2973668 0.2483827 0.26356843
000370 f4 51 5c 3e 24 51 8f 3d b6 ca 49 3e 62 46 c0 3d
       0.21515638 0.06997898 0.19706234 0.093884245
000380 d6 d0 94 3d e1 56 a4 3e df 69 c8 3e 91 e6 ab 3d
       0.07266395 0.32097533 0.39143273 0.083935864
000390 97 0f 21 3e c2 02 78 3e 12 e5 5a 3e f8 08 49 3e
       0.15728603 0.24219802 0.21376446 0.19632328
0003a0 15 a4 ad 3e 0b b1 5f 3e a6 53 87 3e af b8 1e 3e
       0.33914247 0.2184488 0.26431006 0.15500139
0003b0 ed f2 ba 3d 04 3f a7 3e db a2 16 3d d6 88 8f 3e
       0.09128366 0.32665265 0.036776405 0.28034085
0003c0 a0 c6 54 3d ab c4 77 3e e1 f9 0c 3e 2f ca 4c 3d
       0.051947236 0.24196117 0.13767196 0.049997505
0003d0 c9 fc 44 3e 4a bf 47 3d 4e 78 98 3d 4a 0d 51 3e
       0.19237055 0.04876641 0.07444821 0.20415226
0003e0 bf 89 94 3e 05 b6 be 3e 0b ce 8d 3e ff 7d 88 3e
       0.29011342 0.37248245 0.2769626 0.26658627
0003f0 53 7c a5 3e d6 5c 06 3e 12 12 44 3d b1 b6 65 3e
       0.32321414 0.13121352 0.047868796 0.22432972

fc.weight f4 [3, 64]
000000 f9 34 75 be 60 9c 93 3e 77 7d 3d 3e 78 90 43 3c
       -0.23945989 0.28830242 0.18504892 0.0119362995
000010 c6 c7 06 be bf 11 79 3e 10 75 29 3e b7 e9 b2 3e
       -0.13162145 0.24323176 0.16548562 0.34943935
000020 4f 2d aa be 6f 26 86 be d7 84 56 3e 9f e4 85 be
       -0.33237693 -0.26201198 0.20949112 -0.26150987
000030 fd fa 36 be a8 61 48 be 8b 1c c4 3d 58 3d 39 3d
       -0.17869182 -0.19568503 0.09575757 0.045224518
000040 00 98 45 3e 7b 3d 76 be fc ff 7c 3e 65 9e 98 be
       0.19296265 -0.2404689 0.24707025 -0.29808345
000050 ca 16 91 3e 17 68 e9 3c 0b 38 7c 3e 5c 1b 73 3e
       0.283377 0.028492017 0.24630754 0.23740906
000060 23 c8 cd be b2 4b 85 3e 76 22 4f 3e 98 55 eb be
       -0.40191755 0.26034313 0.2022799 -0.4596374
000070 4f 87 db bd de 70 7b 3e d0 09 7a 3e 8a a9 77 bc
       -0.107191674 0.24554774 0.24417806 -0.015116105
000080 18 1d b9 3d 65 3a b1 3e 81 2a 0e 3e fe 7a af be
       0.09038752 0.34614864 0.13883401 -0.34273523
000090 1a 3d 80 3e ea 88 ac be 5c e4 89 3e 31 d2 84 be
       0.25046617 -0.33698207 0.26932037 -0.25941613
0000a0 ca 48 37 3e af f6 8c 3e 4b 30 e8 3e 76 c9 14 be
       0.1789886 0.27531955 0.45349345 -0.14529976
0000b0 38 85 87 be c5 cf dc 3e fa 59 8f 3e d8 e8 5e be
       -0.26468825 0.43127266 0.27998334 -0.2176851
0000c0 cd a6 8c be 8a a6 b0 be 3d 17 93 be e0 e0 6d 3e
       -0.2747101 -0.3450206 -0.28728667 0.23230314
0000d0 aa 57 2f 3e a3 9d 27 bd d8 4f 74 be 04 4a 9d be
       0.17123285 -0.04092182 -0.23858583 -0.30720532
0000e0 21 b3 7d 3e 39 ce 47 3e 9d 20 a0 3d ee 16 bd be
       0.24775364 0.19512261 0.078187205 -0.36931556
0000f0 90 26 53 be 05 38 0e 3e 37 c5 0f bd d5 c4 8e 3e
       -0.20620179 0.13888557 -0.035100188 0.27884546
000100 4e 49 2f bd 08 7f 3f be bf 70 91 be d1 bb c0 be
       -0.04279452 -0.18700802 -0.2840633 -0.37643293
000110 a0 4f 80 be 1f 85 1a be b1 b5 27 be 00 3a 90 be
       -0.2506075 -0.15089844 -0.16377904 -0.2816925
000120 dc 82 c3 bd 67 3b 24 3e 66 4a 48 be 12 95 97 3e
       -0.09546444 0.16038285 -0.19559631 0.2960592
000130 09 51 91 be 01 8b 31 3e b1 22 83 3d 3c 54 a5 3e
       -0.28382137 0.17338182 0.06403101 0.32290828
000140 aa d3 87 be 50 4e 12 be f0 72 2d be 19 61 02 3d
       -0.26528674 -0.14287686 -0.16938376 0.03183088
000150 b6 d8 91 bc 92 95 a5 3e 77 d2 b7 be b6 c0 4a be
       -0.017803531 0.32340676 -0.3590276 -0.19800076
000160 40 bd a9 3e f6 c9 fa 3d 02 f5 c8 be f9 97 1d 3e
       0.331522 0.12245552 -0.39249426 0.15390004
000170 b3 9d 94 be 2e 47 51 be e1 b2 2e be d9 4d 8b be
       -0.29026565 -0.20437309 -0.17060424 -0.2720783
000180 75 00 81 be 8f 18 d6 3a a9 40 89 3e 38 88 79 3e
       -0.2519566 0.0016334223 0.26807144 0.2436837
000190 3a 1e 64 3d 43 0a 0b 3e 49 73 2c 3e e0 65 3f bd
       0.05569289 0.13578133 0.16840853 -0.046728015
0001a0 fe c8 71 3d 2e 5e 89 be 4b a9 2c be e8 8a 7a be
       0.05902957 -0.26829666 -0.16861455 -0.24467051
0001b0 6d 7e 83 3e 0a 11 55 be 55 05 89 be f4 41 a5 3c
       0.25682393 -0.20807281 -0.2676188 0.02017305
0001c0 10 2a 48 bc c4 a8 63 3e 66 dd 8c 3e 58 a1 e8 bd
       -0.01221706 0.22232348 0.27512664 -0.11358899
0001d0 96 9d bb 3e 87 d6 7f be ca 23 49 3e 32 de 99 3e
       0.36643666 -0.2498418 0.19642559 0.30052334
0001e0 ad 58 ed be 49 09 62 3e c2 19 3e 3e cb 89 7f 3e
       -0.46356717 0.22073855 0.18564513 0.24954908
0001f0 16 0b 11 be 0e 93 ad be 53 c7 89 3e 8a fe 91 be
       -0.14164385 -0.33901256 0.26909885 -0.2851451
000200 8c d1 aa 3e 7f d6 69 be 0e d6 48 be 48 86 0e 3f
       0.33362997 -0.2283573 -0.19612905 0.55673647
000210 19 72 f3 3e 76 67 a6 be 3b 75 a5 be 41 62 f2 bc
       0.47547987 -0.3250081 -0.32316002 -0.029587867
000220 29 b9 b8 3e 60 2e fe 3d df 4d 42 bc 84 f7 8d 3d
       0.36078766 0.12411189 -0.011859386 0.069319755
000230 08 04 12 3f ec 5b b2 bc c5 ef c9 be 4b 63 74 bd
       0.570374 -0.021772347 -0.39440742 -0.059665006
000240 c0 e1 f4 bd 5f 32 e2 3e 11 cb 0d be 50 bd 81 3e
       -0.11957121 0.44179055 -0.13846995 0.25339746
000250 24 03 25 be 9b 61 81 be 4a c1 1b be 7f 06 a7 be
       -0.1611448 -0.2526978 -0.15210453 -0.32622144
000260 8f f7 a9 3d d7 48 ce be 00 50 68 3d da 81 54 3e
       0.08299171 -0.40289947 0.05671692 0.2075266
000270 04 95 e3 3e 2e 54 68 be b4 93 13 be 68 2d c3 3e
       0.44449627 -0.22688362 -0.14411813 0.3812058
000280 0e 26 39 be 0c 83 60 be 3d dd 06 bf 59 fd 71 3e
       -0.18080923 -0.2192499 -0.5268133 0.236318
000290 09 f3 ca be d7 d2 ed 3d 30 6d 03 bf 66 a8 93 3e
       -0.39638546 0.1161248 -0.5133848 0.28839415
0002a0 01 93 ce be 21 e8 36 be 22 f6 4f be 84 e7 ad 3e
       -0.4034653 -0.17861988 -0.20308736 0.33965695
0002b0 06 1e 23 3e 24 f0 58 be b7 95 33 be 4a ff 87 3e
       0.15929422 -0.21185356 -0.1753758 0.26561958
0002c0 d9 e4 c6 3e 54 b5 61 3e dc 44 1f 3d 7c 46 5c be
       0.38846472 0.22041827 0.03888403 -0.21511263
0002d0 f7 1b fa be 74 c1 a8 3e 18 31 36 bc 58 f6 9b 3e
       -0.4884946 0.32960093 -0.011120103 0.30461383
0002e0 2a 7d 9d 3e b7 00 11 bf dc c1 0d bf 45 d5 88 3e
       0.30759555 -0.56641716 -0.5537393 0.26725212
0002f0 8e 3c cd 3e 70 46 22 bd f0 99 66 be 38 b6 d7 bc
       0.40085262 -0.039617956 -0.2251966 -0.026332006

fc.bias f4 [3]
000000 61 21 ac 3d 76 00 9c 3c f1 89 0d be
       0.08404804 0.019043189 -0.13822152
