Code-in-cloud/results/models/水合状态分类标签_backward_gru.pth (torch, 62216 bytes, 6 tensors)

gru.weight_ih_l0 f4 [192, 11]
000000 e1 01 c1 3d fa 73 7e bd 1f e8 5d bc 52 c8 df bd
       0.094241865 -0.062122323 -0.0135441115 -0.1092688
000010 09 c9 6c bd f7 60 3f 3d da 67 2b 3e 35 4f 2a bb
       -0.05780891 0.046723332 0.16738835 -0.0025987152
000020 73 13 b2 be 05 1e a4 bd dc 5e 49 be 96 39 9b be
       -0.34780464 -0.08013538 -0.19665092 -0.30317372
000030 89 01 cd 3d f7 6f 28 3c 42 4c d4 3e 02 20 5b bd
       0.100100584 0.010280601 0.4146443 -0.053497322
000040 d0 43 10 be 93 4a fb bd 48 da 58 bd e5 3d bd bd
       -0.14088368 -0.12270083 -0.052942544 -0.09240321
000050 c7 e9 2b be 1d 60 f2 3e d5 bb d1 3d 1c 87 8d bd
       -0.16788398 0.47338954 0.10240904 -0.06910536
000060 a8 77 97 bd 25 68 2f 3e 3e a2 99 be 71 94 22 3f
       -0.073958695 0.17129572 -0.30006593 0.63507754
000070 22 07 c5 be 5a 83 31 bc e1 90 b9 bd 58 7d ba be
       -0.38482004 -0.010834539 -0.090608366 -0.36423755
000080 44 47 5d 3a 53 5e 36 3e 0e 21 0c 3f 71 43 36 3e
       0.00084411004 0.1780942 0.5473794 0.17799164
000090 83 27 88 bd 0d 93 6b be 8a 7a 77 be b6 59 02 3d
       -0.06648161 -0.23005314 -0.24167839 0.031823836
0000a0 85 d8 9b be 68 39 f1 bd e7 3b 96 be 39 d5 b8 3e
       -0.3043863 -0.117785275 -0.29342577 0.36100176
0000b0 36 f3 69 be 5d aa 38 bc 0b 9d d3 bc cf bb 83 3e
       -0.22846684 -0.0112710865 -0.02583172 0.25729224
0000c0 30 f0 76 be 4f 16 ac bd c4 dd 69 be 70 2c 57 bc
       -0.24115062 -0.084026925 -0.22838503 -0.013133153
0000d0 a3 98 08 bd 1a 99 95 be 1e 11 e2 3e 9b 02 e9 be
       -0.03334869 -0.2921837 0.44153684 -0.455098
0000e0 40 94 c4 bd e6 af 46 3e 34 64 97 bd 82 9a f9 be
       -0.09598589 0.19403037 -0.07392159 -0.48750693
0000f0 a2 52 25 3e d3 23 10 be 89 e0 20 be 31 03 8c be
       0.16144803 -0.14076166 -0.15710653 -0.27346185
000100 d2 38 d2 bd 45 4a a3 3d f3 14 a9 3d ab e3 61 3d
       -0.10264744 0.0797315 0.08255949 0.05514876
000110 2a a5 2f be 2b d8 3f 3d ae d9 e6 be 89 c6 c6 3e
       -0.17152849 0.046837013 -0.4508795 0.38823345
000120 94 a9 bd be f3 df 43 bd b1 43 6b be b5 d1 0a bf
       -0.3704344 -0.047820996 -0.22975041 -0.5422624
000130 68 02 1f 3e 30 15 a5 be c2 c6 14 be c0 98 a4 3e
       0.15528262 -0.32242727 -0.14528945 0.3214779
000140 87 81 8d be a6 9e c9 be 5a 7e b9 bc 37 73 51 3c
       -0.27637884 -0.39378852 -0.022643257 0.012783817
000150 f8 fd 78 be 28 cd d7 be c5 ca 3a 3d 1a c9 2e 3b
       -0.24315631 -0.4214871 0.045603532 0.002667016
000160 5a af d2 be 37 de 18 3e 28 50 4a 3e 30 9d dc bc
       -0.41149408 0.14928518 0.1975714 -0.026930422
000170 75 c8 0b be 4e e7 bd bc 81 82 3f 3e cc 0c b4 bd
       -0.13650687 -0.023181584 0.18702127 -0.08791503
000180 4e 88 c5 3d a2 c1 2f 3d 1b d8 77 be 47 41 0b 3d
       0.09645139 0.042909272 -0.24203531 0.0339978
000190 4e 84 e3 3d 45 3a 67 3e c1 ac 8b 3d 41 81 cb be
       0.111092195 0.22580822 0.068200596 -0.3974705
0001a0 f6 e7 18 be f5 ec af 3d 09 a1 d7 bd 94 95 a9 be
       -0.14932236 0.08590118 -0.10528762 -0.33121932
0001b0 18 06 0f be 34 e4 aa 3e 43 03 e0 bc 56 b5 b8 3d
       -0.13967168 0.3337723 -0.027345305 0.09018962
0001c0 1e 61 d6 bd 53 16 74 3c 8e 6d 6a be 10 b8 53 3e
       -0.104677424 0.014897901 -0.22893354 0.20675683
0001d0 02 6d 6f 3c 04 aa 05 bc cc cb 20 be 43 fb f7 be
       0.014613392 -0.008158211 -0.15702742 -0.48433885
0001e0 fb 27 98 bd 23 78 bb be 70 5d 44 3c f5 f9 63 3e
       -0.07429501 -0.36615095 0.011985168 0.2226332
0001f0 dc 3a 1e bd 95 2d 6c bc 91 93 93 bd ef e4 2b 3e
       -0.03863035 -0.0144151645 -0.072058804 0.1678655
000200 97 71 35 3d d7 bd c5 bd 04 e6 6f be 99 33 6d 3d
       0.04429778 -0.0965535 -0.23427588 0.057910535
000210 b1 bb 80 3d 62 18 22 3e 46 9f 39 3e 46 a8 06 bf
       0.06285799 0.15829614 0.18127164 -0.52600515
000220 14 df 5e bd c0 86 c5 3e 6f a6 95 be 04 ad c0 3e
       -0.054411963 0.3857937 -0.2922854 0.37632
000230 42 9d 43 be a8 ae a9 3b 22 de 9f 3e 27 10 98 be
       -0.19102958 0.0051782914 0.3122416 -0.29699823
000240 e1 c3 ea bd 7c d6 a6 bd 4e 82 a2 3e 62 fb 71 bd
       -0.11463142 -0.081463784 0.3174004 -0.059077628
000250 73 70 22 3e c6 f7 a0 be af ed 55 be df e7 3f bd
       0.15863208 -0.31439036 -0.2089145 -0.04685199
000260 3a 5d 13 3d 70 35 19 3f 41 a2 c4 3e e4 11 16 be
       0.03597758 0.59847164 0.3840504 -0.14655262
000270 f3 fb ef 3c 30 48 0b 3f 06 60 c8 be 93 e2 cd 3e
       0.029294943 0.54407024 -0.3913576 0.40211925
000280 74 f0 11 bf df 6d 8d bd 37 85 6e 3e 00 0f 76 be
       -0.5700753 -0.06905722 0.23293005 -0.2402916
000290 9f 32 ea bd 96 16 08 bf 10 f9 30 3e fb 18 15 3d
       -0.114354365 -0.53159463 0.1728251 0.036400776
0002a0 de 69 e5 bb d4 1b 7d 3c 23 48 08 be 9b 68 85 3e
       -0.0070011457 0.015448529 -0.13308768 0.2605637
0002b0 d2 45 29 3d 31 b4 94 be 67 44 0d 3e 1c 5d 24 3e
       0.04132635 -0.29043725 0.13795625 0.16051143
0002c0 3b f4 8e bd ef 29 a9 bd 87 e2 79 3d 5e 13 f1 bc
       -0.06980177 -0.08259951 0.06100705 -0.02942818
0002d0 f2 6a 97 be f5 14 57 3e b0 6d 8f be 2d d1 92 3d
       -0.2957378 0.21004088 -0.28013372 0.07168803
0002e0 4a 0b 69 3d e4 47 8d be fd 4f d1 bd cb 8f 90 be
       0.05689553 -0.2759391 -0.10220335 -0.28234705
0002f0 ef 02 63 be ed 0a 7b 3e 13 44 1f be 4e 6e 63 be
       -0.22169088 0.24515887 -0.15553312 -0.22210047
000300 74 f0 5b bd 2d 8a 1b 3e 79 3c 34 be 3f f2 fb be
       -0.05369611 0.15189429 -0.17601193 -0.49208257
000310 69 c5 0d 3d 3a 24 38 bd a8 90 eb bd e0 ac f2 3d
       0.034612093 -0.044956423 -0.115022 0.118493795
000320 85 0f 1c 3e 05 99 5a 3d 11 07 7a be aa 1c 4e 3d
       0.15240295 0.053368587 -0.24416758 0.050320305
000330 51 8a c5 bc ad f9 12 bd 4d 39 69 be 2a 4d fa 3d
       -0.024113806 -0.03588264 -0.22775765 0.12221749
000340 63 4a 8c 3e 9e 8c 44 be 44 3a 66 bd ce 0e a7 3d
       0.27400503 -0.19194266 -0.05620791 0.08157121
000350 58 95 72 3e 5c 93 a8 bd 3a 75 0f 3d 6e ed d7 be
       0.23689783 -0.082312316 0.035023905 -0.42173332
000360 9c 2d 50 bc 59 e6 f5 bd 72 c5 6a 3e dc e4 f8 3e
       -0.012706187 -0.12006826 0.22926882 0.48612106
000370 6f 65 38 be d0 99 26 be 65 43 95 3e 2c 93 94 be
       -0.18007444 -0.16269612 0.2915298 -0.29018533
000380 99 65 a6 be f5 83 27 be c8 bd 9f 3d bf 72 d4 bd
       -0.32499388 -0.16358931 0.0779987 -0.103734486
000390 2a 21 69 bf 2f 0f 1d be 15 f1 0a 3e c8 cc 00 bd
       -0.9106623 -0.15337823 0.13568528 -0.031445295
0003a0 01 ac 8f be 1b d5 50 3e 87 50 a7 be 23 ae 75 be
       -0.28060916 0.20393793 -0.32678625 -0.23992209
0003b0 c4 8e f7 3d f6 3c 84 bd 1f 73 5d 3e 14 44 e2 be
       0.12087777 -0.0645694 0.21625946 -0.44192564
0003c0 4e 96 21 be f1 2e 37 bc 92 66 b5 bd fd 3c 52 3e
       -0.15779993 -0.011180625 -0.08857454 0.20531078
0003d0 cb d7 c5 3c f6 14 f7 3c 46 69 87 3d 55 68 d3 bc
       0.02415075 0.030161362 0.06611876 -0.025806585
0003e0 bd a6 ce 3c 13 5c 4b be 90 18 ce be 0a 49 dc 3d
       0.025225991 -0.19859342 -0.40253115 0.107561186
0003f0 8c 94 8d 3e a6 15 89 3c 3b 79 34 3c 64 44 62 be
       0.27652395 0.016733956 0.011015232 -0.22096401

gru.weight_hh_l0 f4 [192, 64]
000000 60 d7 9f 3d 03 c4 89 3d 9f e8 47 3d 3b 41 dc 3d
       0.078047514 0.067268394 0.04880583 0.10754629
000010 e6 86 da 3c 1b 15 a0 3d 2c 1f 90 bd a5 18 89 3d
       0.026675653 0.078165255 -0.070371956 0.06694154
000020 09 71 d3 3d e9 47 81 3c 90 89 82 3d 58 db b3 bc
       0.10324294 0.01578136 0.06373894 -0.021955177
000030 b4 65 d4 3d 7e 09 93 3d 3e 22 ef 3d f0 c5 88 bc
       0.10370961 0.07179545 0.11676453 -0.016695946
000040 e7 32 fb ba cb 94 02 bc 55 d8 9e 3b 55 e0 2c 3d
       -0.001916495 -0.007970045 0.004847566 0.042206127
000050 8d 95 8e 3d 14 9c 76 bc a6 b5 95 bd e8 a3 65 bb
       0.06962118 -0.01505186 -0.07310037 -0.0035040323
000060 ee 60 97 3a 40 45 1f 3d bf b1 97 bc e8 08 b3 3c
       0.0011549273 0.0388844 -0.018517373 0.021854833
000070 88 9b 85 bd 08 c3 0d 3d cb f6 75 bd 4f 50 91 ba
       -0.06523806 0.034609824 -0.060049813 -0.0011086556
000080 e9 7a 1d bd 1a 45 6f bd c2 91 d6 bb e9 94 cf 3d
       -0.038447294 -0.05841551 -0.0065481374 0.10135824
000090 2f 9b 24 3d 21 0d 90 3d 67 95 86 bd 34 62 8a bd
       0.040187057 0.07033754 -0.06571465 -0.06757012
0000a0 4c a0 f4 bd cd ed c7 3d db 44 ca bd a0 bb 30 bd
       -0.11944637 0.09762154 -0.098764144 -0.043147683
0000b0 5f c0 94 bd e5 1c 8e bd 4b 9d 8b 3c 56 0a ce 3d
       -0.072632544 -0.06939105 0.017042777 0.10060565
0000c0 4d 96 c2 3d 80 0e 4d 3c f8 bc a7 bd aa 26 91 3d
       0.09501324 0.012515664 -0.0819034 0.07087453
0000d0 84 b9 c6 bd 12 d2 d3 3d 11 2a 5a 3d d1 cd 89 bd
       -0.09703353 0.10342802 0.053262774 -0.067287095
0000e0 4e ec 3a 3d 9a 5e 64 3d 4a f8 e4 3d 6b 0f 8c bd
       0.045635514 0.05575428 0.1118017 -0.06838878
0000f0 45 64 31 bd 25 62 f5 bc 23 f2 80 bd 90 0b c1 bd
       -0.043308515 -0.029954026 -0.06296184 -0.094260335
000100 f9 cd bd bc 8b d7 aa 3d f3 e5 a0 3d 8a 6f 88 3d
       -0.023169504 0.08341893 0.07856359 0.066618994
000110 8f a6 5d 3d 0c dc d8 bb 3f 6a e0 3d c6 cd b6 bd
       0.05411392 -0.0066180285 0.10957765 -0.08925967
000120 4e 4c f0 bd a3 15 f2 3d 25 f3 d0 bc 73 f1 b6 bc
       -0.11733304 0.11820533 -0.025506565 -0.022331929
000130 fc 15 37 bd 56 4e ab 3d 42 5b a8 3d 72 f3 fa 3c
       -0.0446987 0.08364551 0.08220531 0.030633662
000140 56 be d5 3d 95 a7 2b 3d 99 65 be 3b 78 c2 73 bd
       0.10436694 0.041907866 0.005810451 -0.05951163
000150 85 c1 42 bd e0 17 ad 3d d8 00 c4 bd ed 5d 8d bd
       -0.047547836 0.084518194 -0.095704734 -0.069026805
000160 6f 8c 80 bd 52 7d 15 bd 52 a9 e5 bc 92 41 70 bd
       -0.062767856 -0.036496468 -0.02803484 -0.058656283
000170 13 27 e8 bc 1e 55 f0 bd 68 91 d9 3d d0 fd 85 3d
       -0.028338945 -0.11734985 0.10623437 0.065425515
000180 a9 e2 e8 3d 5f ac 52 bc 80 a5 2e 3b 10 d5 82 bd
       0.11371357 -0.012858479 0.0026648939 -0.06388295
000190 9a 74 ec bc cf 95 b0 bd b7 f4 ee 3d e9 9d 30 3d
       -0.028864194 -0.08622324 0.116677694 0.043119345
0001a0 a3 7a 00 3d d8 2a 87 bd eb cd 99 3d 65 a7 03 3c
       0.031366955 -0.06599969 0.07509979 0.008035515
0001b0 30 12 88 bb 77 78 8d 3d b7 c2 98 3c 2c e0 0c bd
       -0.0041525587 0.069077425 0.018647535 -0.034393474
0001c0 3b 96 fb 3c a3 02 dd 3d 46 50 19 3d d5 73 ec bd
       0.030711284 0.107915185 0.03743007 -0.11545531
0001d0 19 ed e0 bd 13 71 5f 3c 4d 12 b1 3d 00 73 d6 3c
       -0.10982723 0.013637799 0.08646069 0.026177883
0001e0 69 51 86 bc db 8b 8e bd 5f f9 74 bc 33 4a 75 bd
       -0.016396241 -0.06960269 -0.014952033 -0.059885215
0001f0 02 13 2d 3c 4c 3c 2e 3d 37 a1 b1 3d 79 5a 0a 3d
       0.010563614 0.042537972 0.086733274 0.033777688
000200 f9 af 88 3d 7f 64 b2 bc 7a 3f c2 bd 9c 40 80 bd
       0.06674189 -0.021776436 -0.094847634 -0.06262323
000210 56 6b e6 3d 66 8d 9e 3d 87 2e fc 3c 6c 6b d6 3d
       0.112509415 0.07741813 0.030783905 0.10469708
000220 90 3f 8d bd db 19 3c 3d fa 2d 47 bd 28 dd 05 bd
       -0.06896889 0.045923095 -0.04862783 -0.032681614
000230 d4 69 9d 3d 59 80 cb bd b0 09 62 3c 53 b1 b1 3d
       0.07686201 -0.0993659 0.013796255 0.086764
000240 7a c7 83 bd 94 e5 d9 bd b2 5a ba 3c 9b 87 5f bd
       -0.064345315 -0.10639492 0.022748325 -0.054572683
000250 65 8d cc 3c 25 e9 23 3d a6 35 26 bd b2 68 11 bd
       0.024969766 0.040017266 -0.040578507 -0.035500236
000260 d6 99 e9 3d 9c 5d a0 3d 0f 7a 15 3d c2 26 7a 3d
       0.11406295 0.078303546 0.036493357 0.06107212
000270 96 1e 92 3c fd be f1 3c bc 1c e7 3d fe 33 a1 bd
       0.01783685 0.029510016 0.112847775 -0.07871245
000280 b9 0f 69 3d 55 94 a0 bd aa df 7c bd 01 45 d3 bd
       0.05689976 -0.07840792 -0.06173674 -0.10315896
000290 02 02 f1 ba ee 8d 76 bb ee 4c 51 bd 9a 8b 3e 3d
       -0.0018387439 -0.0037621218 -0.051098756 0.046519853
0002a0 43 49 f8 3d a7 f9 ab 3c 79 e8 64 bd d6 e8 88 bd
       0.121233486 0.020993067 -0.055885766 -0.06685035
0002b0 4f 79 be 3d c5 de 79 bd f7 97 86 bd 7d 77 ca bd
       0.093004815 -0.061003465 -0.06571954 -0.09886072
0002c0 5f f3 33 bd 08 b5 94 3d 71 e4 cb bd ea 8d d9 3d
       -0.04393327 0.072610915 -0.09955681 0.10622771
0002d0 c1 ac c7 3d d3 f5 4e bd b2 7a cd 3c 02 f6 76 bd
       0.09749747 -0.050527405 0.02508292 -0.060293205
0002e0 1b 7e 52 bd c1 73 ca 37 23 ff ef 3d 2c b3 03 bc
       -0.051389795 2.4134179e-05 0.11718585 -0.008038323
0002f0 41 b2 f1 bd 8f 04 17 3d 85 75 0f bd e4 d8 9c 3d
       -0.11801577 0.03686958 -0.035024185 0.07658556
000300 f7 5e 3a 3d 62 db 84 bc 8c ec a6 bd 8a c8 be bd
       0.04550072 -0.016217891 -0.081505865 -0.093155935
000310 21 8b a9 bb 7d 69 03 3c 08 5d 67 bd 20 fb 80 3d
       -0.005174056 0.008020756 -0.056485206 0.06297898
000320 ac c0 ee 3c 5e bb 81 bc 7e 77 b4 bd a5 eb e0 bd
       0.029144607 -0.015836414 -0.08811854 -0.109824456
000330 38 a3 34 38 e4 38 b7 bd a2 40 be 3d cd 05 2c bd
       4.3067354e-05 -0.08946398 0.092896715 -0.04199772
000340 2f 2b 61 bd 30 82 85 bd 42 f5 01 3d 10 97 85 3c
       -0.054972824 -0.06518972 0.031728037 0.016307384
000350 b2 5d 19 ba 33 9a 6c bd 13 a6 ad bd d8 2d 89 bd
       -0.00058504485 -0.057764243 -0.08478942 -0.06698197
000360 0c fd da bc 7d fe ef bd b5 18 94 bd 4a c3 d8 bd
       -0.02673199 -0.11718462 -0.07231275 -0.105841234
000370 2c bd 67 bc cf c7 b0 3c 44 9b 59 3d c3 b4 83 3d
       -0.014144223 0.021579651 0.05312659 0.06430962
000380 21 23 a1 bd a7 06 83 bd a6 74 bb 3c 32 f4 28 bd
       -0.078680284 -0.06397753 0.02288277 -0.041248508
000390 bc 4b 95 3d 8b d6 b3 bd a5 3a cb 3c bb 81 da 3c
       0.07289836 -0.08781155 0.024808237 0.026673188
0003a0 b9 e5 20 bd 75 14 07 3c 23 11 52 3d de d6 f2 3c
       -0.03928158 0.008244623 0.051285874 0.029643472
0003b0 88 92 d3 bd 2a aa 15 bd 6c 2a bc bd 2e 32 45 3d
       -0.10330683 -0.036539234 -0.09187779 0.04814356
0003c0 de 88 16 bd 5a 01 b6 3d ec 8c 15 bd e9 76 b7 bd
       -0.03675162 0.088869765 -0.036511347 -0.08958227
0003d0 dc 9c b0 bd 65 f0 6e 3d ff 2d a1 bd ff c9 f5 bd
       -0.086236686 0.058334727 -0.07870101 -0.12001418
0003e0 04 31 ec 3d e2 03 8d bd d8 e7 7a bd 8b 49 dd 3c
       0.115327865 -0.06885506 -0.06125626 0.027012607
0003f0 46 73 83 3d 06 80 2c bd d0 8b 85 3d 7d ec 8f bd
       0.06418471 -0.04211428 0.06520808 -0.070275284

gru.bias_ih_l0 f4 [192]
000000 96 21 7e bd 0b ca 98 3e 50 11 07 3f 68 56 24 b9
       -0.06204375 0.29841647 0.5276079 -0.00015672448
000010 fa e8 94 3e 59 f2 b2 3e 4b b2 c6 3e 91 ee 73 3e
       0.29083997 0.34950522 0.38807902 0.23821475
000020 e9 52 af bd 44 0f 70 bd 5a 51 61 3e 00 ce d9 3d
       -0.08560736 -0.05860831 0.2200369 0.106349945
000030 fe b6 f0 bc b7 6a 5b 3d 9a 66 5f 3e 8d c7 d0 bd
       -0.029384132 0.053568568 0.21816483 -0.10194311
000040 79 e3 be 3d 71 b8 68 3e 9b 24 3b 3e 32 f1 6e bd
       0.09320731 0.22726609 0.18275683 -0.05833549
000050 fb 15 5d 3e 86 fa 6c 3e b8 80 04 be 5f af c5 3e
       0.21590416 0.23142442 -0.12939727 0.3861036
000060 d4 82 40 bd ac 8c 1a 3e 08 dd 97 3e 8d e7 46 3e
       -0.046999767 0.15092725 0.2966082 0.19424267
000070 15 2f 99 3e 6e 55 11 be 58 b4 3f 3d a4 fd a9 3e
       0.29918733 -0.14192745 0.04680285 0.33201325
000080 dd 5a 3c be b3 2e 4c 3e 0c 5a 43 be af 04 f1 bc
       -0.18394037 0.1993969 -0.19077319 -0.029421179
000090 ad 50 09 3e c6 59 e7 bd 58 82 e6 3e 13 0f 39 bd
       0.13409682 -0.1129642 0.4502132 -0.04518039
0000a0 1d 52 51 3e c9 9d 6b 3d 86 b7 ec bc 0d 5e 08 3c
       0.2044148 0.057523523 -0.028896105 0.008323205
0000b0 63 68 64 3c 22 bb 0f bd 5b a5 c8 3e a1 48 7d 3c
       0.013940903 -0.035090573 0.39188656 0.015459211
0000c0 b1 41 c0 3e 90 98 bd 3e 2c 5c 04 be 4e 83 07 3e
       0.3755012 0.37030458 -0.12925786 0.13233683
0000d0 83 f2 80 3e 0f f3 84 bb ad e2 8f be 56 97 87 3d
       0.25185022 -0.004057295 -0.28102627 0.06620662
0000e0 d9 55 52 3e da 61 ab 3e 8a 88 8c 3e 79 a0 c7 3e
       0.20540561 0.33473092 0.2744792 0.38989618
0000f0 70 07 95 bb 1e 01 6a be fe d0 15 3f 9b 4a bc bd
       -0.0045480058 -0.22851989 0.5852202 -0.09193917
000100 8a 03 8b 3b 59 b5 9a be e6 b3 9d be 9b 86 0b bf
       0.0042423652 -0.30216482 -0.30801314 -0.54502267
000110 55 80 73 be 36 d5 b2 be 2d 04 80 be 14 8a 8a be
       -0.23779424 -0.34928292 -0.25003186 -0.2705847
000120 6b 01 44 be 98 bc 82 be 94 36 c9 be 86 b2 9e be
       -0.19141166 -0.2553451 -0.39299452 -0.30995578
000130 97 44 69 be 62 0b 13 bf 63 03 5f bd 84 08 1b be
       -0.22780071 -0.57439244 -0.05444659 -0.15139967
000140 95 f9 96 bc ae f9 58 be 56 60 45 bd 89 40 02 bf
       -0.018429557 -0.21188995 -0.048187576 -0.5087972
000150 c6 2f 3a be 32 c6 5f be a5 e6 95 be 0b d0 b1 be
       -0.18182287 -0.2185295 -0.2927753 -0.34729037
000160 24 2d fc 3c 46 5c 40 be b9 ff 66 bd 6b 3e c0 be
       0.030783243 -0.187852 -0.05639622 -0.3754762
000170 5d ee 00 bf b7 26 9b bc 62 77 54 be 99 c1 53 be
       -0.50363714 -0.01893936 -0.20748666 -0.2067932
000180 76 4b b6 bc 3d fa 2d bf 5f 42 1e be 48 cc 93 be
       -0.02225278 -0.6795996 -0.15455006 -0.28866792
000190 99 6d 2e be b4 59 8e be a8 ad 41 be 48 7c 23 bf
       -0.17033996 -0.27802813 -0.18913901 -0.63861513
0001a0 01 4d 92 be 97 4e 10 bf 15 53 07 bf ec 44 08 be
       -0.28574374 -0.5636992 -0.5286115 -0.13307542
0001b0 66 fb fd be 97 98 9e be dd 7e d4 be 2b ff 8d be
       -0.49605864 -0.30975792 -0.4150304 -0.2773374
0001c0 41 b7 c5 be d4 dc 65 be 60 1b 54 bf f8 aa 85 be
       -0.38616374 -0.2244752 -0.8285427 -0.26107
0001d0 1a 7a f2 bd d8 22 18 be f5 3b 55 be b2 c4 f0 bd
       -0.11839695 -0.14857042 -0.20823653 -0.11756267
0001e0 61 bf 49 bd 52 e2 03 bf 51 2e 7e be 5b 9b 6c be
       -0.04925478 -0.5151721 -0.24822356 -0.23106138
0001f0 b8 20 8e bd 77 63 29 be ea 5e 13 bf a0 86 7b 3d
       -0.06939834 -0.16541849 -0.575667 0.061407685
000200 25 60 e7 3d 32 0e 2d 3e 75 ac b5 be df e6 8a 3e
       0.11297635 0.16899946 -0.35483137 0.27129266
000210 37 d5 9a 3e f9 15 90 be f7 f3 83 be 8a 86 be be
       0.30240795 -0.28141764 -0.25772068 -0.3721202
000220 a8 ae 13 be b9 4e e7 3d df d2 d2 3e 67 f7 88 3d
       -0.14422095 0.11294312 0.41176507 0.06687813
000230 d4 1f d5 3d ea 6b 44 be 08 2a b4 be 6d 8b 20 3e
       0.10406461 -0.19181791 -0.35188317 0.15678187
000240 f6 b5 2d be 27 46 93 3e 9e 0b 8b 3e 65 53 49 be
       -0.16963944 0.2876446 0.271573 -0.19660719
000250 7d 45 29 3d b6 8b 23 3e ea 31 f9 3d 73 3b bf be
       0.041326035 0.15971264 0.121677235 -0.37350044
000260 32 47 ca bc f7 f7 b5 3d b0 69 0f be 27 6d cd 3e
       -0.024692152 0.08885186 -0.1400516 0.4012234
000270 cd fb c6 3e 1d c3 23 bd 86 20 0a be 1e a1 cc be
       0.38863984 -0.039980996 -0.13488969 -0.39966673
000280 7c 1f 40 3d 88 f5 e5 bc ea b5 da 3d 23 ea 31 bd
       0.046905026 -0.02807118 0.106792286 -0.04343618
000290 75 cf 29 3e e8 2d e6 3d d0 ee a4 3e 07 0d 1f bb
       0.16583045 0.11239225 0.3221345 -0.002426924
0002a0 e3 50 7d 3e 09 9e a8 bc ac 55 8f 3b f8 e9 95 be
       0.24737887 -0.02058317 0.0043742266 -0.29280066
0002b0 cf 29 c4 bb c4 21 f5 bc 44 3b d6 be dc 79 15 be
       -0.0059864293 -0.029923327 -0.4184209 -0.14597267
0002c0 60 72 d9 be d6 d5 4b 3e 3c 0b 14 bd 18 7f 5c 3e
       -0.42470074 0.1990579 -0.036143526 0.21532857
0002d0 f5 99 26 3e d2 f0 81 3d 94 70 88 3e 44 ad 86 3e
       0.16269667 0.06344761 0.2664839 0.26304066
0002e0 db 8e 45 be ac 40 d9 3e 05 9a d5 3e 6a 0e d2 be
       -0.19292776 0.42432153 0.4171907 -0.41026622
0002f0 a1 a8 3f bd 17 55 1f be a0 d6 f0 3e 96 25 31 bd
       -0.046791676 -0.15559803 0.47038746 -0.043248735

gru.bias_hh_l0 f4 [192]
000000 58 65 87 3d 03 94 02 3e 12 b9 0a 3f 12 82 d8 3d
       0.06611127 0.12751774 0.54188645 0.10571684
000010 d6 f0 9b 3e b3 45 d1 3e 34 4c c1 3e a8 c2 52 3e
       0.3045718 0.4087349 0.3775345 0.20582068
000020 f4 1d ef bc 8e 33 73 bd dd c5 bf 3e 3c 4e b6 3d
       -0.029189087 -0.05937534 0.37455645 0.08901641
000030 49 d8 de bb 84 de 3c 3c 32 41 ca 3e 3e a6 bf bd
       -0.0068006855 0.011527661 0.39502865 -0.0935788
000040 26 a7 7e 3e 1e 92 44 3e 2f e6 ac 3d bd b4 50 bd
       0.2486845 0.19196364 0.084423415 -0.050953615
000050 31 f8 3e 3d bb de 7c 3e 96 27 37 3d 42 c8 ca 3e
       0.046623413 0.2469434 0.044715486 0.3960591
000060 b9 09 d4 3c 6e 28 63 3e 26 bc be 3d 78 3a ba 3e
       0.025883542 0.22183391 0.0931323 0.36372733
000070 57 16 be 3e de f3 a0 bd cd 17 8c bc fe 02 e8 3e
       0.3712642 -0.07859014 -0.017101193 0.45314783
000080 70 2f 86 bd f6 a2 18 3c 00 44 3b be 56 72 f0 bd
       -0.06552017 0.009316197 -0.18287659 -0.11740558
000090 b1 79 12 3d 90 6e 84 bd 51 61 02 3f b3 d1 ed 3d
       0.035760585 -0.064664006 0.50929743 0.116122626
0000a0 f8 3f e1 3d ac e6 c6 3d 5a e6 fd 3c 15 8f 76 bc
       0.10998529 0.09711966 0.03099363 -0.015048762
0000b0 21 f3 fe 3c 33 48 ea bb f6 5b ce 3e f1 c9 1a be
       0.031121792 -0.00714972 0.40304536 -0.15116097
0000c0 f7 a5 a7 3e 7d 46 b5 3e 94 c8 c8 3c be e1 d6 3d
       0.3274381 0.3540534 0.024509706 0.10492276
0000d0 ec 1a 9d 3d 49 dc 95 bd 29 7e 21 be ee c7 10 3e
       0.076711506 -0.07317407 -0.15770783 0.14138767
0000e0 dc 8f 0b 3e ae f8 77 3e a1 30 c7 3e 7c d5 4c 3e
       0.13629097 0.24215958 0.38904288 0.20003313
0000f0 ad dc 0c be 87 ab 08 be 9b 69 c7 3e 12 b6 be 3d
       -0.13756056 -0.13346682 0.38947758 0.09312071
000100 c2 0e 9f 3d 71 03 09 be 96 06 af be 13 00 d9 be
       0.07766487 -0.13380219 -0.34184712 -0.4238287
000110 eb 69 a2 be 93 22 83 be 75 1c 3b be 74 f7 af be
       -0.31721434 -0.25612316 -0.18272574 -0.3436848
000120 84 b5 e2 bd cb 22 5f be d5 7b 99 be 4b 67 a3 be
       -0.110697776 -0.21790616 -0.2997729 -0.31914744
000130 55 1e 9b be d5 1f fc be 77 b8 60 be e9 ba 8b be
       -0.3029658 -0.49243036 -0.21945368 -0.2729104
000140 7b a7 ae bd f7 68 62 be 0f de 3d be be c4 04 bf
       -0.08528038 -0.22110353 -0.1854174 -0.51862705
000150 35 2a 9a bb 58 4f a5 be 7d 25 8c be 2b 70 cf be
       -0.0047047385 -0.32287097 -0.2737235 -0.40515265
000160 32 99 25 3d 60 da d6 bc 06 83 5e bd 05 fd dd be
       0.0404293 -0.026227176 -0.054324172 -0.433571
000170 51 ea 0e bf 1d ba 66 be fe 65 6b be 13 76 a3 be
       -0.5582629 -0.22531934 -0.22988126 -0.3192602
000180 53 2f 43 bd 22 10 3d bf dd 7c 7c be 4e df 57 be
       -0.047652554 -0.7385274 -0.24657007 -0.21081278
000190 47 f2 d1 bd f7 b7 80 be 44 f0 af bb 65 cf 1a bf
       -0.10251289 -0.25140354 -0.005369218 -0.6047271
0001a0 fb c0 4c be b0 ec 1d bf da 17 bd be 4b ef 64 be
       -0.19995491 -0.6168928 -0.3693226 -0.22356908
0001b0 a8 3b 17 bf ff 1a 84 be fd c2 d8 be 84 93 97 be
       -0.59075403 -0.25801846 -0.42336264 -0.29604733
0001c0 59 4c 51 be 8c d8 59 be 38 4f 75 bf 63 7e 87 be
       -0.2043928 -0.21274012 -0.95824003 -0.26463613
0001d0 90 57 00 be 42 12 47 be 5a 8c 08 bd 2b 41 7b be
       -0.12533402 -0.19440559 -0.033336975 -0.24536578
0001e0 5b dc 54 be 7b 88 d2 be 57 89 aa be a7 90 37 be
       -0.20787184 -0.4111975 -0.33307907 -0.17926274
0001f0 08 8e 65 be f7 97 e7 bc 57 78 15 bf 5a 36 35 3c
       -0.22417462 -0.028270705 -0.5838675 0.011060322
000200 7a 8e 01 3e 6a 49 91 3e 08 01 38 bf 2c 4a bf 3e
       0.12652007 0.28376323 -0.71876574 0.37361276
000210 95 03 aa 3e 8e 44 0f bf 82 4c 05 bf f7 95 d5 be
       0.33205858 -0.5596398 -0.52069867 -0.41715977
000220 9a bf dc bd bd 3a f3 3d aa d1 b6 3e 0c 89 bd 3d
       -0.107787326 0.11876438 0.35706836 0.09254655
000230 13 00 89 be d2 b8 28 be 10 3b f6 be c1 20 d3 bd
       -0.2675787 -0.16476753 -0.48091936 -0.10308982
000240 67 db 28 be b4 52 ae 3e e6 7f 92 3e cc ef e2 bd
       -0.16489945 0.34047472 0.28613204 -0.11080894
000250 a4 6f 90 3e 22 46 cf 3e 86 64 65 bd 6a 35 e7 be
       0.28210175 0.40483195 -0.05600407 -0.4515794
000260 73 56 1a be 8c 85 9e 3e 86 0b 26 be 50 aa cc 3e
       -0.1507204 0.30961263 -0.16215333 0.39973688
000270 24 7c f8 3e 70 8f 29 be 37 4d 3d be c4 62 06 bf
       0.48532212 -0.16558623 -0.18486486 -0.52494454
000280 0c 3d 20 be 4d b6 b7 be 52 75 5a bd 19 ba 69 be
       -0.15648288 -0.35881272 -0.05333454 -0.22824897
000290 98 d1 0e 3e 22 e3 02 be 87 14 0d 3f a7 e5 9e 3e
       0.13947141 -0.12781957 0.5510945 0.31034586
0002a0 cc a5 a9 3e 4e 7b e5 be fd 89 b1 be 99 4f 31 bd
       0.33134305 -0.44820637 -0.3467559 -0.0432888
0002b0 95 2f 5b be fb 4b f6 bd 61 36 ff be aa 58 57 be
       -0.2140487 -0.12026211 -0.49846175 -0.21029916
0002c0 bc 8d 0c bf 0f 41 b0 3e 00 79 86 be 45 f9 8e 3e
       -0.5490377 0.34424636 -0.2626419 0.27924553
0002d0 e7 f2 93 3e e5 ef 94 3d 8f 41 54 bc 84 e8 94 3e
       0.28896257 0.07272319 -0.0129550835 0.29083645
0002e0 8b 9b 32 be bb 2d b5 3e 88 4f bf 3e f3 b8 b4 be
       -0.17442147 0.35386452 0.37365365 -0.35297355
0002f0 54 90 2f 3d 7a 63 fb bb 51 99 3c 3f 94 65 50 be
       0.04286225 -0.0076717706 0.7367144 -0.20351249

fc.weight f4 [3, 64]
000000 29 5c bc 3e 20 2c c8 3e 38 32 b8 be da 8a 0c 3f
       0.36789063 0.39096165 -0.35975814 0.5489937
000010 61 e4 cb 3e 61 40 a5 be b8 ee c5 be d6 3c cc be
       0.39822677 -0.3227568 -0.3865869 -0.39890164
000020 ac d5 de be 56 cd be 3e 9b 9e b5 3e 30 28 d5 3e
       -0.43522394 0.37266034 0.3547257 0.41632223
000030 d0 33 bb be 4e 5c 37 bf b7 c1 9f 3d 7b 3d 6f be
       -0.36562967 -0.7162522 0.0780062 -0.23363297
000040 a5 50 f7 be d3 56 cc 3e d0 1b 8f 3e 2e b2 11 bf
       -0.48303714 0.39909992 0.27950907 -0.56912506
000050 70 10 02 3f 25 7c 07 3f 5a c6 7e be 7b d2 9a be
       0.5080633 0.52923805 -0.24880353 -0.3023871
000060 56 f4 a6 be d0 f7 c6 3e d1 73 cf be 9f 12 ef 3e
       -0.3260829 0.3886094 -0.40518048 0.46693894
000070 2d 83 a7 3e d9 d5 bf be 8d 76 1a bf a6 e4 a1 be
       0.32717267 -0.3746784 -0.60337144 -0.31619757
000080 6a 1a ac be ee a4 5a bf 5a d7 f0 3e a8 ef 1b bf
       -0.33613902 -0.8540791 0.470393 -0.6091256
000090 f7 4b 77 3e 9a d4 25 bf ba 8c b1 3e 77 bf 5f 3f
       0.24150072 -0.6477753 0.34677678 0.8740153
0000a0 c2 41 8c 3e 14 1b 50 bf 28 34 11 bf 20 3c bb 3e
       0.2739392 -0.8129132 -0.5672021 0.3656931
0000b0 61 ba 4b bf 46 b7 e9 be 2a 5b 8c be 82 04 ce be
       -0.79581267 -0.4564764 -0.27413303 -0.40237814
0000c0 43 d3 b3 be ed 53 b8 3e 19 28 79 bf 1e 30 12 3f
       -0.35122117 0.3600153 -0.9732681 0.5710467
0000d0 5c cb c9 3e 4b e7 b2 3e 5a c9 d3 bd 5b 66 8e 3e
       0.39412963 0.34942088 -0.10341139 0.27812466
0000e0 02 ea d6 be b2 00 91 3e 36 96 ae 3e 1b 9f d1 be
       -0.4197541 0.28320843 0.34098977 -0.409417
0000f0 ac 39 6c 3e 1c a1 c9 3e 3a 25 9e 3e 9b 85 de be
       0.23068875 0.3938073 0.30887777 -0.43461308
000100 58 c6 35 bd b6 29 d3 bd 02 50 28 be 36 61 44 be
       -0.04437861 -0.1031069 -0.1643677 -0.19177708
000110 99 ba 47 3e 31 25 58 3c f9 89 a6 be bf 63 64 3d
       0.19504775 0.013192461 -0.3252714 0.055759188
000120 62 cd 8c 3e 70 2c cc be d6 b5 e2 3d f0 00 7c be
       0.27500445 -0.39877653 0.11069839 -0.24609733
000130 60 b9 fa 3e 3a 22 80 3e 5b d5 e8 be f7 94 e3 3e
       0.48969555 0.25026113 -0.45475277 0.4444959
000140 d9 c5 80 3e 32 7c 9c bd 56 f1 a1 be ca 64 c6 3e
       0.25150946 -0.07640876 -0.31629437 0.3874877
000150 ff c8 a1 be ed 5d 6e be dc 20 b7 3e ea 3e 64 be
       -0.3159866 -0.23278017 0.35767257 -0.22289625
000160 62 38 58 3e bf 5c a4 bd 66 14 31 3e 3f 27 69 3e
       0.21115258 -0.080255024 0.17292938 0.22768877
000170 2e 63 75 3e 56 df ef 3e 45 97 7b 3e 80 19 84 bc
       0.23963615 0.4685008 0.24569423 -0.01612544
000180 ee 45 08 3f 6a ff df 3e eb d1 ff bd 56 fe e9 3e
       0.53231704 0.43749553 -0.124912106 0.45701855
000190 cd a0 1e 3d 07 ef ac 3e 6b 70 a7 3e 79 4d 08 bf
       0.03872757 0.33776113 0.32702956 -0.53243214
0001a0 4f de 4d be a3 08 a8 3e ca 66 f5 3e 6c ff 0d bf
       -0.20104335 0.3281909 0.47929984 -0.5546787
0001b0 5b 2d 22 3f 9c bf 35 3f f1 58 50 be b2 f6 f2 3e
       0.63350457 0.709955 -0.20346428 0.4745384
0001c0 cd 96 5a be a4 31 b1 bb c2 53 04 3f 28 75 99 be
       -0.21346588 -0.005407529 0.51690304 -0.29972196
0001d0 2d 1b 2b be 79 49 2f be ae 1d c7 3e 95 33 7a be
       -0.16709585 -0.17117871 0.3888983 -0.2443374
0001e0 4f cf c1 bc 49 44 3e 3e 0b 58 dd 3d a7 8b fc bc
       -0.023658423 0.18580736 0.108078085 -0.03082831
0001f0 93 ba cf be 6a 93 d7 be 36 df 1e 3e 60 d0 f0 3e
       -0.40572032 -0.42104656 0.15514836 0.47033978
000200 de 9e ab be 50 15 0c bf ef d0 55 3f 72 00 38 be
       -0.33519644 -0.5472002 0.8352193 -0.1796892
000210 26 ae 06 bf ca 89 0f 3f 09 1d 78 3f 83 fe 02 3f
       -0.5260948 0.56069624 0.96919304 0.51169604
000220 1a 03 98 3e 6c 59 25 be fa a2 20 bf 23 01 37 be
       0.29689866 -0.16147393 -0.6274868 -0.17871527
000230 fa ab b6 bd b8 70 2a 3f e7 fc 50 3f 51 9d 7d bd
       -0.08919521 0.66578245 0.816359 -0.061917607
000240 a1 2d 18 3e 35 ea ee be 35 b6 4a be e3 26 11 3f
       0.14861156 -0.4666306 -0.19796069 0.5669996
000250 8c 6d 92 be 6f 23 e6 be 48 73 b1 be 6c 05 25 3f
       -0.28599203 -0.4494891 -0.34658265 0.644614
000260 c8 e7 b9 3d f0 e4 b8 be 99 3b 28 3e 0d 4b 2c bf
       0.09077412 -0.36112165 0.16428985 -0.6730202
000270 bc 16 50 bf 05 ab 5f bd 94 69 61 3e 1c dc 0d 3f
       -0.8128469 -0.054606456 0.22012931 0.55413985
000280 7c 75 56 be 7e ad 30 3f 0c be 8f be 90 12 5f 3e
       -0.20943254 0.6901473 -0.28074682 0.21784425
000290 e7 ad a6 be cd 97 e6 3d 4b ac 3a bf 41 71 07 bf
       -0.32554552 0.112594225 -0.7291915 -0.52907187
0002a0 ad 3e eb be 34 3a 25 3f bb 0e 99 3e 9b 89 1a 3e
       -0.45946255 0.64541936 0.2989405 0.15091555
0002b0 93 de ea 3e 6d 0d 55 be 48 5d 48 3f 8d 0f 1a 3e
       0.45872936 -0.20805903 0.78267336 0.15044995
0002c0 21 78 33 3f 47 26 0f bf 09 cf 0e 3f fc fa 1a bf
       0.7010518 -0.5591778 0.5578466 -0.6053922
0002d0 02 ee b0 be 10 df 19 be 45 d3 0d bf b9 41 a2 be
       -0.34556586 -0.15026498 -0.55400497 -0.31690767
0002e0 e7 71 07 3f 71 37 32 bf 6d d8 26 bf 05 c9 26 3f
       0.52908176 -0.69615847 -0.6517399 0.6515048
0002f0 19 2e 55 3e c7 77 23 3d a9 80 6e bf 96 e9 e7 bd
       0.20818366 0.03990915 -0.9316507 -0.1132385

fc.bias f4 [3]
000000 e1 04 1b 3d 68 98 9f bd cc 01 63 be
       0.03784645 -0.07792741 -0.22168654
