Code-in-cloud/results/models/疲劳分类标签_backward_cnn-lstm.pth (torch, 145344 bytes, 8 tensors)

conv1d.weight f4 [64, 11, 3]
0	0xbc94c46c	-0.018160067
1	0xbe95dbc4	-0.2926923
2	0xbe1a7ba3	-0.15086226
3	0xbd5986f7	-0.053107228
4	0xbe4efd4b	-0.20213811
5	0xbc85bfcd	-0.01632681
6	0x3e21892f	0.15774988
7	0x3db5de46	0.08880286
8	0x3dfe34d0	0.12412417
9	0xbe2a01ae	-0.16602203
10	0xbc149ea3	-0.009071025
11	0xbb9ae352	-0.0047268057
12	0xbe2b52f2	-0.1673086
13	0xbe2cd814	-0.16879302
14	0xbcc58651	-0.024111899
15	0x3d500d8e	0.050794177
16	0x3d6d8bc4	0.05799462
17	0xbdcedc38	-0.10100597
18	0x3e1f295b	0.1554312
19	0xbe529059	-0.20562877
20	0x3e0d1a3a	0.13779536
21	0xbdbe465f	-0.09290766
22	0x3d9a6051	0.07537902
23	0xbe18eddc	-0.14934486
24	0xbdad3b69	-0.08458597
25	0xbd398200	-0.045289993
26	0xbd0033e7	-0.031299498
27	0xbdbb0fd7	-0.091338806
28	0xbcfc2980	-0.030781507
29	0xbe08e97c	-0.13370317
30	0x3ca34c89	0.019933956
31	0x3e4d97b9	0.20077409
32	0x3da366e7	0.079786114
33	0x3d3e99b0	0.046533287
34	0xbdbd9ad8	-0.0925805
35	0x3e079c14	0.13243133
36	0x3d8b221c	0.06793615
37	0x3d1d89d5	0.038461525
38	0xbd5abd87	-0.053403404
39	0x3ce52112	0.02796987
40	0x3cce6a7c	0.02519726
41	0x3de30db5	0.11086599
42	0x3dc78760	0.097426176
43	0xbe256bc7	-0.16154395
44	0x3d88f057	0.06686466
45	0x3c4f1973	0.012640345
46	0xbe9be77a	-0.3045004
47	0x3b434924	0.0029798234
48	0x3ddcd9a9	0.10783703
49	0xbe214de6	-0.15752372
50	0xbe16acd3	-0.14714365
51	0xbd6b7b2c	-0.057490513
52	0x3d97e29e	0.07416271
53	0x3d8694e6	0.06571369
54	0x3e019825	0.12655695
55	0xbe3989b7	-0.1811894
56	0xbdce4150	-0.10071051
57	0x3e11065e	0.14162585
58	0xbeadf9e4	-0.33979714
59	0xbda791af	-0.08182084
60	0x3c380b8b	0.011233221
61	0xbd444c36	-0.047924243
62	0x3db2f5cd	0.08738289
63	0xbdbbcfc7	-0.0917049
64	0xbe6368b7	-0.22207914
65	0xbe22d42a	-0.15901247
66	0xbe26bd09	-0.16283049
67	0x3d2bd52d	0.041951347
68	0x3dbbf893	0.09178271
69	0x3e1d52c1	0.153636
70	0xbec2a53d	-0.38016692
71	0xbdb5153e	-0.08841942
72	0x3df6a591	0.12043298
73	0x3bcc1ef1	0.0062292744
74	0x3d585ac0	0.05282092
75	0x3e1f132b	0.15534656
76	0xbdfe643a	-0.124214604
77	0xbcccdd0b	-0.025007745
78	0xbdfc01c8	-0.12305027
79	0x3db212c8	0.086949885
80	0xbdbff0de	-0.09372114
81	0xbe25590e	-0.16147253
82	0x3df2ffe5	0.11865214
83	0xbd31fcc1	-0.043453936
84	0x3dbd8944	0.09254697
85	0xbe78eac3	-0.24308304
86	0xbd010456	-0.031498276
87	0xbd98202d	-0.07428012
88	0xbc3d0e72	-0.011539089
89	0xbd696ab8	-0.05698654
90	0x3e200fac	0.15630978
91	0x3db8a4b2	0.09015788
92	0x3d22fa4f	0.039789494
93	0x3ba9c879	0.005181369
94	0xbdd0fb5e	-0.102041945
95	0x3d860934	0.06544724
96	0x3d9c7260	0.07639003
97	0xbe4b1e61	-0.19835807
98	0xbe11690b	-0.14200227
99	0xbe0d0ec3	-0.13775162
100	0xbdb1cbce	-0.08681451
101	0x3de988ff	0.11403083
102	0xbd28ee39	-0.04124281
103	0x3d6cd55e	0.05782067
104	0x3de6dbfc	0.112724274
105	0x3ca243ed	0.01980778
106	0xbe1c67b7	-0.15273939
107	0xbe0b2fc9	-0.13592447
108	0x3e0a9a81	0.13535501
109	0xbe3ea2d5	-0.18616803
110	0x3d10efc2	0.0353849
111	0xbe28025c	-0.1640715
112	0xbe89c9f4	-0.2691189
113	0x3e0bfb38	0.13670051
114	0xbd1b6311	-0.037936274
115	0x3e46c7a7	0.19412099
116	0x3d31c339	0.04339907
117	0x3d1a7dc5	0.0377176
118	0xbcc236f4	-0.023707844
119	0xbe0b81d5	-0.13623746
120	0xbe140f97	-0.14459072
121	0xbe457181	-0.1928158
122	0xbdbc0be9	-0.09181959
123	0x3d652987	0.055947807
124	0x3d83ad7d	0.06429575
125	0xbe2c3383	-0.16816525
126	0x3d141e89	0.036161933
127	0x3d9139f8	0.07091135
128	0xbe1a10df	-0.15045498
129	0xbd3cab17	-0.0460616
130	0x3da07955	0.07835642
131	0x3e118cde	0.14213893
132	0x3e0bd880	0.13656807
133	0xbd6f0498	-0.05835399
134	0xbde822f5	-0.113347925
135	0x3b323034	0.0027189376
136	0x3c9eb3ef	0.019372908
137	0x3d5aac0a	0.053386725
138	0x3da7a2a3	0.08185317
139	0xbdb73447	-0.08945518
140	0x3e0a855a	0.13527432
141	0x3cb4cf0c	0.022071384
142	0xbe6718d3	-0.22568063
143	0x3db641fb	0.088993035
144	0x3ca857d9	0.020549702
145	0xbdb0d646	-0.086346194
146	0xbddee408	-0.10883337
147	0xbd5082ef	-0.050906118
148	0x3d23dd5c	0.040006027
149	0xbe2e091c	-0.16995662
150	0x3cf58d1c	0.029974513
151	0x3e4a6e0e	0.19768545
152	0xbe0f065c	-0.1396727
153	0xbd16d8ef	-0.036827978
154	0xbe37dadc	-0.17954582
155	0xbe2bad5c	-0.1676535
156	0x3e1a1ca4	0.15049988
157	0xbe494787	-0.19656192
158	0x3ddd9151	0.108187325
159	0x3e1a79c4	0.15085512
160	0xbeb724c6	-0.35770243
161	0x3c271f8d	0.010200393
162	0x3e04b4cd	0.12959595
163	0xbd96f8e0	-0.07371688
164	0xbe118e0b	-0.14214341
165	0x3dca2cd7	0.09871834
166	0xbd8b8c55	-0.068138756
167	0xbe2dc4d5	-0.16969617
168	0x3c7ba60d	0.015359414
169	0xbdde2e06	-0.10848622
170	0x3c0fdbbf	0.008780419
171	0x3df01630	0.11722982
172	0xbd2577f0	-0.040397584
173	0x3de81f37	0.11334079
174	0x3d6027fd	0.054725636
175	0xbcac8c11	-0.021062883
176	0xbe0e04dc	-0.13869041
177	0x3c1d198a	0.0095886085
178	0xbe986bbe	-0.297697
179	0xbdbe8919	-0.09303493
180	0x3c6fe5e2	0.014642211
181	0xbe05b142	-0.130559
182	0xbdeafce9	-0.1147402
183	0x3bf7b5c6	0.007559511
184	0x3cb84709	0.02249481
185	0xbe1b17aa	-0.15145746
186	0xbe14286f	-0.14468549
187	0xbea67e9d	-0.32518473
188	0xbe0ccdd3	-0.1375039
189	0xbe024a66	-0.12723693
190	0xbe301cae	-0.1719844
191	0xbd88a551	-0.066721566
192	0xbdedf9c0	-0.11619902
193	0x3d06b16e	0.032884054
194	0xbd66ad31	-0.056317512
195	0x3e29b3ed	0.16572542
196	0x3e4b7da6	0.1987215
197	0xbd58c451	-0.052921597
198	0xbc7b4be1	-0.015337915
199	0x3e0ce6cb	0.13759916
200	0x3dfc774a	0.1232744
201	0x3da06171	0.078310855
202	0xbdd98847	-0.10621696
203	0xbd33f1c7	-0.04393175
204	0x3e12eac5	0.1434737
205	0x3d23a835	0.039955337
206	0xbdcbff35	-0.09960786
207	0x3dea8dac	0.11452803
208	0x3cd5e83e	0.026111718
209	0x3d2d46d2	0.042303868
210	0x3c9a945f	0.018869577
211	0x3dd24376	0.102667734
212	0xbd44e74c	-0.048072144
213	0xbe1d28ad	-0.15347548
214	0x3e0075ce	0.12544939
215	0xbd3587be	-0.044318907
216	0x3e097072	0.134218
217	0xbe3d58e5	-0.18490942
218	0x3db2ce7c	0.0873079
219	0xbd0f737f	-0.035022255
220	0xbe0c67d0	-0.13711476
221	0xbced15cc	-0.028941058
222	0xbccfbc2f	-0.025358288
223	0xbe3b2bc4	-0.18278414
224	0x3df8baad	0.121449806
225	0x3e1594eb	0.14607589
226	0x3e797c00	0.24363708
227	0xbe01f843	-0.1269236
228	0x3dc7a818	0.09748858
229	0x3e327c39	0.174302
230	0xbe2572ef	-0.16157125
231	0x3cb4659c	0.022021107
232	0xbe9a7ec4	-0.3017484
233	0x3d97bd67	0.074091725
234	0x3d8f0366	0.0698307
235	0xbd8a5805	-0.0675507
236	0x3e2c3b9e	0.16819617
237	0x3d8bf07e	0.068329796
238	0xbb76f7d6	-0.0037684343
239	0x3daefb09	0.08543975
240	0x3b689f92	0.0035495502
241	0x3cdc8372	0.026918147
242	0xbdf9f702	-0.12205316
243	0x3df1b0f1	0.11801327
244	0xbdc7f9a4	-0.09764412
245	0x3e13c667	0.14431153
246	0x3de4bf66	0.11169319
247	0x3e461e0f	0.19347404
248	0x3e059c16	0.13047823
249	0x3cb623d8	0.022233889
250	0xbe53ece8	-0.20695841
251	0x3da03490	0.078225255
252	0x3dbb3577	0.09141057
253	0x3da812d4	0.08206716
254	0xbdd92b91	-0.10604013
255	0xbd540bc1	-0.051769022

conv1d.bias f4 [64]
0	0x3d7ef95e	0.062249534
1	0xbe20d1fe	-0.15705106
2	0x3e4966ef	0.19668172
3	0xbd8f6a39	-0.07002682
4	0xbdb79736	-0.08964388
5	0xbdeed943	-0.11662533
6	0x3d763084	0.06010486
7	0x3e5a58ea	0.2132298
8	0xbc9fd3f3	-0.019510245
9	0x3e6fb775	0.23409827
10	0xbe265eb4	-0.16247064
11	0x3c318e37	0.010837129
12	0x3d70154d	0.058614064
13	0x3e54de14	0.20787841
14	0x3e394c17	0.18095432
15	0x3e274ba0	0.16337442
16	0x3e88123c	0.26576412
17	0xbc87e077	-0.016586525
18	0x3dd8d5f1	0.10587681
19	0xbe106fb7	-0.14105116
20	0x3db80a0b	0.089862905
21	0x3e17254e	0.14760324
22	0x3e023da0	0.1271882
23	0x3db7ed81	0.08980847
24	0xbe120266	-0.14258727
25	0x3e11a0d1	0.14221503
26	0x3e1db643	0.15401559
27	0x3e0e1bc4	0.13877779
28	0xbe4a0e3f	-0.19731997
29	0xbd8b7fd9	-0.068114944
30	0x3e044055	0.12915166
31	0xbdf00443	-0.11719563
32	0xbd9b676d	-0.07588086
33	0x3e59fe05	0.21288307
34	0x3e2af4ec	0.16694993
35	0xbca827e1	-0.020526828
36	0x3dea05a3	0.11426856
37	0x3def1716	0.11674325
38	0xbd912c01	-0.07088471
39	0xbdc1c713	-0.094617985
40	0x3e12ae19	0.14324225
41	0x3e63d684	0.222498
42	0x3e5eefc8	0.21771157
43	0x3dcabdb0	0.09899461
44	0xbd07cd39	-0.0331547
45	0x3da8bf73	0.08239641
46	0x3d416ad2	0.047221012
47	0x3ea0b21c	0.31385887
48	0x3df1365e	0.11777948
49	0xbd4fe226	-0.05075278
50	0x3e1cd6e9	0.15316357
51	0x3d5c66e8	0.053809077
52	0x3e5604e9	0.2090031
53	0xbe1ed5f4	-0.15511304
54	0x3d9499e4	0.07255915
55	0x3ddad866	0.10685806
56	0xbda33a54	-0.079701096
57	0xbc8c13fd	-0.017099375
58	0x3db03f0f	0.086057775
59	0x3e265c2e	0.16246101
60	0xbd92f0eb	-0.07174858
61	0x3daf09d3	0.08546796
62	0x3de25528	0.110513985
63	0x3e504a1a	0.20340768

lstm.weight_ih_l0 f4 [256, 64]
0	0x3e28f407	0.16499339
1	0x3ebb1eff	0.36547086
2	0xbc9ded31	-0.01927814
3	0x3d2ac8ea	0.041695513
4	0x3ea882ba	0.32912236
5	0x3e7066a7	0.23476659
6	0x3d96f817	0.07371538
7	0x3e78671b	0.24258082
8	0x3ddd7873	0.108139895
9	0x3ed09135	0.40735784
10	0x3e2b13d3	0.16706781
11	0x3e4cba86	0.19993028
12	0x3e7d02e6	0.24708137
13	0x3e22d9dd	0.15903421
14	0xbe00dbcf	-0.1258385
15	0x3e5ebc2b	0.21751468
16	0x3e6b848e	0.22999784
17	0xbd92505e	-0.07144235
18	0xbe4295bf	-0.19002436
19	0xbcf61e68	-0.030043796
20	0x3ee8c5e5	0.45463482
21	0x3d876205	0.066104926
22	0xbd148ae0	-0.036265254
23	0x3d264e25	0.04060187
24	0x3db2b5b9	0.08726067
25	0x3e696d56	0.22795615
26	0xbe2fab68	-0.1715523
27	0x3eb0f227	0.34559748
28	0xbd2f091a	-0.04273329
29	0x3e19bc1c	0.15013164
30	0x3ebac19b	0.36475834
31	0xbe541d34	-0.20714265
32	0x3e3b5fbc	0.18298239
33	0x3e32d2a3	0.17463164
34	0x3e9ad299	0.30238798
35	0x3e9c3bfb	0.3051451
36	0x3eb245ad	0.34818783
37	0x3e688aa1	0.22709133
38	0x3e1fffc8	0.15624917
39	0xbd59d5c1	-0.053182367
40	0x3eb71d1d	0.357644
41	0x3e570629	0.20998444
42	0x3e02d01a	0.12774697
43	0xbd8b3ea8	-0.0679906
44	0x3ec57331	0.38564447
45	0x3ee972f8	0.45595527
46	0x3ea74961	0.3267317
47	0x3def8962	0.116961256
48	0x3de2b3d0	0.11069453
49	0x3e1bbef0	0.15209556
50	0x3e297d59	0.16551723
51	0x3e70e740	0.23525715
52	0xbcd8f68f	-0.026484756
53	0x3e50c829	0.20388855
54	0x3e385730	0.1800201
55	0x3eaa20d6	0.33228177
56	0x3b417f51	0.002952535
57	0x3c9adcd4	0.018904127
58	0x3d679ae6	0.056544207
59	0x3eb9f74f	0.36321494
60	0x3eac2d0a	0.33628112
61	0x3d92d225	0.07168988
62	0x3e996f66	0.29967803
63	0x3e389093	0.180239
64	0x3dd7aa20	0.10530496
65	0x3e4f79d9	0.20261325
66	0x3e626a26	0.22110805
67	0x3dda5566	0.1066082
68	0x3dff2b10	0.124593854
69	0x3e4b5201	0.19855501
70	0x3e2be99e	0.16788337
71	0x3c623b53	0.013808089
72	0xbc877c00	-0.01653862
73	0x3e5c04c1	0.21486188
74	0x3dc5fef3	0.09667768
75	0xbd8e1a50	-0.069386125
76	0x3e7cdf98	0.24694669
77	0x3df34497	0.11878317
78	0x3dbb7aaa	0.09154256
79	0x3e1d9a9c	0.1539101
80	0x3ea99ac9	0.33125904
81	0x3cf415ba	0.029795516
82	0x3d347397	0.044055548
83	0x3ba0ff88	0.004913274
84	0x3e86e546	0.26346797
85	0x3d15aea3	0.0365435
86	0x3eb496a4	0.3527118
87	0x3db8e61f	0.09028267
88	0xbe0eb58c	-0.13936442
89	0x3e45aaae	0.1930339
90	0x3dfdf1c8	0.12399632
91	0x3e180825	0.14846857
92	0x3d3ede6f	0.046598848
93	0x3ea47a9f	0.32124802
94	0x3e0026b3	0.12514763
95	0x3eac06e4	0.33599007
96	0x3df08790	0.117446065
97	0x3f001509	0.500321
98	0x3d57d97b	0.05269764
99	0x3e21e3d8	0.15809572
100	0x3e95f83e	0.29290956
101	0x3da2476e	0.079237804
102	0x3be2b11b	0.0069180853
103	0x3d3f8482	0.04675723
104	0x3e0d0f5e	0.13775393
105	0x3dba50b8	0.09097427
106	0x3c3351f5	0.010944833
107	0x3e1692d1	0.14704444
108	0x3e1ec15f	0.15503453
109	0x3e615ad9	0.22007312
110	0x3e5e36bb	0.21700566
111	0x3d965de0	0.07342124
112	0x3e9f0e00	0.3106537
113	0xbc95ddba	-0.018294204
114	0x3e68083c	0.22659391
115	0x3e2f9ddf	0.17150067
116	0x3e636d46	0.22209653
117	0xbd81e2c2	-0.06342079
118	0x3e1134d0	0.14180303
119	0x3e215286	0.15754136
120	0x3de27028	0.11056548
121	0x3e0733ad	0.13203306
122	0x3dc42e61	0.095791586
123	0x3e7a1a3e	0.24424073
124	0x3c954538	0.018221483
125	0x3e235891	0.15951754
126	0x3e5669b2	0.20938757
127	0xbd3a5e92	-0.045500346
128	0x3df8358d	0.12119589
129	0x3e06eaed	0.13175555
130	0x3e69d376	0.22834572
131	0x3ee728fa	0.4514845
132	0x3e992412	0.29910332
133	0x3e6ff65a	0.2343382
134	0x3e528315	0.20557816
135	0x3d978a9f	0.07399487
136	0x3d19ab42	0.03751684
137	0x3cacc5d2	0.021090422
138	0x3db04b3a	0.08608098
139	0x3e9c38d7	0.30512115
140	0x3e73531b	0.23762171
141	0x3e8bbdaa	0.2729314
142	0x3dd6e538	0.10492939
143	0x3d81c6a4	0.06336716
144	0x3ecd5381	0.4010277
145	0x3d0a0894	0.033699587
146	0x3ec2738c	0.3797878
147	0x3e89e2b6	0.2693078
148	0x3e4ec751	0.2019322
149	0x3e8f37d1	0.27972272
150	0x3eced2bd	0.40395156
151	0x3e90035a	0.28127557
152	0x3e4b6b12	0.19865063
153	0x3e875296	0.26430196
154	0x3db47528	0.08811408
155	0x3ed0d048	0.40783906
156	0x3a430ed0	0.0007440867
157	0x3e68c37f	0.22730826
158	0x3e29ea63	0.16593318
159	0x3d97d7b5	0.0741419
160	0x3e062f87	0.13104068
161	0x3d0f338d	0.034961272
162	0x3e79b1a7	0.24384175
163	0x3e7125d8	0.23549592
164	0x3e7ad593	0.24495535
165	0x3e722c75	0.23649772
166	0x3e245284	0.16047102
167	0x3dd59546	0.10428862
168	0x3ec8e088	0.39233804
169	0x3e3919b7	0.18076216
170	0x3e413f0c	0.18871707
171	0x3ea625ae	0.32450622
172	0x3e9ceb5b	0.30648312
173	0x3eb8e9db	0.36115918
174	0x3df68618	0.12037295
175	0x3e8ecbfa	0.27889997
176	0x3ece1e99	0.4025772
177	0x3e57863b	0.21047299
178	0x3e476c7e	0.1947498
179	0x3e07a522	0.13246587
180	0x3ec78c54	0.3897425
181	0x3e8cd878	0.27508903
182	0x3e9211d5	0.2852923
183	0x3e2eac51	0.17057921
184	0x3ec4a043	0.3840352
185	0x3e68f2df	0.22748898
186	0x3ed080eb	0.40723357
187	0x3ea5de5b	0.32396206
188	0x3e19476a	0.14968649
189	0x3c0cde11	0.008597867
190	0x3d8384a9	0.06421787
191	0x3e2b0bad	0.16703673
192	0x3db126f3	0.08650007
193	0x3e8509e4	0.25984108
194	0x3e62c4ef	0.22145437
195	0x3cc49510	0.02399686
196	0x3dda5906	0.10661511
197	0x3ea9c690	0.33159304
198	0x3ea94176	0.33057755
199	0x3d9c2038	0.07623333
200	0x3e21983f	0.15780734
201	0x3e7e4c4a	0.2483379
202	0x3e434930	0.19070888
203	0x3e0c516a	0.13702932
204	0x3d434c9e	0.04768049
205	0x3eae35c0	0.34025383
206	0x3e82b3ca	0.25527793
207	0x3e9ac024	0.30224717
208	0x3e91a5ca	0.284468
209	0x3e4e56ee	0.20150349
210	0xbcea11a1	-0.02857286
211	0x3ea0f5c8	0.31437516
212	0x3e0d3a8a	0.13791862
213	0x3e0f3c72	0.13987902
214	0x3eb41c3c	0.3517779
215	0x3e3eac20	0.18620348
216	0x3dc674cb	0.09690245
217	0xbb9b2c9b	-0.004735542
218	0x3de5c5a7	0.1121934
219	0x3ec4e8e9	0.38458946
220	0x3e82dd2d	0.2555937
221	0x3dd39217	0.10330599
222	0x3e440177	0.19141184
223	0x3e4b45a4	0.19850785
224	0x3d9303c1	0.071784504
225	0x3ed65d7b	0.41868195
226	0x3d24756c	0.040151045
227	0x3ea17444	0.31534016
228	0x3e5593e8	0.20857203
229	0x3d3ec1ac	0.04657142
230	0x3d80afb5	0.062835135
231	0x3e8f2ba0	0.2796297
232	0x3e751a46	0.23935804
233	0x3e1b366d	0.1515748
234	0x3e6d76f1	0.23189904
235	0x3e3e09c8	0.18558419
236	0x3e384b65	0.1799751
237	0x3e941cb6	0.28928155
238	0x3e454302	0.19263843
239	0x3e00df26	0.12585124
240	0x3e591c86	0.21202287
241	0x3e1b5641	0.15169622
242	0x3e5f1a17	0.21787296
243	0x3e5472b3	0.2074688
244	0x3ea99d58	0.33127856
245	0x3e5fc7a1	0.21853496
246	0x3de7ed74	0.113245875
247	0x3e07b09a	0.13250962
248	0x3d7f404e	0.062317185
249	0x3db236ef	0.08701884
250	0x3dcbe190	0.09955132
251	0x3e3866b8	0.18007934
252	0x3dd4d206	0.10391621
253	0x3e829eb1	0.25511697
254	0x3e824d07	0.25449392
255	0x3e4d64be	0.20057961

lstm.weight_hh_l0 f4 [256, 64]
0	0xbce67c1a	-0.028135348
1	0x3deaf52e	0.114725456
2	0xbc8e2f54	-0.017356552
3	0xbd9cacdc	-0.07650158
4	0xbd9a0ed1	-0.07522357
5	0xbcb9b2ac	-0.022668205
6	0xbd8aa9da	-0.06770678
7	0x3de89e3d	0.113583066
8	0x3dc05b67	0.093924336
9	0xbd9a4cb1	-0.07534159
10	0x3c80c712	0.015719924
11	0x3b16f3c5	0.0023033482
12	0x3d3ed4a7	0.04658952
13	0xbd64f629	-0.05589882
14	0xbdac92ee	-0.08426462
15	0xbdf578b9	-0.11985917
16	0x3c96110e	0.01831868
17	0x3cac9806	0.021068584
18	0x3d90d066	0.07070999
19	0xbdc58920	-0.09645295
20	0x3da276b6	0.079327986
21	0xbddd387c	-0.10801789
22	0x3cf7e44b	0.030260226
23	0xbb4a357e	-0.0030854638
24	0xbdf6624a	-0.12030466
25	0xbdb8a124	-0.0901511
26	0xbca99d26	-0.020704817
27	0x3d333ddf	0.043760177
28	0xbdd2946b	-0.10282215
29	0x3da1da11	0.07902921
30	0xbdcf3f00	-0.10119438
31	0xbcdb748c	-0.026788972
32	0xbd9e58db	-0.077317916
33	0x3ddc198f	0.107470624
34	0xbd6fede7	-0.05857649
35	0x3df3c017	0.119018726
36	0x3b869de0	0.0041081756
37	0xbd38544b	-0.045002263
38	0x3cf85e5c	0.030318432
39	0x3dc096e3	0.09403779
40	0xbd74cbbb	-0.059764605
41	0x3c987836	0.018612009
42	0xbcfc9f72	-0.030837748
43	0xbce8cf33	-0.028419113
44	0x3cff8a4a	0.031193871
45	0xbda6e8d8	-0.0814988
46	0x3dbb3083	0.09140112
47	0x3dd83d73	0.105585955
48	0x3d8f837f	0.07007503
49	0x3db68f55	0.08914057
50	0x3bae9a21	0.005328432
51	0xbd7a15ac	-0.061055824
52	0xbdb0fa2e	-0.08641468
53	0xbcdaccb2	-0.026708934
54	0x3db19aaa	0.08672078
55	0x3db28550	0.087168336
56	0x3d8bf9af	0.06834733
57	0xbd34a464	-0.044102088
58	0xbdd492ca	-0.1037956
59	0xbcff2fb2	-0.031150673
60	0x3de7d917	0.113207035
61	0xbd747abc	-0.05968736
62	0x3a9c788a	0.0011937779
63	0xbdda8a01	-0.106708534
64	0xbd9303ef	-0.07178485
65	0x3bd2c190	0.006431766
66	0xbd6a3be8	-0.057186037
67	0xbd8364ac	-0.06415686
68	0x3d8a6f96	0.067595646
69	0x3d7b2cdd	0.06132208
70	0xbd28076e	-0.04102271
71	0xbd8a8adf	-0.06764769
72	0xbd791022	-0.0608064
73	0xbdcd616f	-0.100283496
74	0x3da75e96	0.08172338
75	0x3df6fa50	0.12059462
76	0xbd5c0816	-0.05371865
77	0x3de9b41c	0.11411306
78	0xbddca5c1	-0.107738025
79	0xbd9feb60	-0.07808566
80	0x3d91b29f	0.071141474
81	0xbc4347fa	-0.011919016
82	0xbb96c9fd	-0.0046017156
83	0x3dd8604e	0.10565244
84	0xbd7506f8	-0.0598211
85	0xbdcd25bc	-0.10016963
86	0xbcba6861	-0.02275485
87	0x3d45e437	0.048313346
88	0x3caae314	0.020860232
89	0x3d45b920	0.048272252
90	0xbbcef4fd	-0.006315826
91	0xbc0eddc7	-0.008719868
92	0xbadf340a	-0.0017029059
93	0xbde72fc9	-0.11288411
94	0x3da20be4	0.07912424
95	0x3d0554ed	0.032551695
96	0xbdb0166d	-0.085980274
97	0x3cf0a12b	0.029373726
98	0x3d83267a	0.06403823
99	0xbddf6a74	-0.10908976
100	0xbd5d9ed1	-0.054106537
101	0xbdb0308e	-0.08603011
102	0x3d2f166b	0.04274599
103	0xbd0033b7	-0.03129932
104	0xbd4a012f	-0.049317535
105	0x3d84d36d	0.06485639
106	0x3debf3d3	0.11521115
107	0xbd768d54	-0.060193375
108	0x3d24c5a4	0.040227547
109	0x3dd60549	0.10450227
110	0xbd8118c8	-0.06303555
111	0x3d2d37b2	0.042289443
112	0xbd0b39dc	-0.033990726
113	0xbd4b77f6	-0.04967495
114	0xbd6bdc6f	-0.05758327
115	0x3b30d701	0.002698362
116	0xbd65f375	-0.05614038
117	0xbd385482	-0.045002468
118	0xba2e91a7	-0.0006659277
119	0xbdb8e78b	-0.09028538
120	0x3d9e8e8f	0.07742035
121	0xbca5ef34	-0.020255663
122	0x3c48255f	0.012215941
123	0xbd3e2a19	-0.046426866
124	0x3ddf7183	0.109103225
125	0x3dc245f2	0.09485997
126	0x3df71559	0.120646186
127	0xbd159117	-0.03651532
128	0xbde6c631	-0.11268271
129	0x3d08db0b	0.03341202
130	0xbb7f134d	-0.0038921416
131	0xbdbdf51c	-0.092752665
132	0xb9878a00	-0.00025852025
133	0x3df32fe3	0.11874368
134	0x3de4bd52	0.111689225
135	0xbca1da0d	-0.019757295
136	0x3c580bfd	0.013186452
137	0xbddf1452	-0.10892548
138	0xbdbff177	-0.09372228
139	0x3dd0b5c2	0.101909176
140	0xbaeb628b	-0.0017958445
141	0xbd924da5	-0.07143716
142	0x3d2031ec	0.03911011
143	0x3ddc9d6a	0.10772212
144	0xbdc11a52	-0.09428848
145	0x3dd6cc6d	0.1048821
146	0xbcac8b78	-0.021062598
147	0x3d045d69	0.032315645
148	0x3dcce849	0.100052424
149	0xbbdb2ec0	-0.0066889226
150	0xbda18778	-0.07887167
151	0x3c86a1c8	0.016434565
152	0xbd6d2d47	-0.057904508
153	0x3dd99fbe	0.106261715
154	0xbdd458e5	-0.10368518
155	0x3b8100a5	0.0039368444
156	0xbd953a25	-0.07286481
157	0x3d237d15	0.03991421
158	0x3dd2f12b	0.102999054
159	0x3db9306a	0.090424374
160	0x3d99c9fd	0.07509229
161	0x3d52fb89	0.051509414
162	0xbdddea63	-0.10835721
163	0xbc5c70ee	-0.013454659
164	0x3c1d22ea	0.009590844
165	0x3c1c4b87	0.0095394915
166	0xbcea7995	-0.028622428
167	0xbdf7f563	-0.12107351
168	0x3d2bfa80	0.041986942
169	0xbda8db93	-0.082450055
170	0xbda10669	-0.07862551
171	0xbd56bd27	-0.052426483
172	0x3ce4452f	0.02786502
173	0xbde812dc	-0.11331722
174	0x3d29f444	0.041492715
175	0x3c9df781	0.019283058
176	0xbddcdadd	-0.10783932
177	0x3b6dd4a1	0.0036290067
178	0xbd9f70e8	-0.07785207
179	0xbd21e5cc	-0.039525792
180	0x3dbe865d	0.093029715
181	0x3d9df4f5	0.077127375
182	0xbc621001	-0.013797761
183	0xbb838245	-0.004013332
184	0xbd3f80f6	-0.046753846
185	0xbdf01675	-0.11723033
186	0x3d6ff7a3	0.058585774
187	0xbd5b6f73	-0.053573083
188	0x3d34d735	0.04415055
189	0x3dc8cb6b	0.09804424
190	0xbdf8ef48	-0.12155014
191	0x3db8e791	0.09028543
192	0xbd47a5ae	-0.04874199
193	0x3db7db06	0.08977322
194	0xbd242e2e	-0.040083103
195	0x3d4b2cf2	0.04960341
196	0xbd9647df	-0.07337927
197	0xbdb8268b	-0.089917265
198	0xbdd5349c	-0.10410425
199	0x3d2ea3e9	0.042636786
200	0x3dc7defe	0.09759329
201	0xbc21a81e	-0.009866742
202	0x3dd7f8fa	0.105455354
203	0xbdca6849	-0.09883172
204	0xbcf9acc4	-0.030477889
205	0xbde4e5e9	-0.111766644
206	0xbdb37db3	-0.087642096
207	0xbc9d3afb	-0.019193163
208	0x3c970feb	0.018440207
209	0xbdd6ee57	-0.104946785
210	0x3d637dcf	0.055539902
211	0xbd80b413	-0.062843464
212	0x3d42f5a4	0.047597542
213	0x3bcdeada	0.0062841
214	0x3cf7e5a4	0.030260868
215	0x3d0125f4	0.031530336
216	0x3daccbcb	0.08437308
217	0xbcfb719a	-0.030693818
218	0x3ba96454	0.0051694307
219	0xbd8cd47f	-0.06876468
220	0xbcab3c84	-0.02090288
221	0xbd900449	-0.07032067
222	0xbdd432cb	-0.103612505
223	0x3abc2d08	0.0014356682
224	0xbd97a45f	-0.07404398
225	0x3daa15ee	0.08304964
226	0xbdd5e494	-0.104439884
227	0xbdc1294c	-0.09431705
228	0xbd65697b	-0.056008797
229	0xbc858f42	-0.016303662
230	0xbdea5027	-0.11441069
231	0xbdc38320	-0.095464945
232	0xbdf75838	-0.12077373
233	0x3dde3f95	0.10851971
234	0xbddeaca2	-0.10872771
235	0xbc3150ec	-0.010822516
236	0x3d76bbee	0.060237817
237	0x3d8304aa	0.06397374
238	0xbde759aa	-0.11296399
239	0xbb178fdd	-0.002312652
240	0x3ddc1cf3	0.10747709
241	0x3d7d5597	0.061849203
242	0x3d59cf6b	0.053176325
243	0x3d203422	0.039112218
244	0xbd343fdd	-0.044006217
245	0xbded8a39	-0.115986295
246	0x3dec41cd	0.11535988
247	0xbd98c9b3	-0.07460346
248	0xbd9ed6d9	-0.07755823
249	0x3be24412	0.0069050873
250	0x3cffc6f2	0.031222794
251	0x3bfd5faa	0.0077323513
252	0xbd038088	-0.032105
253	0xbd91a7a0	-0.0711205
254	0x3da1c6ce	0.07899247
255	0x3cb1e10e	0.02171376

lstm.bias_ih_l0 f4 [256]
0	0x3dc16533	0.0944313
1	0x3e11d908	0.14242947
2	0x3e9f4f50	0.31115198
3	0x3e5f326d	0.2179658
4	0x3e891db9	0.2678049
5	0x3e5a18c5	0.21298511
6	0x3e2039a2	0.15646985
7	0x3e9bcfb0	0.3043189
8	0x3e9d5d53	0.30735263
9	0x3ec3e9d1	0.38264325
10	0x3d83d447	0.06436973
11	0x3eb03fe4	0.34423745
12	0x3e8d65d9	0.27616766
13	0x3d2fbc5e	0.04290425
14	0x3c733503	0.014844182
15	0x3e3a1f22	0.18175939
16	0x3b3dd264	0.0028964514
17	0x3e1faf0b	0.15594117
18	0x3e55b0eb	0.2086827
19	0x3e26aa44	0.16275889
20	0x3baba59e	0.005238249
21	0x3dd49139	0.103792615
22	0x3e419393	0.18903951
23	0x3e902714	0.28154814
24	0x3de1723b	0.11008116
25	0x3e423856	0.18966803
26	0x3db5fe7b	0.08886429
27	0x3eafdb5f	0.34347054
28	0x3e2ed38c	0.17072886
29	0x3ec13e52	0.3774286
30	0x3d324a42	0.04352785
31	0x3e8341b7	0.25636074
32	0x3e64cf61	0.22344734
33	0x3e3babce	0.18327257
34	0x3e7854a2	0.24251035
35	0x3e05c906	0.13064966
36	0x3d8b20e2	0.06793381
37	0x3e15daf5	0.14634307
38	0x3e49c90e	0.19705603
39	0x3ea36e1c	0.31919944
40	0x3e33d6ca	0.17562404
41	0x3d283e26	0.041074894
42	0x3e3df5f5	0.18550856
43	0x3e817e47	0.25291654
44	0x3e4101c6	0.18848333
45	0x3e9719b5	0.295118
46	0x3ba40870	0.0050058886
47	0x3d9ed713	0.07755866
48	0x3e7a33d0	0.24433827
49	0x3e228a27	0.15873013
50	0x3e4d14db	0.20027487
51	0x3efdd167	0.49573824
52	0x3e917145	0.2840673
53	0x3df33c8d	0.118767835
54	0x3d8fcb25	0.070211686
55	0x3d9dc92f	0.07704388
56	0x3e02f0fc	0.1278724
57	0x3e412b35	0.18864138
58	0xbd813703	-0.06309321
59	0x3dbc005a	0.091797546
60	0x3dc667bc	0.096877545
61	0x3e254f09	0.16143431
62	0x3ec98716	0.39360875
63	0x3e1df7db	0.1542658
64	0xbd94d5a6	-0.07267313
65	0x3d44b10f	0.04802042
66	0xbdf49972	-0.1194333
67	0xbb44917c	-0.0029993942
68	0xbd654831	-0.05597705
69	0xbdd7a156	-0.10528819
70	0xbdccc9a4	-0.099993974
71	0x3db73e0d	0.08947382
72	0xbded6cf5	-0.115930475
73	0x3dbdecd4	0.09273687
74	0x3d9a7815	0.07542435
75	0x3d80a17b	0.062808
76	0x3d4965b9	0.049169276
77	0xbd313336	-0.04326173
78	0xbd0b8f67	-0.034072306
79	0xbd06f96f	-0.032952722
80	0xbb2ac85e	-0.002605937
81	0x3b888ab4	0.0041669253
82	0x3bfc1c85	0.0076938295
83	0x3d92df58	0.07171506
84	0xbcda0dae	-0.026617851
85	0xbd06dfd1	-0.03292829
86	0x3ce81668	0.028330997
87	0xbbe31b66	-0.0069307564
88	0xbda32cdb	-0.0796754
89	0xbdd7a166	-0.10528831
90	0xbd9ad2a4	-0.07559708
91	0xbd726590	-0.05917889
92	0x3c3bc782	0.011461141
93	0xbd919e16	-0.071102306
94	0xbc7a3412	-0.015271204
95	0xbcefa294	-0.029252328
96	0xbd9e308d	-0.07724104
97	0x3dd42c60	0.10360026
98	0x3d24cc3d	0.04023384
99	0x3c0e05b9	0.008668357
100	0xbd39c632	-0.04535503
101	0x3dd98413	0.10620894
102	0xbd9dd18f	-0.07705986
103	0x3dd00ef6	0.101591036
104	0xbd7c0d60	-0.061536193
105	0x3d994770	0.07484329
106	0xbd3a11fc	-0.045427307
107	0xbcca5467	-0.02469845
108	0x3de422f1	0.11139477
109	0x3cbea531	0.023272129
110	0xbc086451	-0.008324699
111	0x3dd9528f	0.1061145
112	0xbd2f108a	-0.042740382
113	0xbd395bb8	-0.045253485
114	0xbd6ed0ee	-0.05830472
115	0x3d45954a	0.048238076
116	0xbcc6d58e	-0.024271753
117	0x3ddf8501	0.1091404
118	0x3dcfd2fc	0.10147664
119	0x3ce21998	0.027600095
120	0x3d15c61d	0.03656589
121	0x3db676ab	0.08909353
122	0xbcd8b46c	-0.02645322
123	0xbc5f1181	-0.013615013
124	0x3dcd8568	0.10035211
125	0x3cf8ef12	0.030387435
126	0xbddbb29c	-0.107274264
127	0xbdd3b618	-0.10337466
128	0xbdecb1ea	-0.11557372
129	0x3d99a4f5	0.07502166
130	0x3d617300	0.055041313
131	0x3de65380	0.11246395
132	0xbda88fc5	-0.08230547
133	0x3d6611fc	0.056169495
134	0x3ddaca27	0.10683089
135	0xbc602abc	-0.013682064
136	0xbd23720f	-0.039903697
137	0xbcb4d0cb	-0.022072216
138	0x3dab1a9b	0.08354684
139	0xbde58931	-0.11207808
140	0xbdbebd99	-0.09313507
141	0x3ca6cd0b	0.020361444
142	0xbd6567d1	-0.05600721
143	0x3d962800	0.07331848
144	0xbcd5cef3	-0.026099658
145	0xbd80f43f	-0.06296586
146	0x3e0f7994	0.14011222
147	0x3db9e114	0.09076133
148	0xbd43ca96	-0.047800623
149	0xbd335446	-0.04378154
150	0xbe11ed08	-0.14250576
151	0x3d192f54	0.03739865
152	0xbddff5c7	-0.1093555
153	0xbc9731ed	-0.018456424
154	0x3ded2981	0.11580182
155	0x3cd5a91b	0.026081612
156	0x3d7e507f	0.062088486
157	0x3d074d56	0.033032738
158	0xbdc6f263	-0.097142
159	0xbe0287de	-0.12747142
160	0xbdcdd1af	-0.100497596
161	0xbc908e65	-0.017646024
162	0x3deb4781	0.11488248
163	0xbbd40fb4	-0.0064715985
164	0xbda30a47	-0.079609446
165	0xbda67169	-0.081271
166	0xbcb8c625	-0.02255542
167	0x3da05747	0.07829147
168	0x3cd200f7	0.025635226
169	0x3c9ed364	0.019387908
170	0x3d880b7a	0.06642814
171	0xbc1f2cfb	-0.009715314
172	0x3d5e547f	0.0542798
173	0xbd8bf34e	-0.06833516
174	0xbd00d7f7	-0.03145596
175	0x3d2d3caa	0.042294182
176	0xbd427034	-0.047470286
177	0x3e0057c1	0.12533475
178	0xbda07800	-0.07835388
179	0x3d5b1ebd	0.05349611
180	0x3caf3477	0.021387322
181	0xbdd1154e	-0.10209142
182	0x3dba787b	0.09105011
183	0x3d950d67	0.07277947
184	0xbdf3e5e7	-0.11909085
185	0xbd9a971a	-0.075483516
186	0xbde1b637	-0.11021083
187	0xbdb6bab1	-0.08922327
188	0x3e14b51c	0.14522213
189	0x3e1267a9	0.14297356
190	0xba547be8	-0.00081056217
191	0xbca86e51	-0.020560415
192	0x3d7b9d8a	0.061429538
193	0x3e4d1f93	0.20031576
194	0x3ea44d49	0.32090214
195	0x3e0bc47b	0.1364917
196	0x3e6fd839	0.23422326
197	0x3e0b2ad4	0.13590556
198	0x3b879935	0.0041381367
199	0x3ebd59c6	0.36982554
200	0x3e3840ec	0.17993516
201	0x3e82f325	0.2557613
202	0x3e0c280f	0.13687156
203	0x3eb748a0	0.35797596
204	0x3e847658	0.2587154
205	0xbcafbc41	-0.021452071
206	0x3daf8b80	0.085715294
207	0x3e383cbe	0.17991921
208	0x3dc4c295	0.09607426
209	0x3ea6ef59	0.32604483
210	0x3e6154ca	0.22005
211	0x3eb6af57	0.3568065
212	0x3db16a1b	0.08662816
213	0x3df034b8	0.11728805
214	0x3e2af543	0.16695122
215	0x3e4a2b5b	0.19743101
216	0x3e89987e	0.26874155
217	0x3ea29d98	0.3176086
218	0x3d81dfe7	0.06341534
219	0x3e5b91f1	0.21442391
220	0x3cdd7d08	0.027037159
221	0x3e7aba0c	0.24485034
222	0x3e7b772a	0.24557176
223	0x3ea29181	0.31751636
224	0x3c7e6327	0.015526569
225	0x3d0f1963	0.03493632
226	0x3e1e8dcf	0.15483783
227	0x3da871fe	0.08224867
228	0x3e0a5734	0.13509828
229	0x3d4fb94d	0.050713826
230	0x3e04dd10	0.12974954
231	0x3e9ff826	0.3124401
232	0x3dcef82a	0.10105927
233	0x3e5dc419	0.21656837
234	0x3daa48df	0.0831468
235	0x3e5f53a0	0.21809244
236	0xbd4f5343	-0.050616514
237	0x3e6a1ab8	0.22861755
238	0x3e6395b1	0.22225071
239	0x3d6e6fb5	0.058212
240	0x3efad04e	0.4898705
241	0x3cb6eab9	0.022328721
242	0x3ebfa41f	0.37429902
243	0x3e90dcdd	0.28293505
244	0x3ee28e99	0.44249418
245	0x3e8eba56	0.27876538
246	0xbd9da405	-0.076973
247	0x3cee7234	0.02910719
248	0x3e3a99c7	0.18222724
249	0x3e1c2d48	0.15251648
250	0x3db95069	0.0904854
251	0x3e19e130	0.15027308
252	0x3dc0991c	0.09404203
253	0x3ed000fe	0.40625757
254	0x3eb25b70	0.34835386
255	0x3e848d58	0.25889087

lstm.bias_hh_l0 f4 [256]
0	0x3e8e11e5	0.27748027
1	0x3e379cbe	0.17930886
2	0x3ec5aa2c	0.38606393
3	0x3e6aa9ca	0.22916332
4	0x3e92edd8	0.28697085
5	0x3e2083c4	0.15675265
6	0x3e27aecf	0.16375278
7	0x3eae9f06	0.341057
8	0x3e53c540	0.20680714
9	0x3ef18dab	0.47178397
10	0x3e37aa23	0.17935996
11	0x3e94b388	0.2904322
12	0x3e2279a6	0.15866718
13	0x3c682acb	0.014170359
14	0x3e2d5f2e	0.1693084
15	0x3e95083b	0.29107842
16	0x3e327b4c	0.17429847
17	0x3e063a81	0.13108255
18	0x3e52ae13	0.20574217
19	0x3e837192	0.25672585
20	0x3d2d644d	0.042331982
21	0x3d9f41d6	0.07776229
22	0x3da22e0f	0.07918941
23	0x3eae4ff1	0.34045365
24	0x3e47ed5d	0.1952414
25	0x3e8e71a4	0.27821076
26	0x3e252ead	0.16131087
27	0x3e90a386	0.28249758
28	0x3d92d06e	0.07168661
29	0x3e29fa78	0.16599452
30	0x3e871f53	0.26391086
31	0x3e2c1933	0.16806488
32	0x3e3846ec	0.17995805
33	0xbc1d17b7	-0.009588174
34	0x3eacef6b	0.3377641
35	0x3e5a7571	0.21333863
36	0x3c7b4b4c	0.015337776
37	0x3e1b7993	0.15183096
38	0x3e45c991	0.19315173
39	0x3e3da2cd	0.18519135
40	0x3e2ea549	0.17055239
41	0x3dd14116	0.10217492
42	0x3dfbe779	0.12300009
43	0x3edc1858	0.42987323
44	0x3e4229fd	0.1896133
45	0x3dcee9d2	0.101031914
46	0x3dcb257f	0.09919261
47	0x3d757384	0.059924617
48	0x3ee82b0c	0.45345342
49	0x3cd76574	0.026293494
50	0x3e20beea	0.15697828
51	0x3e9788e3	0.29596624
52	0x3e8e086d	0.27740803
53	0x3d8ccf7f	0.06875514
54	0x3d35ded1	0.044401947
55	0xbb7df434	-0.0038750293
56	0x3da93038	0.0826115
57	0x3e39baa5	0.18137605
58	0xbc373b54	-0.0111835785
59	0x3d8db727	0.06919699
60	0x3d6a0f14	0.057143286
61	0x3ebfd487	0.37466833
62	0x3e96b8fb	0.29438004
63	0x3e0de41f	0.13856553
64	0xbda1acdd	-0.07894299
65	0x3d07067a	0.03296516
66	0x3d71354b	0.058888715
67	0x3d6b5800	0.05745697
68	0x3c5298a4	0.012853775
69	0x3ca9abab	0.02071174
70	0xbd8a0304	-0.067388564
71	0x3d4783e6	0.048709773
72	0xbd5f29c1	-0.05448318
73	0x3dc28dba	0.094996884
74	0x3d1ea5a3	0.038732182
75	0x3de97afb	0.1140041
76	0x3db37897	0.08763235
77	0xbb4a1c9e	-0.003083981
78	0xbdcec273	-0.10095682
79	0xbd3e3ae9	-0.0464429
80	0xbd7ed0e7	-0.062210944
81	0xbdf2756b	-0.11838802
82	0xbdf053da	-0.117347434
83	0xbd8cf456	-0.06882541
84	0x3dc4560a	0.09586723
85	0xbbf1042a	-0.0073552327
86	0xbdf431ec	-0.11923584
87	0xbdd68514	-0.104746014
88	0xbd9d8ba6	-0.076926515
89	0x3db1d022	0.08682276
90	0xbdbbfd52	-0.091791764
91	0xbd8ae07b	-0.067810975
92	0xbcdd9b57	-0.02705161
93	0xbdde4d2b	-0.10854562
94	0x3d91dce6	0.07122211
95	0xbd572787	-0.05252793
96	0x3dccec87	0.100060515
97	0xbc763fc3	-0.01502985
98	0x3dda76d1	0.10667194
99	0xbd932670	-0.07185066
100	0xbde67ada	-0.11253901
101	0x3d61f2c9	0.05516318
102	0xbcea4013	-0.028595006
103	0xbd8ed777	-0.069746904
104	0x3c545bab	0.0129613085
105	0xbcca6c14	-0.024709739
106	0x3dd03308	0.101659834
107	0xbbd74658	-0.006569665
108	0x3da65184	0.081210166
109	0xbddba9c7	-0.10725742
110	0x3c51406b	0.012771706
111	0xbcb94566	-0.0226161
112	0x3d684a6d	0.056711603
113	0x3df929bd	0.12166164
114	0x3d72849a	0.05920849
115	0x3dae156d	0.085001804
116	0xbd8acaea	-0.06776984
117	0xbdb42829	-0.087967224
118	0x3df83adb	0.12120601
119	0x3de16b10	0.11006749
120	0xbdcf4ba1	-0.10121847
121	0xbde3452d	-0.110971786
122	0xbdd15a29	-0.10222275
123	0x3dc20682	0.094738975
124	0xbd6732be	-0.056444876
125	0xbceeca5d	-0.029149229
126	0x3df07d5d	0.11742661
127	0x3dec7490	0.1154567
128	0x3c91bb57	0.017789526
129	0xbb2d796f	-0.0026470085
130	0xbc840d19	-0.016119527
131	0x3da026ed	0.078199245
132	0x3e075c42	0.13218787
133	0x3d8a760c	0.06760797
134	0xbe03c326	-0.12867412
135	0x3cdc18aa	0.02686723
136	0xbdb7d607	-0.08976369
137	0xbce1d2aa	-0.027566273
138	0x3c2c8103	0.010528806
139	0xbe09ce28	-0.13457549
140	0xbd5138b9	-0.051079486
141	0x3d714ec9	0.058913026
142	0x3d4757bd	0.048667658
143	0xbd341e72	-0.043974347
144	0x3a1f4401	0.0006075502
145	0xbd19b22c	-0.037523434
146	0xbd79ec41	-0.061016325
147	0xbdff6d95	-0.12472073
148	0x3c062f1d	0.008189944
149	0x3d99fa15	0.075184025
150	0x3d613b29	0.05498806
151	0x3caf710a	0.021416206
152	0x3ceddd00	0.029036045
153	0x3d5d210d	0.053986598
154	0xbd9adf9b	-0.075621806
155	0x3c5fa0e1	0.013649196
156	0xbe0f3090	-0.13983369
157	0x3d5ddb79	0.054164384
158	0xbd423e16	-0.04742249
159	0x3d59e02a	0.053192295
160	0x3dbdeb0c	0.09273347
161	0xbde0361e	-0.10947822
162	0xbd8ebaa6	-0.06969194
163	0xbda775d6	-0.08176772
164	0xbd8705e3	-0.0659292
165	0xbd8db43c	-0.069191426
166	0x3dad149e	0.08451198
167	0xbd2b9bd8	-0.04189667
168	0x3da7d75b	0.08195373
169	0xbd666b48	-0.056254655
170	0xbcfe4adb	-0.031041553
171	0x3dbbb276	0.09164898
172	0x3d801ca4	0.06255463
173	0x3da50f52	0.08059563
174	0xbd76888a	-0.060188808
175	0x3cfb51b0	0.0306786
176	0xbd467497	-0.048451032
177	0xbd9fc053	-0.07800355
178	0xbd198610	-0.037481368
179	0xbcd5730e	-0.026055839
180	0xbd5fb8f9	-0.054619763
181	0x3c18061a	0.0092787985
182	0xbdd571c2	-0.10422088
183	0xbde5595d	-0.11198685
184	0x3db4a75b	0.08820983
185	0x3d773c71	0.060360376
186	0xbd941ee0	-0.072324514
187	0xbcc5cc5d	-0.0241453
188	0xbd867b91	-0.06566537
189	0x3dbf8418	0.09351367
190	0xbbee5a69	-0.0072739613
191	0xba9a980d	-0.0011794582
192	0x3e1f3c9a	0.15550461
193	0x3e891aab	0.2677816
194	0x3ee904b6	0.45511407
195	0x3e5b98a9	0.21444954
196	0x3d975b3f	0.07390451
197	0x3e7d953d	0.24763961
198	0x3d2ec4f2	0.04266829
199	0x3ee93e9f	0.4555559
200	0x3e1c7c65	0.15281828
201	0x3e921058	0.28528094
202	0x3e5f1761	0.21786262
203	0x3e9ca807	0.30596945
204	0x3e85b60b	0.2611545
205	0x3d5ac6a8	0.05341211
206	0x3d443a25	0.047907013
207	0x3ea967ac	0.33086908
208	0x3e2db333	0.1696289
209	0x3e9b998f	0.30390593
210	0x3e80b55f	0.25138375
211	0x3e4d774e	0.20065042
212	0x3d634d36	0.055493556
213	0x3e1dae17	0.15398441
214	0x3dd052d8	0.10172051
215	0x3e85c5c2	0.2612744
216	0x3e05eed7	0.13079391
217	0x3ecf74e0	0.40518856
218	0x3dfe978c	0.12431249
219	0x3e1f3ece	0.15551302
220	0x3e5446eb	0.20730178
221	0x3e83deb2	0.2575584
222	0x3e0422c2	0.12903884
223	0x3e088066	0.1333023
224	0x3cbed3c1	0.023294332
225	0x3e045362	0.12922433
226	0x3e62627a	0.22107878
227	0x3e5020ec	0.20325059
228	0x3cbfbc66	0.023405265
229	0x3e0f8ce7	0.14018594
230	0x3e224137	0.1584519
231	0x3e9e6207	0.30934164
232	0x3e93c07c	0.2885779
233	0x3e447fde	0.19189402
234	0x3e9031ac	0.28162897
235	0x3ed00b37	0.40633556
236	0x3d5ca1b4	0.05386515
237	0x3eab0831	0.33404687
238	0x3c1eb441	0.009686531
239	0x3e42e26d	0.19031687
240	0x3ef07622	0.46965128
241	0xbc90cb59	-0.017675089
242	0x3e3b68c7	0.18301688
243	0x3efb8731	0.4912658
244	0x3eb9abbf	0.36263844
245	0x3dd60732	0.10450591
246	0x3bc398b4	0.0059691314
247	0x3e09ce14	0.13457519
248	0x3d696bf9	0.056987736
249	0x3e4ab69f	0.19796227
250	0x3e32255f	0.17397068
251	0x3cc2cd12	0.023779426
252	0x3dcb285a	0.09919806
253	0x3e3a96ad	0.18221541
254	0x3e9db7b8	0.3080423
255	0x3dc74bf7	0.09731286

fc.weight f4 [3, 64]
0	0x3ecb516c	0.39710557
1	0x3e21d968	0.1580559
2	0x3e020e77	0.1270083
3	0xbef22d7f	-0.47300336
4	0x3e53363e	0.2062616
5	0x3e46983c	0.1939401
6	0x3e61bde1	0.2204509
7	0x3d8a04c4	0.0673919
8	0x3dffb478	0.124855936
9	0x3d27cb7b	0.04096554
10	0x3ea10756	0.3145091
11	0x3efa0006	0.48828143
12	0x3ea9d3b2	0.33169323
13	0x3e873c4d	0.26413193
14	0xbf051602	-0.51986706
15	0x3f173d04	0.5907748
16	0x3e7ee6eb	0.24892776
17	0x3e9bf6a8	0.3046162
18	0xbe5feaff	-0.21866988
19	0x3e9dcb03	0.30818948
20	0xbee13566	-0.43986052
21	0xbe79dca7	-0.24400578
22	0x3e9bc69e	0.3042497
23	0xbe45af77	-0.19305216
24	0x3e5dd693	0.21663885
25	0x3e4af6ba	0.19820681
26	0x3eeabfce	0.4584946
27	0xbeba68e8	-0.36408162
28	0x3e5673c6	0.20942602
29	0xbe15b658	-0.1462034
30	0x3e8df1da	0.2772358
31	0x3ef08ce7	0.469825
32	0xbefc2a00	-0.49250793
33	0xbea55499	-0.32291105
34	0xbea77888	-0.32709146
35	0x3e6f31d8	0.23358858
36	0xbebdf08d	-0.37097588
37	0xbea2760a	-0.31730682
38	0xbe8dbc3f	-0.27682683
39	0x3cb16b52	0.02165762
40	0xbeb1840f	-0.34671065
41	0xbe9c646c	-0.30545366
42	0xbde91c1c	-0.113823146
43	0x3dfb2e08	0.12264639
44	0x3e85f6a1	0.26164725
45	0xbe36ac12	-0.17839077
46	0xbe18d17b	-0.1492366
47	0xbecfa474	-0.40555155
48	0xbcdd24c7	-0.026995076
49	0xbe95a18d	-0.29224816
50	0x3d8d1de2	0.06890465
51	0xbc8c8f2e	-0.017158117
52	0x3db59a22	0.08867289
53	0x3ea8df3a	0.32982808
54	0x3e711f12	0.23547009
55	0xbefb0106	-0.49024218
56	0x3e8905e9	0.26762322
57	0x3e2d079d	0.16897435
58	0xbe9d4fd6	-0.30724972
59	0xbe30aaa0	-0.17252588
60	0x3eaec00a	0.3413089
61	0xbec8fbf3	-0.39254722
62	0xbb03c1ae	-0.0020104456
63	0x3e9d0940	0.3067112
64	0xbeae5de4	-0.34056008
65	0xbc8fcb3a	-0.01755296
66	0x3e9f7316	0.3114249
67	0x3e0aa523	0.13539557
68	0x3daad7be	0.08341931
69	0x3ddf8d06	0.1091557
70	0xbe0124b2	-0.12611654
71	0x3e2eb469	0.17061009
72	0x3e9c2628	0.3049786
73	0x3eb25146	0.34827632
74	0xbeb798e7	-0.35858843
75	0xbe985770	-0.2975421
76	0xbeb20de7	-0.34776232
77	0xbe8a656e	-0.2703051
78	0x3e95c91a	0.2925499
79	0xbe721866	-0.2364212
80	0xbe47ffb3	-0.19531135
81	0x3e1f1694	0.15535957
82	0x3d80e680	0.062939644
83	0xbe5156ef	-0.20443319
84	0x3e9904a0	0.2988634
85	0x3ef0e13a	0.47046834
86	0xbe1d21aa	-0.15344873
87	0xbe059e56	-0.13048682
88	0xbb5f5cc4	-0.0034082392
89	0x3e2c36af	0.16817735
90	0xbec36ab9	-0.3816736
91	0x3eb3a72e	0.35088485
92	0xbe81c0f9	-0.2534254
93	0xbe9563d8	-0.29177737
94	0xbe905681	-0.28190997
95	0xbeb1054e	-0.3457436
96	0x3e8fa883	0.28058252
97	0xbd91e053	-0.071228646
98	0x3e46eb1d	0.19425626
99	0xbec3b327	-0.3822262
100	0x3e86c989	0.26325634
101	0x3e829775	0.25506178
102	0x3e64c958	0.22342432
103	0x3e411252	0.18854645
104	0xbd56d536	-0.052449428
105	0x3f0cb3ad	0.54961663
106	0x3edefc2b	0.43551764
107	0xbee7a466	-0.45242614
108	0xbf00907c	-0.50220466
109	0x3e54b024	0.20770317
110	0x3f00fc35	0.5038484
111	0x3e8e031d	0.2773675
112	0xbea3d7fd	-0.32000723
113	0x3eb9ddfc	0.36302173
114	0x3e13639c	0.14393467
115	0xbeca9158	-0.39564013
116	0x3eb94146	0.36182612
117	0xbe5f95d9	-0.21834506
118	0xbea051df	-0.31312463
119	0x3e90f45e	0.28311437
120	0xbe9ee72a	-0.3103574
121	0x3deb19be	0.11479519
122	0x3ece108d	0.40247002
123	0x3e3f1359	0.18659724
124	0xbed726df	-0.42021844
125	0x3ee04726	0.43804282
126	0xbef15151	-0.47132352
127	0xbe59175a	-0.21200314
128	0xbe93d2a1	-0.28871635
129	0xbeca6a86	-0.39534396
130	0xbf152691	-0.5826197
131	0x3ec4a19e	0.38404554
132	0xbefcf355	-0.49404398
133	0xbeafe982	-0.3435784
134	0xbe985e4b	-0.2975944
135	0xbf369932	-0.7132751
136	0xbef2f553	-0.47452793
137	0xbf10b515	-0.5652631
138	0xbd88682b	-0.066604935
139	0xbdb36ff1	-0.087615855
140	0xbe2d52fc	-0.16926187
141	0x3d144464	0.036198035
142	0x3db6a232	0.08917655
143	0xbe80fc77	-0.25192615
144	0xbe4383f9	-0.19093312
145	0xbe9da850	-0.30792475
146	0x3e133984	0.14377409
147	0xbe83b47e	-0.25723642
148	0x3e314967	0.17313157
149	0xbeaf5138	-0.34241652
150	0xbe8e8ef5	-0.27843443
151	0x3f05efd7	0.5231909
152	0xbec90db1	-0.39268258
153	0xbf0b19df	-0.5433635
154	0xbe5015e4	-0.2032085
155	0x3e4dca99	0.20096816
156	0xbda1bea7	-0.07897692
157	0x3efa8a29	0.48933533
158	0xbe3311f0	-0.17487311
159	0xbe4bef1e	-0.19915435
160	0x3d791470	0.060810506
161	0x3e7698e7	0.24081765
162	0x3eb09695	0.34489885
163	0x3e0ebee9	0.13940014
164	0x3e2e7daf	0.17040132
165	0x3e766301	0.24061204
166	0x3ea8d0d2	0.32971817
167	0xbf02ab70	-0.5104284
168	0x3ecea7ff	0.40362546
169	0x3dbc4035	0.09191934
170	0xbe5a082f	-0.21292184
171	0x3eec9ca8	0.4621327
172	0x3e6ea361	0.23304512
173	0x3ec9336a	0.39297038
174	0xbe84b7fb	-0.25921616
175	0x3ea1264a	0.31474525
176	0x3f156a01	0.58364874
177	0x3e6d853f	0.2319536
178	0xbf02ae3d	-0.51047117
179	0x3f0a52d0	0.5403261
180	0xbf051dc6	-0.51998556
181	0xbea635e3	-0.32462987
182	0xbe515588	-0.20442784
183	0x3e6fac2f	0.23405527
184	0xbe00d453	-0.12580995
185	0xbf0b1f86	-0.54344976
186	0x3e47ef4e	0.19524881
187	0x3d5ccab2	0.053904243
188	0x3dc08b09	0.09401519
189	0x3e22ffe2	0.15917924
190	0x3f13bc62	0.57709324
191	0xbe8d304a	-0.27575904

fc.bias f4 [3]
0	0x3d3b1fb1	0.04568452
1	0x3e07d48e	0.13264677
2	0xbdb2a386	-0.08722596
