Code-in-cloud/results/models/疲劳分类标签_forward_cnn-lstm.pth (torch, 145344 bytes, 8 tensors)

conv1d.weight f4 [64, 11, 3]
00000000: 5059 ac3d e68f 81bd fb7d 09be bcc3 91bd
00000010: a31f 27bc 315d 14be 9fdd db3d 4f92 d33c
00000020: a6fc c73d dc48 8bbc 2f3c 263d a42e 93bd
00000030: 03eb 2dbe 4cc2 a83d 45d8 4f3d 82df 19bc
00000040: 904e 15be 9e59 eebc 8c59 2dbe dc85 aa3e
00000050: 45a7 163e 748e 0a3e 4f2a ce3e 01ff 05bd
00000060: 3a7c 1d3d 1f2f 6c3d e70f b4bd 145f 09bd
00000070: f242 5cbd 628c e8bd b3db d73d 61cc 19be
00000080: 9295 f8bd 2d4d 863c b57a bebe 89e5 9bbd
00000090: d0c9 0c3e dafa f7bd 5305 1dbe 4856 02be
000000a0: 63f4 c93c 621e e8bd ff56 0bbe 1cf9 473e
000000b0: e655 ebbc bc9d 0c3d 3927 ce3c a064 bebd
000000c0: 709b 6b3c 8e1d 043e 4ca9 86bd 45e9 bdbd
000000d0: 8f35 1cbe 84c9 0c3e ec97 c3bd 51b1 ed3d
000000e0: add7 c8bc cda2 1a3e e3cf 47be 1775 a0bd
000000f0: 5a88 a5bd 5c1b 0a3e aacc dd3d 9cbf 063e
00000100: c6ef 283e 4f72 22be 9ff4 833d 380d 40be
00000110: 8983 cf3d 8701 a13d c61c a13d 0dbe 84bc
00000120: dfb4 a23d 8f0a 59be 4650 ae3d bbb7 113d
00000130: 1760 dbbc ce0b 073d 4da3 8ebd 63f3 e6bd
00000140: 6fc1 8fb9 d1f6 af3d bc46 dcbc f284 f7bc
00000150: 4e8b febd c404 80bc 98a7 cdbd dc7a d13c
00000160: 9f76 8d3d a7bd 003e 765a 6fbd ebb5 1cbe
00000170: ab77 f63d cfd2 23be 8324 dfbe 9f8b b1bd
00000180: 803a 02be 8192 9b3e a744 0bbd 8175 a33d
00000190: 67ab 45bd 1cac b73c 4c5e 063c 0e24 843d
000001a0: 6408 2a3e 5992 ba3d a32a b7bc 7174 22be
000001b0: f5da bc3d b638 1fbe bfff ca3d 870b 9cbd
000001c0: ed40 a73e 88cd 0a3e f930 a4bd 7cea e53d
000001d0: b6d0 81bd e8fe a83d 86c7 19be f5e0 21be
000001e0: 377f 8bbd 143a 1d3e a9ff 093e 58e8 cb3d
000001f0: 42e9 d43d 5c87 b0bd 5f2d 8abd 1736 c43d
00000200: b1bc f4bc 670f b3bb 31e7 0fbe d378 c8bd
00000210: a5eb 053d c996 b23c fa70 8ebd 6ce0 1a3c
00000220: 1d49 6b3e a70f ffbd 24ad c13d f133 42be
00000230: 43c3 0ebe 7f2e 21be 05ae 6bbd 368d f73d
00000240: 7a7f dd3d 8221 cb3d 7a32 9abd f773 cf3c
00000250: 3863 e93d bebf a93d 8e9f 403d f1bd 81be
00000260: 35c0 13be 0aff 21be e14a f03d ab96 a33d
00000270: c478 0c3e a16d 1d3e a520 4fbd 8976 873d
00000280: 131f e63d de06 c7bb e820 953d 66e0 853b
00000290: f973 b1bd 7693 693d 0799 cebc 13c5 09be
000002a0: f9d5 10be 4788 d93e 4aa9 b6bd 3c23 933d
000002b0: 5b8a d8bd af3b b7bd cb4e 4f3d 40a5 1d3e
000002c0: 3cf2 1b3e acd8 263e 0cc5 33be cac7 fdbd
000002d0: d06d 483d e372 fe3d 966d fd3c 9e82 163b
000002e0: 1f0d a7be e47b 26be 68ca 023d 4200 c5bd
000002f0: 1c1a f4bd 6d60 42bc bafc 52be d884 fa3d
00000300: bf36 873d fe0e bf3c b387 953d 0116 0abe
00000310: 7f78 c5be 48e3 1d3e fcf2 b63d 10f6 903e
00000320: 711f 093d 2764 9abc 603c f03d ea6a b0bd
00000330: 478c 65bd 9e49 b93c eeea 083c 55ae 293e
00000340: b283 3dbe 7dd2 d1bd bfc5 afba a00a e6bd
00000350: 3bfc 1e3e 0d99 a6bd 4212 8dbe 6c4a c7bd
00000360: de72 8abd 66d2 9f3c adc2 283e 786c 973d
00000370: 6717 84be 4c0e fdbc ff67 bd3d af61 81bd
00000380: 2266 1dbe a717 1dbe b5e1 603e ea61 0bbe
00000390: 2a4f 1dbe 2b2d b7bd 60c4 e1bc 0941 c5bd
000003a0: 4f0d 12be 576b 003e 5471 133e 2542 0a3d
000003b0: 2da1 cabd bcbd 92bd 82da 04be 03c9 9bbd
000003c0: 9894 6e3d 464b 80be 46bf d0bd 0ade b3bd
000003d0: d8b0 dc3d 080e 28be 72d4 9c3d 37a3 97be
000003e0: 516e c8bd 5901 7f3c 6ead 07be 8594 9b3d
000003f0: bdca 073e ca21 7c3b 36c6 593c d13e 713c
0.084154725 -0.063262746 -0.13426964 -0.071174115 -0.010200414 -0.14488675 0.1073563 0.025826601
0.09764986 -0.017002515 0.04058474 -0.0718663 -0.16984181 0.08240184 0.05074336 -0.009391667
-0.1458075 -0.029095467 -0.1692869 0.33305252 0.14712246 0.13530904 0.40266654 -0.032713894
0.03844855 0.057662126 -0.08792096 -0.03353794 -0.05377478 -0.11354901 0.10539951 -0.1501937
-0.12137903 0.016394222 -0.37202993 -0.0761214 0.1374886 -0.12108393 -0.15334062 -0.12728226
0.024652665 -0.1133392 -0.13607405 0.19528621 -0.028727483 0.034330115 0.025165187 -0.092965364
0.014380321 0.12901899 -0.065752596 -0.09273008 -0.15254806 0.13748747 -0.09550461 0.11606086
-0.024516905 0.15101166 -0.19512896 -0.07834833 -0.080826476 0.13487 0.10830052 0.1315903
0.16497716 -0.15863918 0.06443142 -0.18755043 0.1013251 0.078616194 0.07866816 -0.016203905
0.07944655 -0.21195434 0.08511405 0.03557561 -0.026779218 0.032970242 -0.06964741 -0.11276891
-0.00027419205 0.08591998 -0.026889198 -0.03021476 -0.12428914 -0.015627272 -0.100417316 0.02557128
0.06907391 0.12572347 -0.05843588 -0.15303771 0.120345436 -0.15998386 -0.43582544 -0.08669209
-0.12717628 0.3038521 -0.03400102 0.079813965 -0.048259165 0.022420935 0.008201193 0.064521894
0.16604763 0.09109945 -0.022359198 -0.15864731 0.0922145 -0.15548977 0.09912061 -0.07619386
0.32666722 0.13554966 -0.08017153 0.11226365 -0.063386366 0.082517445 -0.15017518 -0.1580847
-0.06811374 0.15354186 0.13476433 0.099564254 0.10396053 -0.08619568 -0.06746935 0.09580629
-0.029875131 -0.0054644826 -0.14053036 -0.097886704 0.03269543 0.021800416 -0.06955142 0.00945292
0.22977109 -0.12454157 0.09456852 -0.18965127 -0.13941674 -0.15740393 -0.057539005 0.12087481
0.1081533 0.099185005 -0.07529159 0.025323851 0.113958776 0.08288525 0.047027163 -0.25340226
-0.1442879 -0.15819946 0.11733032 0.07987722 0.13717943 0.15373851 -0.05056824 0.06614406
0.11236396 -0.0060738167 0.07281667 0.0040855883 -0.08664698 0.057025395 -0.025219453 -0.13454084
-0.14144124 0.42486784 -0.08919008 0.07184455 -0.10573264 -0.089469306 0.050612252 0.15395069
0.15229124 0.16293591 -0.17555636 -0.12391622 0.04893285 0.12424257 0.030936044 0.0022966038
-0.32627198 -0.16258198 0.03193131 -0.0961919 -0.119190425 -0.01186381 -0.2060422 0.12232369
0.06602239 0.023322579 0.07301273 -0.13484956 -0.38568494 0.15418732 0.08933064 0.2831273
0.03347725 -0.018846584 0.117302656 -0.08614142 -0.056041982 0.022618111 0.008356793 0.16570409
-0.18507269 -0.102452256 -0.0013410373 -0.11232495 0.15525906 -0.08134661 -0.27552992 -0.09730992
-0.067601904 0.019509505 0.16480513 0.07393736 -0.25799105 -0.030890606 0.09248351 -0.0631746
-0.15370992 -0.15341054 0.219611 -0.1361157 -0.1536223 -0.08944162 -0.02755946 -0.09631545
-0.1426289 0.12540947 0.143987 0.033754487 -0.09894023 -0.07165095 -0.12973979 -0.07606699
0.05824718 -0.2505743 -0.101927325 -0.08782585 0.10775918 -0.16411602 0.07657708 -0.2961671
-0.09786666 0.015564286 -0.13249752 0.07596687 0.13260932 0.0038472288 0.013291886 0.014724449

conv1d.bias f4 [64]
00000000: c044 873c 561b 59bd 7668 b23d bf79 65be
00000010: c749 133e 89b3 c13d d1ec 39bb e089 693e
00000020: 5f5f 9b3d 8593 23bd 8dde a43e 87d0 42be
00000030: c9bb 333e 9b9e 3a3e 1a5b 8cbd ef17 e43a
00000040: b1d0 7c3d 38a2 fdbd 3a9c 193d f5ac 66bd
00000050: e70c f0bc 9bb5 483e 2e75 08be ce83 d33d
00000060: aecb 173d 9477 0e3e 6a49 6b3d 1ec3 a33c
00000070: afd5 773e 8094 2c3d acda 173e 0af1 fdbb
00000080: 1696 273e e43e 60bc d0d1 9f3e 3c94 e83d
00000090: bcc6 35bd 4a5f 3b3e 67bd be3d ff26 5f3d
000000a0: 28b9 1dbe d5c4 bdbd b226 393d 94ca 52bc
000000b0: b0d0 0cbc 058a bcbb 62f2 de3b 9326 893e
000000c0: aebd fabc 573e 713e fe41 17be 11c2 8e3e
000000d0: d70f 85bd e1a3 2c3e 764f 86bd 218d 0d3d
000000e0: ee73 c6bd 2130 623d bfe7 8a3d 518d 24be
000000f0: 3a79 01be c77a bcbd 6dfc c03d 8893 c9bc
0.016512275 -0.053004585 0.087113306 -0.22409724 0.14383613 0.09458072 -0.0028369913 0.22806501
0.0758655 -0.039935607 0.32201043 -0.1902486 0.17552103 0.18224566 -0.06853314 0.0017402152
0.06172246 -0.123844564 0.037502505 -0.05631729 -0.029303027 0.19600527 -0.1332595 0.10327874
0.03705948 0.13912803 0.05744306 0.0199905 0.24202608 0.042133808 0.1482951 -0.0077496814
0.16365847 -0.013686869 0.31214762 0.113563985 -0.04437898 0.18298069 0.093134694 0.05448055
-0.15402663 -0.09266058 0.04520292 -0.012865681 -0.008594677 -0.005753758 0.0068037966 0.26787242
-0.030608024 0.23558937 -0.14771268 0.27882436 -0.06497162 0.1685939 -0.06558125 0.03455842
-0.096900806 0.05522168 0.06782483 -0.16069533 -0.126439 -0.092031054 0.094231464 -0.024606481

lstm.weight_ih_l0 f4 [256, 64]
00000000: 1009 8cbd 6dbf 8abd 917b dfbc f3bf a63e
00000010: d4e3 c23e 2aa4 c23c 6f08 133e 43f1 6a3c
00000020: d45a 15be b79c 453d c8f4 e83e 4e45 883e
00000030: 66d4 183e 05a7 9a3e 7075 5bbe 2482 843d
00000040: 017c 113e e686 febc 43bf 8f3e c8eb 433e
00000050: bb2a 04be a194 12bd e750 f8bd 5840 b0bd
00000060: 97cd 68bc 50f6 8b3d a4fb 7b3e e49a f9bd
00000070: d0c5 463e a40b 773e d800 453e a0a0 8f3d
00000080: 84e9 8bbd 0b59 9f3e 2798 b23d ce03 36be
00000090: 86fa 3fbd ec6f f53d 313e 2ebc a71d ef3e
000000a0: 9e54 9b3e 9ee8 023e ee06 cb3e 0999 69bc
000000b0: 8789 2f3e 32cc 5abd 3bcd 993d 9034 3f3d
000000c0: 01e7 af3d f909 34be 5ee5 8a3e a10d 4b3e
000000d0: 9a52 fcbd a067 4b3d 2786 2fbc 2b15 cfbb
000000e0: 7bb7 8f3e a0b5 a83d 2d86 903d 03ca 1cbe
000000f0: e72b 11be 7ace bc3e 9a96 b53d 8895 3b3e
00000100: 7ac1 b83d d5f7 8a3e 6b5e 853e b5ed b63d
00000110: 5e7c 273e f3a3 cc3e 1c18 9a3c 352b 1e3d
00000120: 5d01 1e3d 0931 573e 1db9 d13c 0c9a 7dbd
00000130: 97d6 11bd 3bc2 873d e30b 5d3e 0ff3 683e
00000140: 45fc 9f3c e5a0 25bd 3650 8bbd b766 bd3e
00000150: 854a 0a3d 0860 7f3e 7886 063e 4f69 883e
00000160: 6768 a03e 1c3a 823d 5478 b23e c67d db3c
00000170: dff0 2fbd b0af 513e ef00 2bbd 64de a93c
00000180: ef1f e03d fe81 3bbe 2271 aa3d 278f 813e
00000190: 6c26 283d d6aa ecbd b29b 1b3e 3131 b4bd
000001a0: 7cdb 00be 2c22 003e 0908 923d b53a 313d
000001b0: 1d3c c53d a9b1 963e 5e47 08bd d4ec 8c3d
000001c0: d48a a63d 2cef ac3d 414e 9e3e 86df 9fbd
000001d0: ea9e 593e c5f3 3f3e d429 203d 0e76 1b3e
000001e0: 86d4 1c3e 32f5 c93d 9bb2 febc 50e4 0abd
000001f0: ada2 8ebb d25e fcbc cf94 883d 5ab5 db3d
00000200: 9ba7 7e3c 2ad8 a6bc 1469 b5bc ddbe 893e
00000210: d2e6 5d3e 55f6 753d 7a67 47bb 78a3 d03e
00000220: 12e9 80bc bb87 1e3d 22cf 8f3e a0ff a83d
00000230: e9bc 423d eccd a53d d665 bf3d 34a2 123e
00000240: a23d 533e fc65 a0bd e4e3 f23d 5213 843d
00000250: 4383 413e 23b8 183e 3cf1 f6bd 513e 103e
00000260: 0b40 b53d 7d4f ad3d 8f52 3c3e 0469 093e
00000270: 8be2 8e3e b6fb 893e 4e27 353e a05d 0a3d
00000280: 4048 e8bc 2eb8 8e3d 65f3 c93e 063a 8e3e
00000290: 45b4 6d3e a01d 1d3c 08dd ac3e 45e0 963e
000002a0: 94b9 fb3c 8789 a03d 3aaf 413e 97ae 6b3e
000002b0: d42a 4d3e be53 95bd c5d6 bb3d 9c4e 053e
000002c0: afb1 6e3d 24c1 c5bc 6c20 163e 3e77 123e
000002d0: bae6 b63d 195e 583e c452 4f3e 6b19 86bc
000002e0: 6402 473d 0c91 973e 3299 b13d 8277 43bd
000002f0: f23a 8ebe 367f 503e a2df 9b3d 958f 90bd
00000300: 216b 0fbd cbed 153e 7c81 f73d 4b82 ed3d
00000310: 12b6 8f3d 9cd5 1a3d 65de 263e 7447 183e
00000320: 3dd0 1abc 6bd6 ba3d 412f c83d a11c 00be
00000330: 37d3 593e ccae 273d 3037 c03d 1528 d63d
00000340: 2351 273d 8ae9 073e 3f97 0b3e 6f2c 803e
00000350: 7047 b43e 03e6 833e c01a aa3c 7bec d93d
00000360: 768b a23e ac65 1a3e dcf2 e13d 929e 613d
00000370: 138d 813e 8bb5 463e db07 ef3a 6c48 463e
00000380: e804 ea3d 7a9e 403d b33b d83d 775c a33d
00000390: 683c eb3c ff1f 203e efcb b33d a2ee 8cbd
000003a0: 26d8 093b e155 7e3d 4dc3 323c 3a0d 273e
000003b0: e335 7d3e 44f1 613c cce4 053e 2bd8 103e
000003c0: 0ad6 533c 468d e63d 1c56 7d3d 0cca 213e
000003d0: 9ffa b33d 707c 483e d557 583e 6240 343e
000003e0: 8c74 d43d b5ee 503d 0eca 933e 34e5 ce3d
000003f0: 6ec4 253e 1222 523d df46 d83c d6bf c23d
-0.06837666 -0.06774793 -0.0272806 0.3256832 0.38064444 0.02375992 0.14358686 0.014339748
-0.1458543 0.048245158 0.45499253 0.26615375 0.14924774 0.3020555 -0.21431518 0.06470135
0.1420746 -0.031070184 0.2807561 0.19132912 -0.12906925 -0.035786275 -0.12124806 -0.086060226
-0.014209173 0.0683409 0.24607712 -0.12187746 0.19411397 0.24125534 0.19238603 0.07013059
-0.06831649 0.31122622 0.08720427 -0.17774889 -0.046869777 0.11984238 -0.010634945 0.4670231
0.30337995 0.12784049 0.39653724 -0.014257678 0.17142306 -0.053417392 0.07509848 0.046680987
0.085889824 -0.1758193 0.27128118 0.19829418 -0.123204425 0.04965937 -0.010713137 -0.006319662
0.28069672 0.08237767 0.07056842 -0.15311436 -0.14176904 0.3687628 0.088666156 0.1831876
0.09021278 0.27142206 0.26048598 0.08932058 0.16356036 0.39968833 0.018810324 0.038615424
0.03857552 0.21014799 0.025600964 -0.06191449 -0.03560504 0.066288434 0.21586566 0.2274897
0.019529471 -0.040436644 -0.068024084 0.36992428 0.033762474 0.24938977 0.13137233 0.26642844
0.31329653 0.0635874 0.34857428 0.026793372 -0.042954322 0.20477176 -0.041748937 0.020735927
0.10943591 -0.18311307 0.083223596 0.2530453 0.041052267 -0.11556022 0.15196112 -0.08798445
-0.12583727 0.12513036 0.07130439 0.043268878 0.09630606 0.2943242 -0.033271186 0.06881109
0.08131948 0.08444056 0.30919078 -0.078063056 0.21252027 0.18745334 0.03910239 0.15181753
0.15315446 0.098612204 -0.031091025 -0.033909142 -0.0043528886 -0.030806933 0.06669008 0.107279494
0.01554289 -0.020366747 -0.022144832 0.2690343 0.21670082 0.060049374 -0.0030426667 0.40749717
-0.015736137 0.03870366 0.28087717 0.082518816 0.04754344 0.08095917 0.093455955 0.14319688
0.2062898 -0.07831952 0.11859873 0.064489976 0.18897729 0.14913993 -0.120577306 0.14086272
0.08850106 0.08462427 0.18390869 0.13418967 0.27907214 0.26949853 0.17690775 0.033780694
-0.028354764 0.06968723 0.39443508 0.27778643 0.23213299 0.009589583 0.33762383 0.2946798
0.030728139 0.07838731 0.189145 0.2301582 0.20035869 -0.07291363 0.091718234 0.13018268
0.05827492 -0.024139948 0.14660805 0.143033 0.08930726 0.21129645 0.20246416 -0.016369542
0.048586264 0.2960285 0.08671798 -0.047721393 -0.27779347 0.20361027 0.07611014 -0.07058636
-0.035014275 0.14641492 0.12085244 0.11597117 0.07017149 0.03780137 0.16295774 0.14871007
-0.009449062 0.09122928 0.09774638 -0.12510921 0.21271978 0.040938184 0.09385526 0.10456864
0.040848862 0.13272682 0.13631915 0.250339 0.35210752 0.25761423 0.020764709 0.10640808
0.31747025 0.15077847 0.1103265 0.055082865 0.25302944 0.1940519 0.0018236594 0.19363564
0.11426717 0.047026135 0.10558262 0.07976621 0.028715327 0.15637206 0.087791316 -0.06881453
0.0021033376 0.06209362 0.010910821 0.1631364 0.24727587 0.013790432 0.1307556 0.14144962
0.012929449 0.112574145 0.0618497 0.15799731 0.087880366 0.19578719 0.21127255 0.17602685
0.10373792 0.0510089 0.28865093 0.10102311 0.16188213 0.051302023 0.026400981 0.09509246

lstm.weight_hh_l0 f4 [256, 64]
00000000: 97f7 adbd 9f0c 0e3d f5eb 77bc fbc9 5d3c
00000010: 6604 89bb a77b c23d 2c8e c03d bab1 903d
00000020: 6322 dbbd b898 86bd eb03 9bbc 409c 953d
00000030: e0c2 e33c ff39 c93c 05df 97bd aa92 113d
00000040: 3afa f0bd 034d 88bc 4f3c 2fbd 267f 3fbd
00000050: 8a5e c7bd 1ad9 5cbd 407f 1e3d 9ac6 b33b
00000060: 004c 73bc e23d 9cbd 42ad d7bd 549b 753d
00000070: 3b82 8f3d 49ca 54bd 5d75 2dbd df6e e43c
00000080: 12ab 883d 0ff3 c03d 9027 013d 22c4 7f3d
00000090: 1c10 7f3d 1461 0b3c 81fa 663d 7a8d dc3d
000000a0: f1c6 883d 57f3 053d 99e4 d63c b43c 9b3c
000000b0: d3d0 3ebc d774 823c c759 3dbd 441b 753d
000000c0: e6bf 8bbd 703c 593d 74e2 053c d9da b83c
000000d0: 7377 e93d 4df5 883d da10 dd3d 68fd 0e3d
000000e0: badb f23d aa61 f3bc c985 1fbd 2044 953d
000000f0: 3256 42bc b612 c2bd 6ecb ddbc f044 72bd
00000100: 205d 5bbb e612 61bd 6226 4ebd ba6e 7f3d
00000110: 7faa 643d b392 b6bd 78dd 393d e8c4 e93d
00000120: acda 9f3d ffc3 f7bd 92e0 d93d 1dcf 0fbd
00000130: c643 e73c 38ae 9b3b b77c 943d 3c49 a73c
00000140: f93f b73d a8ee 963d f8f0 edbd 0ffc 93bd
00000150: fe35 d83c b32f d93d da9e 7ebd 2e88 ed3d
00000160: ee04 c23d f1ef 36bc f22f 9ebd 2e12 483d
00000170: d0e1 71bb e0db 15bd 4480 4cbd ea65 ca3d
00000180: ba4a 773d 8ae6 a9bd 4ef8 cb3d efa4 9f3d
00000190: 81d5 f73d 4c03 d83d df44 ad3d 3467 f0bb
000001a0: 1628 e53d 5c93 c33c 6122 d73d 6632 a0bd
000001b0: 10f7 d63d dc49 d9bc 5569 0b3c fa66 b4bd
000001c0: e2d1 d2bd 8f2a cfbd ca6f d73d 2064 a23d
000001d0: ef09 e4bc 41d6 afbd dab8 783b 3819 f6bd
000001e0: 9793 be3d 34e3 353c 2b84 db3d d043 debc
000001f0: 4e75 933d 1399 283d 90d5 7c3d aac2 6e3d
00000200: 7cc6 bf3d ab55 be3d d85b 363d 471b 54bd
00000210: 37e8 6bbd 4acb 2a3c 1fe8 a53d 2345 313d
00000220: 142b 6a3d 4dc8 803d 46b5 adbc 4f2d a1bd
00000230: 3012 723d d0af a3bd a9f5 9bbd 7597 47bd
00000240: 6698 26b9 bb27 853b 62c6 eabd 5415 edbd
00000250: f1a4 823d b16c 833d cf87 30bd 376c fa3b
00000260: 00f5 d73a 6549 d4bc 3b42 bdbd 847d e23d
00000270: d823 95bd ceb0 83bd 383e c2bb 3957 a93d
00000280: 304a e5bd ecb6 f43d 569a 933d ac19 c4bd
00000290: 9070 8dbd aa71 c43d f549 ca3d 7e97 77bd
000002a0: 66bb b53d 83f1 12bd 50d6 c4bd 94bd b0bd
000002b0: a318 71bd afa3 883d 46c7 e0bd a43f 59bd
000002c0: b8d9 54bd b1a9 65bd 826d 9c3d d64c a0bc
000002d0: d32e d23c bc26 753d e016 c7bd 611e 903d
000002e0: 16e0 693d 4328 e53d 06d0 453d 6b6e 9a3c
000002f0: ed3e 91bd 4281 fabd da44 6d3d dbb1 dabd
00000300: 5c81 40bb a855 c63c 9d2b 83bd d87d f33c
00000310: 6eb6 cabd e6c8 81bd e1e4 b4bd 8421 ea3d
00000320: 1a8f 44bd ad44 e43d fc34 45bd 463a b4bd
00000330: 262d dd3d 5552 bdbc a55c b43d b794 6f3d
00000340: a600 cbbd cbc7 48bb 9a7b 99bd 347b a03d
00000350: a0f6 b0bd 04b5 dd3d 3c69 74bd 4c62 cc3d
00000360: 92cd 8bbb cdb4 5bbd d6ef 443d bf9a f83c
00000370: d609 e1bd eda3 a1bd 4028 09ba 43cb c2bd
00000380: 914e 75bd 850c b13d 8974 f93d 5025 f53d
00000390: ec35 ebbd f49f a53d bc00 cb3d 2edb 873d
000003a0: cc8f 6dbc eb76 e4bd 2784 adbd 7c61 fbbd
000003b0: de62 593d 64f2 ad3b 6a91 ebbd 09b1 49bd
000003c0: 746d 273d 6c31 ecbd 5592 ca3b 42b3 ac3d
000003d0: f60b c33d 8434 c13d 6706 49bd 301a 10bd
000003e0: 95c7 ecbd 2a2e d0bd a781 783d c731 5ebd
000003f0: 8f9c dbbc ea55 f23d f2cd 32bd 2cdd 5cbc
-0.0849449 0.034680005 -0.01513194 0.013536925 -0.0041814325 0.09496241 0.09402117 0.07065149
-0.10699918 -0.065720975 -0.018922767 0.07305193 0.027802885 0.024563788 -0.074155845 0.03554026
-0.11766477 -0.016638285 -0.042782124 -0.046752118 -0.09734829 -0.05391798 0.038695574 0.0054863216
-0.014849663 -0.07628991 -0.10531093 0.059962586 0.07007261 -0.051950727 -0.042348254 0.027884899
0.06673254 0.0942136 0.03153187 0.062442906 0.062271222 0.008507032 0.056391243 0.10769172
0.0667857 0.03270277 0.02623205 0.018949844 -0.011646467 0.015924854 -0.046228196 0.059840456
-0.06823711 0.053036153 0.008171666 0.022565292 0.11399736 0.066874124 0.1079423 0.034909636
0.11858316 -0.029709656 -0.038945947 0.072883844 -0.011861371 -0.09476225 -0.027074542 -0.059147775
-0.0033472255 -0.054949664 -0.050329573 0.062361456 0.05582666 -0.089146994 0.045377225 0.1141451
0.0780538 -0.1209793 0.106385365 -0.035109628 0.02823056 0.004750993 0.0725035 0.020420663
0.08947749 0.07369739 -0.11618227 -0.07225811 0.026392933 0.10604801 -0.06216321 0.1159824
0.094735965 -0.011165605 -0.077239886 0.048845463 -0.0036908276 -0.036586642 -0.04992701 0.0988272
0.060374 -0.08295925 0.0995947 0.077951305 0.121012695 0.10547504 0.08460402 -0.0073365215
0.111892864 0.023873977 0.10504604 -0.07822113 0.10496342 -0.026524477 0.008509 -0.08808704
-0.10293938 -0.10115539 0.10519369 0.079292536 -0.027836768 -0.085857876 0.0037951977 -0.12016529
0.09305494 0.011101533 0.107185684 -0.027131945 0.072001085 0.041161608 0.061727107 0.058291115
0.0936403 0.092936836 0.044521183 -0.051783826 -0.057594504 0.010424444 0.08100914 0.043278825
0.05716999 0.06288204 -0.021204602 -0.0786997 0.059099376 -0.07992518 -0.07615215 -0.048728425
-0.00015887766 0.004063574 -0.1146362 -0.11576334 0.06379116 0.064172156 -0.043098267 0.0076422947
0.0016476214 -0.025913903 -0.09241148 0.110590965 -0.07282227 -0.06430207 -0.005927827 0.082685895
-0.11195791 0.11948952 0.072071716 -0.09575209 -0.06906235 0.09591992 0.098773874 -0.06044721
0.08873634 -0.035874855 -0.09611189 -0.08629909 -0.058861386 0.06671845 -0.109755084 -0.053039208
-0.051965445 -0.056070033 0.076380745 -0.019567888 0.025657093 0.059851393 -0.0972116 0.07037044
0.05709847 0.1118932 0.04829409 0.01885148 -0.0709208 -0.12231685 0.05792699 -0.106784545
-0.002937398 0.024210766 -0.06404803 0.029723093 -0.09898077 -0.063371465 -0.08832718 0.11432174
-0.047988035 0.11145911 -0.048146233 -0.08800177 0.10799627 -0.023110548 0.08806733 0.058491435
-0.09912233 -0.0030636664 -0.07494278 0.07835999 -0.0864079 0.108255416 -0.05967067 0.09979686
-0.0042664493 -0.053639222 0.048080288 0.030347226 -0.10988204 -0.078925945 -0.0005232133 -0.09511425
-0.05988938 0.08644966 0.121804304 0.119700074 -0.11484894 0.08087149 0.099122494 0.06633602
-0.014499616 -0.11155494 -0.08472472 -0.12274453 0.053072803 0.005308436 -0.11502345 -0.0492411
0.040875867 -0.11532864 0.006181995 0.08432628 0.09523766 0.09433845 -0.04907837 -0.035181224
-0.11561505 -0.10165055 0.06067052 -0.05424669 -0.026808051 0.11832793 -0.043653436 -0.013480466

lstm.bias_ih_l0 f4 [256]
00000000: ad79 933e 35a2 f03d 98f3 ef3d d2b0 9d3e
00000010: 49d2 1e3e 6f9f 393d fa23 e73c cb85 fb3d
00000020: 0a0e c03d a651 7b3e 806d 223e 029c 533e
00000030: e5b8 133d 81ed 0e3e 2cc2 d1bc 98bf 8e3e
00000040: ac05 fc3d cda6 8c3e ffa3 d13d 5fd1 143e
00000050: 27a7 753e 0740 593e 0d65 9a3e 429b 943e
00000060: a7e3 193d c531 dcbc 3830 5a3e 4117 9c3e
00000070: 7390 c33d b4a1 ea3e b805 153e 8d72 f93d
00000080: 634f e43d 97a5 173e 7fe1 893e d147 9d3d
00000090: df68 153e d568 39bd 7e95 863d 59f9 ab3d
000000a0: e975 7c3e 61c1 0dbd 9b43 d93d eeba 333e
000000b0: 733b b23c e576 143e e33e a03e 75a5 bc3e
000000c0: b528 91bc 3679 613e b0e9 923d 76a1 6c3c
000000d0: 3222 173e dde1 5b3e 8fa8 123e 3986 b13e
000000e0: 2e26 8b3e dbe8 4c3e f706 743e 22b7 933e
000000f0: 8f50 2b3e 7d7a a03e eafd 913e 674d ca3e
00000100: 4e6e d13d 8625 40bd d6fc 7fbd 202a ef3c
00000110: e7bd cabd 24f7 633d ca3f 03bc 4582 d6bd
00000120: dda4 63bd ffaa 9ebd 0fa9 c93d a7cf 773d
00000130: 4f64 e13d f9f4 e7bb 3cca c43d 5986 4ebd
00000140: f8d1 843d a600 4a3d 9b86 2bbc bb5f a53c
00000150: b991 89bc 45b5 ecbd 3376 78bc 3105 b03b
00000160: b031 aa3d 5c43 9dbd ddf0 49bd 34ad f1bd
00000170: 8505 973d 5fd4 763d d1ab 63bd 3348 0ebd
00000180: fbe9 36bd 1a49 893c e41b 443d d439 e2bc
00000190: 924d f73d a87c 053d 6c3c 8f3c d930 3fbd
000001a0: eee1 3d3d 425e fbbd 3850 c6bd d78b 8b3d
000001b0: cabb e2bd 2a1f fbbd e204 cc3d 9bb1 b63d
000001c0: 3f92 dfbc 8b62 3bbd dc62 e8bc da10 f9bd
000001d0: 0ee9 e1bd c07e b5bd 53b7 75bc 6ad0 59bd
000001e0: 398a 2f3d 20e1 6d3c 5562 74bc 7d49 093d
000001f0: 69eb 653d f251 503b 097a a33d dc17 0b3d
00000200: 4fbe e63d 342d ed3d 6055 ae3d dfe7 05bc
00000210: 2869 5a3d 106e 49bd 30b8 983d 433c dd3b
00000220: be0c 1f3d dd92 cfbd eb1c ec3d 7414 ab3c
00000230: dcb3 8c3d 00ab f03d 1fea 82bd 3867 663c
00000240: b536 a03d d4fd 913d bfa8 b83d 7108 90bc
00000250: 3c55 f1bd aeef 473c 69c9 a2bd 44b1 01bd
00000260: 6457 0c3e 57af 013e 4231 f6bd f46f 10be
00000270: 0d3b 9ebd 1c60 2bbc 6093 b5bd 9bb1 c1bd
00000280: 978f 3c3d f67e 05be 2dad c0bd 8341 d2bd
00000290: e026 f1bd 1130 c3bd 4319 efbd bba3 0dbd
000002a0: 82a1 683c 4a4a a1bc dff4 093d 4a57 56bd
000002b0: 440c 063e 6831 913d dd6a 21bd 1bf4 773c
000002c0: 4936 883d 94a2 f63d ebea cd3d cf44 11be
000002d0: 19d2 f43d 24cd 63bc 4969 4c3d 006d 7cbd
000002e0: 8c12 91bd ae30 7f3d 930d 54bc 0310 1abc
000002f0: e32c 2a3c aacf 32bc 023c 033d abc0 bfbc
00000300: 3682 9a3e 964b 1b3e 964c 6b3e e084 513e
00000310: da36 ba3d bfdd df3d e6a2 823c 641e 243e
00000320: 1c6e 853e efbb 713e 7e1f b73d eb45 ed3d
00000330: 9e36 573e ba15 4b3e 9087 253e c0ad c53e
00000340: e63a ed3d 4e7e 233e 0c56 993e ff28 803e
00000350: 81f6 5f3e b45a df37 b735 f13d c215 b53d
00000360: a8f3 1b3e c7ce 003e 3939 c53d 1fd5 3a3e
00000370: efa1 043d 6aea 933e e7ae 2a3e 07f9 0e3e
00000380: dd3d 103d bdba 333d f453 7d3e 80f4 273d
00000390: 516c 013e 7aa0 e5bb 64d9 47bd 2626 233e
000003a0: 828d bc3e e03a b23d 7d06 063e 7cc2 953e
000003b0: 5547 17bc aacf c23d c40e ba3e e6d6 823e
000003c0: 0e2c ccbd 4979 1c3e 206e 0b3e f805 293d
000003d0: 69d4 8d3c 9b2d ff3d dc1a 923d 48b3 a33e
000003e0: cce3 493e d4ac 5a3e b7f9 763e accf a73e
000003f0: 5eaa 1c3e 829f c53e 20cd 813e 0399 c13e
0.2880377 0.117496885 0.11716384 0.30798966 0.15509905 0.045318063 0.028215397 0.12281378
0.09377678 0.24542865 0.15862083 0.20664981 0.036065 0.13957788 -0.025605284 0.2788055
0.12305769 0.2747101 0.10236358 0.14532994 0.23989545 0.2121583 0.3015522 0.29024702
0.03757062 -0.0268792 0.21307456 0.3048649 0.09549036 0.45826495 0.14552963 0.12180052
0.11147954 0.14809261 0.26929852 0.076797135 0.14590786 -0.04526599 0.06571482 0.08397169
0.24654354 -0.03460825 0.10608598 0.17551777 0.021756863 0.1449848 0.3129798 0.36844984
-0.017719606 0.22018895 0.071734786 0.014442792 0.14759138 0.21472879 0.14322113 0.34672716
0.27177566 0.20010702 0.23830782 0.28850657 0.1672995 0.3134345 0.28514034 0.39512178
0.10226117 -0.046910785 -0.062496983 0.029194891 -0.09899502 0.055655614 -0.008010814 -0.10474066
-0.055577148 -0.07747459 0.098466985 0.060500767 0.110054605 -0.0070787636 0.09608886 -0.050421093
0.06485361 0.049317025 -0.010469104 0.02018725 -0.016793119 -0.11558012 -0.0151649 0.0053717126
0.083102584 -0.076788634 -0.04930197 -0.11800614 0.073741 0.060261127 -0.05558378 -0.034736823
-0.044656735 0.01675849 0.04787816 -0.027615465 0.12075342 0.032589585 0.017484866 -0.046677444
0.04635804 -0.122738376 -0.09683269 0.06813782 -0.11070974 -0.122618034 0.09961869 0.08920594
-0.027291415 -0.045748275 -0.028367452 -0.12161417 -0.1103078 -0.08862066 -0.014997321 -0.053177275
0.04285643 0.014519006 -0.014916022 0.03351735 0.056132708 0.0031787124 0.07982261 0.0339583
0.11266767 0.115808874 0.08512378 -0.008172958 0.05332294 -0.04917723 0.07457006 0.0067515685
0.03883051 -0.10135434 0.11528953 0.020883776 0.06870243 0.11751366 -0.06392311 0.014062695
0.078229345 0.07128492 0.09016561 -0.01758215 -0.11783835 0.01220314 -0.07948572 -0.031663194
0.13705212 0.12664543 -0.12021114 -0.14105207 -0.07726107 -0.010459926 -0.08866 -0.09457704
0.046035375 -0.13036713 -0.09408031 -0.102664016 -0.11774993 -0.09530652 -0.1167474 -0.034579974
0.014198663 -0.019688744 0.033680793 -0.05232934 0.13090616 0.070895016 -0.039408553 0.015133883
0.06650979 0.12042728 0.10054573 -0.14186405 0.119541354 -0.01390389 0.049905095 -0.061627388
-0.07083616 0.062302284 -0.0129426895 -0.009403232 0.010386678 -0.010913769 0.03203965 -0.023407301
0.30177468 0.15165552 0.22978434 0.20460844 0.09092493 0.109309666 0.015946817 0.16027218
0.2606057 0.23606847 0.089415535 0.115856014 0.21016929 0.19832507 0.16164994 0.38609123
0.115834996 0.1596615 0.2994846 0.25031278 0.21871378 2.6625909e-05 0.117778234 0.088420406
0.15229666 0.1257888 0.09630055 0.18245362 0.032380994 0.2888978 0.16668282 0.13962184
0.035215247 0.04387926 0.24739057 0.041004658 0.12638976 -0.0070076557 -0.048791304 0.15932521
0.36826712 0.08702636 0.13088413 0.29249942 -0.0092333155 0.09512265 0.3633939 0.2555458
-0.0996934 0.15280642 0.13616228 0.041265458 0.0173132 0.124598704 0.07134029 0.31972718
0.19715804 0.21354991 0.24118696 0.3277563 0.15299365 0.38598257 0.2535181 0.3781205

lstm.bias_hh_l0 f4 [256]
00000000: 4973 7f3e 6ba4 d33d decd 4f3e c1dc e53d
00000010: 320a 713e f92b 8b3d 0f8d 553e 95af 42bb
00000020: f379 583e 5840 2a3e eb7b 8a3d 84c4 723e
00000030: e79e 1e3e 9177 103e 90d9 2a3d 7810 b13e
00000040: a8b8 7b3d e8b8 993e 7bbe 873d c0d0 943e
00000050: 3111 103e 6ab6 023d 80bc 823e c96e 983d
00000060: 6ff9 553e ebe1 933d 8cb0 443e d323 113e
00000070: ae7d 2f3e 878b c63e f4c7 f1bb 34a1 03bd
00000080: 676a 7f3e 175f 073d 4532 733e 4374 8d3c
00000090: 9866 4b3e 5c6b da3d 6158 693e 6d28 2a3e
000000a0: 7964 873e 901e 23bc 6c65 403e 3414 6b3e
000000b0: c5ee 3d3e d642 503e 0971 c63e 89e7 4f3e
000000c0: a41b fa3d 774e 8b3e 2d64 e8bb 8086 563c
000000d0: 8373 fc3d d8e2 d43c 1c8b 883e cf60 913e
000000e0: c570 ae3d 2ec2 993e d4fa c93e fa6f 763e
000000f0: dc46 9c3e cae6 b03e 44bb a73e a859 5f3e
00000100: 3da5 abbc 356a dabd 31b4 38bd 0b07 04bd
00000110: 3097 3a3d c74c d33d fd95 a63d 82a2 b2bd
00000120: 9408 8abc 9a52 9fbd 09a4 84bc 6be0 e0bd
00000130: 813b 11bb 922a 03bd d69f ac3d c88e a2bd
00000140: 6acb f8bc d0e5 f0bd 8179 85bd 297c aabd
00000150: 5353 18bd a703 cd3d bce1 2bbd 7ff5 7e3b
00000160: a430 4c3d 417e d53d 046e 833d 2fe3 c6bd
00000170: 9ce1 bb3d 861c a83d 7456 a03d 2465 93bd
00000180: d235 2bbc 7fa0 cabb e73a a03d d63f d0bd
00000190: fb18 50bd 1827 fc3d 94df 863d 7218 d3bd
000001a0: 4179 dfbd a9bc 17bc e965 5b3d 5e33 babd
000001b0: 209c babd aff7 d53d bd8f a5bd f61f df3d
000001c0: 4a45 41bd bcef 3e3d 8557 973c 3c16 843d
000001d0: bbee 803d 8ea4 8e3d b8ce 923d f691 24bd
000001e0: ea6a e3bd 1dd0 943d fcc8 d83d 4fa1 c93c
000001f0: c552 d23c 7dfb ccbd 0e84 2cbd 5b22 21bd
00000200: c431 9c3d 28c1 2bbd eaee eb3d fc07 34b8
00000210: ddfc 62bd ddde 76bc 5671 88bd b858 27bd
00000220: a948 abbd 4d24 133d 7e50 a5bd d874 08be
00000230: 4a85 b8bd db5b a83d 0641 31bd 63b7 1a3e
00000240: 9d8e 09bc b7bc 70bd e3eb f03c 54fb 48b9
00000250: 32a0 fcbc 65e5 eebc 598b d639 1bcc b1bd
00000260: 2841 f33c 8e83 b0bb b9a6 3f3d fadf bc3c
00000270: 96a8 bc3d eb78 7dbd 9188 03be e354 b8bd
00000280: 25c2 f63b 11f9 603c f293 46bc 370a 91bd
00000290: 8616 693d e100 dfbd 236c 3d3a f2b5 b03d
000002a0: 2215 9cbc cddd dbbd 5df1 8ebd 7d14 8ebd
000002b0: a47f 1c3e 1bda a23d f752 823b 1556 25be
000002c0: 714d 193d e5dc fd3d 9780 c5bd e614 cfbd
000002d0: 1eb9 1f3d 5949 3d3d 4640 aabd 31a5 07bd
000002e0: 6375 0cbe 91c1 9d3d 297c cf3c afbb 143e
000002f0: bcd4 7cbd fa50 a53d 6307 1dbd 25eb d1bd
00000300: b70d 523e cb1d 1f3e 49a0 fc3d 6d64 8b3e
00000310: 3bbd 0a3e 65bb c23d 4649 6e3e 6f07 383c
00000320: af9f 9f3d 5ab8 be3d be41 353e 8501 963e
00000330: 0d20 783e 2fe2 b33e d520 b53d e01a c13e
00000340: b8ea 6c3e 6670 b23e aff9 403e ec5c e63d
00000350: 3ad6 093e 5b58 d53c 098e 193e f4aa 9d3e
00000360: 9317 6b3e 6940 113e 96a6 1b3e a07d 753e
00000370: ada6 a03c 032c df3e 72ad 8abc 92cb 433c
00000380: 9fcf 1a3e a146 6d3d 963e b83e cf0a f23d
00000390: 4801 743e bce2 f73c 9a85 13bd b4c9 993e
000003a0: 1505 c23e 2753 a13d 0608 2c3e be94 8f3e
000003b0: b23c f73c 46de 553e 8121 183e 22f6 cb3e
000003c0: 3ab4 073d 1e3e f83d aff1 1f3e cfeb 5e3d
000003d0: 5666 0d3e d032 8d3d 5446 c23d ed9b b23e
000003e0: bb14 dd3d 1f90 543e 3f5d 9d3e b3c6 383e
000003f0: b23a 463e 202f 7a3e 3a89 a03e 47c8 da3e
0.24946322 0.103340946 0.20293376 0.11223746 0.23539045 0.067954965 0.20854591 -0.0029706706
0.2114027 0.16626108 0.06761917 0.23707777 0.15490304 0.14108111 0.04171139 0.34582877
0.0614554 0.30023885 0.06628128 0.29065514 0.14069058 0.031912245 0.2553444 0.074430056
0.20895933 0.07220825 0.19207972 0.14173822 0.17137787 0.38778326 -0.0073785726 -0.032136157
0.24942933 0.03304967 0.23749645 0.017267352 0.19863355 0.106650084 0.2278762 0.16616984
0.26443842 -0.009956017 0.1878869 0.22956926 0.18548115 0.20337996 0.38758114 0.20303167
0.12212303 0.272083 -0.00709202 0.013093591 0.123267196 0.025987074 0.26668632 0.28394172
0.08517603 0.3003096 0.3944918 0.24066153 0.3052281 0.34551078 0.3276006 0.21811545
-0.020952815 -0.10664789 -0.04509372 -0.03223328 0.04555434 0.103173785 0.08134077 -0.08722402
-0.016849793 -0.07779427 -0.0161915 -0.10980304 -0.0022160711 -0.03202302 0.08428924 -0.079373896
-0.030370433 -0.11762583 -0.06517316 -0.08324463 -0.03718884 0.10010462 -0.041963324 0.0038903651
0.049851075 0.10424472 0.06417468 -0.097113006 0.09173891 0.082085654 0.078289896 -0.071970254
-0.0104498435 -0.0061836834 0.07823735 -0.10168426 -0.050805073 0.12312144 0.06585613 -0.10307397
-0.10911799 -0.009261289 0.053563986 -0.09091829 -0.0911181 0.104476325 -0.080840565 0.10894768
-0.04718522 0.046615347 0.01847435 0.06449553 0.06295534 0.0696498 0.07168335 -0.04017826
-0.111043766 0.07266257 0.1058521 0.02461305 0.025674233 -0.10008905 -0.042118125 -0.039339405
0.076266795 -0.041932255 0.115201786 -4.292278e-05 -0.05541693 -0.015067783 -0.06662242 -0.040856093
-0.08363468 0.03592329 -0.08071993 -0.13325822 -0.09009798 0.08220645 -0.0432749 0.15109019
-0.008395818 -0.058773722 0.029409355 -0.00019167113 -0.030838106 -0.029162118 0.00040921083 -0.08681508
0.029694155 -0.0053867763 0.04678986 0.02305602 0.09211843 -0.061882894 -0.12845065 -0.09000566
0.007530468 0.013731257 -0.012120234 -0.070820265 0.056906246 -0.108888395 0.00072258915 0.08628453
-0.019053046 -0.107356645 -0.0697963 -0.069375016 0.15283066 0.079517566 0.0039771753 -0.16146119
0.03742737 0.12395648 -0.09643667 -0.10111408 0.0389949 0.046212528 -0.083130404 -0.033116523
-0.13716654 0.077029355 0.025327759 0.1452472 -0.061726317 0.08072086 -0.038337123 -0.102499284
0.20513044 0.15538709 0.123352595 0.27225056 0.13548748 0.09508399 0.23270139 0.011232241
0.07794129 0.09312506 0.1770086 0.29298034 0.24230976 0.35133502 0.08844153 0.37715816
0.23136413 0.34851378 0.18845247 0.11248192 0.13460627 0.026043108 0.14995588 0.3079449
0.22958212 0.14184727 0.15200266 0.23973703 0.019610727 0.43588266 -0.016928408 0.01195039
0.15118264 0.057928685 0.3598525 0.11818468 0.23828614 0.030259483 -0.036016084 0.300367
0.37894502 0.07877188 0.16799936 0.2804317 0.030180309 0.20885572 0.1485653 0.39836222
0.03313086 0.12121223 0.15619539 0.054424103 0.1380857 0.06894457 0.0948607 0.34884587
0.1079497 0.20758103 0.30735204 0.18044548 0.19358328 0.2443204 0.31354696 0.42730924

fc.weight f4 [3, 64]
00000000: e1a5 59be da6f b2be fb4b 603c 2e43 893e
00000010: 1ebb adbe 50ac b3be 6c60 c5be 2f63 c03e
00000020: 758a de3e 4728 a6be 6e28 e3be f4d0 e23e
00000030: 492d 763e 2713 853d 0b21 1b3e 79bb 543d
00000040: 4390 8a3e 9b42 ae3d bff0 243d 5d11 afbe
00000050: 5a7f 80be 729e 223e 573a 95be e168 5b3e
00000060: ae13 a1be 4f29 703e dfef babe 2788 bcbe
00000070: f356 bf3e 3f7f d63c 813f 3e3e ea00 84be
00000080: 9dd7 bf3e ecac 83be 4731 9a3e 7c03 0cbf
00000090: da17 8b3e 86ef 8cbe d7e5 c0be 70b3 c73e
000000a0: c7ef 943e 8ff5 f5bd 86a5 9abe 36d7 a53e
000000b0: 5989 423e f0ef 98be 4625 b7be 52c4 69bd
000000c0: cccd 143e fe12 edbd 6752 813e b225 9fbe
000000d0: 26f8 b73e 3263 bdbe c0d5 7dbe 30f0 97be
000000e0: 11bb f8bd f543 8f3e 9cb6 d8bc 97cc 823e
000000f0: d885 a33e 8e03 5a3e d59c b2be c1f3 94bd
00000100: 9106 be3e 1300 983e 97d3 9e3e d352 273b
00000110: 5159 7e3e 58d0 223e c244 a53e 3256 cdbe
00000120: ecd1 0cbe ecd9 513d 2316 cb3e 55a8 e6be
00000130: 4986 01be 9713 1a3e b3c3 afbe 3cc5 ad3e
00000140: 5f66 a9bc 3e56 a73e b7df bb3e 9fb4 a73e
00000150: bd7a 6cbe a55d eabe 9557 a7bd 7029 423b
00000160: de6b aa3e 49d9 aebe e8a5 8b3e 2ee3 4fbd
00000170: 4ec0 eabd e2cb 78be ab09 e7be 98be 843e
00000180: 4243 8ebd 4cd3 9d3e 1b89 9bbe f54d e63e
00000190: 650d afbe 8b6e b73e 3252 b63e 4d9e 17be
000001a0: ae29 9abe 7e76 263e 2960 8f3e 3cee a2be
000001b0: a3f7 45be 9822 9d3e 2e41 8e3d e957 14be
000001c0: 57d6 8dbe 1aac d83e a831 7bbe c6c4 b23e
000001d0: 36f2 9cbe 6034 b23e b7a5 92bd 9dd9 9f3d
000001e0: 800f 13be 74b3 a7bd 07a9 343e 735c 3e3e
000001f0: 1cb8 a93d b6e0 853e 3f53 bebd fde9 92be
00000200: c2ba 5ebe 3108 6e3e d2cb 69be ce93 a1be
00000210: 3dcd 883d 96d7 203c 0328 453e fb7a ad3d
00000220: dfe5 b2be beb4 b23e ca22 d33d d045 3dbd
00000230: 108c 6bbe 0ea6 02bf 5580 8c3e b563 fdbe
00000240: 5c20 d7be 1e27 21bf a983 dabe 7c4c 943e
00000250: de25 fa3e dbeb 2a3e 5f0b ca3e 188b b9be
00000260: dc9c 053e c650 543d 320c 643e 6f53 ed3e
00000270: cbdf afbe fa94 133f 6246 cd3e c00b 223e
00000280: 9a49 80be c22a 303e 62d3 9ebe 690b 773e
00000290: 3a71 22bd e844 50bd a339 953e ce1b b7be
000002a0: 3a22 70be c348 6a3e 9ee5 93bd ea8b a1be
000002b0: e34e 59be 7522 133d b0d6 8e3e 4efd 113f
000002c0: 5b16 37be 79c7 d8be 8f3b 09be 8069 ea3d
000002d0: 48a8 82be 10ed 243d 05ac d73e cc10 ba3e
000002e0: 113f d43e 5a8b 31be 8d58 05bf ebe4 0abf
000002f0: c961 acbe ee17 e9be 1f24 a03e 8e17 f23e
-0.21254684 -0.3485096 0.01368999 0.26809067 -0.33931822 -0.35092402 -0.38550127 0.3757567
0.4346501 -0.32452604 -0.44366783 0.44300044 0.24040712 0.06497794 0.15149324 0.0519366
0.27063188 0.08508798 0.040268656 -0.34192935 -0.25097162 0.15880755 -0.29146072 0.21426727
-0.31460327 0.23453258 -0.36511132 -0.36822626 0.37371024 0.026183723 0.18578912 -0.25781947
0.37469187 -0.25717866 0.3011572 -0.54692817 0.27166635 -0.27526492 -0.37675354 0.39004087
0.29089186 -0.12009727 -0.3020441 0.32390755 0.18997706 -0.29870558 -0.35770625 -0.05707199
0.1453163 -0.11575888 0.2525818 -0.31083447 0.3593151 -0.36989743 -0.2478857 -0.29675436
-0.12145055 0.27981535 -0.026454262 0.25546715 0.31938052 0.21290419 -0.34885278 -0.07273055
0.37114385 0.29687557 0.31020805 0.0025531545 0.24838759 0.1589979 0.3227902 -0.40104824
-0.13751954 0.051233217 0.39665326 -0.45050302 -0.12648882 0.15046535 -0.34328994 0.3393954
-0.020678697 0.32682985 0.36694118 0.3275499 -0.23093696 -0.4577457 -0.08171002 0.002962675
0.3328542 -0.3415015 0.27275014 -0.050753765 -0.114624605 -0.24296525 -0.45124564 0.25926661
-0.06946422 0.3082527 -0.3037804 0.44981351 -0.34189907 0.35826525 0.35609585 -0.1480648
-0.30109924 0.16256139 0.28003052 -0.31822383 -0.19332747 0.30690455 0.06946026 -0.1448666
-0.2770259 0.42318803 -0.24530661 0.3491575 -0.30653542 0.34805584 -0.07160514 0.07805178
-0.14361382 -0.08188525 0.17642604 0.18589954 0.08287069 0.26148003 -0.09293222 -0.28694144
-0.2175093 0.23245312 -0.22831658 -0.3155808 0.06679771 0.009817025 0.19253545 0.08470722
-0.34941003 0.3490352 0.1030937 -0.046209157 -0.23002648 -0.5103463 0.2744166 -0.49490133
-0.42016876 -0.62950313 -0.42678574 0.28964603 0.48857015 0.16691534 0.394618 -0.36238933
0.13048118 0.051834844 0.22270277 0.46352717 -0.34350428 0.57649195 0.4009276 0.15824795
-0.25056154 0.17203811 -0.31020647 0.24125446 -0.039658763 -0.050846964 0.29145536 -0.357634
-0.23450556 0.22879319 -0.072215304 -0.31552058 -0.21221499 0.035921533 0.2789817 0.5702714
-0.17879622 -0.42339686 -0.13401626 0.11445904 -0.25519013 0.040265143 0.42123428 0.3634094
0.41454366 -0.17338315 -0.5208824 -0.5425555 -0.33668354 -0.4552607 0.31277558 0.47283596

fc.bias f4 [3]
00000000: 94c1 8fbd b663 a03d 0388 583d
-0.07019344 0.07831518 0.052864086
