Code-in-cloud/results/models/肌肉疲劳分类标签_backward_gru.pth (torch, 62216 bytes, 6 tensors)

gru.weight_ih_l0 f4 [192, 11]
0.007838892 -0.058140308 0.22031224 0.3719081 0.60563165 -0.22006792 0.05006288 0.6199647
0.18003006 0.88117605 0.52348316 0.08680951 0.05090142 0.1495583 -0.16020401 -0.05674432
-0.29247314 0.10710253 0.08331291 -0.022343691 0.11203581 -0.21559669 -0.046645515 -0.21676074
0.24731214 -0.16559681 -0.21428156 0.10677797 0.04130586 -0.026311873 -0.48405492 -0.1813301
0.17350069 -0.2287704 0.074776135 -0.1010884 0.3697098 0.020673292 0.011762413 0.14639297
-0.13015942 -0.20578729 -0.121107616 0.2268447 -0.17757522 0.40727007 0.105423294 0.31608173
-0.035000294 -0.038837243 -0.14405797 0.10176202 -0.38921145 -0.18055952 0.41163296 0.341307
-0.07959534 0.19071881 -0.1597998 -0.24698494 -0.08338837 -4.5520283e-05 -0.031589422 -0.055952236
-0.068426386 0.3602451 -0.16886973 0.120791234 -0.095041834 0.3063299 -0.07635603 -0.14934102
0.2770954 0.10209656 -0.14203294 -0.32656214 -0.04317359 -0.066357836 -0.2704376 0.22352035
-0.22554049 -0.43846697 0.31594053 0.032715883 0.03904329 -0.541667 -0.42107648 -0.15398696
-0.19911027 -0.23236391 -0.22728455 0.08057098 0.34262073 -0.30934605 0.02823012 -0.13904878
-0.012987309 -0.22252104 0.7329855 0.043904707 0.034139577 -0.17334236 0.6293838 -0.5578559
0.12753195 -0.16388375 -0.1657385 -0.033268385 -0.31789574 -0.12688792 -0.3317666 -0.03148163
0.3606633 -0.18254158 -0.0706309 0.31091577 0.070584916 0.15297244 0.076365285 -0.012675997
-0.41792715 0.016705036 0.12102666 -0.1844524 0.2297904 -0.11470052 0.15081225 -0.2644743
-0.24111328 -0.031315245 -0.13570105 -0.24449591 0.09633366 0.06699895 -0.085563906 0.22778188
0.557868 -0.37644744 -0.17000546 -0.27775702 0.34497827 0.02931494 -0.1717326 -0.31193963
0.040778372 0.29348764 -0.34511414 -0.1798015 0.34569165 0.029514395 -0.18872012 -0.04912116
-0.052697238 -0.21374951 -0.4297102 -0.1160317 0.036919042 0.51275915 -0.123049885 0.15243664
-0.27347973 0.035713296 -0.12162771 -0.039602138 0.4807964 0.1668006 -0.15579234 -0.088109754
0.24787107 -0.5466529 -0.4328256 0.095238306 -0.27401155 -1.0302823 0.29318735 0.22807668
0.7605821 -0.32114178 -0.43152216 -0.24770099 -0.810052 0.5005027 -0.8387272 -0.116398506
-0.6771058 -0.29722726 0.033797868 -0.17476256 0.20320585 -0.13308777 0.584835 -0.14032187
-0.15535763 -0.10334282 0.012444131 -0.035888553 -0.27193564 0.33192143 -0.4067797 -0.3886062
0.32166708 -0.5433133 -0.71963876 0.14724612 0.015046391 -0.29004383 -0.8862052 -0.43340898
-0.0041603786 -0.09851603 -0.08400982 -0.13893704 0.45356357 -0.3614492 -0.10398104 -0.30537286
-0.04581642 -0.41802973 -0.049212184 -0.12747112 -0.35522717 0.22239429 0.20418598 -0.15605539
0.2738537 0.38685557 0.045133 0.35802597 0.3012358 -0.0842855 -0.48285043 0.10342679
0.14126186 0.21283002 0.23674062 -0.04130804 -0.015295939 0.12345416 0.17658281 0.28625444
-0.1881547 -0.0012491961 0.20728262 0.034615807 -0.19149606 0.3004771 0.40726873 -0.038339313
-0.01495536 -0.101188645 0.42764172 0.094094165 0.2555133 -0.093083255 -0.063986994 0.06001828
00000000: b26e 003c 8824 6ebd 8899 613e bd6a be3e
00000010: ad0a 1b3f 7c59 61be bc0e 4d3d 02b6 1e3f
00000020: cd59 383e c194 613f fe02 063f 2fc9 b13d
00000030: 027e 503d d025 193e 850c 24be bb6c 68bd
00000040: 0abf 95be 9258 db3d f59f aa3d 1e0a b7bc
00000050: 0873 e53d 61c5 5cbe 5e0f 3fbd 87f6 5dbe
00000060: 653f 7d3e 3692 29be a06c 5bbe 69ae da3d
00000070: 5530 293d ff8b d7bc 0cd6 f7be 99ae 39be
00000080: 2aaa 313e ca42 6abe 3b24 993d 6f07 cfbd
00000090: 9a4a bd3e 095b a93c 23b7 403c 0ae8 153e
000000a0: 8348 05be e7b9 52be 4507 f8bd fa49 683e
000000b0: 47d6 35be b485 d03e 2be8 d73d 77d5 a13e
000000c0: 785c 0fbd cd13 1fbd ef83 13be 9b68 d03d
000000d0: b946 c7be 98e4 38be 8ec1 d23e cbbf ae3e
000000e0: e202 a3bd cb4b 433e 8fa2 23be 9fe9 7cbe
000000f0: 86c7 aabd 08ed 3eb8 e963 01bd 2c2e 65bd
00000100: 2223 8cbd 0c72 b83e 30ec 2cbe 6561 f73d
00000110: 4ba5 c2bd 46d7 9c3e 8d60 9cbd daec 18be
00000120: 73df 8d3e 0018 d13d 1571 11be 2733 a7be
00000130: cad6 30bd 9ee6 87bd cc76 8abe 85e2 643e
00000140: 16f4 66be be7e e0be f5c2 a13e 1701 063d
00000150: dbeb 1f3d b0aa 0abf 5697 d7be c2ae 1dbe
00000160: 90e3 4bbe cef0 6dbe 48bd 68be 6602 a53d
00000170: fc6b af3e 9b62 9ebe da42 e73c ce62 0ebe
00000180: b9c8 54bc 8edc 63be f0a4 3b3f 6cd5 333d
00000190: f1d5 0b3d a980 31be 4c1f 213f a5cf 0ebf
000001a0: bc97 023e 24d1 27be 5ab7 29be 6e44 08bd
000001b0: 3bc3 a2be e8ee 01be 50dd a9be e2f2 00bd
000001c0: dca8 b83e 2eec 3abe efa6 90bd 5a30 9f3e
000001d0: d38e 903d cfa4 1c3e 6765 9c3d fcae 4fbc
000001e0: 8cfa d5be 00d9 883c d3dc f73d 17e1 3cbe
000001f0: 2d4e 6b3e 1be8 eabd 876e 1a3e 2d69 87be
00000200: 66e6 76be 6a44 00bd 37f5 0abe 235d 7abe
00000210: 954a c53d bf36 893d 213c afbd a73f 693e
00000220: 70d0 0e3f b8bd c0be e915 2ebe 2b36 8ebe
00000230: fea0 b03e e325 f03c acda 2fbe 8db6 9fbe
00000240: 3907 273d 0344 963e cdb2 b0be e21d 38be
00000250: 7ffe b03e 2cc8 f13c d93f 41be 4533 49bd
00000260: 0fd9 57bd 27e1 5abe fa02 dcbe 07a2 edbd
00000270: 6c38 173d 2f44 033f 9401 fcbd 5a18 1c3e
00000280: 8905 8cbe 1b48 123d f317 f9bd da35 22bd
00000290: f22a f63e c7cd 2a3e 0788 1fbe e372 b4bd
000002a0: ead1 7d3e 72f1 0bbf 519b ddbe 4d0c c33d
000002b0: 3e4b 8cbe 4ae0 83bf a71c 963e ef8c 693e
000002c0: 82b5 423f b26c a4be 79f0 dcbe 54a5 7dbe
000002d0: 915f 4fbf f220 003f d3b6 56bf 5762 eebd
000002e0: ce56 2dbf 2c2e 98be a26f 0a3d f5f4 32be
000002f0: 3215 503e 2948 08be bfb7 153f 89b0 0fbe
00000300: 1216 1fbe 67a5 d3bd 78e2 4b3c e0ff 12bd
00000310: 263b 8bbe 9bf1 a93e 6e45 d0be 64f7 c6be
00000320: 8cb1 a43e 9516 0bbf 3f3a 38bf b0c7 163e
00000330: 2385 763c a080 94be 58de 62bf c8e7 ddbe
00000340: c953 88bb c6c2 c9bd 570d acbd 8345 0ebe
00000350: 7c39 e83e df0f b9be 03f4 d4bd d559 9cbe
00000360: 00aa 3bbd fe07 d6be b792 49bd ca87 02be
00000370: 56e0 b5be 54bb 633e 2116 513e fccc 1fbe
00000380: 8d36 8c3e ef11 c63e 61dd 383d 2e4f b73e
00000390: 943b 9a3e e09d acbd 2c38 f7be 6dd1 d33d
000003a0: f3a6 103e 1df0 593e 226c 723e 9f32 29bd
000003b0: d19b 7abc 89d5 fc3d 20d2 343e f18f 923e
000003c0: a0ab 40be 11bc a3ba e541 543e 4ec9 0d3d
000003d0: 8b17 44be 22d8 993e 8785 d03e af09 1dbd
000003e0: 5407 75bc fe3b cfbd dbf3 da3e 71b4 c03d
000003f0: a4d2 823e 6fa2 bebd 9d0b 83bd bad5 753d

gru.weight_hh_l0 f4 [192, 64]
-0.035603635 -0.12095415 0.10748939 0.11148359 0.036511548 0.106741734 -0.0792642 -0.019859694
-0.041459832 -0.0015527193 -0.090394974 0.0028913608 0.03335748 -0.088384934 0.04957011 0.046410196
0.09601723 -0.010916923 0.015027175 -0.09973734 -0.011742628 -0.091551036 -0.027401306 -0.0815893
-0.018918902 -0.089347735 -0.039103884 0.11065919 0.0074265325 0.08563799 0.057396874 -0.0488579
-0.033675376 -0.06919569 0.021452332 -0.119028576 -0.08729437 0.057659198 -0.096170746 0.056515247
0.120096646 -0.025583455 -0.05577583 -0.088603295 0.056969866 0.07166324 -0.02124162 -0.046383534
-0.028931811 -0.041188758 -0.0039705676 -0.10551087 0.0027314317 0.058221474 0.012721984 0.11989196
-0.055966415 -0.102118626 0.059512086 0.11722663 -0.053520374 -0.047861792 0.11574809 -0.0074061328
-0.026042247 -0.06716436 -0.08831699 0.013941959 -0.072889656 -0.048802014 0.0034989205 0.10737653
-0.0013266173 -0.09187511 -0.026046073 0.11326353 -0.0380837 0.11753114 -0.01711682 -0.04972351
0.03645714 -0.035822224 0.05042884 -0.0011537875 0.0951251 -0.015391206 -0.02785965 0.0017835284
0.09226683 -0.01962241 0.07882929 -0.04904475 0.06268063 -0.019074429 0.06616057 -0.006215286
0.11305631 -0.06489568 0.078418694 -0.09907796 0.08601446 -0.10162905 0.083849154 -0.0049862196
0.033160903 0.063107975 -0.08623398 0.077617474 -0.0865456 0.025077602 -0.1117888 -0.0794044
0.030762196 0.0813985 0.04684014 0.01761497 0.07001817 0.0043015955 0.007978419 -0.015861718
0.03146359 0.013958287 -0.046353716 0.111943476 0.03888136 -0.0023384357 0.04294085 -0.037751485
-0.119930215 0.0077422042 -0.049208757 0.08911314 0.069431484 0.051631246 0.022606352 0.02774195
0.03815003 -0.071101144 -0.02533996 0.070983544 0.029194672 0.07998672 0.08012365 -0.029855989
-0.06317528 -0.023151746 -0.006941262 -0.12091918 -0.032817036 -0.10619554 0.004812771 -0.10998183
0.013887557 -0.089871004 0.052488934 0.10933436 0.054847293 0.07255907 -0.09262969 0.016853165
0.07045012 0.046786334 0.066091485 -0.045123205 -0.10047063 0.03370866 0.101917416 0.0008147547
-0.05888087 0.05352506 0.0769663 0.035867035 0.12091578 0.013125939 -0.027960315 0.054202173
-0.04641565 -0.11862623 -0.0104355775 -0.11789974 0.072323516 -0.09729446 0.031057103 -0.10368483
0.107781984 0.0059805615 0.021336636 0.09530624 -0.09164126 -0.06825839 -0.04864281 0.0046858722
0.07643313 0.059536316 -0.01732054 -0.024118172 0.12033768 0.08254756 0.079042956 0.102882005
-0.036036894 0.013128489 -0.049656257 -0.09621024 0.010542525 0.11815108 0.031561863 0.07379497
0.07063349 -0.0007696109 0.098987885 0.05106046 0.094977155 0.0007741871 0.03823866 -0.05849139
-0.028696105 0.0009945519 0.041385707 0.07766558 0.048941024 0.06683339 -0.072350785 -0.09082588
0.110719346 -0.040827237 -0.11999919 -0.053522237 -0.044214766 -0.0088206455 0.07084434 -0.087362796
0.034306504 0.043137617 0.09731125 0.076575376 0.11733403 0.09878334 -0.052596614 0.08064223
0.1116686 -0.0010249997 -0.08864231 0.10586786 0.11911854 -0.042848963 0.078298986 -0.11827775
-0.10797412 -0.09020788 -0.091326594 0.096015096 0.10535528 0.005571383 -0.053479277 0.04982546
00000000: 1ed5 11bd cfb6 f7bd 6623 dc3d 8251 e43d
00000010: 228d 153d 699b da3d 4555 a2bd ccb0 a2bc
00000020: c9d1 29bd 9d84 cbba 0021 b9bd fc7c 3d3b
00000030: daa1 083d 2903 b5bd 070a 4b3d 9e18 3e3d
00000040: aea4 c43d e5dc 32bc 8a34 763c 1743 ccbd
00000050: 2764 40bc 1c7f bbbd b478 e0bc 4a18 a7bd
00000060: d0fb 9abc f2fb b6bd 652b 20bd 49a1 e23d
00000070: 455a f33b f862 af3d fc18 6b3d 391f 48bd
00000080: 31ef 09bd 78b6 8dbd cdbc af3c 41c5 f3bd
00000090: 64c7 b2bd 0d2c 6c3d 2bf5 c4bd 887c 673d
000000a0: 3bf5 f53d 6594 d1bc 3275 64bd a575 b5bd
000000b0: 3c59 693d 2dc4 923d e802 aebc a9fc 3dbd
000000c0: 6802 edbc 8bb5 28bd 891b 82bb 1516 d8bd
000000d0: d201 333b a479 6e3d de6f 503c ea89 f53d
000000e0: 0a3d 65bd 9223 d1bd f2c2 733d 8414 f03d
000000f0: 2e38 5bbd ba0a 44bd 560d ed3d 25af f2bb
00000100: 8d56 d5bc 788d 89bd 8adf b4bd d06c 643c
00000110: 2c47 95bd 9fe4 47bd 254e 653b 3ae8 db3d
00000120: e4e1 adba 0529 bcbd 935e d5bc b6f6 e73d
00000130: a7fd 1bbd 2bb4 f03d 9338 8cbc e1aa 4bbd
00000140: 1554 153d 53ba 12bd 798e 4e3d af3a 97ba
00000150: f3d0 c23d 662b 7cbc ec39 e4bc 48c5 e93a
00000160: 64f6 bc3d 2dbf a0bc 4071 a13d 26e3 48bd
00000170: b45e 803d fa41 9cbc 317f 873d 99a9 cbbb
00000180: 118a e73d 07e8 84bd fb99 a03d 63e9 cabd
00000190: 5928 b03d e422 d0bd 1bb9 ab3d 7163 a3bb
000001a0: bad3 073d c13e 813d 719b b0bd e9f5 9e3d
000001b0: d23e b1bd 8b6f cd3c 87f1 e4bd c69e a2bd
000001c0: 0001 fc3c 42b4 a63d 72db 3f3d 454d 903c
000001d0: b065 8f3d 66f4 8c3b eab7 023c 6ff0 81bc
000001e0: f7df 003d 4db1 643c 65dd 3dbd 9f42 e53d
000001f0: 1042 1f3d 7140 19bb bfe2 2f3d 4da1 1abd
00000200: f99d f5bd 51b2 fd3b 1f8f 49bd f380 b63d
00000210: 1832 8e3d 497b 533d f530 b93c 1643 e33c
00000220: 3543 1c3d 7a9d 91bd bf95 cfbc d25f 913d
00000230: aa29 ef3c 14d0 a33d de17 a43d 8c94 f4bc
00000240: 0b62 81bd bba8 bdbc 8773 e3bb 7aa4 f7bd
00000250: 286b 06bd 0c7d d9bd 73b4 9d3b 273e e1bd
00000260: a388 633c 4a0e b8bd a3fe 563d b1ea df3d
00000270: 8ea7 603d da99 943d a3b4 bdbd a60f 8a3c
00000280: 2748 903d 07a3 3f3d f95a 873d 1cd3 38bd
00000290: 8cc3 cdbd 1812 0a3d 14ba d03d 4395 553a
000002a0: 112d 71bd 183d 5b3d 82a0 9d3d 50e9 123d
000002b0: b1a2 f73d 2e0e 573c 080d e5bc 1903 5e3d
000002c0: 561e 3ebd 4ff2 f2bd fcf9 2abc 6b75 f1bd
000002d0: 5a1e 943d 5142 c7bd 776b fe3c b658 d4bd
000002e0: cdbc dc3d 96f8 c33b 2bca ae3c eb2f c33d
000002f0: 6aae bbbd 0ecb 8bbd af3d 47bd f28b 993b
00000300: f988 9c3d 5adc 733d cee3 8dbc 7993 c5bc
00000310: 9a73 f63d b20e a93d 46e1 a13d cdb3 d23d
00000320: 6c9b 13bd e018 573c 5c64 4bbd e009 c5bd
00000330: 8eba 2c3c 32f9 f13d 0347 013d d121 973d
00000340: 4ba8 903d b7bf 49ba 29ba ca3d c624 513d
00000350: 6283 c23d d1f2 4a3a 24a0 1c3d ab94 6fbd
00000360: 1814 ebbc a05b 823a 0f84 293d 220f 9f3d
00000370: 6276 483d f2df 883d a62c 94bd eb02 babd
00000380: d3c0 e23d 763a 27bd 23c2 f5bd 223a 5bbd
00000390: 8b1a 35bd 7884 10bc d616 913d 44eb b2bd
000003a0: fa84 0c3d 12b1 303d 1f4b c73d 8dd3 9c3d
000003b0: d34c f03d eb4e ca3d 8c6f 57bd c127 a53d
000003c0: 82b2 e43d 4859 86ba 198a b5bd 40d1 d83d
000003d0: 6cf4 f33d 6582 2fbd 385b a03d 9b3b f2bd
000003e0: 8921 ddbd e9be b8bd 7009 bbbd 90a3 c43d
000003f0: 82c4 d73d 2690 b63b 160d 5bbd c815 4c3d

gru.bias_ih_l0 f4 [192]
0.017878281 0.034023955 0.24975774 -0.16281569 0.2918429 0.16653912 -0.15183248 0.2083336
0.006721909 0.18811598 0.09696588 0.005244944 -0.018065287 0.119642526 0.1380457 0.076780245
0.18637456 -0.08717495 0.274462 0.25811252 0.002037152 0.18323644 -0.065104544 -0.05503436
-0.026178174 -0.21641153 0.16233008 0.46150005 -0.062869884 0.38000888 0.11029246 -0.1427791
0.21916461 -0.23229781 0.432113 -0.09505187 0.24913006 0.5058783 -0.10856879 -0.15527199
0.30289927 -0.043623216 0.24614285 0.28455505 0.0149223395 -0.1398744 -0.113332815 0.008537254
0.36693126 -0.09412726 -0.15856566 0.037213568 0.010791823 -0.046670966 -0.11393004 -0.17239456
0.090129085 -0.14342798 -0.12742883 -0.09064506 0.14625844 0.016517784 -0.06017685 0.35573825
0.5081575 -0.008451583 -0.16859676 -0.110604584 -0.30492863 -0.14579512 -0.1294943 -0.47832063
-0.20981961 -0.2646907 -0.19060108 -0.21873161 -0.1745851 -0.2428091 -0.40482387 -0.081325665
-0.19353473 -0.43790066 -0.31419033 -0.20296258 0.06426327 -0.09997532 -0.07148069 -0.1954492
0.054540012 0.02530918 -0.31940213 -0.6689041 -0.1843669 -0.4079312 -0.32633942 -0.3540221
0.0066969064 -0.25986907 -0.16294542 -0.11764821 -0.379482 -0.51649857 -0.54945284 -0.34304005
-0.46792734 -0.4493065 -0.3208748 -0.20554543 -0.12036831 0.08122368 -0.10597483 0.16076994
-0.15289119 -0.33183777 -0.012614816 -0.36428034 -0.31765944 -0.15659891 -0.14380229 -0.26087034
0.049000904 -0.35022604 -0.110539824 -0.30425617 -0.4076128 -0.4539544 -0.24124895 -0.39578354
-0.15785933 0.018359458 -0.20291053 -0.25920066 -0.2764675 0.07204797 0.11220164 0.2105625
0.13884556 -0.25188085 -0.17996414 -0.2577283 0.07739859 -0.21742915 0.1275715 -0.16255602
0.12138969 -0.08294405 0.13910295 -0.23050928 -0.07340277 -0.032494787 0.22476943 0.03363746
0.17156999 0.054141 -0.2190833 -0.2977264 0.06813305 -0.12832515 0.22263412 -0.21423277
-0.14675944 0.13624361 0.3944131 0.07648523 -0.1661688 0.33134985 0.005706743 0.16870873
-0.3857813 -0.050678767 -0.2481729 -0.16497838 0.08850005 -0.15158765 0.10238562 -0.077449836
-0.20181935 -0.28520063 0.12805058 0.10547683 -0.05753561 0.040943317 0.020888839 0.08497117
-0.12719388 -0.010399581 0.010019532 -0.15878789 0.30955026 0.07190365 0.16908701 -0.2064409
00000000: 7975 923c b45c 0b3d 7ec0 7f3e 28b9 26be
00000010: 6f6c 953e 3b89 2a3e f979 1bbe 6755 553e
00000020: 7643 dc3b 7aa1 403e 0c96 c63d c7dd ab3b
00000030: a7fd 93bc 2407 f53d da5b 0d3e f63e 9d3d
00000040: f9d8 3e3e c888 b2bd 4986 8c3e 5327 843e
00000050: bd81 053b 55a2 3b3e 8855 85bd b66b 61bd
00000060: 9c73 d6bc fc9a 5dbe db39 263e bc49 ec3e
00000070: edc1 80bd 8690 c23e 03e1 e13d af34 12be
00000080: b06c 603e 7adf 6dbe ea3d dd3e 8eaa c2bd
00000090: f31b 7f3e 3e81 013f 5059 debd 9fff 1ebe
000000a0: 9d15 9b3e 42ae 32bd df0c 7c3e 33b1 913e
000000b0: d47c 743c 3c3b 0fbe 091b e8bd d7df 0b3c
000000c0: 6ade bb3e cbc5 c0bd 095f 22be 416d 183d
000000d0: 30d0 303c 0e2a 3fbd 2754 e9bd 3388 30be
000000e0: 9995 b83d c9de 12be b47c 02be 1ea4 b9bd
000000f0: c6c4 153e 4e50 873c 007c 76bd 5323 b63e
00000100: 9c16 023f 8278 0abc a1a4 2cbe a884 e2bd
00000110: 9b1f 9cbe 514b 15be 279a 04be 71e6 f4be
00000120: f4da 56be 8a85 87be ee2c 43be 2efb 5fbe
00000130: 70c6 32be f3a2 78be 1345 cfbe 128e a6bd
00000140: f82d 46be 8434 e0be 8edd a0be 6cd5 4fbe
00000150: 769c 833d dcbf ccbd 7864 92bd d623 48be
00000160: 5965 5f3d 3355 cf3c ad88 a3be 4d3d 2bbf
00000170: adca 3cbe 5cdc d0be f615 a7be 6242 b5be
00000180: b971 db3b 8f0d 85be 2adb 26be 8bf1 f0bd
00000190: 774b c2be 4039 04bf f1a8 0cbf f2a2 afbe
000001a0: 2c94 efbe 800b e6be b449 a4be 807a 52be
000001b0: a983 f6bd 9a58 a63d 5509 d9bd e0a0 243e
000001c0: 828f 1cbe a4e6 a9be 60ae 4ebc f482 babe
000001d0: 42a4 a2be 775b 20be e840 13be cc90 85be
000001e0: 2cb5 483d d450 b3be b462 e2bd 77c7 9bbe
000001f0: a0b2 d0be b66c e8be f709 77be 24a4 cabe
00000200: e0a5 21be 9366 963c c7c7 4fbe f3b5 84be
00000210: 268d 8dbe e38d 933d f9c9 e53d b29d 573e
00000220: 882d 0e3e 87f6 80be 8548 38be f7f4 83be
00000230: 2783 9e3d bfa5 5ebe 1aa2 023e 1675 26be
00000240: 289b f83d 92de a9bd 0171 0e3e a00a 6cbe
00000250: 3154 96bd 4119 05bd f529 663e 6fc7 093d
00000260: 0bb0 2f3e f4c2 5d3d 5f57 60be 986f 98be
00000270: 5789 8b3d ab67 03be 33fa 633e d65f 5bbe
00000280: 1b48 16be 7283 0b3e 84f0 c93e 4aa4 9c3d
00000290: 2728 2abe b0a6 a93e a1ff ba3b fbc1 2c3e
000002a0: 2085 c5be 8a94 4fbd 0921 7ebe 18f0 28be
000002b0: 843f b53d cb39 1bbe 8daf d13d 059e 9ebd
000002c0: bba9 4ebe d105 92be b11f 033e 3c04 d83d
000002d0: 76aa 6bbd 2eb4 273d 121f ab3c 5d05 ae3d
000002e0: 1d3f 02be 0163 2abc f728 243c 4b99 22be
000002f0: 5f7d 9e3e 3942 933d 2525 2d3e 3e65 53be

gru.bias_hh_l0 f4 [192]
-0.101594605 0.03801069 0.07402205 -0.14846462 0.16400243 0.14246756 -0.035308465 0.2905997
0.030220922 0.16504122 -0.02626772 0.06789842 -0.00011900226 0.16916034 0.128732 0.122986734
0.069545515 -0.13250498 0.23255539 0.30986086 -0.050426237 0.043294866 -0.109480485 -0.060812175
0.13886538 -0.3298578 0.13777466 0.4771666 0.0065460186 0.27426428 0.07251359 -0.14979252
0.18220389 -0.37850624 0.2880076 -0.11866398 0.17673323 0.39410076 -0.2382633 -0.07626167
0.44200924 -0.028854297 0.12953392 0.20562293 0.053000942 -0.033007722 -0.034230646 0.05340772
0.32234553 0.003084599 -0.24297278 0.12954926 -0.031037783 -0.02046215 -0.02998803 -0.17300464
-0.041107085 0.04092242 -0.27459475 -0.11663111 0.26718143 0.040357225 0.12420216 0.25577673
0.5326778 -0.0393036 -0.09507482 -0.12696683 -0.33220607 -0.1758864 -0.13660617 -0.30760974
-0.34939763 -0.24117105 -0.34408134 -0.39849597 -0.08201283 -0.18299823 -0.4834121 0.0022759258
-0.24161318 -0.30104783 -0.37896544 -0.21836694 -0.118779875 -0.1858551 -0.07754027 -0.046738848
-0.07204691 -0.12558323 -0.40419018 -0.49940038 -0.20761007 -0.46643066 -0.3625345 -0.21069412
0.046082675 -0.47305813 -0.1507292 -0.16709886 -0.45705852 -0.55238163 -0.407495 -0.45518604
-0.55460644 -0.31053117 -0.46843207 -0.34985495 -0.006336425 0.09609106 -0.10581486 0.023767775
-0.058956858 -0.28981373 -0.0352864 -0.2357413 -0.24822149 -0.21937203 -0.1422571 -0.1567793
0.17185372 -0.30116278 -0.2862136 -0.20349258 -0.31883135 -0.5737794 -0.12942743 -0.5756921
0.30411562 0.13387902 -0.20214175 -0.0008813032 -0.42506787 0.22945048 0.07917549 0.32513627
0.26353198 -0.3615345 -0.21588023 -0.098184116 -0.11685016 -0.4119895 0.31586832 -0.4735625
0.7140312 -0.13739601 0.7553445 -0.50482213 0.28266558 -0.20368694 -0.04022228 -0.08533579
0.21910469 0.0019740846 -0.21849796 -0.8084453 0.035921272 -0.37730023 0.31190634 0.23906414
-0.43158036 -0.071695715 0.51241684 -0.17395413 -0.37889132 0.56875056 0.14338635 0.18501192
-0.57380587 0.14952709 -0.4055948 -0.4540107 0.14778297 0.28986508 -0.14622448 0.100744165
-0.5771969 -0.08673134 -0.13266818 0.22619024 -0.30930313 -0.15982446 0.12750348 -0.0037877436
0.35930082 0.21372607 -0.01702703 0.22039373 0.32009372 0.40746397 0.3065893 -0.62678736
00000000: d510 d0bd 19b1 1b3d df98 973d 1c07 18be
00000010: 41f0 273e 04e3 113e 9c9f 10bd 7cc9 943e
00000020: de91 f73c 9100 293e 672f d7bc 540e 8b3d
00000030: da90 f9b8 5e38 2d3e 52d2 033e 78e0 fb3d
00000040: e16d 8e3d 63af 07be 0023 6e3e 15a6 9e3e
00000050: be8b 4ebd f555 313d 4e37 e0bd 3016 79bd
00000060: ba32 0e3e 1fe3 a8be cd14 0d3e 2e4f f43e
00000070: fc7f d63b 5e6c 8c3e 0182 943d 3663 19be
00000080: a893 3a3e 92cb c1be bb75 933e 1a06 f3bd
00000090: 8ef9 343e 93c7 c93e 4bfb 73be 142f 9cbd
000000a0: 094f e23e d95f ecbc 8aa4 043e d18e 523e
000000b0: 8417 593d 1b33 07bd 6f35 0cbd 0ec2 5a3d
000000c0: 790a a53e fc26 4a3b dbcd 78be 90a8 043e
000000d0: f342 febc 3da0 a7bc 75a9 f5bc 2128 31be
000000e0: e75f 28bd 449e 273d af97 8cbe 4bdc eebd
000000f0: 01cc 883e 9e4d 253d b45d fe3d 2bf5 823e
00000100: 935d 083f d0fc 20bd 96b6 c2bd 9803 02be
00000110: ea16 aabe 901b 34be 7de2 0bbe 067f 9dbe
00000120: 3fe4 b2be 8bf5 76be 6e2b b0be aa07 ccbe
00000130: 58f6 a7bd e363 3bbe ca81 f7be b327 153b
00000140: 7269 77be f122 9abe c207 c2be 959b 5fbe
00000150: dd42 f3bd cd50 3ebe 6fcd 9ebd 3c71 3fbd
00000160: 558d 93bd e498 00be 04f2 cebe 68b1 ffbe
00000170: bc97 54be 00d0 eebe 1f9e b9be 33c0 57be
00000180: 30c1 3c3d ad34 f2be c158 1abe f71b 2bbe
00000190: 9303 eabe e268 0dbf 2fa3 d0be 250e e9be
000001a0: b0fa 0dbf f1fd 9ebe 54d6 efbe 3020 b3be
000001b0: c9a1 cfbb 64cb c43d 76b5 d8bd a3b4 c23c
000001c0: bf7c 71bd 7762 94be 7988 10bd 2b66 71be
000001d0: c62d 7ebe 10a3 60be d8ab 11be c18a 20be
000001e0: 6cfa 2f3e 0232 9abe 978a 92be 5c60 50be
000001f0: dd3d a3be 35e3 12bf a088 04be 8f60 13bf
00000200: 0bb5 9b3e 9517 093e 3ffe 4ebe 4207 67ba
00000210: 7fa2 d9be 11f5 6a3e c226 a23d 4378 a63e
00000220: aaed 863e 0d1b b9be b50f 5dbe c114 c9bd
00000230: 234f efbd 4af0 d2be 7eb9 a13e c976 f2be
00000240: c0ca 363f 8ab1 0cbe 425e 413f 063c 01bf
00000250: 8bb9 903e 4f93 50be 1ec0 24bd 88c4 aebd
00000260: fb5c 603e a55f 013b eebd 5fbe 45f6 4ebf
00000270: 2f22 133d 7f2d c1be 30b2 9f3e 3bcd 743e
00000280: 1af8 dcbe 34d5 92bd c02d 033f 0821 32be
00000290: 0bfe c1be a399 113f dfd3 123e c473 3d3e
000002a0: f1e4 12bf a11d 193e 1faa cfbe 1774 e8be
000002b0: 6b54 173e 3269 943e dfbb 15be f552 ce3d
000002c0: 2dc3 13bf 33a0 b1bd 2bda 07be 6a9e 673e
000002d0: fb5c 9ebe 06a9 23be 4690 023e cb3b 78bb
000002e0: 47f6 b73e 02db 5a3e 457c 8bbc e5ae 613e
000002f0: 53e3 a33e 1e9f d03e 46f9 9c3e 2375 20bf

fc.weight f4 [3, 64]
-1.0203629 -0.62767273 -0.3866458 0.5783802 -0.14052878 -0.25453255 0.37250507 0.5898365
-0.37744504 -0.041348644 -0.36126179 -0.06960089 0.44595328 -0.26979643 0.35622522 0.44500008
-0.74960715 -0.31688762 0.89804393 -0.02436867 0.6217595 0.13239202 0.47025448 -0.5020539
0.29628125 -0.48718983 -0.062003322 -0.11529584 -0.092702664 -0.2747151 0.14354815 0.65170145
-0.6795865 -0.724619 0.173116 0.68065256 -0.57548887 0.004799993 0.7800372 0.58926004
0.16845658 0.6726506 -0.2969264 -0.3880029 0.34060153 0.6358425 0.37178823 -0.49305615
0.7561824 -0.29330745 -0.49698266 -0.31308076 -0.5017812 -0.52048683 0.3586162 0.25097924
-0.5730737 0.61536443 -0.5507853 0.71969515 0.050989527 -0.12424591 0.42222312 -0.18664865
0.88919455 0.2596453 0.1171549 -0.42240688 -0.21630646 0.4019284 -0.18471481 -0.033281304
0.50221145 -0.25751662 0.02745312 -0.33775178 -0.4326348 -0.26989543 0.12112712 -0.4573101
0.623116 -0.33328158 -0.27022994 -0.2834211 -0.5318176 -0.21322067 -0.35519335 0.19826517
-0.15837367 0.32336378 -0.13354157 -0.62750113 0.3247643 -0.2365806 0.16539201 -0.43357328
0.21288036 0.3837285 0.14086488 -0.4762567 0.10307061 0.40388244 -0.39743918 -0.114571296
-0.5407329 -0.40800816 -0.40491647 -0.21269782 -0.036531344 -0.5541723 -0.06288993 0.56409585
-0.57319987 -0.06479637 0.58428997 0.47475407 0.11239689 0.23819079 -0.23654023 0.3161712
0.5695456 -0.19739121 0.2876776 -0.4070043 0.31117597 0.585654 -0.1046496 -0.34352234
0.31633663 0.35240406 0.5558043 -0.43565172 0.7263679 -0.0033931902 -0.27707067 -0.70100164
-0.24466163 0.90251356 0.628025 0.6707795 0.11230253 0.6744202 -0.9133648 0.19947442
0.017996788 0.9194185 -0.7021282 0.5465917 -0.2694511 0.38188756 -0.28893107 0.37178046
-0.42497277 0.48001406 0.5711537 0.7245803 -0.29538816 0.6855663 -0.6422384 -0.42758325
0.46563107 0.53807783 -0.701776 -0.108210534 0.59903497 -0.5150264 -0.5089668 -0.5712531
0.27612606 -0.6786879 0.6513531 0.8377775 -0.63204414 -0.53089106 -0.28369546 0.067898266
-0.07763663 0.36951318 0.1271704 -0.2717428 0.7800323 0.17119262 -0.38725543 -0.86682516
-0.11159097 -0.730924 0.12198005 -0.4220236 -0.28249577 -0.44193608 -0.5625203 0.7227319
00000000: 409b 82bf 29af 20bf 70f6 c5be ba10 143f
00000010: c7e6 0fbe 1752 82be fcb8 be3e 86ff 163f
00000020: 7a40 c1be 325d 29bd 4ef7 b8be e98a 8ebd
00000030: fd53 e43e c222 8abe 2763 b63e 0dd7 e33e
00000040: 41e6 3fbf 183f a2be 35e6 653f cea0 c7bc
00000050: a12b 1f3f c691 073e 32c5 f03e 9b86 00bf
00000060: 2db2 973e f270 f9be 32f7 7dbd 3a20 ecbd
00000070: e5da bdbd 75a7 8cbe 49fe 123e e8d5 263f
00000080: 62f9 2dbf a180 39bf 5245 313e 3f3f 2e3f
00000090: 3d53 13bf 4249 9d3b 85b0 473f bfd9 163f
000000a0: e27f 2c3e d432 2c3f bd06 98be 51a8 c6be
000000b0: 5363 ae3e 93c6 223f 075b be3e db71 fcbe
000000c0: 2b95 413f 652c 96be 8374 febe 1f4c a0be
000000d0: bc74 00bf a03e 05bf 8b9c b73e 5a80 803e
000000e0: f5b4 12bf 8688 1d3f 4400 0dbf f13d 383f
000000f0: 65da 503d a474 febd a12d d83e d320 3fbe
00000100: 41a2 633f 3bf0 843e e9ee ef3d b745 d8be
00000110: 717f 5dbe 8fc9 cd3e e125 3dbe fa51 08bd
00000120: ee90 003f 38d9 83be 5ee5 e03c cded acbe
00000130: 4f82 ddbe bc2f 8abe 7f11 f83d 8d24 eabe
00000140: 8884 1f3f e2a3 aabe 945b 8abe 921c 91be
00000150: 3325 08bf 8556 5abe e7db b5be 0606 4b3e
00000160: b52c 22be f08f a53e 1fbf 08be eaa3 20bf
00000170: 8247 a63e 2f42 72be 865c 293e 51fd ddbe
00000180: 4ffd 593e 1078 c43e e23e 103e ebd7 f3be
00000190: af16 d33d aec9 ce3e 267d cbbe 5ba4 eabd
000001a0: 796d 0abf 72e6 d0be 3651 cfbe 75cd 59be
000001b0: e4a1 15bd 3cde 0dbf 70cc 80bd 9668 103f
000001c0: 3abd 12bf f6b3 84bd 0794 153f f712 f33e
000001d0: 5730 e63d 49e8 733e 9a37 72be 31e1 a13e
000001e0: becd 113f ec20 4abe 7a4a 933e de62 d0be
000001f0: 7552 9f3e 6ced 153f 8852 d6bd 29e2 afbe
00000200: e0f6 a13e 4e6e b43e 3149 0e3f be0d dfbe
00000210: 3ff3 393f 4960 5ebb 35dc 8dbe d874 33bf
00000220: 9488 7abe 210b 673f 3fc6 203f 35b8 2b3f
00000230: defe e53d cda6 2c3f 47d2 69bf 0643 4c3e
00000240: 006e 933c 035f 6b3f acbe 33bf 6fed 0b3f
00000250: 7ff5 89be c486 c33e c6ee 93be 025a be3e
00000260: 0896 d9be 67c4 f53e 2137 123f 187e 393f
00000270: 1e3d 97be 4681 2f3f bc69 24bf 31ec dabe
00000280: 3267 ee3e 78bf 093f 98a7 33bf 7c9d ddbd
00000290: 5b5a 193f c5d8 03bf a64b 02bf a53d 12bf
000002a0: 6560 8d3e 7dbe 2dbf 14bf 263f 9678 563f
000002b0: a5cd 21bf 7ae8 07bf 8840 91be 3f0e 8b3d
000002c0: f4ff 9ebd d530 bd3e f538 023e df21 8bbe
000002d0: 32b0 473f 1e4d 2f3e 5846 c6be 41e8 5dbf
000002e0: ce89 e4bd d61d 3bbf add0 f93d 7a13 d8be
000002f0: 49a3 90be 7245 e2be 5501 10bf f504 393f

fc.bias f4 [3]
0.092758976 0.01572635 -0.16296758
00000000: 6bf8 bd3d 8cd4 803c f9e0 26be
