Code-in-cloud/results/models/蛋白供应分类标签_forward_gru.pth (torch, 62216 bytes, 6 tensors)

gru.weight_ih_l0 f4 [192, 11]
00000000: 3ca2 123d f987 95be f606 c0bd fd21 823d
00000010: a2bf e53d abca 37bd 876f 313d 3e05 a0bd
00000020: d7e5 cfbe cc15 17be eaf5 eabd 0ec8 393e
00000030: 2278 313e 307a 023d f565 183e 8fef 153e
00000040: 96f9 37be b0af eebd c6a1 18be 6563 803e
00000050: 14cb 48be 4bb9 39bd 44c1 b13d 6027 313f
00000060: 2f46 d13e 553b afbd 70a5 a9bd 297a 1e3e
00000070: d195 773e e1a4 a6be 3031 1dbe 2c51 4bbd
00000080: b005 063f fed0 4d3e fe9a 163f dd68 013f
00000090: b726 41be cdbf 9fbe d549 613e 8423 6c3e
000000a0: 81d2 b8be 66ea 92bd 2d78 26be 312f 303f
000000b0: 70ac 9dbd 988e ff3d 87ec 17be 21c1 5c3e
000000c0: 9ad9 193f 1fbb 0ebf 2c30 ab3d 69db c9bd
000000d0: 22f5 213f 1139 f43e 878e 8dbd 5133 47bd
000000e0: 3a9e 0e3f 8caf d3bd 4b8d 883e 71a8 47be
000000f0: 5541 21be 45af d33d 71d1 98bd 3ebd 37bb
00000100: e642 20bf a0a9 193f b9b1 91bd ad4c 42bd
00000110: 58cd 983c 56c7 03be 9c10 283e bc3b bcbd
00000120: d1dd 193d 7e8c 593e aa03 9e3e 800f 2dbe
00000130: 1ab9 47be 73c2 aabd 214a 03be 1ccd bebc
00000140: c456 843d ca2b 71be 4cd5 66be 1c00 913d
00000150: b29e b3bd 687e 1dbf 6f2d 863e fa39 cebd
00000160: 5e1d 72bd 053e 923e 078c 073f 21bc 83bd
00000170: 4d5d 1b3e 5c64 033f 6cad 93bd 59c4 443f
00000180: 394c 4c3f efd2 79be c276 2a3f 2792 4bbd
00000190: 2af7 883e dd29 c23d c0d6 2c3e 8f02 dd3d
000001a0: 041c 9bbd 5488 62bd 1087 4fbe e43e fabd
000001b0: c66c 65be 6e8c 133e ae22 933e 67cc bd3e
000001c0: 8e57 e43e 55b9 29be dfa0 16bf 42f7 163e
000001d0: 6490 883e 7576 d4be 4334 b2be 666e 5bbe
000001e0: 9eb2 1a3f c0b0 bcbd cdf4 09be 564d 6b3e
000001f0: 1e67 80be b477 5bbe 819d 293d 1253 3fbd
00000200: 4088 b1bd ec3f 2cbf 5d20 0fbe 10f2 ef3e
00000210: d9e0 10be ca63 1c3c 66fa cf3d 5023 483e
00000220: 4160 9a3d 9d88 60bd 9788 eabd e712 a13d
00000230: 7165 11be a729 3bbe 99ad 42be 5e75 91be
00000240: e9d9 bebb 4bb0 463e 29dd ab3e 61ef 3cbe
00000250: ed99 db3e 44fc d1be 79f7 973e 74a2 16be
00000260: 007c e7be 09f9 733f d128 0bbf 593e aa3d
00000270: 432a b03e 12ba 183f 2d63 433c 6786 3a3e
00000280: 2ee8 81be 5f14 053e b81e 14bd e4f3 d7bd
00000290: c1d1 a83e 97b5 babe 0ce3 ca3a 70f2 313b
000002a0: 8346 183e 412f aebd f6c8 14be 1d9b 9c3e
000002b0: 51c5 f93d 069f a7be 25b1 9d3e 02e7 dc3e
000002c0: 1711 05bf bd4e b7bc 04b3 0e3d fdc6 da3e
000002d0: ef02 8dbe ab70 303e d32e 57bd 99f0 ffbc
000002e0: b69c c73d 0de6 23be 4397 c43e d833 8dbe
000002f0: 9d95 99be 5791 a03e f879 7e3e af3c 7dbe
00000300: ec2f bc3e 8055 89be a175 023f eef8 f93d
00000310: 79a6 f4be 3867 443f 3bfa e5bc 1e4f 903e
00000320: 04a1 05be 012d 353e 99a2 0b3d 0b73 13bf
00000330: ee41 ee3d 1acd a5be 76e9 c7be 34a7 e2be
00000340: 5293 913e ba96 c53d b7c4 a3bd 965b 84bc
00000350: 347a d83d e8bd a3be 8f76 f93d f12a 62be
00000360: b237 46bd be3a b5be bd02 8b3c a9be d6bd
00000370: 2340 2c3d 4e28 f03e 7e62 7a3c 0472 9f3e
00000380: 12fe ea3d d9a0 15be d0a8 21be dd1e 41bd
00000390: 4f98 56bd c32b bbbe f211 b03e c876 0cbe
000003a0: 4936 06be b6dc 503e dcef 543d feda 33be
000003b0: d053 833e 9d64 24be 273a 853e 0d82 e23c
000003c0: 06c6 01bf d21b 093f cbcc 1cbf 881e 9a3d
000003d0: 8bb2 933e 39d5 e23e 01ba 12bb 420f 88bd
000003e0: f3da 0abb fc70 d0bd c145 6fbe 9bdd 13bd
000003f0: 4ff6 283f 0f56 3fbe 6e40 b23e d13f 24be
0.03579925 -0.292053 -0.09376328 0.06354139 0.11218192 -0.044871014 0.04331925 -0.078135
-0.4060504 -0.14754409 -0.11472686 0.18142721 0.17330983 0.03185481 0.14882644 0.14642166
-0.17966303 -0.116546035 -0.14905462 0.25075832 -0.19608718 -0.045342725 0.086794406 0.69200706
0.40873858 -0.085562386 -0.08283508 0.15476288 0.24178244 -0.32547668 -0.15350795 -0.04963796
0.5235243 0.20099255 0.5883025 0.50550634 -0.18862425 -0.3120102 0.22000821 0.23060423
-0.36098102 -0.07173614 -0.16256781 0.6882201 -0.076989055 0.124783695 -0.14836322 0.21558048
0.6009766 -0.55754274 0.083587974 -0.09856302 0.6326467 0.47699788 -0.069119506 -0.048632924
0.55710185 -0.10336217 0.26670298 -0.19497849 -0.15747578 0.103361644 -0.07461823 -0.002803638
-0.6260208 0.6002445 -0.07113976 -0.047436405 0.018652603 -0.1286901 0.16412586 -0.09191081
0.037565056 0.21245 0.3086217 -0.16900444 -0.19504204 -0.083378695 -0.12821247 -0.023291163
0.06461862 -0.2355186 -0.22542304 0.07080099 -0.08770503 -0.61521006 0.26206538 -0.10069652
-0.059110038 0.28562942 0.5294804 -0.06432367 0.1517231 0.5132501 -0.07210812 0.768621
0.79803807 -0.24396871 0.6658746 -0.04969993 0.2675107 0.09480641 0.16878796 0.10791504
-0.07573703 -0.055305794 -0.20266366 -0.12219027 -0.22404775 0.14409038 0.28737396 0.3707001
0.4459805 -0.16574605 -0.5883922 0.14742759 0.2667266 -0.41496626 -0.34805498 -0.21428832
0.604288 -0.092134 -0.1347229 0.2297872 -0.25078672 -0.21432382 0.041409973 -0.04671008
-0.08668566 -0.6728504 -0.1397719 0.46864367 -0.14148273 0.009545276 0.101551816 0.1954472
0.0753789 -0.054817785 -0.11451834 0.078649335 -0.14198853 -0.18277608 -0.19011535 -0.28409857
-0.0058243168 0.19403188 0.3356717 -0.18450691 0.42890874 -0.41012776 0.29680994 -0.14710408
-0.45211792 0.9530187 -0.54359156 0.08312673 0.34407243 0.5965892 0.011925501 0.18215333
-0.25372452 0.12996052 -0.03616211 -0.10544565 0.3297253 -0.36466667 0.0015479042 0.002715256
0.14870648 -0.08505107 -0.14529786 0.30587092 0.12195838 -0.32738513 0.30799213 0.43144995
-0.519792 -0.022376413 0.03483869 0.4272994 -0.275413 0.1723048 -0.05253489 -0.031242656
0.09746687 -0.16005726 0.38396654 -0.27578616 -0.29996958 0.31360886 0.24851215 -0.2473018
0.3675531 -0.26823044 0.5096074 0.12205683 -0.4778326 0.7672 -0.02807342 0.28185362
-0.13049704 0.17692949 0.034090612 -0.57597417 0.11633669 -0.32383043 -0.39045304 -0.4426819
0.2843271 0.096478894 -0.07996505 -0.016156953 0.105701834 -0.31980824 0.121808164 -0.22086693
-0.04839296 -0.3539638 0.01696908 -0.10485584 0.042053353 0.4690575 0.015282271 0.31141675
0.11474241 -0.1461214 -0.15787053 -0.047148574 -0.052391347 -0.36556825 0.3438869 -0.13717186
-0.13106646 0.20396695 0.05198656 -0.17564008 0.2564988 -0.16054006 0.2602093 0.027649904
-0.50692785 0.53558075 -0.6124999 0.075253546 0.28847155 0.443033 -0.00223887 -0.06643535
-0.0021187633 -0.101778 -0.23366453 -0.03610001 0.6600084 -0.18685172 0.3481478 -0.16039969

gru.weight_hh_l0 f4 [192, 64]
00000000: 7909 f03c 1844 a7bd 537d 643d b475 4fbd
00000010: e959 5dbd 2f68 01bc 9524 de3c 067a 42bc
00000020: e034 9ebd 85ec d03d 9bec d53d 8b80 b4bd
00000030: ed28 433d 1398 a33d 95e8 843d 41a2 2d3d
00000040: 66b7 e83d da07 e7bc e862 e8bd a5cc 5fbd
00000050: f38b bebd be9a 8e3d 5b4b f03d 86a7 3bbd
00000060: a078 eb3d 82f5 05bd 3da9 40bd 138c 493d
00000070: 4d2d 8e3d 281f 9b3d 7055 f5bd 7086 4dbc
00000080: 1d3f 78bd bf0e debc 05ed b4bc e252 f1bd
00000090: 05cc 4e3d 33ba b9bd 38c6 a83d 352a babd
000000a0: 35e1 e43d c3a9 f9bb 9549 643d 7be9 b83b
000000b0: f5e0 6a3d d81c 313d c8fc 913d 6606 65bc
000000c0: 0c1e 67bd 4166 5ebc 536a 963d 8de1 c53b
000000d0: 83b5 8e3d 5a30 a4bd 3380 c63c 7365 993d
000000e0: ab1e 983d 16ab 59bd f23e cebd 79c4 e03d
000000f0: 3cf8 d83d 3fb5 dfbc af48 a0bb e40f 05bd
00000100: d831 6abd e7b1 c4bd c2b8 173d 8196 8cbd
00000110: a16a ee3c d4dd ab3c 16d5 08bd 5010 443d
00000120: 7d73 ce3d 1ea6 17bd 5c83 bd3d 1244 adbd
00000130: 9887 36bc 8e1d e6bd 8db4 703b e5f1 7b3d
00000140: 01e7 a83c 3b45 3fbd 60fa 303d cdf1 e9bd
00000150: 2903 a4bd f503 e8bd 7ed3 153d 61da ce3d
00000160: 31f3 b6bc 5a3f c3bd da33 24bd 59d7 463d
00000170: fbcb ba3d 5b64 f8bd 9c2f f0bd cc0e 3a3d
00000180: 954b aa3d 0304 693d 299f bcbd 03cc 23bd
00000190: cd22 04bd 907d c63c 6cd7 a63d 9ac9 ba3d
000001a0: 564d 073d d0ba d7bd 5a04 2c3d 9c88 85bb
000001b0: 104c d03d ee0b a53b 5b3a e9bd af8d d93d
000001c0: d9ef ad3d fc67 923d 9abb 7cbd 4f59 473a
000001d0: 03d6 7ebd f4cf 5a3d 009f 80bd 9e06 2ebb
000001e0: 6817 41bd ffaa d1bd 2464 f0bd 4c7c a93d
000001f0: 5102 df3d 0a76 893d 2d2a e63d 4ebb d9bd
00000200: 38ba e33d 4a68 a03d e912 e23c c459 393d
00000210: af6f 6f3d 9feb f0bc 75ae cfbd bab3 75bd
00000220: f978 133d 2da6 5cbc 9233 23bc 7f13 dfbd
00000230: ac4b e5bd ac66 ff3b 3b5f d73c 8b05 f13d
00000240: 59a8 8fbd 50ef 82bd 2d80 783c 3932 f8bc
00000250: afdb f2bd 4a23 a5bd 1519 d93d b06a 06bd
00000260: 11b5 d7bd 976b c73d b0b0 4d3c 0c89 c63d
00000270: 4aa7 05bb 3f6a 9dbd c905 e1bd 57d5 dbbd
00000280: fa86 93bd a61f 36bd 2e4f 513b 7138 00bd
00000290: 2e82 97bd 1188 3cbd 9f8d 5d3d d9ca de3d
000002a0: d46f ea3d 75a8 803d 5be2 ec3d 05b8 4fbd
000002b0: 784f f2bc d821 8abd f110 e7bd 1183 44bd
000002c0: 7a70 0f3d 2f10 ee3d e14b dabd 05ed 9dbd
000002d0: 048b 2fbd 80e2 b4bd e01e 65bd 093e 04bd
000002e0: 5015 a5bd 65e0 4f3d fa67 b2bd 1dac eabc
000002f0: bb35 aebd 2778 d03d b09c c7bd 29c2 ecbd
00000300: fb5d 8dbd f7ee f13d 0716 dd3d 259b cf3d
00000310: a358 84bd d4d4 a03c 6a10 c5bd c86e e13c
00000320: c6cd efbd b3c5 9fbd 754a ebbd 3f70 dc3d
00000330: aca8 aa3d d03c fdbc 5f95 7abc 8203 bc3d
00000340: 6a96 5abc 9a18 05bd 7154 f73d 3bb9 523d
00000350: 07d1 1bbb b966 94bd a1b6 b03c a38d 413b
00000360: 5258 0cbd b406 a0bd c292 7ebc 82df e4bc
00000370: b28b 97bc 8d0b e73d c1f0 223a 395d c13c
00000380: 3821 2bbd 5b8e ca3d 4d81 e2bd f111 0a3d
00000390: 111f 97bd 2fe6 1bbd 4329 943d 2a26 23bd
000003a0: 5336 c0ba fd24 47bd 3cf6 9ebd 1149 813d
000003b0: b3f4 afbd fc0d 803d a4a0 54bd 70ba bf3d
000003c0: da1e 8dbd 9470 0a3d 333f f1bd d586 8fbd
000003d0: 877e 23bd 4588 ccbd 638b 1dbd 1cfc e7bd
000003e0: 88ff 14bd 2765 eabc d32e 233d 86ab 243c
000003f0: 4062 ad3d 9c3f 0e3d 42c3 bb3d 4df5 e93d
0.029301392 -0.08167285 0.05578358 -0.05064936 -0.054040823 -0.007898374 0.027117053 -0.011869913
-0.07724929 0.102013625 0.104455195 -0.0881358 0.04764645 0.0798799 0.06489674 0.042391066
0.113631055 -0.028201986 -0.1134699 -0.054638524 -0.09304037 0.069631085 0.11733123 -0.04581406
0.11497617 -0.032704838 -0.0470364 0.04920585 0.06942234 0.07574302 -0.119791865 -0.012544259
-0.060607065 -0.02710664 -0.022085676 -0.11783387 0.050487537 -0.09068718 0.08240932 -0.090900816
0.11175767 -0.007619114 0.055734236 0.0056430674 0.057343442 0.0432404 0.07128292 -0.013978576
-0.05642514 -0.013574184 0.073444985 0.0060388506 0.06968214 -0.08017035 0.024231052 0.07490053
0.074277245 -0.053141676 -0.100705996 0.10974974 0.10594222 -0.027308105 -0.004891477 -0.032485858
-0.05717644 -0.09604245 0.037041433 -0.06864644 0.029103579 0.0209798 -0.03340634 0.04786712
0.100806214 -0.037023656 0.092535704 -0.08460249 -0.0111407265 -0.11236106 0.003672871 0.061509985
0.020617964 -0.046696883 0.043207526 -0.11423073 -0.08008415 -0.1132888 0.036578648 0.10100246
-0.02233276 -0.09533568 -0.040088512 0.048545215 0.091209374 -0.12128516 -0.11727831 0.045424268
0.083151974 0.05688859 -0.09210045 -0.039989483 -0.03225975 0.024229795 0.08146557 0.09120484
0.033032738 -0.105336785 0.041996337 -0.004075123 0.10170758 0.0050368225 -0.113880835 0.10622727
0.08493013 0.0714874 -0.06170235 0.00076045556 -0.062215816 0.053420976 -0.06280327 -0.0026554237
-0.047141463 -0.10237693 -0.1173785 0.08275661 0.10889114 0.06711967 0.11238513 -0.10631429
0.11119503 0.078323916 0.027596908 0.045251623 0.05845612 -0.029409228 -0.10140697 -0.059985854
0.03600404 -0.013467354 -0.009961026 -0.108923905 -0.11196074 0.007794222 0.026290527 0.11768635
-0.07014532 -0.063933015 0.015167278 -0.030297386 -0.118583076 -0.080633715 0.10600487 -0.03281659
-0.105325826 0.09737318 0.012554333 0.09694108 -0.0020393902 -0.076862805 -0.109874316 -0.10734051
-0.07203479 -0.044463776 0.0031938064 -0.031303827 -0.07397877 -0.0460282 0.05409014 0.10878534
0.11447111 0.06282131 0.115666114 -0.050712604 -0.02957891 -0.067447364 -0.11282528 -0.047976557
0.035019375 0.116241805 -0.10659004 -0.077112235 -0.042857185 -0.08832264 -0.055937648 -0.032285724
-0.08060706 0.05075111 -0.08711238 -0.028646523 -0.08506342 0.10179167 -0.09746683 -0.115604706
-0.06902691 0.11813157 0.10795217 0.10137013 -0.064622186 0.019632734 -0.09622271 0.027518645
-0.1170917 -0.0780138 -0.11488811 0.10763597 0.08332953 -0.030912787 -0.015294402 0.091803566
-0.013341526 -0.032494165 0.12076653 0.05144618 -0.0023775713 -0.07246155 0.02157146 0.0029533885
-0.034263916 -0.078137785 -0.0155379195 -0.027938608 -0.01849923 0.112815 0.00062156847 0.023604022
-0.041779727 0.098904334 -0.110598184 0.033708517 -0.07378972 -0.038061317 0.072344325 -0.039831318
-0.0014664627 -0.04861926 -0.07761809 0.063127644 -0.085915945 0.06252667 -0.05191101 0.09361732
-0.0689065 0.03379877 -0.117796324 -0.07008139 -0.039915588 -0.09986929 -0.038463008 -0.11327383
-0.036376506 -0.028612686 0.039839577 0.01005066 0.08466005 0.03472863 0.09168102 0.114237405

gru.bias_ih_l0 f4 [192]
00000000: 0c24 efbc 2358 2b3e f54e 26bc bb07 67bd
00000010: 7220 19be 4633 c93e f87a 30bd a99f 1a3e
00000020: 13a2 453d e9d0 913e 1654 f03c a95e 183e
00000030: 50d3 2d3c bc31 313e 40d9 28be d7e7 893e
00000040: 52cd 323e 89ce 643d 9563 a93e 125c 913e
00000050: d4e4 d03d ca55 673e 3050 e13d f918 c53e
00000060: 48ba d83d 2f69 223e 23ca a03e 1908 b8bd
00000070: ae4e 0abe e9b3 143e 125a 0ebd 9ea6 09bd
00000080: 67d3 41bd 2f2b 31be 3839 9f3e d285 bc3e
00000090: 6c24 0dbd 6fd5 0cbd dbd5 9a3e 8d16 f0bd
000000a0: 9197 9b3e 110f 353d 2135 eebd d61b 99bd
000000b0: eb67 643e e766 853d d726 9dbd cda5 4bbe
000000c0: 20ba 1f3e d2a3 823c 07db 8b3d 4329 18be
000000d0: 80ea bd3e ecfc 0eba 0aba 8d3d 4bad d5bd
000000e0: c378 d23d 5167 2e3e 1575 f83c 3e47 1f3e
000000f0: 59a2 8ebd ff24 7c3d b2ba 393e dd49 31be
00000100: eb7f 4dbc db65 2dbe b7be 40bf f96f fbbe
00000110: cdf8 82bd a26b c0be 2ef5 4dbe 605a 10be
00000120: 9f17 6cbe a570 4bbe 2545 e7be 65a9 80be
00000130: 1329 02bf 7f40 b3be 7928 d5be 7899 90bc
00000140: d0a7 91be 9fb3 c7be 4058 c4be 31db 393c
00000150: 474c 68be 785a 9abe b75a b03d 5cbb 30be
00000160: 83e5 08be e754 07bf 71e8 4dbd d232 f839
00000170: dcec a2be b148 21be b0e0 96bd 086b 73be
00000180: 4960 b5bc 2a2c 9cbe f5f4 2abf 1f2a 81be
00000190: 94fd 51be b465 4ebe 0b6e aabe f014 8fbd
000001a0: a0a5 0abf 57d6 d0be 7182 033c 29c3 e0be
000001b0: 070c d6be e347 e6bd e266 0cbf 9e8c dfbd
000001c0: 8d00 02bf 48a8 9cbc 33b2 41be ba93 d1be
000001d0: f8fa f4be 249f 7fbe af6b e7be 3d7a c5be
000001e0: 1133 0bbe 3d73 b5be e66c dc3d fcf2 b7be
000001f0: a801 893d fc4a 99be 77df 43be d7ae 9ebd
00000200: aa12 99bd ccd4 dabd 4c28 a43d 752f 183e
00000210: c0c4 1bbc bd45 b33e 58a3 eebd 7f76 053d
00000220: 821a efbd 2ecd 0fbe b4cc 9f3d 70e2 3f3e
00000230: a9b3 c73d dd35 5e3e b0bd b0bd 4574 433e
00000240: 9f29 80be dd30 00be 4ded a03e a8c5 0bbe
00000250: 74f1 403e d3aa 6b3e 0250 313e 3530 c3be
00000260: 5368 273d 4d48 7ebc d0e6 9e3e c708 923c
00000270: 3cfe cebd bd4e 86be 5b2b 823e f9f2 22be
00000280: 5b23 c8bd 572a 853e 79d5 aa3e b203 66be
00000290: b06e 173e cf3b 1fbe df97 963d 12df 19be
000002a0: a3a8 7bbe 50db 60be b543 f0bd 2843 edbd
000002b0: c9fc 1cbe 5e2f a83b d7ac 433e 7561 b43d
000002c0: 5984 593e b060 963d ad2b ac3d 61e2 373e
000002d0: 30a0 35be 01de 63bd a2ae 25be 4de0 273e
000002e0: ce48 1f3d 1953 f33d 7c84 3c3d 24b7 17bd
000002f0: 7546 993e ae62 6bbe e8c1 0b3e f92d d63d
-0.029191993 0.1673284 -0.010150661 -0.056403857 -0.14953783 0.3929693 -0.043086022 0.15099968
0.04825027 0.28479698 0.02933697 0.1487986 0.010609463 0.17304128 -0.16489124 0.26934692
0.17461136 0.05586103 0.33083788 0.28390557 0.101998955 0.2259132 0.11001623 0.38495615
0.10582405 0.15860437 0.31404218 -0.089859195 -0.13506576 0.14521755 -0.034753866 -0.033606164
-0.04732075 -0.1730163 0.31098342 0.36820847 -0.034458563 -0.034383234 0.30241284 -0.11723051
0.30389073 0.04420382 -0.11631227 -0.074760124 0.22305267 0.06513768 -0.07673424 -0.19887467
0.15598345 0.015947256 0.068288855 -0.1485949 0.37092972 -0.00054545584 0.0692025 -0.10433444
0.1027694 0.170316 0.030329267 0.1555452 -0.06964559 0.06155872 0.18137625 -0.17313333
-0.012542705 -0.16933386 -0.7529101 -0.49108866 -0.06395111 -0.37582117 -0.2011306 -0.14096975
-0.23055886 -0.19867189 -0.4516994 -0.25129238 -0.50843924 -0.35010144 -0.4163244 -0.017651305
-0.28448343 -0.39004228 -0.3834858 0.011343763 -0.22685347 -0.30147147 0.086110525 -0.17258972
-0.13368802 -0.52863926 -0.0502705 0.0004734011 -0.31821334 -0.15750386 -0.073670745 -0.23771298
-0.022140639 -0.30502445 -0.66780025 -0.25227448 -0.20506889 -0.20155984 -0.3328708 -0.069864154
-0.54158974 -0.40788528 0.008026705 -0.43898895 -0.4180605 -0.1124418 -0.54844487 -0.109154925
-0.5078209 -0.019123212 -0.18915634 -0.4093302 -0.47847724 -0.24963051 -0.45199344 -0.38569823
-0.13593699 -0.35439482 0.10762958 -0.3592757 0.06689769 -0.2994002 -0.19128214 -0.07748192
-0.07474263 -0.10685119 0.080154985 0.14861853 -0.009507358 0.35014144 -0.11652249 0.03258371
-0.11674978 -0.14043114 0.07802716 0.18738723 0.09751064 0.21700235 -0.0862993 0.19087322
-0.25031754 -0.1251864 0.31431046 -0.13649619 0.18842107 0.23014383 0.17315677 -0.38122717
0.040870976 -0.015520168 0.3103547 0.017826451 -0.10107085 -0.26231948 0.25423703 -0.15912999
-0.097723685 0.26008865 0.33365992 -0.22462347 0.14788318 -0.15550159 0.07353186 -0.15026501
-0.24576049 -0.21958661 -0.11731664 -0.11585075 -0.15330805 0.0051325997 0.19108902 0.08807651
0.21241893 0.073426604 0.08406768 0.1795745 -0.17736888 -0.05563164 -0.16179898 0.16394158
0.03888779 0.11881084 0.046024784 -0.03703989 0.29936567 -0.22986862 0.13648188 0.10457987

gru.bias_hh_l0 f4 [192]
00000000: 102d 11bd f93a 333e 43a5 d7bd 8a81 d9bd
00000010: 792c a5bd 82e0 cb3e 57b7 babd e230 403d
00000020: 00ac 92bd 317a 103e 2f5a ac3d 5f5a 893e
00000030: 9994 d23d 6d06 853e 1fd9 babd 140e 833e
00000040: 3163 933e 747a 813d cb09 bb3e b535 6f3e
00000050: 7fb4 8c3e 9ef8 843e bb55 833e ba48 9b3e
00000060: 697f 293e 0047 123e 8d95 403e a85b e1bc
00000070: ba45 11be bffd 183e 4da6 8abc aa18 1e3e
00000080: a468 783d 0d44 e6bc 88be 9b3e 56c6 213e
00000090: 2ab1 f33d c074 a5bd 83ee 823e 4aff 9dbe
000000a0: c09b 283e 9a75 1ebd 3865 80bd b3da 16be
000000b0: e961 253e bd8a e23d e1c3 b23d ce1e b0bd
000000c0: fcd8 b43e df92 c4bd 0b56 1b3e 067b 6dbc
000000d0: e0aa ba3e c4cc 573d ef79 503e fea9 e03b
000000e0: ef4c e23c f004 363e 9ed5 c2bd 547c 4e3e
000000f0: 9cc5 693c 56d1 af3d 29e7 343e 2c0f 15bd
00000100: 2776 753c 0ac8 2cbe bd7f 3ebf 27cd 09bf
00000110: 3ee9 d23b 320a c8be b232 b73b 67b6 913c
00000120: d3c3 37be a659 91be cc38 e0be 6a31 6ebe
00000130: 3791 c9be 6953 c4be 915a 0dbf 70a8 1dbd
00000140: 78e8 b9be 6cbb bfbe eb74 5cbe bb50 5dbc
00000150: 7b57 5ebe c42f 2cbe 9d62 c93d bdd9 b4be
00000160: 603c 2bbd 4c72 d0be 24cc 4abd f073 073d
00000170: 1683 b8be 51f9 07be 6f5e 8abe eeed 6cbe
00000180: 631c a6bc ad75 05be c485 efbe 450c 39bd
00000190: e002 4fbe 73c3 33be b7ba 9dbe ca35 d03d
000001a0: 05fb 02bf f89e cebe e1b5 ddbd 7919 09bf
000001b0: 3c84 e2be 089b 123d 932a 1abf 180f 30be
000001c0: 59d4 25bf 0370 3abe 2dde dc3c 3fb4 d8be
000001d0: 74be 09bf babb 81be f674 f8be 497c bfbe
000001e0: 9b59 9bbd 4c11 e6be bdcf 31bc a75e 84be
000001f0: e245 e53d c638 55be 9091 50be 7413 cebc
00000200: b91d cb3d 381b 34be 7f2d 97be de58 9dbe
00000210: 1519 70be a087 0d3f d103 57be f19a 75be
00000220: f0a9 b23e 822d bfbe 62b6 af3e 063d ee3e
00000230: abf9 833d ceb9 db3e d026 9b3e ff37 823e
00000240: ce3a b6be a57d 03bf 97bf dc3e 6ef2 9dbe
00000250: c5b3 c93e 9f8f 923e 0f6b dd3e 2efd 0cbf
00000260: 6221 c63e 9212 05bf 0072 de3e e684 39bd
00000270: 7886 283e f504 3bbe be64 c43d 7001 78be
00000280: 5419 c2be b913 353e 61fa 093f f005 94be
00000290: 1f52 ac3e 6fbc a53e 1186 ab3e 17ce b73d
000002a0: 9d64 08bf b757 7abe 452d a63d 3e3e ac3e
000002b0: 3a27 cabe 2e88 efbd 880e 323e 7054 21be
000002c0: 24f3 053f 8214 f03d b29e 533e 86d0 7bbe
000002d0: 124b ffbe c87c 37be 58f5 8dbe e594 82be
000002e0: fa96 2d3e d90d c33e f3be 40be c3bd adbe
000002f0: 8215 4d3d c632 bcbe ad08 343e fef8 843d
-0.035443366 0.17502965 -0.10529568 -0.10620411 -0.08065123 0.39819723 -0.091170006 0.04692162
-0.07161713 0.14109112 0.08415639 0.2682676 0.10282249 0.25981465 -0.09123444 0.25596678
0.28786615 0.06322184 0.3653091 0.23360331 0.27481458 0.2597093 0.25651345 0.30328923
0.1655251 0.14284897 0.18807049 -0.027509525 -0.14186755 0.14940546 -0.016925002 0.15439096
0.060646668 -0.028108621 0.304188 0.15798315 0.11899026 -0.08078909 0.25572595 -0.30858833
0.16465664 -0.038686372 -0.06269306 -0.14731865 0.16150631 0.110616185 0.08728767 -0.085996255
0.35321796 -0.09598326 0.15169542 -0.014494663 0.36458492 0.052685514 0.20359014 0.006856202
0.027624575 0.17775321 -0.095134005 0.20164615 0.014268305 0.085848495 0.17666306 -0.036391422
0.014981783 -0.16873184 -0.74413663 -0.5382866 0.006436496 -0.39070278 0.00559076 0.017787172
-0.17945795 -0.2838871 -0.43793333 -0.23261037 -0.39368603 -0.38344887 -0.5521632 -0.038490713
-0.36310172 -0.3744768 -0.21528976 -0.013508017 -0.21713059 -0.16815096 0.09833262 -0.3532237
-0.041805625 -0.40712202 -0.04951109 0.03306955 -0.3603751 -0.132787 -0.27025172 -0.23137638
-0.020277208 -0.13033171 -0.46781743 -0.045177717 -0.2021594 -0.17555027 -0.30806515 0.101665094
-0.51164275 -0.4035566 -0.10825706 -0.53554493 -0.44241512 0.03579238 -0.60221213 -0.17193258
-0.6477714 -0.18206792 0.02696141 -0.42325017 -0.53806233 -0.25338537 -0.48526734 -0.3739951
-0.0758545 -0.4493507 -0.010852751 -0.25853464 0.1119497 -0.20822439 -0.20368028 -0.02515576
0.099177785 -0.17588508 -0.29526898 -0.30731863 -0.23447068 0.5528507 -0.2099755 -0.23984887
0.34895277 -0.37339407 0.34318835 0.46530932 0.06444105 0.42915195 0.3030305 0.25433347
-0.3559174 -0.51363593 0.4311492 -0.30849022 0.39394966 0.286252 0.43245742 -0.5507382
0.38697344 -0.5198146 0.4344635 -0.045292757 0.16457546 -0.1826361 0.095895275 -0.24219298
-0.3790995 0.17683305 0.5389767 -0.2891078 0.33656403 0.32370326 0.33500722 0.089748554
-0.53278524 -0.24447523 0.08114103 0.33641237 -0.39483052 -0.11695896 0.17388356 -0.15754867
0.5232413 0.117226616 0.20666006 -0.24591264 -0.49861962 -0.17918694 -0.27726245 -0.25504223
0.16952124 0.38096502 -0.18822841 -0.3393384 0.05006934 -0.36757487 0.17581435 0.06492804

fc.weight f4 [3, 64]
00000000: a69b b73e 6834 aa3d 89f4 42bf 2671 37bf
00000010: 93c0 283f b609 023f 9da9 333e 1808 00bf
00000020: 2887 d4be 68e9 1bbd eca9 0b3f d227 c23e
00000030: c196 873e babf 623e 94de 143f 6648 ea3e
00000040: a821 eabe 48cf 58bd c85d 923e 9f67 09bf
00000050: 2801 2e3e 6824 a4be 9686 353f a0a8 36be
00000060: 023e 143f 11ed d2bc ff34 e43e bca4 c03e
00000070: e1fd 1f3f 2622 cfbe c67c b83e ef8c 2d3d
00000080: b7fe fabe ca49 f93e 3dbc 383e 2287 b6be
00000090: ec12 4c3f 5a4d 383f ae28 d4bc e062 cabe
000000a0: cd2b 33bf 95c6 743c f434 733e a29f 0c3f
000000b0: 8b09 ebbe 1147 a03e cd5a 15bd 2faf 243e
000000c0: 4ab5 e23e c2d1 f43e 16b5 b0bd ae30 51bf
000000d0: 41fb 65be cfdf d83e c99b cdbe 8942 36bf
000000e0: cba9 9fbe 035b acbd cee7 00bf 44d4 4bbf
000000f0: 9c6e 993e c140 10bf f890 b53c 004f 203f
00000100: 6221 a1be 44bf 7abe e28d a13e 24ce c83e
00000110: 9257 36bf aaf7 13be 4367 95be e6c8 5a3e
00000120: f7fa fd3e c963 32be 39af a4be bf66 aebe
00000130: 92c9 08bf 05c8 df3e 306b b5be 674a 46be
00000140: d959 45bd 8541 c8be 80fb 593e 16e8 d33e
00000150: 986a b83e 35a3 143f d2bb efbe b6dc 33be
00000160: 419b 85be 9c8e b5be db0e 50be ef6f 85be
00000170: ac74 a5be 7cfe 183e e7c0 a1be ec20 8abe
00000180: fa14 003f bbc8 f5bc c169 853e ea96 f13c
00000190: da11 94be 3c19 23bf 8443 f43e 7b71 1a3f
000001a0: 06f9 513e c834 a1be e74c a7be 671f a3be
000001b0: 8cab 313e 62b6 aebe d365 d03e 84b4 e1be
000001c0: c582 08be a414 a3be e78b 863e 9ed9 b23e
000001d0: 5583 b7be 5fb5 12bf 6ece 2f3e 4e83 ef3e
000001e0: 7cff bd3e 109a b83e 9770 873e 60a8 133f
000001f0: f549 58be 5c45 e03e aa89 763e e362 17bf
00000200: a619 3ebd bd69 c43e 19c0 d03e 6600 fc3e
00000210: 97ee 08be c70a 1abf 15fd 1f3e 4556 e03e
00000220: 2327 b4be b94d 0b3f a260 1cbf f867 1abf
00000230: cdcb 053f 399a 63bf e4d2 24bf 6626 d8be
00000240: d636 4d3f 71d7 353f 7ce3 1bbf 7191 4e3e
00000250: 8492 2abf 2f6a 6ebe 3d03 14bf 29eb 303f
00000260: 9a10 e8be 9e66 363f 76f0 a4be 12dd e2bd
00000270: e4dd e4be 0d5b 7a3e c1fd 93be f031 f53e
00000280: a011 003f a09b 1dbf 0567 4dbf ce42 203f
00000290: 8721 11bf 50a3 9a3d 7181 e3be 3c10 b5be
000002a0: 3e69 1d3f 03fe 0b3f e413 973e 8a97 3abf
000002b0: 842b ac3e 2e5d c23d 037a 22bf 3c0a fe3e
000002c0: c47e 55bf 7ab8 95be 52c9 86be a191 123f
000002d0: 5838 8b3f 839a 923e 1f12 163f 29be 1b3f
000002e0: 2c6a 8cbc c08e e1be 402c 873e 2682 a03e
000002f0: 853c 9cbd b8cf 0b3f 8c9d d6be d6e1 b4bc
0.35860938 0.08310777 -0.7615438 -0.71657026 0.65918845 0.5079607 0.17545171 -0.5001235
-0.41509366 -0.03806439 0.54556155 0.37921005 0.26482204 0.2214345 0.5815213 0.4575836
-0.45728803 -0.052932054 0.28587174 -0.5367374 0.16992629 -0.32059026 0.70908487 -0.17837763
0.57907116 -0.025747808 0.44571683 0.37625682 0.62496763 -0.4045574 0.36032695 0.042370733
-0.49022457 0.4868911 0.18040557 -0.35649973 0.7971637 0.7199303 -0.025898304 -0.3952856
-0.6998871 0.014939924 0.23750669 0.5493108 -0.45905718 0.3130422 -0.036463547 0.16082452
0.44278938 0.47816283 -0.086282894 -0.81714904 -0.22459127 0.42358252 -0.40157917 -0.71195275
-0.3118423 -0.084157966 -0.50353706 -0.79620767 0.299672 -0.56348807 0.022163853 0.62620544
-0.31470782 -0.24487025 0.3155356 0.39219773 -0.7122737 -0.14449945 -0.29180345 0.21365699
0.49605533 -0.17420878 -0.32164934 -0.34062764 -0.5343257 0.4370729 -0.3543334 -0.1936432
-0.04818139 -0.39112487 0.21287346 0.41388005 0.36018825 0.58061534 -0.46822983 -0.17564663
-0.26095012 -0.35460365 -0.20318167 -0.2606196 -0.32315576 0.14940828 -0.31592485 -0.26978242
0.5003201 -0.030002942 0.26057246 0.029490907 -0.2891987 -0.6371038 0.4770776 0.6032941
0.20505151 -0.3148558 -0.3267586 -0.31859896 0.17350596 -0.34123522 0.40702686 -0.44083035
-0.13331135 -0.31851685 0.26278612 0.34931654 -0.35842386 -0.57308 0.1716859 0.46779865
0.37108982 0.3605504 0.26453087 0.57678795 -0.21121962 0.43802917 0.24075952 -0.59135264
-0.04641118 0.38361922 0.4077156 0.49219054 -0.13372265 -0.60172695 0.15623887 0.43815818
-0.3518611 0.5441547 -0.6108495 -0.60314894 0.522641 -0.889072 -0.64384294 -0.42216796
0.801618 0.7103186 -0.6089399 0.20172669 -0.66629815 -0.23282693 -0.5781744 0.69108826
-0.45325166 0.7125033 -0.32214707 -0.11077322 -0.4470054 0.24448796 -0.28904536 0.47889662
0.50026894 -0.6156559 -0.8023532 0.62601936 -0.56691784 0.07550681 -0.44434693 -0.35363948
0.6148871 0.54684466 0.29507363 -0.7288748 0.3362695 0.09490429 -0.63467425 0.49617183
-0.83396554 -0.29242307 -0.2632547 0.5725346 1.087657 0.28633508 0.586214 0.60837036
-0.01714047 -0.44054222 0.26400948 0.31349295 -0.07628731 0.5461383 -0.41917074 -0.022080343

fc.bias f4 [3]
00000000: 0775 583e 84da 993c 98ed efbd
0.21138392 0.018780954 -0.11715239
