Code-in-cloud/results/models/蛋白供应分类标签_backward_lstm.pth (torch, 81928 bytes, 6 tensors)

lstm.weight_ih_l0 f4 [256, 11]
000000 dd f2 05 be 4f 38 37 bf 24 95 09 be 2e 71 28 3f
       -0.13080926 -0.71570295 -0.13435799 0.657977
000010 33 ee 81 3e c6 89 fc 3c 11 cd 56 bf 71 95 bd bd
       0.25377044 0.030827414 -0.83906657 -0.09257019
000020 4d ab 0a 3e 01 76 1c be fc 72 92 be 5d 50 65 3d
       0.13541909 -0.1527939 -0.2860335 0.055984844
000030 bd 33 8c 3e 97 40 a4 3e d6 56 85 be 30 1e b0 bd
       0.27383223 0.32080528 -0.26042813 -0.08599508
000040 99 cb be 3c b0 d9 59 3f 58 7d 0e 3f 48 23 0d 3f
       0.023290442 0.8509779 0.5566001 0.5513196
000050 26 b2 80 bf 23 66 12 3e 02 6e 2b be 38 fb 27 3e
       -1.0054367 0.14296775 -0.16741183 0.16404426
000060 0f 8e 5f be a7 11 9f 3e 5c 04 38 3e 84 87 50 bf
       -0.21831535 0.31068155 0.17970413 -0.8145678
000070 4c 7c a7 3e 49 5d d4 bd 27 60 9c 3e cf fe 91 3f
       0.32712018 -0.10369355 0.30542108 1.1405886
000080 af e8 c2 be 97 c1 16 3d 0c 9a 85 be 7a c4 b5 bd
       -0.38068148 0.036805715 -0.2609409 -0.088753656
000090 c7 d0 d3 3d 1d 72 67 be 96 4d 49 3f db 9e 19 bf
       0.103425555 -0.22602125 0.7863401 -0.6000802
0000a0 48 bc 08 3f a0 b0 80 3e aa 42 07 bf 06 49 e5 be
       0.53412294 0.25134754 -0.52836096 -0.44782275
0000b0 1b 73 fe bd c1 bc f8 be 23 31 43 be 96 e5 d8 3e
       -0.124242984 -0.48581508 -0.19061713 0.4236266
0000c0 c6 75 b9 3c 53 8c d0 3d 10 fa 2e bf e9 8d 56 be
       0.022639167 0.10183015 -0.68350315 -0.20952572
0000d0 33 6e 38 bd 55 99 51 bd 65 a5 c5 bd fe 4f d6 3e
       -0.04502697 -0.05117162 -0.09650687 0.41857904
0000e0 14 c6 99 3e 4f d0 8f 3e 60 ab d5 be 6b 25 8c b8
       0.30033934 0.28088614 -0.4173231 -6.68269e-05
0000f0 e3 75 d0 3d 97 b8 85 be bf 51 84 bd ac ce f8 be
       0.10178735 -0.26117393 -0.06460904 -0.48595178
000100 07 b8 30 3f 16 12 3a 3e 28 80 1d be b7 b9 8e 3c
       0.69030803 0.18170962 -0.15380919 0.01742254
000110 67 fd 0e bf 4b f2 e0 3e bd a4 2a bd 29 1c c6 be
       -0.5585541 0.43934855 -0.041661013 -0.3869336
000120 bc 32 80 bd 85 a7 e9 be 87 b5 e8 be 8e 89 0a be
       -0.06259677 -0.4563562 -0.45450994 -0.13529035
000130 37 6a f8 3e 36 bd f0 3d 48 9e e2 3e 00 f0 a3 3e
       0.48518535 0.11754839 0.44261384 0.32019043
000140 6f 5b ee be ac 8f 98 bd 8e 10 a5 be 6a 8b 89 3f
       -0.46554133 -0.07449278 -0.32239193 1.0745671
000150 0a 06 4f be b8 ae f8 3e 17 47 e3 be ac 1e 24 3f
       -0.20217147 0.485708 -0.44390175 0.641093
000160 57 57 2e 3f 19 43 15 3f ef 1d ba 3e 9c 56 09 be
       0.6810202 0.5830551 0.36350963 -0.13411945
000170 94 d0 2e bf 26 e6 19 3e d6 73 8a 3e 71 09 ad 3e
       -0.68287015 0.15029201 0.270415 0.33796266
000180 08 d7 c9 bc 44 0b 54 be a8 25 17 3e 7b c8 88 3e
       -0.024638668 -0.20707422 0.14760458 0.26715454
000190 0d 85 79 3e f1 72 a6 3e 33 b8 0f bf a5 18 29 bf
       0.24367161 0.32509568 -0.5614044 -0.6605323
0001a0 8a 8d 0c 3f d6 12 d3 bd c3 00 88 bc 0c b1 28 be
       0.5490347 -0.10306327 -0.016601926 -0.16473788
0001b0 e3 55 13 be 96 6b d2 3b 13 41 ce 3e f1 07 84 3e
       -0.14388232 0.0064215166 0.40284023 0.2578731
0001c0 c0 47 4e be 89 e1 f8 3e c8 87 3f 3d 30 a1 cc be
       -0.20144558 0.4860957 0.04676035 -0.39966726
0001d0 d6 fb 4e 3e 1c 0a 07 bf df 99 06 be ff 92 d6 be
       0.20213255 -0.527498 -0.13144635 -0.41909024
0001e0 bc a4 31 3e b4 d6 13 3f 7f da b9 3e 48 e0 1a be
       0.17347997 0.57749486 0.36299512 -0.15124619
0001f0 65 67 c4 be f7 01 f8 3c f2 72 f4 be 53 38 b8 3d
       -0.38360134 0.030274374 -0.47743946 0.08995118
000200 94 a2 f9 be 30 a7 dc be 44 44 7c 3e 2e 8d 28 bf
       -0.4875685 -0.43096304 0.24635416 -0.65840423
000210 c4 af fc 3d b2 56 c9 3e c4 b0 9a be 15 15 bc 3e
       0.12338212 0.39323956 -0.30212986 0.36734834
000220 7c d8 a9 be 8d c4 0a bf f6 13 e4 3e 57 64 02 bf
       -0.33172977 -0.5420616 0.4454648 -0.50934356
000230 ad 63 f8 bd b0 26 1f bf ba d1 88 3c a4 98 f7 bd
       -0.12128387 -0.6216841 0.016701568 -0.12089661
000240 28 79 28 3f c3 bf 8a 3e 86 1e c0 b9 b5 4e 59 bc
       0.6580987 0.27099428 -0.00036643835 -0.013263394
000250 ce 6b a6 bd 16 e5 98 3e c5 00 4d be d9 1c 0f 3f
       -0.08126031 0.2986228 -0.20019825 0.55903393
000260 11 bf db be ec d8 8e 3e 71 40 d2 3d e3 21 6d 3e
       -0.4291921 0.27899873 0.102661975 0.23157458
000270 bb d8 84 be 7f f3 d0 3e 53 7a ac 3e b6 a7 0f bf
       -0.25946602 0.40810773 0.33687076 -0.5611528
000280 c8 84 f0 3d f1 ba 17 be 6b 7c 92 3e 3b 06 48 3e
       0.11744076 -0.14817406 0.28610548 0.19533627
000290 25 72 64 3e b0 f7 03 3f 55 27 1a 3f d3 3c 7d be
       0.22309168 0.51549816 0.60216266 -0.24730234
0002a0 a2 9d 88 be c3 0c cb bd c2 9a 10 bf 19 ab 08 3f
       -0.26682764 -0.099145435 -0.5648614 0.53386074
0002b0 6a f2 0c bf 39 be b2 be dc 24 22 3e f0 b2 37 bf
       -0.55057395 -0.34910753 0.15834373 -0.7175741
0002c0 50 6f d2 bd 50 ba fe be 90 cd 97 bd 1e 23 a0 be
       -0.102751374 -0.4975152 -0.07412255 -0.31276792
0002d0 90 63 00 be 4a 9a 21 be f2 fb bd 3b a2 c4 e1 be
       -0.1253798 -0.15781513 0.0057978565 -0.4409533
0002e0 27 2e 95 be cf 3f e9 bd 13 8c 8c be 02 e1 8e 3e
       -0.29136774 -0.11389124 -0.27450618 0.27906042
0002f0 68 ac ac 3d 7a 39 0c be 07 40 3a 3e 22 49 48 be
       0.084313214 -0.136938 0.18188487 -0.19559148
000300 3b 96 3b bf 39 c0 ca 3e 2c 6d 2a bf 75 27 e9 be
       -0.7327611 0.3959978 -0.66572833 -0.45537916
000310 34 f7 94 be 3f db 11 bd a4 63 2c 3f ba 0f 0a 3e
       -0.2909485 -0.03560948 0.6733954 0.13482562
000320 44 20 ca be d0 95 31 bf 4f af 1a be 28 32 99 be
       -0.39477742 -0.6936922 -0.15105937 -0.2992108
000330 00 54 1e 3e bc df 2b bf ea 0a 31 bf d1 ee 5b be
       0.15461731 -0.67138267 -0.6915728 -0.2147782
000340 87 0d e1 be 02 4c 6b be 08 d4 e0 bc 25 83 25 3e
       -0.43955633 -0.22978213 -0.027444854 0.16163309
000350 ab 97 85 be 60 5a 9c 3e b6 ac e4 be a9 0c 9c 3e
       -0.26092276 0.305377 -0.44663018 0.3047841
000360 e4 f0 9b be 5e ed 5d 3e 10 d9 2c 3e 13 d9 02 3e
       -0.30457222 0.2167258 0.16879678 0.1277812
000370 e3 c6 c4 3e b2 79 82 3e 9d f2 f0 be 5f 00 07 3f
       0.3843299 0.2548347 -0.470601 0.5273494
000380 c5 ab e6 3c 03 67 1d bf 47 16 9e 3d 7b 64 cd be
       0.028158078 -0.6148531 0.07719093 -0.40115723
000390 aa fb f1 bc 03 ff cc 3c 36 58 0d be 3f 1f 88 3d
       -0.029538948 0.025023943 -0.13803181 0.06646585
0003a0 3c e8 d3 bd 3c 66 90 3c b7 fe 80 be ee 1d 5f bf
       -0.103470296 0.017626874 -0.25194332 -0.87155044
0003b0 7f 97 97 3e 03 8f a8 be ce 3a ad be 4b 31 05 bf
       0.2960777 -0.3292161 -0.33833927 -0.5202834
0003c0 5e 67 aa be cf 78 7f 3e 67 8d 1b 3f 4f fa 04 3f
       -0.33281988 0.24948429 0.6076264 0.5194444
0003d0 48 9c 71 bf 5c f2 39 3f 0c 89 be 3d d5 f2 08 bf
       -0.9437909 0.72635436 0.09303483 -0.5349553
0003e0 84 59 0a 3e 2d dd fe be 31 d7 81 3d 07 ca 22 3e
       0.1351071 -0.4977812 0.06339873 0.1589738
0003f0 8d 41 a6 3d d6 1e f8 3d 48 e2 6a 3f b7 75 20 3f
       0.081179716 0.121152565 0.9175153 0.6267962

lstm.weight_hh_l0 f4 [256, 64]
000000 20 d2 7b bd c9 84 b9 3b 5c 78 89 bd 18 6e da 3d
       -0.061479688 0.005661581 -0.0671241 0.1066553
000010 71 08 a0 bd 5f ce 15 3b 8f 16 93 bd 6b 94 6f bc
       -0.0781411 0.0022858602 -0.07182037 -0.014622788
000020 ce 84 c5 bd 94 f5 d7 3d 4e da 93 bc 54 85 d0 bd
       -0.09644471 0.10544887 -0.018048432 -0.1018168
000030 03 37 e8 3d 2b 69 d7 3d 36 1d e8 bc 47 03 ac bd
       0.11338618 0.10518106 -0.028334241 -0.083990626
000040 c8 ee c3 bd a9 98 ed 3c 8d 05 65 bc ad 53 5e bd
       -0.09567028 0.029003458 -0.013978374 -0.05427902
000050 41 97 c3 3d 0f 28 6b bd dc c9 29 bd 6e 69 aa 3d
       0.09550334 -0.05741125 -0.041452274 0.0832089
000060 3b ca 96 3d d4 4a ed bd 98 31 2d 3d f6 cf 27 bd
       0.07362791 -0.11586538 0.042283624 -0.04096981
000070 45 25 cc 3d ca 0a 71 3d 94 ca 0a bd 64 c5 2d bd
       0.09968046 0.05884818 -0.0338846 -0.042424574
000080 6d ea 4c bb 10 39 6c 3d 66 88 cd 3d 36 6c e3 3d
       -0.0031267658 0.057671607 0.100357816 0.11104624
000090 fb d0 b7 3d 9c ef d4 3d 89 cd 1b bd 11 df 20 3d
       0.08975407 0.10397264 -0.03803781 0.039275233
0000a0 3b 5d e2 bd 97 cf e1 3d 75 2d e3 bd 7d 6c 4b 3d
       -0.110529386 0.11025923 -0.110926546 0.04966401
0000b0 a6 a3 22 bd 3e f8 98 3d 29 05 1b bd a2 bb 3d bc
       -0.03970685 0.074692234 -0.037846718 -0.01158038
0000c0 33 ff ca 3d 42 ea 8e bd 7a 28 ab bd d3 98 4a bd
       0.09911957 -0.06978275 -0.0835733 -0.04946215
0000d0 f0 42 e0 3d 0f b2 30 bd 0c 52 a2 3c fb f9 e9 3d
       0.10950267 -0.04313856 0.019814514 0.11424633
0000e0 54 76 ea bc 52 29 ae 3d 15 b9 bb bc ea 37 80 bc
       -0.028620876 0.08503975 -0.022915402 -0.015651662
0000f0 98 b3 69 3d de cc e1 3d 1b 63 40 bd 78 c2 55 bb
       0.05705604 0.110254034 -0.046969514 -0.0032617133
000100 54 c6 3e bd cb 2c 84 3c df c0 12 bd 0d 51 a3 3c
       -0.04657586 0.01613464 -0.035828467 0.019936109
000110 aa dc 59 bd 95 b7 3f bd cd 81 d0 3b 2b 1e 0f 3d
       -0.053188957 -0.046805937 0.0063631297 0.03494088
000120 2f 50 a6 b8 57 d0 64 3d 2a 88 64 3d 01 62 f7 3d
       -7.930432e-05 0.05586275 0.05579392 0.1207924
000130 0e 5d f3 3d 1a 2f dd 3d b7 f2 ce bd 0d 83 08 3d
       0.11882983 0.107999995 -0.10104888 0.033328105
000140 ba 5d 7b 3c d4 64 13 3d 65 1e 4b bd dc 48 c0 3c
       0.01534217 0.03598483 -0.049589533 0.023472242
000150 7f 35 b5 bd 7d a8 69 bd 03 24 57 bd 12 4e 14 3c
       -0.08848094 -0.05704545 -0.052524578 0.009051817
000160 e7 63 6a bc 2c 19 b4 3d 7e 74 97 3d c7 fe 1b 3d
       -0.014306045 0.08793864 0.07395266 0.03808477
000170 c3 f3 84 3c 9e 06 db 3d 3e 9a 59 3d 7c b2 b4 bd
       0.016229516 0.106946215 0.053125612 -0.08823106
000180 87 a0 88 bd 7f c9 e3 3d ae 63 30 bd 40 27 53 bd
       -0.06671243 0.11122417 -0.043063812 -0.051551104
000190 7b 20 cd bd 2e 0c 0b bd 08 5c 7b 3c d8 f3 3d 3c
       -0.10015961 -0.033947162 0.015341766 0.011593781
0001a0 21 2e 1b 3d 50 60 63 bd 0f ba dd bd 2f 61 aa 3b
       0.03788579 -0.055511773 -0.108265035 0.0051995735
0001b0 7c 41 09 3c 26 30 94 bd fb 11 ad 3d 0e d4 8c bb
       0.008377429 -0.07235746 0.08450695 -0.00429774
0001c0 84 25 a3 3d de e4 86 bd 2a 7d 90 3d 63 24 be bd
       0.0796614 -0.06586622 0.07055123 -0.09284284
0001d0 8c 12 07 3d fc d0 b9 3d c5 d1 ce 3d cd 48 e2 3c
       0.032976672 0.09073064 0.10098604 0.027622605
0001e0 69 93 09 bd 27 3c 7f bd 4b d6 5e bc 2f 94 31 bd
       -0.033587847 -0.062313225 -0.013600896 -0.04335421
0001f0 73 7a f6 3d 3a 8d 9a 3d f2 65 9d 3d 73 1e 54 3b
       0.12035074 0.07546468 0.0768546 0.0032366782
000200 ba 55 35 3c da 7e f6 bd 31 b0 de 3d 07 1e 20 bc
       0.011067802 -0.12035914 0.108734496 -0.009772784
000210 8d 6a f9 39 45 9d 44 bd 19 7b e5 3d 60 fb 84 3b
       0.00047572367 -0.048001546 0.1120512 0.0040582865
000220 1d 4b 11 bd 1d aa 4f bd eb f6 80 bd e0 24 89 bb
       -0.035472024 -0.050699342 -0.06297096 -0.004185304
000230 9f f2 78 3d 5f d9 b9 bd b7 29 2e 3d 04 c1 bf 3d
       0.060778257 -0.09074663 0.04252025 0.09362987
000240 8a 7a b2 3d 8e b1 a0 bd 64 34 82 3d f5 5d 91 3d
       0.08714779 -0.07846366 0.06357649 0.07097999
000250 00 62 bb 3d 1e a3 8f bd 45 1a 83 bd bd 3e 9d bb
       0.091495514 -0.07013534 -0.06401495 -0.0047987388
000260 1e eb aa bd 69 88 c6 bd 22 95 86 bd f3 b5 83 bd
       -0.08345626 -0.09693987 -0.065714136 -0.064311884
000270 21 bf f1 bd c0 20 cf bb 2b cd 99 bd ee a9 88 bd
       -0.11804033 -0.006321043 -0.07509836 -0.066730365
000280 47 bd f1 bd 7c d8 99 3d 97 11 f5 bd 10 5d a7 bc
       -0.1180368 0.07511994 -0.119662456 -0.020430118
000290 23 d0 a7 3d 90 1a 1b bd e0 d7 93 bc 2f 24 aa bd
       0.08193996 -0.03786713 -0.018047273 -0.08307683
0002a0 2a ff d8 3d c5 dd 0b bd 05 94 5c bd 7d 95 ad bd
       0.10595544 -0.034147043 -0.0538521 -0.08475778
0002b0 98 11 9a 3d fe 24 8a 3d c2 2d 0c bd 45 a8 8a bc
       0.07522887 0.06745337 -0.034223326 -0.01692594
0002c0 0f 3f e3 3d 28 0f f1 3d 88 e3 af 3c 06 da c0 3d
       0.11096012 0.11770469 0.0214708 0.09416585
0002d0 28 6c ad 3d 1a cf 38 bb 05 45 d6 bd 76 10 ea 3d
       0.08467895 -0.0028199614 -0.10462383 0.11428921
0002e0 03 60 da bd 56 fa 47 3d c7 81 c3 bc 9a 15 cd bd
       -0.10662844 0.048822723 -0.023865594 -0.10013886
0002f0 0c 47 8a bd 4c 90 f1 3d b7 e8 d6 3d 91 ad d5 3b
       -0.06751832 0.117951006 0.104936056 0.006520935
000300 02 84 00 bc 41 d5 48 3d 5e 59 0f bd 99 df 18 bc
       -0.007843973 0.0490315 -0.034997337 -0.009330654
000310 54 7e dc 3d 9f f0 d3 3d e7 e6 4f bd fa ca 38 bd
       0.10766283 0.10348629 -0.050757315 -0.04511545
000320 bb b4 e2 3d 1b 7d 77 bc ef 96 11 bd 7d a5 a0 bc
       0.11069628 -0.015105511 -0.035544332 -0.019610161
000330 76 e2 bb 3d 28 b5 08 3c a3 fa 82 3c 86 d0 9a bd
       0.09174053 0.008343972 0.015988654 -0.07559304
000340 7a ed 54 bd 87 de 87 3d a6 8a 76 bd 04 15 64 bd
       -0.051984288 0.066342406 -0.06019082 -0.055684105
000350 c9 a7 51 3d 35 6d bf 3d 87 98 1f bc 18 f4 e3 3c
       0.051185403 0.093470015 -0.009740955 0.027826354
000360 00 17 7d bd 32 bf 67 3d 44 ae 7c bd 27 67 66 3d
       -0.061789513 0.056578822 -0.06168963 0.056250717
000370 df 49 dc bd 64 24 21 3d 82 f8 3f 3d 4d ec 80 3d
       -0.10756277 0.039341345 0.046867855 0.06295071
000380 6c 4f 72 bd 3c 44 eb 3c b6 58 a9 3d 59 ab 5e 3d
       -0.059157774 0.02871906 0.082688734 0.05436263
000390 e8 99 d3 bd a6 8e d8 3d 92 4d 96 3d cd dd c5 bd
       -0.1033209 0.10574083 0.07339014 -0.09661446
0003a0 59 a8 65 3d dc 36 ae bc dc a6 4d bd 4a a0 d9 3d
       0.056068752 -0.021266393 -0.050207958 0.10626276
0003b0 be 85 8f bd 11 a8 d1 3d 29 55 cb bd 45 68 86 bd
       -0.07007931 0.10237134 -0.099283524 -0.065628566
0003c0 70 cf e3 bd 72 cb ae bc 2b 0d af 3d 44 ea 89 bc
       -0.1112355 -0.021337245 0.085474335 -0.01683534
0003d0 80 7b ab 3c 71 75 da 3d f8 38 d4 3c cc 84 2a bd
       0.020932913 0.106669314 0.025906071 -0.04163055
0003e0 e5 82 9b bd 57 1f 66 bc 2c a7 b6 3d 86 cc 55 3d
       -0.075933255 -0.014045558 0.08918604 0.052197002
0003f0 9e a6 7c bc 55 86 f7 bd e6 89 fd 3c 46 d9 36 bd
       -0.015420584 -0.12086169 0.030949544 -0.0446408

lstm.bias_ih_l0 f4 [256]
000000 b1 34 5b bb e4 9e 91 3e b5 6d 90 3e 6e 57 79 3e
       -0.0033448155 0.28441536 0.282087 0.24349758
000010 56 4c d4 3e d8 3a 33 3f 68 87 05 3f 35 e9 92 3e
       0.4146449 0.70011663 0.5215974 0.28693548
000020 e3 b0 71 3e 36 d8 bf 3e 21 ef 99 3e c2 cf 07 3f
       0.23602633 0.37469643 0.30065253 0.5305139
000030 79 5a ff 3e 35 8e 0a 3f a5 ff e2 3e 69 e8 de 3e
       0.49873713 0.5412324 0.44335666 0.4353669
000040 76 3a bd 3e e2 18 a4 3e 7d 4f bf bd 35 3b e1 3e
       0.36958665 0.32050234 -0.09341333 0.43990484
000050 b3 31 1d 3f 41 ad c0 3e 1c ef 25 3f 5e 2b 32 3f
       0.6140396 0.37632182 0.64817977 0.69597423
000060 c0 f9 2f 3f df 32 2f 3e ea 8a 25 3f c9 1d ce 3e
       0.68740463 0.1710925 0.6466509 0.402571
000070 1e 29 52 3e d5 a8 90 3e 41 b9 b4 3e 3d 03 c8 3e
       0.20523497 0.2825381 0.35297588 0.3906497
000080 2c 56 f4 3d 94 e2 21 3f a4 77 a9 bd 1a 3b 97 3e
       0.119304985 0.63236356 -0.08274773 0.29537278
000090 e9 3a be 3e be 99 b0 3e d5 ed 2a 3f d9 af 17 3f
       0.3715432 0.34492296 0.6676915 0.592527
0000a0 02 46 11 3e ab 7c 14 3f dd 26 d1 3e 74 22 9e 3e
       0.14186862 0.5800273 0.40849963 0.3088566
0000b0 68 b3 4b 3e 8a 2f 51 3d 22 d2 8c 3e a4 43 d1 3e
       0.19892657 0.051070727 0.2750407 0.40871918
0000c0 35 2c bc 3e 88 64 7a 3e 02 42 3a 3e a1 2d e4 3e
       0.36752477 0.24452412 0.18189242 0.44566062
0000d0 0b 6d 07 3f b5 04 f4 3e 6c b0 db 3e 8d 67 e8 3d
       0.5290076 0.4765984 0.42908037 0.11347876
0000e0 bb 80 c7 3e 38 4b ad 3e 1b d9 12 3f 42 1e 18 3f
       0.389654 0.3384645 0.57362527 0.5942117
0000f0 fd f5 a0 3e a1 db 6e 3e 1b 9d 46 3f 03 0b d0 3e
       0.31437674 0.2332597 0.77583474 0.406334
000100 bd 4e 44 bd 8d fa c9 3d 4c ae e7 3c e4 56 2f 3d
       -0.047926653 0.09862242 0.028281353 0.042807475
000110 e9 f1 32 3d c0 9a e2 3d c7 1c d9 bc 8c 7c c1 3d
       0.043687735 0.110646725 -0.02650298 0.094475836
000120 b5 fa 25 3d 1e 92 9f 3c 76 30 ef bd e2 5f a1 bd
       0.040522296 0.019478854 -0.11679165 -0.07879616
000130 ca 82 a1 bd 46 f4 07 3d fc 23 fe bc d2 64 bf bd
       -0.07886274 0.03319194 -0.031023018 -0.09345402
000140 0a ca 35 3d b3 37 29 bd 3b 9e ba 3d 8e d4 ad 3d
       0.044382133 -0.041312885 0.09112211 0.08487807
000150 13 01 81 3d 6d 6b df bd d2 92 80 3d 7a 8b 7c bd
       0.06299033 -0.10909162 0.06278004 -0.061656453
000160 d6 da 3d bd ec 4e 2e 3d a6 de 7e 3d 75 29 a9 3d
       -0.046351276 0.042555735 0.062224053 0.082598604
000170 1b 32 39 bd 6d 89 8e 3d ec c2 95 3d 14 27 e1 3d
       -0.0452138 0.06959806 0.07312569 0.10993782
000180 54 1b ba bd c6 db ee bd d2 26 f6 bc 38 03 ae bd
       -0.09087244 -0.11663012 -0.030047808 -0.08496708
000190 da e0 e9 b9 6a cf b5 bd ce 87 9e 3d 11 16 20 3d
       -0.0004460875 -0.08877452 0.077407464 0.039083544
0001a0 64 c0 b1 bc 3d c3 ca bc e5 5c ee 3d 72 71 38 bc
       -0.021698184 -0.0247513 0.11638812 -0.011257516
0001b0 59 08 ef bc 45 1d a5 bd 31 51 ba bd 9c ba 85 3d
       -0.029178785 -0.08062223 -0.09097517 0.065297335
0001c0 0f 68 e3 3d 04 8e e5 bd 3d 19 4a bd a2 7e d0 3d
       0.11103832 -0.11208728 -0.049340475 0.10180403
0001d0 e9 90 b2 3d 2c cb 82 bd 89 b2 e1 3c 62 7a bb 3d
       0.08719046 -0.06386408 0.027550953 0.09154202
0001e0 89 07 df 3b b0 a5 d5 bd 0e f5 0e bb 47 31 d6 3c
       0.006806318 -0.10431993 -0.0021813544 0.026146544
0001f0 45 4b e6 3d d9 04 40 3d fb 9c ec bd 31 67 bc 3d
       0.11244825 0.046879623 -0.11553379 0.0919937
000200 e9 28 38 bd 73 c6 5a 3e 59 ac 12 3e f8 a4 b9 3d
       -0.04496089 0.21364765 0.14323558 0.090646684
000210 7e bc a1 bd c1 39 02 3e 02 f0 62 be 33 5f 3e be
       -0.0789728 0.12717344 -0.22161868 -0.18591003
000220 f0 fd 30 bd ff 96 a7 bd 89 d3 bc bc f6 99 3d 3e
       -0.043210924 -0.08183097 -0.023050087 0.18515763
000230 76 01 4a 3e 16 8b f5 3d 00 40 42 3e 7a bc e6 3d
       0.1972712 0.11989419 0.18969727 0.11266418
000240 e1 de ad be 7b 5e 3e be 4d 52 6f bd 2d 25 47 3e
       -0.33959106 -0.18590729 -0.058428098 0.19447775
000250 5d 98 ae bc b4 fe 97 be 85 4d 14 3c fa 6d 9a bc
       -0.021312887 -0.2968651 0.009051685 -0.018851269
000260 b0 52 b0 be ef 82 88 be be ea 0c 3e 2f 64 ef 3d
       -0.34438086 -0.26662394 0.13761422 0.116890304
000270 32 31 04 3e d1 4d 9c be cb 57 0c be 00 d4 73 3d
       0.12909392 -0.3052812 -0.13705365 0.05952835
000280 4c b3 7b 3d 70 29 92 3e 75 c8 20 3e 87 aa b2 bd
       0.061450288 0.2854724 0.15701468 -0.08723932
000290 b3 2c 77 3e 3d 46 db be ed ca ea 3d af de 29 be
       0.24138145 -0.42827025 0.11464486 -0.16588853
0002a0 90 c7 b3 3d 6f fa 2f bc 4f 88 93 bc 38 9c 3a 3e
       0.08778298 -0.01074086 -0.018009333 0.18223655
0002b0 a8 48 9e bd ea c0 0d be 7e 8e 66 be 1c 36 52 3e
       -0.07728702 -0.13843122 -0.22515294 0.20528454
0002c0 42 9e cb 3d b7 63 d9 be 04 62 5a 3e 51 f5 c8 3e
       0.09942295 -0.4245889 0.21326452 0.39249662
0002d0 d3 68 9f be ac 06 93 3e 61 81 ca bd 62 f7 eb bd
       -0.31134662 0.28716028 -0.09887958 -0.11521794
0002e0 79 18 59 bd f5 39 46 3e 86 2a db 3d 64 78 f2 3d
       -0.053001855 0.19358046 0.1070147 0.11839369
0002f0 ec 86 89 bd 57 42 8e 3d 71 a7 57 3d 81 fa 1b bb
       -0.067151874 0.06946247 0.05264992 -0.0023800435
000300 ba 0f e0 3d 01 7b a9 3e 8d d4 ae 3e f6 9a 9b 3e
       0.109404996 0.33101657 0.34146538 0.30391663
000310 37 fb 8a 3e b6 55 49 3f 77 50 af 3e dd e1 74 3e
       0.27144787 0.7864641 0.34241077 0.23914285
000320 28 86 03 3f 89 d2 bb 3e c5 3b ec 3e d0 00 04 3f
       0.5137658 0.36684063 0.4613935 0.5156374
000330 19 f0 cc 3e 91 72 10 3f c8 db eb 3e 0f eb e0 3e
       0.4002693 0.56424814 0.46066117 0.43929335
000340 dc 23 95 3e 8d 66 c6 3d 7b 5c ed 3c 29 ad ef 3e
       0.2912892 0.09687529 0.028974762 0.46811798
000350 a3 fb ea 3e 5a 90 11 3f 99 e3 33 3f af 03 6a 3f
       0.4589511 0.5686089 0.7026916 0.9141187
000360 42 dd 42 3f 25 99 b6 3e 1d 47 05 3f d8 c5 ee 3e
       0.7611886 0.35663715 0.52061635 0.46635318
000370 b2 6e 95 3d 0a 55 68 3e d2 77 af 3e ab 5b bb 3e
       0.07296504 0.2268869 0.34271103 0.36593375
000380 8d 25 0d 3d 61 3e 18 3f 55 5f 44 3d 16 5f 74 3e
       0.03445964 0.5947018 0.04794248 0.23864397
000390 e7 96 f7 3e 86 83 e1 3e b8 48 34 3f 76 51 db 3e
       0.48357317 0.44045657 0.7042346 0.42835587
0003a0 75 e9 a0 3d 2c 82 f4 3e 13 40 01 3f fd a3 15 3e
       0.078570284 0.47755563 0.50488394 0.14613338
0003b0 64 76 a6 3e d8 c3 63 3e 4a 1a cd 3e 2a f2 09 3f
       0.325122 0.22242677 0.4005912 0.5388514
0003c0 fe 74 59 3e 5c ae db 3e 30 25 86 3e b2 53 02 3f
       0.21236035 0.42906463 0.26200247 0.5090896
0003d0 9e dd ff 3e 0d a1 05 3f 5d 1e 3b 3f c7 28 13 3e
       0.49973768 0.5219887 0.73093206 0.14371024
0003e0 7e 17 2b 3f 1d f0 85 3e c4 d9 1e 3f 67 15 21 3f
       0.6683272 0.26159754 0.62051034 0.6292328
0003f0 23 6a 96 3e ef f3 91 3e c1 36 10 3f 3d 4d fc 3e
       0.2937785 0.2850642 0.5633355 0.49277678

lstm.bias_hh_l0 f4 [256]
000000 9a c6 20 3e b3 1f df 3e 67 1b d1 3e f3 f7 96 3e
       0.1570076 0.43578872 0.4084122 0.29486045
000010 ed d7 be 3e 03 ea 4a 3f fc 02 f6 3e 05 a6 9c 3e
       0.37274113 0.79263324 0.48049152 0.30595413
000020 54 a6 dd 3e a6 d0 c1 3e b4 6b a9 3e 21 d9 cd 3e
       0.4329096 0.378545 0.33089983 0.4020472
000030 12 c8 9c 3e 5b a8 10 3f b4 99 0c 3f 20 43 e2 3e
       0.30621392 0.5650689 0.5492203 0.44191837
000040 af 19 8b 3e 43 79 4d 3e 7c 06 d0 bd 23 74 cf 3e
       0.27168033 0.20065789 -0.10157487 0.40518293
000050 e4 2a 12 3f eb 7b ea 3e cc 55 07 3f dc d2 36 3f
       0.57096696 0.45797667 0.5286529 0.71415496
000060 42 f4 45 3f 2d 46 32 3e 99 f1 0c 3f 0e a0 03 3f
       0.7732583 0.17409582 0.5505615 0.514161
000070 1b 77 9d 3d e6 4b 4b 3e e1 33 d5 3e e6 1e c5 3e
       0.07688733 0.19853172 0.41641143 0.38500136
000080 bd 9e 86 3e b5 bf 3a 3f 4f 77 56 3c 69 b8 94 3e
       0.26292983 0.7294877 0.013089969 0.29046944
000090 35 7d a0 3e 1f 15 b4 3e 1a 7d 32 3f e0 8b 13 3f
       0.31345525 0.35172364 0.6972214 0.5763531
0000a0 0b f0 4a 3e 01 6b 0a 3f 02 26 cf 3e 6f 36 99 3e
       0.19818132 0.54069525 0.40458685 0.29924342
0000b0 68 cf 62 3e 78 fd b5 3d 7c 45 81 3e e9 2c d7 3e
       0.22149432 0.08886236 0.25248325 0.4202645
0000c0 9b 33 ac 3e ae df c3 3e 6c 6b aa 3e e0 a0 0c 3f
       0.33633122 0.38256592 0.3328508 0.54932976
0000d0 1a 82 c6 3e 09 b3 ec 3e 71 0d 11 3f 5e 09 90 3d
       0.38771135 0.46230343 0.56661135 0.07033037
0000e0 93 4c a2 3e 68 92 d8 3e 0e 04 1b 3f 21 8e f0 3e
       0.31699046 0.422992 0.6055306 0.46983436
0000f0 c8 c2 37 3e c0 02 ad 3e 72 28 15 3f ee e3 9d 3e
       0.17945397 0.3379116 0.5826484 0.3083796
000100 61 b8 c4 bd 6a 52 2d 3d 2c a0 d8 3d cd 46 81 3d
       -0.0960548 0.042314924 0.10577425 0.06312332
000110 e2 34 15 bc 27 0f 01 bc 12 23 76 3d b1 36 bd bd
       -0.0091068465 -0.007877148 0.06009204 -0.09238947
000120 54 c5 00 3d 60 15 6a 3d f6 14 d7 bd 80 56 6f 3d
       0.031438187 0.05714929 -0.10502045 0.058432102
000130 90 eb 06 3d 6a 62 dd bc 3f ad 99 bd 56 2f e0 3d
       0.032939494 -0.027024467 -0.07503747 0.109465286
000140 3d a3 9b 3d ad cb d3 bc 8d ba df bd be 8c 85 3d
       0.075994946 -0.025853956 -0.109242536 0.06520985
000150 af d5 cc 3d 73 49 ea 3d 35 6d 08 3d 5d 07 88 3d
       0.100016944 0.114397906 0.033307273 0.066420294
000160 bf 26 73 bd 6f d7 92 bc cb cd a3 3c 82 d5 32 3d
       -0.059363123 -0.017924992 0.01999559 0.04366065
000170 68 c1 5a 3d 22 3c a9 bd 15 00 33 bc e1 8d cf 3d
       0.053407103 -0.082634225 -0.0109253125 0.10134483
000180 f5 bb 0f 3d 0c f8 a7 bd 2b 3d d5 3d b5 94 5a 3d
       0.03509136 -0.08201608 0.104120575 0.053364474
000190 fb 64 98 bd 2a 33 bb bd 91 58 50 bc 16 ef 5a bd
       -0.074411355 -0.09140618 -0.012716428 -0.053450666
0001a0 cf c1 c7 bc 1b d0 60 3d d7 c3 c9 bc bf 4c 8e bd
       -0.024384407 0.054885965 -0.024629517 -0.06948232
0001b0 ad e5 36 3d 72 d6 b2 3b 0f c1 4b 3c aa 4c d9 3c
       0.04465263 0.005457693 0.0124361655 0.026525814
0001c0 8a 22 f9 3c 75 5c 43 bd 03 b6 88 bd 47 01 9b 3d
       0.030411977 -0.047695596 -0.06675341 0.07568603
0001d0 2c e9 a9 bd 41 6c 84 bd ed 60 ba bd b2 83 a1 3d
       -0.08296427 -0.0646596 -0.091005184 0.07886447
0001e0 20 da b6 3d 19 96 2c 3d d7 ef 61 3d 19 0b 86 bd
       0.08928323 0.04213533 0.05516037 -0.065450855
0001f0 cf 12 f8 bc 1c d8 13 bd 13 e2 a8 3c 82 1a 91 3c
       -0.030282406 -0.03609477 0.020615613 0.017712835
000200 16 8e c9 bd 3d 1e 41 3e fc 6b ef 3d 88 b2 36 3e
       -0.09841554 0.18859191 0.11690518 0.17841542
000210 af e5 3b be 5a ea 4d 3e 15 50 1b be c4 7a 94 be
       -0.18349336 0.2010893 -0.15167268 -0.28999913
000220 f8 0f 9e 3d 96 f3 21 be 16 d7 15 bd f8 1c 27 3e
       0.077178895 -0.15815577 -0.036582075 0.16319644
000230 9c af f3 3c 86 39 44 3e a3 ba 4c 3d 51 66 67 3e
       0.029746823 0.19162568 0.04998268 0.22597624
000240 48 36 a2 be 44 fc b6 bd f0 6e 2f bd 1f af 7e 3e
       -0.31682038 -0.089348346 -0.042830408 0.24871491
000250 b9 57 0c be 51 9a b8 be 11 2e 28 3d 1b 63 a1 bd
       -0.13705339 -0.36055234 0.041059557 -0.07880231
000260 5f fd 1f be a0 59 bd be 55 56 08 3e 77 32 59 bd
       -0.15623997 -0.3698244 0.13314183 -0.053026643
000270 2c b9 a1 3d 23 ba 95 be 4d a7 c0 bd 15 44 77 3d
       0.07896647 -0.29243574 -0.0940691 0.060367662
000280 70 62 08 3e d0 39 7a 3e 98 3a 87 3e 5e 65 1c be
       0.13318801 0.24436116 0.2641189 -0.15273044
000290 e5 88 2d 3e 2a 40 b1 be e5 7d 99 bd 7a bc 21 be
       0.16946752 -0.34619266 -0.074947156 -0.15794554
0002a0 7a 13 38 3e f6 f8 ed bc 6a 70 5c bd c4 f9 01 3e
       0.1797618 -0.029049378 -0.053818144 0.12692934
0002b0 14 16 13 be 0e c4 6b be bb 7a 0c bd 01 25 9d 3e
       -0.14363891 -0.23024008 -0.034296732 0.30692294
0002c0 d5 76 48 3e f9 20 be be 9f 98 8d 3e a4 05 a1 3e
       0.19576581 -0.3713453 0.27655503 0.31449616
0002d0 68 ee 57 be c7 89 b5 3e 9f 07 68 be 6e 35 06 be
       -0.21087039 0.35456678 -0.22659157 -0.1310632
0002e0 0d 3b 03 be ed ab f7 3d 64 88 da 3d 92 a1 df 3d
       -0.12815495 0.12093339 0.10670546 0.10919489
0002f0 4b 77 2d bd 95 56 89 3d 0a 44 a4 3d a5 98 a2 3d
       -0.042350095 0.06705967 0.0802079 0.07939271
000300 1c 96 4d 3e 5b f2 d9 3e 84 10 bd 3e 08 fe 7c 3e
       0.20076793 0.42567715 0.36926663 0.2470628
000310 3b 2f a6 3e 83 74 3c 3f 5a 17 0b 3f a4 38 80 3e
       0.3245791 0.7361528 0.54332507 0.25043213
000320 42 94 c2 3e 84 0a 52 3e 94 d6 92 3e 68 52 11 3f
       0.38003737 0.20511824 0.28679335 0.56766367
000330 5a f3 78 3e 1d 07 28 3f 10 be c3 3e 60 7c 19 3f
       0.24311581 0.65635854 0.38230944 0.59955406
000340 94 cc c0 3e 23 26 29 3e 35 91 ea 3c 44 c8 94 3e
       0.3765608 0.16518454 0.028633693 0.2905904
000350 22 05 20 3f 50 2b ce 3e 23 d2 09 3f d7 25 6e 3f
       0.6250783 0.4026742 0.5383627 0.9302649
000360 e7 20 2f 3f ac 90 da 3e fc de cc 3e ad a0 25 3f
       0.6840958 0.426885 0.40013874 0.64698297
000370 65 f6 65 3e ab aa 94 3e 19 3d b1 3e 20 e2 2f 3e
       0.22457273 0.2903646 0.34616926 0.17176104
000380 64 42 43 3e 91 5e 28 3f 25 78 f6 bd 1b 4d 79 3e
       0.19068295 0.65769297 -0.120346345 0.2434582
000390 0e bb a9 3e 4e ab 01 3f c7 1f 67 3f 71 9f dd 3e
       0.33150524 0.50652015 0.90282863 0.43285707
0003a0 31 10 8c 3e 0c 3d e4 3e 6e 6f c6 3e 31 61 84 3e
       0.27356103 0.44577825 0.3875689 0.258554
0003b0 80 a8 d5 3e 8b f8 78 3e 97 74 ef 3e 4a 19 dc 3e
       0.41730118 0.24313562 0.46768638 0.42988044
0003c0 9e ad 9d 3e a3 80 83 3e f9 19 de 3e d2 3c 0e 3f
       0.30796522 0.2568408 0.4337919 0.55561554
0003d0 22 b0 f7 3e b6 3a 0c 3f 0f 87 45 3f 02 10 6c 3c
       0.48376566 0.54777086 0.7715921 0.014408113
0003e0 4a a6 ec 3e 21 ef c9 3e 09 85 04 3f 2f 8f 1f 3f
       0.46220618 0.39440253 0.51765496 0.62327856
0003f0 a3 42 bc 3e da bc 2d 3e f6 c6 29 3f a2 75 f3 3e
       0.3676959 0.16966572 0.66319215 0.47550684

fc.weight f4 [3, 64]
000000 c0 ff 5c bf 53 1a 84 3f b1 5a 4b bf ba 69 2e be
       -0.86327744 1.0320534 -0.7943526 -0.17032519
000010 5d 22 19 bf 25 3f ef 3e 54 49 e0 be e4 c7 8a bf
       -0.5981806 0.46727863 -0.43805945 -1.0842252
000020 62 bd 5e 3f bb fb 2a bf 81 9f 07 be 0a 51 8b 3e
       0.87007725 -0.6679036 -0.1324444 0.27210265
000030 16 0c ea 3e 3c ac 56 3f 0c 3b 19 bf cf cf aa 3e
       0.45712346 0.8385656 -0.59855723 0.3336167
000040 9f 01 ea be 69 07 98 be 98 2b ff be 55 58 f0 3e
       -0.45704362 -0.29693154 -0.49837947 0.46942392
000050 2e ba 7d be 61 93 1e bf bc 38 b1 be 84 2c 4d bf
       -0.24778053 -0.6194363 -0.34613597 -0.8014605
000060 94 80 dc bd 3f 1a db be 7f c9 24 3e 45 3d 4f bf
       -0.10766712 -0.42793462 0.1609249 -0.80952865
000070 33 a0 03 3f 7c c7 c5 be b8 9b 1e bc 7b 60 37 3f
       0.5141632 -0.38628757 -0.009680681 0.7163159
000080 32 ca 4f bf 10 e7 7f 3e 52 80 3e 3f cd 72 d2 be
       -0.811679 0.24990487 0.7441455 -0.4110321
000090 f4 a2 f9 3e 8a 54 9d be 2f 66 62 3f 76 c7 20 bf
       0.48757136 -0.3072856 0.8843717 -0.62804353
0000a0 26 f9 01 3f a0 4f 6d bf 55 8d 79 39 6a 07 27 3f
       0.50770795 -0.92699623 0.00023799141 0.6524569
0000b0 62 3d db be c0 af ee be e1 76 25 bf 20 7c e1 3e
       -0.4282027 -0.46618462 -0.6463452 0.44040012
0000c0 8d 03 ae 3e 81 12 51 be 08 0c e5 3e 63 06 92 3e
       0.33987084 -0.20417215 0.44735742 0.28520498
0000d0 30 74 42 bf 7a 3d bf 3e 5a ad 3d bf 1b 8f e3 be
       -0.7595854 0.3735159 -0.7409264 -0.44445118
0000e0 ad 62 54 bf e8 5d 0a 3f a0 91 0a 3f e7 d1 02 3f
       -0.8296307 0.5404954 0.54128456 0.51101536
0000f0 ed d3 f9 3e b0 75 98 bd 15 23 91 be 57 a8 24 3f
       0.487945 -0.07444322 -0.28347078 0.64319366
000100 47 fb 23 3f 05 0b 55 bf c2 f4 3e 3f 35 49 b4 3e
       0.64055294 -0.8321994 0.7459222 0.35212103
000110 ce 9b 2a 3e 23 15 c4 bd 20 39 de bc ce 92 5c 3f
       0.16660997 -0.09574344 -0.027126849 0.86161506
000120 95 93 3f bf c8 48 98 3e de 34 cf 3e f0 06 28 3e
       -0.7483457 0.29743028 0.40470022 0.16408896
000130 9e 51 0e bf 59 b3 36 bf 4b 53 23 3f 19 79 a5 3e
       -0.5559329 -0.7136741 0.6379897 0.32318953
000140 c1 db 7c bd b0 b1 0c 3f 22 f8 49 3f ba 03 41 bc
       -0.06173301 0.5495863 0.78894246 -0.011780674
000150 a6 e4 f2 3e 5b d5 8d 3d 91 d5 01 3f eb bb 0a 3f
       0.4744007 0.0692546 0.507165 0.5419299
000160 d2 87 cf be cb b2 65 3e 79 1d af 3e 04 f6 eb 3e
       -0.4053331 0.22431485 0.34202173 0.46086133
000170 f1 c6 0b bf e9 b6 6d 3e 3f ab f4 be f6 27 39 bf
       -0.54600435 0.23214306 -0.477869 -0.723266
000180 15 3e e7 3e 0c e9 fc 3e 23 4c 47 bf 5d ac ea bd
       0.45164552 0.4939655 -0.7785055 -0.11458657
000190 a8 49 49 be a7 76 2f 3d a5 53 dc be 66 04 e3 3e
       -0.19657004 0.042837765 -0.43032566 0.44339293
0001a0 f2 e7 4e be bf a1 34 3f 7c a1 ef be 2b 9a cd be
       -0.20205668 0.70559305 -0.4680289 -0.40156683
0001b0 4f 34 5a be 34 f7 3d 3e 72 c1 0a 3f b4 d3 71 3d
       -0.21309017 0.18551332 0.54201424 0.059039786
0001c0 a1 90 17 3e 31 f5 55 be 31 6b 81 3b 62 12 a8 3d
       0.14801265 -0.20894314 0.003949546 0.08206631
0001d0 12 f0 20 3f 7c ee 24 3e af 14 b8 3e fe 32 b9 3e
       0.6286632 0.161066 0.3595328 0.36171716
0001e0 9a 45 35 3f 3a 00 16 bf ce 94 76 bd f2 e6 67 3d
       0.7080933 -0.58594096 -0.060200505 0.05661673
0001f0 15 a9 2c bf 4e dd f5 3e c4 55 27 3f c3 45 98 be
       -0.674455 0.48020405 0.6536524 -0.29740724
000200 81 4d 88 bd 5a 2b bb be bc 8f 9e 3b 8c 2c e8 be
       -0.06655408 -0.36556512 0.004838912 -0.45346487
000210 3b 32 15 3f c3 1f 51 bf aa 56 47 3f 58 23 d5 3e
       0.5827977 -0.8168909 0.77866614 0.41628528
000220 be fe b6 be 29 2d fb 3e ea 7b 9a be 0c 58 56 bf
       -0.35741228 0.49057892 -0.30172664 -0.837281
000230 11 3c 65 3e 0b 6b d2 be 9d ed 33 be b5 76 4a bf
       0.22386195 -0.41097292 -0.17571111 -0.7908738
000240 8c 2e 35 3f 80 b7 b0 be 18 04 bd be 9e 80 1e bf
       0.7077415 -0.34515 -0.36917186 -0.61915004
000250 06 60 ee be 28 e4 29 3f c4 cb 15 bf bd 4c 42 3f
       -0.46557635 0.66363764 -0.58514047 0.75898343
000260 02 b8 80 3f 72 3f 22 3f 63 31 88 bf 0d 35 ce 3e
       1.0056155 0.6337806 -1.0640072 0.4027485
000270 79 3d aa 3d 9d bd f2 3e e3 47 36 3f b7 ae 13 be
       0.08312506 0.47410288 0.7120344 -0.14422117
000280 2b d6 dc 3e 84 3b 47 bf f2 12 14 bd 96 3b 67 3f
       0.43132147 -0.7782519 -0.03615088 0.90325296
000290 32 51 24 bf b3 fa 39 3f 36 28 0f bf 4d af f1 3e
       -0.64186394 0.7264816 -0.5592073 0.47204056
0002a0 16 d3 fe be a0 f8 f0 3e 55 48 74 3f f3 1f 16 bf
       -0.4977042 0.47064686 0.9542287 -0.586425
0002b0 e1 21 60 3f 58 a1 0b 3f 8d 31 eb 3c 09 ff 40 bf
       0.87551695 0.54543066 0.028710151 -0.7538915
0002c0 bb e1 60 bf 56 c4 15 3f 84 16 2b bf 13 a5 06 bf
       -0.8784444 0.5850271 -0.6683123 -0.52595633
0002d0 c8 49 c7 3e 37 7c 4d bf 66 79 0a 3f 5b 86 40 3d
       0.38923478 -0.8026766 0.5409149 0.04700313
0002e0 21 f0 a3 3e 62 7b c8 be f6 b4 4a bf 96 0d 5e bf
       0.3201914 -0.39156634 -0.79182374 -0.8673948
0002f0 e5 7a d8 3e 2f c7 1d bf 87 9f 2a bf dc 28 b6 be
       0.4228126 -0.61632055 -0.6664967 -0.35578048

fc.bias f4 [3]
000000 a8 1c 9b 3c 00 55 e8 bb 35 0f 6f be
       0.018934563 -0.007090211 -0.23345645
