Code-in-cloud/results/models/血糖分类标签_backward_gru.pth (torch, 62216 bytes, 6 tensors)

gru.weight_ih_l0 f4 [192, 11]
000000 28 d0 2d bd f5 11 c4 3d 83 80 a0 3d 5f ea 2f be
       -0.04243484 0.095737375 0.07837012 -0.17179249
000010 bb 1e 3b be ed d1 05 be 67 53 31 3e 99 57 c1 bd
       -0.18273441 -0.13068362 0.17316972 -0.09440536
000020 c6 07 bb be bd fb ea bc e4 01 6b 3e 47 e8 b6 be
       -0.36529368 -0.028684491 0.2294994 -0.3572409
000030 dd b2 57 bd ae bf bd 3d 67 94 03 3e d9 6e cb be
       -0.05266081 0.092650756 0.1284958 -0.39733008
000040 9b cc 1f be 44 91 7d 3e a6 3b bd bc 3b b6 d8 be
       -0.15605395 0.24762446 -0.023099732 -0.4232653
000050 fd ba a2 be 96 d1 64 3c 87 7f b3 be 65 e3 1c 3d
       -0.31783286 0.013965985 -0.35058233 0.038302798
000060 8e e6 24 ba 8b a4 bb 3e 72 9e 91 be a5 d2 49 bc
       -0.0006290459 0.36648974 -0.28441197 -0.012318288
000070 9d 48 84 be cf 81 0d 3d a1 45 d0 bd 25 44 73 be
       -0.2583665 0.034547623 -0.10169531 -0.23756464
000080 10 1c 33 3e 7f 4c c2 be 6d 9c 04 3e ea b6 7b 3e
       0.17491174 -0.37948987 0.12950297 0.24581495
000090 60 ad 4d bc 2b 31 e3 be 40 1f 58 bb d4 17 95 3e
       -0.012553543 -0.4437345 -0.003297761 0.29119742
0000a0 cd 53 43 be 06 21 d2 be 3f 8b 3c bd ca 20 38 be
       -0.19074936 -0.4104082 -0.046031233 -0.17981258
0000b0 c1 b4 75 be 2a ed a6 be 21 a0 2a be 62 0d ab 3e
       -0.23994733 -0.32602817 -0.16662647 0.33408648
0000c0 98 3f 4f be 43 1c 8d 3e 34 2d 06 bf 66 d5 92 bc
       -0.20239103 0.27560624 -0.52412724 -0.017924022
0000d0 e0 71 f3 bd d4 e4 91 be b5 c3 db 3d 68 70 8d bc
       -0.11886954 -0.28494895 0.107306875 -0.017265514
0000e0 2b 54 79 3e 44 01 00 3e 73 81 84 3d 5c 65 65 bc
       0.24348514 0.12500483 0.06470003 -0.014001217
0000f0 59 d4 4a 3e f1 1c 9f be 6d 44 72 be 80 d3 51 3e
       0.19807567 -0.31076768 -0.23658915 0.20490837
000100 5b 1f f2 bc 98 00 d5 be c8 76 87 bd bf 45 86 bd
       -0.029555967 -0.41602015 -0.066144526 -0.06556272
000110 3b 60 77 3d de fd 05 3d d0 26 e8 be ab 77 9b 3e
       0.060394507 0.03271281 -0.45342112 0.30364737
000120 ca ff db bd 2b 44 8d 3c 96 0a be be f8 e0 9a be
       -0.10742147 0.01724442 -0.3711745 -0.30249763
000130 1f 57 8a be eb e7 66 be b6 f6 95 3e 2a 12 d6 3d
       -0.27019593 -0.22549407 0.29289788 0.10452683
000140 7b b8 cd bb 4f 96 48 be 62 5a b4 bc 3c 1a 14 3e
       -0.0062780953 -0.19588588 -0.022015754 0.14463133
000150 67 0a 26 bd 3d 5e f8 bb a4 50 b4 be a6 88 0a 3f
       -0.040537264 -0.0075795935 -0.35217774 0.5411476
000160 35 bb ae 3c 7b 6a 36 3e 97 3f b9 be e9 7c f2 3e
       0.021329502 0.17814057 -0.36181328 0.47360924
000170 6e da 28 3e 32 8b 8f 3e 07 ab 8d be 36 7d 84 3e
       0.16489574 0.28035885 -0.27669546 0.25876778
000180 0d 62 29 3f a0 38 18 3e 04 08 24 be 73 c1 8d be
       0.6616524 0.1486535 -0.16018683 -0.27686653
000190 15 e9 a1 3d 7f b8 39 be 37 7b 7f 3c fc dd 8a bd
       0.07905785 -0.18136786 0.015593342 -0.067806214
0001a0 0c f0 cb bd 85 c2 ff bd 50 87 36 3d ce d6 e2 bd
       -0.09957895 -0.124882735 0.044562638 -0.11076127
0001b0 34 96 5c 3d 70 e2 1c be 60 f9 e2 be af 61 63 bd
       0.053854182 -0.15320754 -0.44330883 -0.05551308
0001c0 40 4c 8a bd 59 d4 d1 3e 61 e0 5d be 99 b5 27 3e
       -0.06752825 0.4098232 -0.21667625 0.16377868
0001d0 37 35 79 be 72 b1 cf 3d c1 73 1d be de ea 2b bb
       -0.24336706 0.10141267 -0.15376188 -0.002623252
0001e0 22 70 f2 3e 50 6b 7c 3c bb 46 4f bd b5 72 14 be
       0.47351176 0.015406445 -0.050604563 -0.14496882
0001f0 f9 bb 44 bc 1c 3c 63 be 90 60 d1 3d e0 f3 21 bd
       -0.012007707 -0.22190899 0.10223496 -0.039539218
000200 37 81 db 3d 1d 9a 8b be dd 77 14 bf 51 8d 3c be
       0.10718005 -0.27266017 -0.57995397 -0.18413283
000210 74 80 74 be 2d bf 83 bc d5 e0 01 be 62 d3 12 3e
       -0.23877126 -0.01608237 -0.12683423 0.14338449
000220 cf c0 39 3d 10 06 44 3e 64 4d d8 be 97 c0 09 3e
       0.045349892 0.19142938 -0.42246544 0.13452373
000230 02 6e 52 3c 25 ea 0b bd 22 10 4d 3e 8e bb c0 be
       0.012843611 -0.034158845 0.20025685 -0.37643093
000240 40 6f 8d bd e0 4c d9 bc 24 70 83 3e b9 21 a7 bd
       -0.06905985 -0.026525915 0.25671494 -0.08160729
000250 55 9d 8e 3e 51 f8 30 be d3 8c cd 3d 55 fa 0f be
       0.2785441 -0.17282225 0.10036626 -0.14060338
000260 87 ea 53 bd 68 21 94 3e 22 d7 ca be 77 a7 cf bb
       -0.051737335 0.28931737 -0.39617258 -0.006337102
000270 d5 ab 07 3e 54 1f d2 3e 68 a4 04 be 74 f7 84 3d
       0.13249142 0.41039526 -0.12953341 0.064925104
000280 10 1a 2b be 7e db a7 ba 3b 7e a4 bd 2f e1 5c be
       -0.16709161 -0.0012806503 -0.08031889 -0.21570276
000290 09 91 c3 3e 92 a4 05 be ad da f0 3e 63 4d 88 3e
       0.3819659 -0.1305106 0.47041836 0.2662154
0002a0 bd 61 17 3d 93 ee c2 be 4f 9b f3 bb b5 ec c9 3d
       0.036958445 -0.38072643 -0.0074342857 0.098596014
0002b0 58 88 23 bc ff 77 b6 bd 22 eb 14 be 39 b9 46 3f
       -0.009981237 -0.08909606 -0.14542821 0.7762638
0002c0 b7 33 cb be 5f da b1 bc cf 5a 98 3d 0e d2 cb 3c
       -0.39687893 -0.021710573 0.07439195 0.024880435
0002d0 c4 bf 9d be f1 22 2a be e3 ec b5 3d 72 1c 19 be
       -0.30810368 -0.16614892 0.08883073 -0.14952257
0002e0 e4 57 6d be 7d 70 a2 bd cb f4 0b 3d 34 b8 88 be
       -0.23178059 -0.07931612 0.034169 -0.26703036
0002f0 37 c4 e4 3d 8a 59 a5 bd e3 28 b9 3d b7 80 bb be
       0.111702375 -0.08073719 0.09041002 -0.3662164
000300 03 8e 9e 3e a1 ba e3 bb f0 df 91 bd eb 96 7e bc
       0.3096772 -0.006949738 -0.07122791 -0.015538911
000310 f5 48 77 be 73 41 1c bf 5e 4c 21 be 72 a3 c8 3c
       -0.24148925 -0.6103737 -0.15751788 0.024492
000320 21 af 49 3e f1 da 13 3e 55 db 89 be fd 8b 33 3e
       0.19695713 0.14438988 -0.2692515 0.1753387
000330 1a 27 75 be b6 86 1b 3e 9e 7c 1b be 1f e4 e9 bd
       -0.23940697 0.15188107 -0.15184256 -0.11420464
000340 b6 fa f5 3d 0f 90 aa be d6 1c d5 be f5 52 94 bd
       0.1201071 -0.33313033 -0.41623563 -0.07242385
000350 4f 31 9d 3e e3 46 ef be f9 00 c4 3e 4c 9b 0e bf
       0.30701682 -0.4673377 0.38281992 -0.55705714
000360 cb 9c 90 bd 16 b4 50 3c ab c2 46 be cb 78 6b 3e
       -0.07061156 0.012738248 -0.19410197 0.22995298
000370 3b 38 a8 bd c6 7a ce 3d 7d a3 97 3e 0c f6 e0 bd
       -0.0821385 0.10082011 0.2961692 -0.1098443
000380 dc ce b4 be c9 9d 5f 3e 72 7c 77 3d d2 a4 3b 3e
       -0.3531407 0.21837534 0.060421415 0.18324593
000390 76 de 7b be 36 4a f7 bd 36 ab f1 3e fe 95 44 bd
       -0.24596581 -0.120747015 0.47200936 -0.047994606
0003a0 e4 8b d3 bd 49 ed 2a 3e a9 04 29 bb fd e2 d2 bd
       -0.103294164 0.1669208 -0.0025790131 -0.10297201
0003b0 4c 55 b7 3d 69 79 2b 3d dc 50 ca be 2c b3 5d be
       0.08951816 0.041863833 -0.39514816 -0.2165038
0003c0 05 26 d8 be e1 eb c3 be 49 ef 5b be 5c dd 43 3e
       -0.42216507 -0.382659 -0.21477999 0.1912741
0003d0 d0 ab 33 3e 41 f8 53 3d 4c 08 99 be e6 a7 8d 3e
       0.1754601 0.051750425 -0.29889143 0.2766716
0003e0 5c 0e 22 3d 6a dc 64 3d ef 6e 0f 3d f5 94 41 bd
       0.039564475 0.055874266 0.035017904 -0.047261197
0003f0 0f ac 3d 3e 02 07 10 bf ee a0 01 be 3d 09 fa bc
       0.18522666 -0.56260693 -0.12659046 -0.030521983

gru.weight_hh_l0 f4 [192, 64]
000000 3a 9b 53 bd 36 65 d8 3d dd 46 84 3d 6f 68 46 3c
       -0.051661707 0.105661795 0.064588286 0.01210986
000010 9b 4d 5e bd 94 62 6b 3c ad 50 94 3d c1 2a 38 bd
       -0.05427323 0.014366765 0.0724195 -0.04496265
000020 c8 5c ab 3c ed 56 b1 bd 54 62 1a 3d 7c e7 6d 3d
       0.020918265 -0.08659158 0.03769143 0.05808209
000030 e3 e1 54 3a 5d d4 a1 3a d6 66 15 bd 2d a8 c9 3b
       0.0008120818 0.0012346614 -0.036475025 0.0061540813
000040 87 d6 b8 bc 0f 96 24 3d 84 e8 55 3c da bf 7a bc
       -0.022563232 0.04018217 0.013055924 -0.01530453
000050 d0 1f 5c 3d 8b 46 f7 bd 14 05 bf 3d 64 ee c2 3d
       0.053741276 -0.12074002 0.093271405 0.09518126
000060 60 36 96 bd 16 d4 f6 bc 54 87 aa bd e5 5b a9 3c
       -0.0733459 -0.030130427 -0.08326593 0.020673702
000070 c2 f8 e1 bd 5b dc 27 3b 59 03 ac 3d 2a e3 7f 3d
       -0.11033775 0.002561352 0.08399076 0.0624725
000080 e4 ae 81 3d 41 67 f7 3d 1e 8a db bd 3e 85 d1 3d
       0.06332186 0.12080241 -0.10719703 0.10230492
000090 2a 35 1f 3d df a5 67 bd 90 df 85 bd 72 c7 b9 3d
       0.03886906 -0.05655467 -0.06536782 0.09071244
0000a0 44 ed 9b bd a7 5c 6e 3d 38 01 69 3d e7 45 a1 bd
       -0.07613614 0.05819383 0.056885928 -0.07874661
0000b0 6c 9a c1 3d 55 18 b6 bd ec d2 c6 bd 9f 02 59 3c
       0.09453282 -0.0889136 -0.09708199 0.013245254
0000c0 2d 62 64 bd e9 42 d7 bd c6 aa 50 bd a9 ae f0 3d
       -0.05575769 -0.10510809 -0.050944112 0.11752064
0000d0 10 3e dd 3d eb 3b c6 bd 10 c1 d2 3d eb 18 56 bc
       0.10802853 -0.09679397 0.1029073 -0.013067464
0000e0 53 f2 a8 3d 93 59 9c 3c 1f 5f a0 3d fd ff 83 3d
       0.08249345 0.019085681 0.07830643 0.0644531
0000f0 45 9f 98 3d e5 6f b5 3d 71 c0 4a 3d fe 94 11 3d
       0.07452253 0.08859233 0.049499933 0.03554248
000100 b0 ba af bb 2d f3 f5 bd 92 46 8b 3d 5e 46 78 bd
       -0.005362831 -0.12009273 0.068005696 -0.060613982
000110 9a 5e 9c bd 64 97 e1 bd d6 9b e3 bd c8 ca c4 bd
       -0.07635231 -0.110152036 -0.11113708 -0.0960899
000120 43 17 93 bc c5 52 83 3b 51 3e a4 3d f5 d4 ca bd
       -0.017955428 0.0040076696 0.080196984 -0.099038996
000130 56 5f f7 bd 1f 54 c1 3c 0f e8 03 3d 68 0a a5 bd
       -0.12078731 0.023599682 0.03220373 -0.080586255
000140 e9 78 e1 3d 37 c2 b2 bc 23 f1 d3 bd 9c 81 3f bd
       0.1100939 -0.021821124 -0.103487276 -0.046754465
000150 a3 10 24 bd 7b 13 df 3d 0c 2f 1e 3d 0b 91 c5 bd
       -0.04005493 0.108923875 0.038619086 -0.096468054
000160 87 54 bd bd 42 67 9f 3d 9c bd ef bd d6 b1 85 bd
       -0.09244638 0.07783367 -0.11706087 -0.0652806
000170 72 96 61 bc ab 21 13 3d ea ab 8f 3d 7b 78 96 3d
       -0.013768779 0.03592078 0.07015212 0.073471986
000180 7c 54 dd 3b 3f 1f 4f bd 99 7e b0 3c 58 16 06 bc
       0.006754456 -0.050566908 0.021544741 -0.008184038
000190 99 15 83 3d b9 4e 2a 3c 8b a2 48 3c 07 ca 1d 3d
       0.06400604 0.0103947455 0.0122457845 0.038522746
0001a0 d6 c9 7d bd cc d3 50 3d a3 06 2c 3d 5e e9 67 3c
       -0.061960064 0.050983235 0.041998517 0.01415476
0001b0 a5 5a 84 3d 55 30 59 3d 73 b2 bd bd 6d 5c 38 bd
       0.064626016 0.05302461 -0.09262552 -0.04501002
0001c0 12 d3 9f 3d 2f 38 c7 3c 7f 49 80 bd 6c 9d af bc
       0.0780393 0.024318783 -0.06264018 -0.02143737
0001d0 ed 01 d7 3d cb 9d bf bc 1f b4 83 3d df dd c7 3d
       0.10498414 -0.023390671 0.0643084 0.097591154
0001e0 3e 8c 94 bd e5 e5 84 3d 34 0e bb 3d 5f 47 a6 3d
       -0.072533116 0.064891614 0.091335684 0.08119082
0001f0 5d 40 3c 3b 8c f8 73 bd f7 a0 f7 3d 7e 8d ab bb
       0.0028724887 -0.059563205 0.120912485 -0.005235373
000200 5e cb ba bd e4 4a f1 3d c5 2e 2a 3c de e4 8a 3b
       -0.091208205 0.117818624 0.010387127 0.004238709
000210 ab 81 24 3c a8 32 72 3d 6d 50 e2 bd 04 43 d7 bc
       0.010040681 0.05913034 -0.11050496 -0.026277073
000220 18 0c 17 3d 8f 26 a1 bc 1c 4a 20 bd 44 f0 e7 bd
       0.036876768 -0.019671706 -0.039133176 -0.11325124
000230 d1 12 e5 3d 23 eb 7a 3d b7 1b e6 b8 0d 9f ba bc
       0.111852296 0.0612594 -0.00010972417 -0.02278092
000240 c7 60 3f 3c 59 3f 72 bd 51 fd 2f 3d aa a3 e3 bd
       0.011680788 -0.059142444 0.04296619 -0.11115201
000250 4d 02 e9 3d 91 be 84 3d 1f 90 8f ba db 28 96 bc
       0.11377392 0.0648166 -0.0010952986 -0.018330028
000260 d7 ec 9d bd 95 57 f8 bd 82 dc da bb b1 86 d3 3d
       -0.07711189 -0.1212608 -0.0066791186 0.10328425
000270 e4 e2 10 bd 03 22 f0 bd 9f 9c ec bd b2 36 e3 3d
       -0.03537263 -0.11725237 -0.115533106 0.11094417
000280 20 07 ac 3d 4b cb ad bd b0 80 67 3d bd b7 aa bd
       0.083997965 -0.08486041 0.05651921 -0.083358265
000290 44 91 ec bd 8e 12 5c bd 2b c1 3d 3d 8f 6f 89 3c
       -0.11551145 -0.053728633 0.046326797 0.016776828
0002a0 91 3e a0 3c 16 65 34 bc 55 ef 8e bd 76 91 be 3d
       0.019561084 -0.011010429 -0.06979243 0.09305088
0002b0 5e 0f 07 bd 09 05 a8 3c 2f 74 f1 bd f4 90 c5 3d
       -0.03297364 0.020510213 -0.117897384 0.09646788
0002c0 47 65 0a bd 90 00 e4 bd 58 47 d3 bc 50 5a 6b bd
       -0.03378799 -0.1113292 -0.025790855 -0.057459176
0002d0 70 ad d3 bd bb d7 b1 3c 16 fc a2 3d e3 5d 21 3d
       -0.10335815 0.021709314 0.07958238 0.039396178
0002e0 ed 34 f8 3d 6e 14 cd 3c 0e 5d 44 3d b4 bb 69 3d
       0.1211947 0.025034156 0.047940306 0.057063773
0002f0 ae 09 36 3d 6a 68 b6 3d a2 14 9d bd 3a 54 d1 3d
       0.044442825 0.08906634 -0.07669951 0.10221143
000300 8b 5c c1 bc 6d 70 28 bd 6d 6c b3 3c 4f 82 60 bc
       -0.023603698 -0.041122843 0.021902287 -0.013702943
000310 0b 41 ef 3d a6 2b af 3d b6 3c cd bd c7 75 ef bd
       0.11682328 0.08553247 -0.10021345 -0.11692386
000320 3d c4 db 3d 60 93 de 3b 8a c6 f7 3d 5a 35 a4 3c
       0.10730789 0.006792471 0.12098415 0.020044971
000330 3e e7 96 bc 2a 21 24 bc ec 99 e5 bd 39 ac f5 3c
       -0.018420812 -0.010017673 -0.11210999 0.029989349
000340 c5 7f 99 3d 91 11 c5 3d d4 e4 10 bd 8f 42 ba 3d
       0.07495073 0.09622491 -0.035374478 0.09094726
000350 69 6f b7 bd 36 54 f8 3c 5d f3 86 bd 32 62 bf 3d
       -0.08956797 0.030313592 -0.065893866 0.09344901
000360 e9 b0 a5 3d cd ac cb bd f8 ba 24 3d c3 c5 eb bc
       0.080903836 -0.099450685 0.04021737 -0.028780824
000370 72 63 85 bd bb 57 3c 3c 25 1c f1 bd 25 a0 ea bc
       -0.06513108 0.011495526 -0.11772946 -0.028640816
000380 ca 59 95 bd 43 f5 d8 3d 26 ed de bd 1b 83 f0 3d
       -0.072925165 0.10593655 -0.10885076 0.117437564
000390 42 95 0e 3c 42 57 95 bd 7d c7 b0 3d bc a6 db 3d
       0.008702578 -0.07292034 0.08631799 0.107251614
0003a0 de 97 75 3d f3 93 c3 bd ff fa e4 bd f1 2a 3d 3d
       0.059959285 -0.095497034 -0.11180686 0.04618353
0003b0 f3 d4 d8 3d 05 c3 d3 bd e4 5f e8 3d 73 2a 9d bd
       0.10587492 -0.103399314 0.11346415 -0.07674112
0003c0 f0 44 ac 3c ea c0 65 3d 4f 55 ac 3d d6 60 8e bd
       0.021028966 0.05609218 0.08414709 -0.06952064
0003d0 d4 38 0e 3d b4 d0 e5 3d 06 99 21 3d f9 5c 3d bd
       0.034722164 0.112214476 0.039452575 -0.046231244
0003e0 c0 38 80 3d ac fe e1 3d 38 47 43 bd 24 65 d3 3c
       0.06260824 0.11034903 -0.04767534 0.025805064
0003f0 4e b4 7c bd 9b 62 9e bd 59 d7 bf 3d 68 27 8a bd
       -0.06169539 -0.07733651 0.09367246 -0.067457974

gru.bias_ih_l0 f4 [192]
000000 9c e2 55 3d 7f 03 f9 3e 4f 07 b1 3e 1b f7 89 3e
       0.052218065 0.4863548 0.3457589 0.2694634
000010 73 53 7b 3e 17 fb 9e 3e a9 9f ea 3e 85 5d b3 3e
       0.24543552 0.3105094 0.45824936 0.35032287
000020 05 28 d7 3d ad 55 72 3e 98 e2 03 bc f6 e8 02 3f
       0.1050568 0.23665495 -0.00804963 0.5113672
000030 0e f7 11 be d1 ed 05 be 34 4b 9f 3e 7a e6 90 3e
       -0.142544 -0.13079001 0.31112063 0.2830084
000040 2f 17 8b bc 6f df 75 3e d8 b5 fb 3d bf 17 8b 3e
       -0.016978828 0.24011014 0.12290543 0.27166554
000050 10 49 d5 3d 85 db 35 3e b7 35 c1 3e 99 cc 16 3d
       0.10414326 0.17759521 0.37736294 0.036816213
000060 4c d2 27 3e eb 68 4a bd 71 01 59 3e bc c3 6b be
       0.16388816 -0.049416464 0.21191956 -0.23023885
000070 c1 2f 87 bd f4 1b 70 3e 38 1f c9 3d 54 4b c4 3e
       -0.06600905 0.23448163 0.09820408 0.3833872
000080 59 e6 3f 3e 8b ff 2d 3e b9 2d a2 3d 63 70 92 3d
       0.18740214 0.16992013 0.07918877 0.07150342
000090 42 39 36 3e 94 52 8e 3d c2 f2 6b 3c 69 63 93 3e
       0.1779528 0.06949344 0.01440114 0.2878678
0000a0 ad 9f 38 3e 81 f4 9a 3e 25 8e 46 3e 9c 7c 7f 3e
       0.18029661 0.30264667 0.19390161 0.24949878
0000b0 5c 65 2a 3e a9 68 e1 3d 02 29 8c 3e 61 6b c8 3d
       0.16640228 0.110062905 0.27375036 0.09786106
0000c0 42 1a 75 3e 03 f6 b2 bb 83 47 13 3e ab ff 01 3e
       0.23935798 -0.005461456 0.14382748 0.12695186
0000d0 91 4a 94 3e 32 a2 7c 3e 7c 4c 3d 3e 77 ba 06 be
       0.2896314 0.24671248 0.18486208 -0.13157068
0000e0 a4 c5 8c bc d0 37 8e 3e 84 86 a5 3e 86 67 27 be
       -0.017184086 0.27776957 0.3232919 -0.16348085
0000f0 19 98 6e bd 7e 62 99 3d 97 72 75 3e 6f c1 d1 bd
       -0.05825052 0.07489489 0.23969494 -0.10241973
000100 f3 15 a8 bd cd 4e 31 be ac ea f7 be ae e5 82 be
       -0.082073115 -0.17315216 -0.48421228 -0.25565857
000110 c0 a6 1f bf a5 ca 25 be b7 ee b4 be e9 70 60 be
       -0.62363815 -0.16190584 -0.35338375 -0.21918072
000120 24 a8 7a be 72 79 8e be 5a dd 0f bf 55 ef a6 be
       -0.24478203 -0.2782703 -0.5619713 -0.3260447
000130 47 9f a7 be 6f f2 f9 be 99 07 0c bf a9 85 7d be
       -0.32738706 -0.48817775 -0.54699093 -0.24758019
000140 03 73 89 be 82 01 e4 be 00 2f 81 be 76 c8 af be
       -0.2684556 -0.445324 -0.2523117 -0.34332627
000150 10 98 77 bd 8b 56 88 be 52 21 8f be b4 3d bb be
       -0.060447752 -0.26628527 -0.2795511 -0.36570513
000160 82 5b b9 be 74 d9 c2 bd 08 22 b3 be 71 e2 88 be
       -0.36202627 -0.09514132 -0.349869 -0.2673526
000170 0b 28 38 be 40 a7 10 bf d6 e9 80 be 34 c8 66 be
       -0.17984025 -0.56505203 -0.25178403 -0.22537309
000180 2a 84 60 be 0b f5 d6 3d 86 49 7e be 6c 53 4b be
       -0.21925417 0.10495957 -0.24832734 -0.19856042
000190 c4 5d bb be 8c 7c cc bd 4c 49 90 bd 09 a5 76 be
       -0.36594975 -0.09984693 -0.0704523 -0.24086393
0001a0 f7 71 a3 bb d1 48 54 be 2c 2b f5 bd 4a 9b b4 be
       -0.004987951 -0.20730902 -0.11971125 -0.35274726
0001b0 ab 12 2e be 57 40 d5 be f7 30 db be af 22 99 be
       -0.16999309 -0.4165065 -0.42810795 -0.29909274
0001c0 59 39 67 be f4 20 04 3e 94 af 30 be 0b 42 b2 3d
       -0.2258047 0.12903196 -0.17254478 0.08704003
0001d0 12 38 52 be f3 49 62 be e1 f0 0a bf 0d 1b 21 3d
       -0.20529202 -0.22098522 -0.542738 0.03933244
0001e0 87 e1 cd 3d 8a 8e 1a bf 98 86 d5 bd 3d 5b ea bd
       0.100527816 -0.6037375 -0.10426062 -0.114431836
0001f0 db a7 36 bf d8 6c 47 be 8c 2a 8e be 44 9f 0f be
       -0.7134988 -0.19475114 -0.27766836 -0.14025599
000200 1d 29 cb bd 17 af 7e 3e 07 cd a2 be 1a ab 4d be
       -0.09919951 0.24871479 -0.31797048 -0.20084801
000210 6c 26 b5 be f7 7b 8a 3e 24 ce 73 be 37 90 ac be
       -0.35380876 0.27047703 -0.23809105 -0.33703777
000220 7f 93 e1 bd 99 9e 7a be 9c 1a 8b ba 64 18 b0 be
       -0.11014461 -0.24474563 -0.0010612789 -0.3439361
000230 7c 40 0d 3e 20 fa 5d 3d de f6 8a be a2 aa ff bd
       0.1379413 0.054193616 -0.2714147 -0.124837175
000240 da 85 9b 3d ed ad 84 be 8e d7 39 3e 32 7d 84 be
       0.075938895 -0.25913945 0.18148634 -0.25876766
000250 47 98 0d be d0 bf 85 be 03 98 c5 3e bc cb 6f bd
       -0.1382762 -0.26122904 0.38592538 -0.058543906
000260 b9 7b fb bd 2b 85 ec 3c 4b 16 b0 3e bd c4 03 3e
       -0.122794576 0.028872093 0.34392008 0.12868018
000270 09 5c 16 3d 30 0f 7f 3d 5a 79 76 be ea 0a 8f be
       0.036708865 0.062270343 -0.2406973 -0.27938014
000280 46 10 8f 3d 92 b5 48 3e 27 26 48 be 87 b0 97 bd
       0.06985526 0.19600514 -0.19545804 -0.07406717
000290 8f c9 3f 3e b9 b4 a5 3c e7 f0 09 3e e8 c2 74 3c
       0.18729232 0.020227777 0.13470803 0.014939047
0002a0 99 be 8e be 34 fd a2 be ea dc 37 be 8d 4b 94 be
       -0.2787979 -0.31833804 -0.17955366 -0.2896389
0002b0 99 ce c5 bd 3a 54 f7 bd 5a 34 45 be 7a 00 6c bc
       -0.09658546 -0.12076612 -0.19258252 -0.0144044105
0002c0 f5 a2 de 3e e0 f6 61 be 34 42 4c be b6 8e 43 be
       0.434837 -0.22066832 -0.1994713 -0.19097409
0002d0 d8 a2 40 3e 13 e6 b2 3e 40 71 20 be 95 c0 e4 3d
       0.1881212 0.34941158 -0.15668201 0.111695446
0002e0 b4 17 25 be 0d a0 91 3e 3b 25 55 3e 60 70 bc bd
       -0.16122323 0.28442422 0.20814984 -0.09201121
0002f0 70 b8 f8 bd 48 29 29 be 7e 1c b7 be 40 9a b1 3c
       -0.12144554 -0.16519654 -0.35763925 0.021679997

gru.bias_hh_l0 f4 [192]
000000 09 1e bf bd 77 ab e9 3e 63 54 ca 3e ce 25 59 3e
       -0.093319006 0.4563863 0.39517507 0.21205828
000010 8f 24 22 3e 2d 02 91 3e 0a 7c 03 3f 92 32 b4 3e
       0.15834258 0.28321972 0.51361144 0.35194832
000020 2f 7e 99 3e 2c b0 5c 3e 30 59 d2 3d 34 93 f8 3e
       0.29979083 0.21551579 0.102709174 0.48549807
000030 7e f3 c5 bd 31 2b 5a bd fd 61 a1 3e 50 c2 72 3e
       -0.09665583 -0.053263847 0.31520072 0.23706937
000040 a4 09 9e 3d 7c ae a9 3e dd 25 a0 3e aa 1a bd 3e
       0.077166826 0.33140934 0.31278887 0.36934406
000050 21 0a 35 3e 25 f5 76 3b ec 56 8a 3e 4c 90 85 bc
       0.17679645 0.0037682739 0.2701944 -0.016304158
000060 d1 f9 b3 3d 8d a3 6e bd e2 0e ad 3e 5a e2 40 be
       0.08787883 -0.058261443 0.33800417 -0.18836346
000070 94 93 a2 bd 84 79 96 3c 98 62 c9 3c b7 79 60 3e
       -0.079383045 0.01836849 0.024583146 0.2192143
000080 62 71 21 3e 0c cd ae 3d 21 a1 2f 3e c9 11 87 3c
       0.15765908 0.08535203 0.1715131 0.016487973
000090 8d f5 09 3e de cd d1 bd 37 00 30 3c 0b ec 6d 3e
       0.13472576 -0.10244344 0.010742239 0.23234574
0000a0 19 ee 92 3e ff 5b 62 3e 60 74 4e 3e 3a b9 92 3e
       0.2869728 0.22105406 0.20161581 0.28656942
0000b0 86 14 49 3e 69 e3 a3 3e 00 e9 99 3e 6f ab d1 bc
       0.19636735 0.32009438 0.30060577 -0.025594441
0000c0 59 f6 40 3e 1d d6 a5 3c d2 e5 81 3d 30 e3 1e 3d
       0.18843974 0.020243699 0.06342663 0.03879088
0000d0 ad f3 bc 3d 92 0b 9e 3e 35 83 9f 3e 52 80 ad bd
       0.09226165 0.30868202 0.3115479 -0.08471741
0000e0 f6 2f a1 bd 30 5b ad 3e 38 39 a9 3e cf 77 c2 bd
       -0.07870476 0.33858633 0.33051467 -0.09495508
0000f0 01 6c 85 3d 19 9a 8e 3d 77 53 a0 3e 8e 0d 64 3d
       0.06514741 0.069629855 0.3131368 0.05567699
000100 e6 a7 77 3d d8 2f 94 be e0 66 c9 be 1a d9 44 be
       0.060462855 -0.28942752 -0.393363 -0.19223443
000110 7c d1 fe be 28 65 76 be ff f6 6f be ad 11 0f be
       -0.497692 -0.24062026 -0.23434065 -0.13971587
000120 35 43 27 be d4 a7 81 be 52 87 2b bf a7 1c 7f be
       -0.16334231 -0.25323355 -0.6700336 -0.24913274
000130 75 ad 5f be 1b 95 12 bf b4 4c 24 bf 96 0e 81 be
       -0.21843512 -0.57258767 -0.6417954 -0.2520644
000140 d2 2a 57 be f4 77 b7 be 2d 1d 5a be 11 07 9e be
       -0.21012428 -0.35833704 -0.21300192 -0.30864766
000150 df 9a 8f be cc b8 f1 be 44 b8 82 be a1 db 69 be
       -0.28047845 -0.472113 -0.2553121 -0.22837688
000160 8e 98 53 be 2f fa 05 3d f9 f3 b9 be c9 5f e1 be
       -0.20663664 0.032709297 -0.3631895 -0.4401839
000170 1a 2f 42 be f4 9e 14 bf 7f 3a a9 be 57 2d 9c be
       -0.1896328 -0.58055043 -0.3305244 -0.30503342
000180 be e9 89 be 6d 5f bc 3d 63 be 2c be 59 dc 0e be
       -0.26936144 0.091978885 -0.16869502 -0.13951243
000190 ca 3e 8a be e1 92 c4 3d db 71 67 bd 7a 33 9f be
       -0.2700103 0.095983274 -0.056505065 -0.3109396
0001a0 d5 ac f1 bd 9a f6 4f be 30 ac 72 bd c0 77 4c be
       -0.11800543 -0.20308915 -0.059246242 -0.19967556
0001b0 94 47 62 bd eb ba 91 be 82 4c d9 be 52 15 43 be
       -0.055244043 -0.2846292 -0.42441183 -0.19051102
0001c0 14 75 c2 bd 20 f0 17 3d 65 e8 11 bd 83 da e1 bc
       -0.09494987 0.037094235 -0.03562202 -0.027570015
0001d0 81 5a 19 be e0 0a e8 be 33 70 fd be ac a3 c4 bd
       -0.14975931 -0.45320797 -0.49499664 -0.096015304
0001e0 47 d9 8b bd e8 b1 18 bf 9d 91 80 bb ef 35 b0 bd
       -0.06828552 -0.59646463 -0.0039236085 -0.08604037
0001f0 e5 b7 18 bf eb b7 34 3c 6e 91 dd bd e3 8f f3 bc
       -0.596556 0.011030178 -0.10818754 -0.029731696
000200 80 44 dd bd 31 c6 f1 3e 90 09 d3 be e7 aa db be
       -0.10804081 0.4722152 -0.41218233 -0.42903826
000210 d0 58 c2 be fe 82 9a 3e 06 6d 00 bf a0 d4 09 bf
       -0.37958384 0.30178064 -0.50166357 -0.53840065
000220 d4 a5 e8 be c2 b4 58 be ea 29 49 be 1a 75 06 bf
       -0.45439017 -0.21162704 -0.19644895 -0.5252243
000230 2f b5 6d 3d 22 53 46 bd 4a 88 a9 be 79 64 05 bf
       0.05803412 -0.048419125 -0.33111793 -0.52106434
000240 2a 8c 68 3e 1e b5 f5 be 35 30 40 3e 22 37 02 bf
       0.22709718 -0.47989744 0.1876839 -0.50865376
000250 3b 23 82 be fc 1b 67 be f0 14 a5 3e f7 5b 8a be
       -0.25417504 -0.22569269 0.32242537 -0.2702329
000260 be 57 ce be 98 d0 39 3e a6 67 bf 3e 3b 5f 83 3e
       -0.40301317 0.18145978 0.37383765 0.25658593
000270 57 56 12 bd 86 e8 a8 3e 1e b7 3e be 96 82 c2 be
       -0.03572687 0.329899 -0.18624541 -0.37990254
000280 d6 d7 69 3e b8 b4 33 3e 16 2d 0d be f6 00 84 3e
       0.22836241 0.17549407 -0.1378673 0.25781983
000290 35 99 b8 3e 7b f5 f6 bd 2d 2b d0 3c 1f a6 c1 3e
       0.36054388 -0.120585404 0.025411213 0.37822053
0002a0 b4 3f 86 be e4 af d5 be ef ed 50 be 3e 82 88 be
       -0.26220477 -0.41735756 -0.20403264 -0.26661867
0002b0 6d 34 d4 be 57 db c4 be 8e f1 ce be 10 1c 83 be
       -0.41446248 -0.38448593 -0.40418667 -0.25607347
0002c0 1b 74 c7 3e a1 9b 8d bd 21 1f 2b be 2a 69 ae be
       0.3895577 -0.069144495 -0.16711093 -0.3406461
0002d0 29 52 d3 3e b5 f8 e9 3e bc 9b b7 be 5a b6 84 be
       0.4127362 0.4569756 -0.35861003 -0.25920373
0002e0 35 c8 1b bc d3 eb dd 3e bb 7e 04 3f e7 a1 3b bc
       -0.009508182 0.43343982 0.51755875 -0.011452175
0002f0 2d 5e 87 be eb 57 73 be b7 9a d2 be 49 18 b3 bd
       -0.26439038 -0.23764007 -0.41133663 -0.087448664

fc.weight f4 [3, 64]
000000 75 ae 34 be 57 d1 99 3e 51 3c 8b be aa 23 04 bf
       -0.17644675 0.30042526 -0.27194455 -0.5161692
000010 3e 06 33 bf dc 6b 26 3e 2b 2c 79 be 89 a4 d6 be
       -0.699314 0.16252083 -0.24333255 -0.41922405
000020 4a 13 3c 3f 97 bb 65 bc 9c 28 4c bf 6f fb dd be
       0.7346693 -0.014021776 -0.79749465 -0.4335589
000030 dd f2 1d 3f 8c cd 3e bf 24 d3 e7 be fa d6 2f bf
       0.61698705 -0.7453239 -0.45278275 -0.68687403
000040 2d 81 d6 3e bc 83 57 be ad 58 f9 3e cc 4c 33 bf
       0.41895428 -0.21046346 0.48700467 -0.7003906
000050 a8 a1 b1 be e1 47 02 bf 62 8b cd 3e da f1 0c bf
       -0.34693646 -0.5089093 0.40145403 -0.55056536
000060 1f 0f 57 bf ce 99 80 3e b8 a2 09 3f 24 32 02 3f
       -0.8400745 0.25117344 0.53763914 0.5085776
000070 f1 29 0e 3f 61 f4 23 3f c0 7c 0a bf a1 20 1c 3c
       0.5553275 0.6404477 -0.54096603 0.009529264
000080 97 4e cf 3e 63 26 23 ba 3b 3c aa be f4 1b 02 3f
       0.40489647 -0.00062236766 -0.33249077 0.50823903
000090 13 05 0a 3f 5e 02 d5 be 6c 46 c2 3e 7f 29 d7 be
       0.5391399 -0.4160337 0.37944353 -0.42023847
0000a0 6f 4a 91 be 9d 07 90 3e 77 21 e2 be e0 dc 01 bf
       -0.283771 0.28130808 -0.44166157 -0.50727654
0000b0 ae 7d cc 3e 9b d3 2e bf 94 99 ed be fb 1f 5e bf
       0.39939636 -0.68291634 -0.46406233 -0.8676755
0000c0 63 f6 f2 3e 01 6d 84 be 25 31 7d bd bb 30 1c bf
       0.47453603 -0.25864413 -0.061814446 -0.61011857
0000d0 70 b7 11 3f 0e f3 94 3e f8 82 2f bf 10 5a 01 bf
       0.5692053 0.29091686 -0.6855922 -0.5052805
0000e0 c0 d0 44 be a1 76 31 3f 39 b4 d1 3e 07 74 4b be
       -0.19220257 0.6932164 0.4095781 -0.1986848
0000f0 f6 20 36 bf 4c a1 0d 3d 1c 50 a5 be dd 76 69 bc
       -0.71144044 0.034577653 -0.3228768 -0.014249531
000100 3b b0 ab 3e 25 ce 31 3e f5 4f 45 be b8 7e 0c 3e
       0.3353289 0.17363794 -0.19268782 0.13720214
000110 a5 09 a7 3d 86 25 b5 3e c5 e5 a1 be 7e ff 70 bd
       0.081561364 0.3538019 -0.31620613 -0.058837406
000120 d4 63 35 bf 81 f0 d1 be 7f 92 72 3e b0 ca d8 bd
       -0.7085545 -0.41003802 0.23688696 -0.105855346
000130 9a f1 bf be 2d ca 0a 3f c0 ba 8a be d6 0e 9b 3e
       -0.37489015 0.54214746 -0.27095604 0.30284756
000140 e0 f4 aa be 4d c2 cb be c6 25 f2 bd eb ed 48 3d
       -0.3338995 -0.39796677 -0.11823611 0.04905502
000150 7d 09 e3 3e 75 7b 55 3d 37 92 16 be c4 cb 99 3e
       0.44343176 0.05211969 -0.14704214 0.30038273
000160 a1 cf 06 3f 52 31 e1 be 73 86 65 bd 22 07 a3 be
       0.52660567 -0.4398294 -0.056036424 -0.3184138
000170 e5 c6 b8 be 35 7e 6e bd 55 88 82 3e f9 88 dc be
       -0.36089244 -0.05822583 0.25494638 -0.43073252
000180 08 e2 c3 be 18 4f bd 3e 37 9a d0 bd b7 5e 09 bf
       -0.38258386 0.36974406 -0.10185664 -0.5366015
000190 65 50 ba be d5 d5 21 3f f2 8c a9 be d5 e6 31 3f
       -0.3638946 0.63216907 -0.33115345 0.69492847
0001a0 20 cf b4 be 56 8b 24 bf 23 cf 8e 3e 24 ad 9d 3e
       -0.35314274 -0.6427511 0.27892408 0.30796158
0001b0 cb d7 40 bf 20 88 0b 3e f6 e9 84 be 02 a3 f1 3e
       -0.75329274 0.13626146 -0.25959748 0.47194678
0001c0 92 aa 3c 3e e4 08 ae 3e 97 8e ef be f0 1f 06 3f
       0.18424442 0.33991158 -0.46788475 0.5239248
0001d0 06 e2 47 bd 1e e4 d8 3d a4 3e 91 bd 82 d0 ef 3e
       -0.048799537 0.10590385 -0.07092026 0.46838766
0001e0 7c 4e 8c 3d d1 0c a2 bd 63 8a 65 3e e3 3e 72 3e
       0.06850907 -0.07912601 0.22416072 0.23656802
0001f0 60 3c 08 3e 60 c5 8c be 81 88 80 be e7 07 d8 3e
       0.13304281 -0.27494335 -0.25104144 0.4219353
000200 62 38 71 bd 36 05 47 bf d1 03 49 3f fe fe 00 3f
       -0.05889166 -0.77742326 0.7852145 0.5038909
000210 50 a8 4a 3f e9 27 02 bf 21 fa 2c 3f 36 03 09 3f
       0.79163074 -0.5084215 0.67569166 0.53520525
000220 09 b8 9e 3e 6c f3 99 3e 09 21 2f 3f 80 4c 27 3f
       0.30999783 0.3006853 0.6840978 0.65351105
000230 e8 86 c3 be 64 00 07 3f 2c b3 47 3f d3 15 f5 3e
       -0.38188863 0.5273497 0.7800777 0.47868213
000240 fa c4 91 be 83 ac 2d 3f 89 df a4 be e2 b3 2e 3f
       -0.28470594 0.67841357 -0.32201794 0.6824323
000250 2d f6 7c 3d 3c f7 f3 3e c0 f2 99 be 90 ee 0e 3f
       0.06175821 0.47649562 -0.30068016 0.5583277
000260 c4 27 9b 3e fd 63 d4 3d f1 31 f0 be 8c 74 d8 be
       0.30303776 0.10370634 -0.46913102 -0.42276418
000270 cd 8f 0b be f9 47 47 bf 08 e9 c1 3e 66 cd 29 3f
       -0.13629074 -0.77844197 0.378731 0.6632904
000280 a8 89 42 be 2e dc 99 be 49 23 ba 3e 88 df eb bd
       -0.18997824 -0.30050796 0.36355045 -0.115172446
000290 41 87 0b bf 32 1d 84 be 71 16 e2 bd 37 3a a4 bd
       -0.54503256 -0.25803524 -0.110394366 -0.08018916
0002a0 f4 89 f9 3e d9 a5 1d 3f 3a bc c0 3d 91 b7 a5 3e
       0.48738062 0.6158119 0.09410901 0.32366613
0002b0 2a 14 06 3f a9 ca 18 3f 17 b6 24 3f d2 59 39 3e
       0.5237452 0.59684235 0.6434035 0.1810067
0002c0 a8 ba 4f bf 09 1a cf bc 7b fa 30 3f 02 67 14 3d
       -0.8114419 -0.02528097 0.691322 0.03623105
0002d0 45 62 1b bf ef aa f9 be 88 51 55 3f 9a 6c ed bc
       -0.6069682 -0.48763224 0.8332753 -0.02898245
0002e0 f2 f4 cf 3d 37 b8 9d be 19 d8 1d bf 84 bb 0d be
       0.101541415 -0.30804607 -0.61657864 -0.13841063
0002f0 48 f5 48 3f 09 e0 d1 3e 2b 2d 52 3f 2b 14 a4 be
       0.7849927 0.40991238 0.8210017 -0.32046637

fc.bias f4 [3]
000000 af fb 38 3e 58 a3 f8 3c 41 a5 dc bd
       0.1806476 0.030351326 -0.10773707
