Code-in-cloud/results/models/血糖分类标签_forward_gru.pth (torch, 62216 bytes, 6 tensors)

gru.weight_ih_l0 f4 [192, 11]
-0.1681664 0.2266074 0.056783214 0.124911055 -0.53013164 0.20789795 0.08274495 0.03554271
-0.043497443 0.15498343 0.6072628 0.028142646 -0.029021915 -0.04540697 0.0072022867 -0.06554064
0.06729459 -0.16594906 0.22302553 0.10998469 0.37578496 0.14108407 -0.11633586 -0.13252647
0.10082426 -0.49749446 -0.1398531 -0.15511192 0.28887218 -0.26691726 -0.18191883 -0.22038658
0.07514522 -0.28300905 -0.21797104 0.23186487 -0.0074874833 -0.38084763 0.104518935 0.22198129
-0.2715172 -0.5204812 -0.44738653 -0.52751684 -0.39862218 0.11499894 0.2818498 0.29166535
-0.3775786 0.35320842 -0.35991988 0.09936395 -0.13554758 0.067056835 0.42362708 -0.34414142
-0.14738299 -0.089195944 0.46005175 -0.18325864 -0.010057045 -0.36729056 0.008654852 -0.061551142
-0.17568952 0.35426548 -0.13724674 0.37291417 0.09444718 0.12418 -0.2796619 -0.007942801
0.12556873 0.066415735 -0.19181089 -0.27495775 0.42636153 -0.051823564 0.25329912 0.40642765
0.00997005 -0.4185993 -0.040161844 0.29771122 0.14060916 -0.32036695 0.08095693 0.570855
-0.28469726 0.09335043 -0.027034912 0.1846946 -0.2064878 0.10393522 0.021348344 0.061172057
-0.13822699 0.13678822 0.6316406 -0.2345019 0.5405648 0.258485 0.036566406 -0.29059824
0.12756546 0.13698365 -0.021640375 -0.15381542 -0.38808626 0.41501927 -0.10732188 -0.11419228
-0.06178367 0.1879731 0.005011836 0.1676452 -0.19063099 -0.1432944 -0.059990823 -0.07588202
0.19019943 -0.2359946 0.15520385 0.07000519 0.10900689 -0.25772083 0.1341611 -0.077620484
0.17808646 -0.030907156 0.011891766 0.39970985 -0.09608904 -0.095218234 0.17708825 -0.22125036
-0.044341475 -0.24656077 0.24313898 -0.30880716 -0.2822367 0.1448829 -0.17040366 -0.58861697
0.11829207 0.2154547 0.38823265 -0.29175395 0.2584569 -0.13862255 -0.17263912 -0.20179845
-0.12645228 0.32202727 -0.09424898 -0.022066083 0.17610937 -0.22505642 -0.116975546 0.052804183
0.17082918 -0.09237952 -0.3320264 -0.16446269 0.15557495 0.055458292 0.36733663 0.10237595
0.060334157 -0.10002598 -0.20020945 -0.04254176 -0.14981025 0.37089473 -0.23485659 0.32468075
-0.21800074 -0.15368989 0.028879186 0.084719986 -0.29077002 0.25709328 -0.10024672 0.13693573
-0.17497139 -0.08623371 0.2353529 0.06054478 -0.06026297 0.0894547 0.15179051 -0.23705138
0.46612087 -0.17571057 0.15310113 0.45020747 -0.17238344 -0.14630939 0.06887871 -0.16309765
0.28077796 -0.10231988 -0.1321011 0.34464252 0.03154755 0.29060033 -0.047752593 0.18862535
-0.21986824 -0.14013746 0.21063812 0.06666074 0.32252878 -0.37433574 0.06906409 -0.04589118
0.028911617 -0.30998075 -0.024289342 0.5246726 -0.22306311 0.0011332592 0.24524252 -0.072626516
-0.1141981 0.013569714 0.12486604 -0.20263493 -0.46851203 -0.17248434 -0.011817899 -0.08550647
-0.16038337 0.19032963 -0.39558655 -0.11037428 -0.12198941 0.36785975 -0.3805748 -0.24282332
-0.3532805 -0.051836323 -0.12467981 -0.048351035 0.24066868 -0.12498769 -0.018239845 -0.13919601
0.09548572 -0.1253039 -0.2189353 -0.029677816 -0.08794884 -0.23735063 0.19265835 0.20090908
00000000: d033 2cbe c50b 683e 8495 683d 5ed1 ff3d
00000010: b5b6 07bf 33e3 543e 2f76 a93d 3c95 113d
00000020: 602a 32bd fab3 1e3e 9375 1b3f 688b e63c
00000030: 5ebf edbc a9fc 39bd 2901 ec3b 2c3a 86bd
00000040: bfd1 893d 8dee 29be ce60 643e a73f e13d
00000050: e366 c03e 5878 103e 7f41 eebd 05b5 07be
00000060: f37c ce3d 98b7 febe a735 0fbe a9d5 1ebe
00000070: 0ee7 933e 61a9 88be ee48 3abe 05ad 61be
00000080: bde5 993d 90e6 90be cd33 5fbe fc6d 6d3e
00000090: 9059 f5bb 76fe c2be 060e d63d 104f 633e
000000a0: 4d04 8bbe 423e 05bf d90f e5be 580b 07bf
000000b0: 3518 ccbe 9084 eb3d 9e4e 903e 2955 953e
000000c0: fb51 c1be bcd7 b43e 6b47 b8be 547f cb3d
000000d0: fccc 0abe 1855 893d a6e5 d83e 4e33 b0be
000000e0: 91eb 16be 5dac b6bd e78b eb3e 27a8 3bbe
000000f0: 4ec6 24bc 820d bcbe 15cd 0d3c 0d1d 7cbd
00000100: f4e7 33be 4962 b53e 698a 0cbe 9bee be3e
00000110: 866d c13d 1552 fe3d d82f 8fbe 8622 02bc
00000120: 1795 003e f904 883d 136a 44be 43c7 8cbe
00000130: 0f4c da3e f244 54bd 6cb0 813e 4917 d03e
00000140: 6c59 233c a652 d6be bf80 24bd 9b6d 983e
00000150: d9fb 0f3e 2307 a4be bfcc a53d 8e23 123f
00000160: d7c3 91be 832e bf3d 5278 ddbc 9520 3d3e
00000170: 8a71 53be fddb d43d b9e2 ae3c 8d8f 7a3d
00000180: 608b 0dbe 3612 0c3e 33b3 213f 4421 70be
00000190: 7462 0a3f 2558 843e a8c6 153d 4bc9 94be
000001a0: 85a0 023e 7145 0c3e 2847 b1bc ca81 1dbe
000001b0: 3eb3 c6be 687d d43e 93cb dbbd a4dd e9bd
000001c0: e010 7dbd 057c 403e 543a a43b 2fab 2b3e
000001d0: c534 43be c4bb 12be f0b8 75bd 0868 9bbd
000001e0: a4c3 423e 92a8 71be c2ed 1e3e e25e 8f3d
000001f0: 013f df3d fcf3 83be 8761 093e 7df7 9ebd
00000200: 4c5c 363e 0131 fdbc afd5 423c c5a6 cc3e
00000210: 55ca c4bd c701 c3bd 9f56 353e 748f 62be
00000220: 689f 35bd 6d7a 7cbe 6df9 783e f91b 9ebe
00000230: 5481 90be 2f5c 143e 4c7e 2ebe 9aaf 16bf
00000240: 1d43 f23d 28a0 5c3e 6ec6 c63e c660 95be
00000250: 7654 843e 12f3 0dbe 4fc8 30be 41a4 4ebe
00000260: b57c 01be c2e0 a43e 9c05 c1bd eec3 b4bc
00000270: 0456 343e 3175 66be e090 efbd 3349 583d
00000280: d8ed 2e3e 7931 bdbd 5dff a9be e868 28be
00000290: 0a4f 1f3e 3c28 633d 8c13 bc3e 7baa d13d
000002a0: f320 773d 6cda ccbd b503 4dbe 4540 2ebd
000002b0: dc67 19be eae5 bd3e 3f7e 70be 8e3c a63e
000002c0: 963b 5fbe e260 1dbe 0b94 ec3c ac81 ad3d
000002d0: cfdf 94be bba1 833e 274e cdbd e138 0c3e
000002e0: b32b 33be 4d9b b0bd 5a00 713e cefd 773d
000002f0: 4ed6 76bd 0734 b73d f96e 1b3e 99bd 72be
00000300: 65a7 ee3e 79ed 33be 8bc6 1c3e 9881 e63e
00000310: 4985 30be 21d2 15be 4810 8d3d 1203 27be
00000320: 21c2 8f3e 168d d1bd 8345 07be fc74 b03e
00000330: 0138 013d 91c9 943e 3998 43bd 0127 413e
00000340: 2425 61be 3280 0fbe 85b1 573e 6d85 883d
00000350: 7e22 a53e efa8 bfbe 7971 8d3d 64f8 3bbd
00000360: 0ed8 ec3c ccb5 9ebe 71fa c6bc f250 063f
00000370: a86a 64be de89 943a db20 7b3e 36bd 94bd
00000380: b2e0 e9bd 8153 5e3c c4b9 ff3d 887f 4fbe
00000390: cfe0 efbe bc9f 30be dc9f 41bc 041e afbd
000003a0: 8a3b 24be c5e5 423e 528a cabe e90b e2bd
000003b0: 95d5 f9bd 1d58 bc3e b3da c2be ada6 78be
000003c0: 2fe1 b4be 5352 54bd 2158 ffbd bc0b 46bd
000003d0: da71 763e 8cf9 ffbd ba6b 95bc 6689 0ebe
000003e0: 048e c33d aa4f 00be 9330 60be e41e f3bc
000003f0: 851e b4bd 0b0c 73be 3b48 453e 1cbb 4d3e

gru.weight_hh_l0 f4 [192, 64]
-0.07169482 -0.03675739 0.03108666 0.07291142 0.11748439 -0.051287122 0.06603882 0.11275375
0.07851012 0.0925974 0.08243851 0.045330178 0.10683584 -0.017267648 0.112660274 -0.057182383
-0.032142535 0.108336225 -0.120727904 -0.08169227 -0.082653336 0.0975028 -0.027730849 -0.0064465893
-0.10438429 -0.11161342 0.0743115 -0.064287364 -0.05918999 0.044275913 -0.08194464 0.049326662
0.036768064 0.117146276 0.0028371813 -0.10098023 0.03382423 -0.10631186 -0.0048322976 -0.031759746
-0.03788919 -0.07237067 -0.10253369 0.06374724 0.09525258 -0.06414329 0.06921132 -0.06343055
-0.04265801 -0.08210336 -0.118545845 0.075506695 -0.108588375 -0.07697301 0.048620503 0.0213195
0.068102375 -0.12050124 0.11851021 -0.089511536 -0.09136329 -0.03684158 0.08601032 0.09535664
-0.089726135 0.04793716 0.057500433 -0.03171359 0.053675745 -0.0633623 0.06550546 0.06897852
-0.10607999 0.016937915 -0.068118885 0.07829667 -0.11753431 0.06894695 -0.08430342 0.0346485
-0.11311195 0.11428211 -0.10989136 0.030952424 0.06563656 0.06263557 -0.08540646 0.08087354
-0.0045977184 -0.026860936 0.04825622 0.050579965 -0.042609707 -0.055139396 0.027481502 -0.1111199
0.07325316 -0.067146465 -0.009772827 0.05994504 0.006212164 -0.10653022 0.015787097 -0.055967007
-0.026846861 -0.05771929 0.08107303 -0.011530726 -0.053820822 0.11277809 -0.051066935 -0.0065258383
0.0036085637 0.08281201 -0.10520147 -0.07166535 -0.07827292 -0.0071453396 0.07023641 0.089498036
0.019926166 0.05492644 -0.07184511 -0.079531185 -0.043152373 0.044881877 0.06868253 -0.088199385
0.038886838 0.0035323573 0.10706848 -0.046431538 -0.10720163 -0.102573656 0.07462935 0.04896214
0.07196287 0.10481453 -0.0062356633 -0.06703521 -0.008268993 -0.10796901 -0.058937024 0.044472236
0.020266855 -0.008026221 0.038611684 0.056445118 -0.0001445293 -0.044952136 0.10505642 -0.07974122
0.0118854605 -0.04683196 0.04626021 0.043188695 -0.03272052 -0.04580041 0.03713519 0.0041712574
0.04154506 0.047250155 0.058178138 0.1020893 0.027591864 0.007435131 -0.08983903 0.03875474
-0.047079965 0.042248446 0.05966724 -0.041544706 -0.07516494 0.08031256 -0.07895762 -0.062466078
0.037488453 0.04012732 -0.07807592 -0.025140606 -0.019672712 0.08318916 -0.07652584 0.044194736
0.068582356 0.06653924 -0.099242024 -0.0026865732 -0.031436045 -0.0011308988 0.014881995 0.06701491
-0.10976703 -0.014971629 0.09290794 -0.09461428 -0.06619347 0.11426097 0.1033331 0.022379281
0.11805416 -0.027773019 0.010318776 0.07905286 0.06899157 -0.027113112 0.026757289 0.11852062
0.08510442 -0.06282458 -0.016030498 0.1102847 0.07049143 0.11260121 -0.06917385 0.012797078
0.1117678 -0.075836055 0.103006296 0.039323777 0.04541834 0.06654664 -0.0681065 0.10264708
-0.030103303 0.017585643 0.0032676803 -0.059546124 -0.0029990806 -0.082474135 0.0035463313 -0.0740233
-0.03159452 0.04892202 0.09464082 0.0471527 0.09419494 -0.008651089 0.118663535 -0.08738281
-0.07711865 0.0073209037 0.11610058 0.004663677 -0.0074595213 0.063929506 0.113327034 0.06925779
-0.10869471 -0.0061468645 -0.08158297 -0.063523576 0.07027423 0.11486648 -0.008847216 -0.08196524
00000000: bcd4 92bd eb8e 16bd 74a9 fe3c 9552 953d
00000010: a89b f03d 7212 52bd 5c3f 873d 70eb e63d
00000020: eac9 a03d b5a3 bd3d 86d5 a83d 23ac 393d
00000030: c0cc da3d e274 8dbc 6eba e63d 1338 6abd
00000040: e4a7 03bd 62df dd3d 3140 f7bd 474e a7bd
00000050: 2746 a9bd 8caf c73d ce2b e3bc e93d d3bb
00000060: 6ec7 d5bd 9495 e4bd a130 983d 18a9 83bd
00000070: 3471 72bd a95a 353d 97d2 a7bd c10a 4a3d
00000080: 1c9a 163d 63ea ef3d 01f0 393b b9ce cebd
00000090: 478b 0a3d 08ba d9bd 4058 9ebb 8216 02bd
000000a0: b231 1bbd 1337 94bd 2ffd d1bd ea8d 823d
000000b0: c913 c33d 8f5d 83bd aabe 8d3d e0e7 81bd
000000c0: 2aba 2ebd ce25 a8bd 2ac8 f2bd 41a3 9a3d
000000d0: 9563 debd 07a4 9dbd 4b26 473d 3ba6 ae3c
000000e0: 4279 8b3d 5bc9 f6bd 7bb5 f23d d351 b7bd
000000f0: ad1c bbbd 32e7 16bd 2e26 b03d 584a c33d
00000100: 56c2 b7bd c159 443d 9385 6b3d 1ce6 01bd
00000110: 19db 5b3d 18c4 81bd ba27 863d 9c44 8d3d
00000120: 7740 d9bd 62c1 8a3c ea81 8bbd 015a a03d
00000130: d4b5 f0bd 0f34 8d3d 45a7 acbd 96eb 0d3d
00000140: 3da7 e7bd bd0c ea3d b90e e1bd f08f fd3c
00000150: 766c 863d 1447 803d 95e9 aebd 07a1 a53d
00000160: 75a8 96bb 770b dcbc 50a8 453d f02c 4f3d
00000170: 8487 2ebd d9d9 61bd e320 e13c d592 e3bd
00000180: c105 963d 1684 89bd 351e 20bc ee88 753d
00000190: 698f cb3b 842c dabd f153 813c a93d 65bd
000001a0: f3ed dbbc 106b 6cbd 9e09 a63d 5feb 3cbc
000001b0: 3973 5cbd 33f8 e63d 902b 51bd b3d6 d5bb
000001c0: a77d 6c3b 5899 a93d de73 d7bd 48c5 92bd
000001d0: 8d4d a0bd 7423 eabb 1bd8 8f3d bf4a b73d
000001e0: 333c a33c 8cfa 603d 8723 93bd 3fe1 a2bd
000001f0: 8bc0 30bd 0fd6 373d 6da9 8c3d e1a1 b4bd
00000200: ce47 1f3d 1f7f 673b b846 db3d ff2e 3ebd
00000210: 878c dbbd 2312 d2bd 46d7 983d 868c 483d
00000220: 4561 933d 00a9 d63d 8954 ccbb c249 89bd
00000230: ac7a 07bc db1e ddbd f367 71bd 8528 363d
00000240: ad06 a63c 6980 03bc 4927 1e3d ff32 673d
00000250: ca8c 17b9 bb1f 38bd d227 d73d 5d4f a3bd
00000260: 3cbb 423c dfd2 3fbd 597b 3d3d a1e6 303d
00000270: f405 06bd 3699 3bbd 121b 183d 0baf 883b
00000280: 272b 2a3d 6189 413d 334c 6e3d 3214 d13d
00000290: 5508 e23c 66a2 f33b 86fd b7bd 4abd 1e3d
000002a0: ecd6 40bd b50c 2d3d a365 743d c82a 2abd
000002b0: 13f0 99bd e97a a43d 88b4 a1bd 6edc 7fbd
000002c0: 7e8d 193d 8b5c 243d 45e6 9fbd acf3 cdbc
000002d0: ab28 a1bc 145f aa3d 94b9 9cbd 8a05 353d
000002e0: e874 8c3d ba45 883d 673f cbbd 3811 30bb
000002f0: 15c3 00bd ab3a 94ba 9cd3 733c 1d3f 893d
00000300: 89cd e0bd 904b 75bc 8546 be3d 22c5 c1bd
00000310: 7190 87bd a801 ea3d 4ea0 d33d c154 b73c
00000320: 61c6 f13d 3e84 e3bc 1510 293c 77e6 a13d
00000330: 744b 8d3d 511c debc 1a32 db3c f0ba f23d
00000340: 3a4b ae3d 2caa 80bd 6452 83bc f2dc e13d
00000350: d05d 903d 779b e63d 05ab 8dbd d6aa 513c
00000360: 84e6 e43d ef4f 9bbd f7f4 d23d f811 213d
00000370: 9508 3a3d 9b49 883d 6c7b 8bbd a238 d23d
00000380: 349b f6bc c40f 903c 9426 563b a3e6 73bd
00000390: 398c 44bb 33e8 a8bd 9169 683b 8799 97bd
000003a0: 4169 01bd 7562 483d 0cd3 c13d 3123 413d
000003b0: 47e9 c03d 4cbd 0dbc de05 f33d c2f5 b2bd
000003c0: 62f0 9dbd 31e4 ef3b 24c6 ed3d c2d1 983b
000003d0: 006f f4bb 79ed 823d 0118 e83d 07d7 8d3d
000003e0: 559b debd a36b c9bb f914 a7bd a618 82bd
000003f0: efeb 8f3d 1e3f eb3d eaf3 10bc 64dd a7bd

gru.bias_ih_l0 f4 [192]
-0.043973535 0.06653194 -0.17535782 0.4137703 0.23764125 0.32466894 0.32769126 0.04714656
-0.10616794 0.19761269 0.17932491 -0.0017104478 0.0070599755 0.023869008 0.011575615 0.4047526
0.11299537 0.21873774 -0.096144065 0.06503413 0.24380662 0.0535743 0.019059377 0.3341954
0.20763403 0.085381016 0.24588785 0.3856045 0.14573352 0.31675202 0.25386816 -0.08696651
0.05636096 0.098110765 -0.107977785 0.021024184 0.38816664 0.32964325 0.12202724 0.33591968
0.2226536 0.085110955 -0.1346366 -0.035951544 -0.09167789 0.21006598 0.19332133 -0.17663841
0.3239632 -0.004475046 0.34876844 0.0066853818 0.09292689 0.29157683 -0.24836716 -0.033516947
0.46793655 -0.10393847 0.2820514 0.06530008 0.15894347 0.33829528 0.37259078 0.27767617
-0.14547652 -0.12063377 -0.17887184 -0.43334445 -0.31231797 -0.64977366 -0.42274728 0.0048854775
-0.4053501 -0.2719072 -0.32630768 -0.26849788 -0.010843908 -0.18923001 -0.24589616 -0.16122223
-0.21289562 -0.16025059 0.04492286 -0.31133136 -0.31129184 -0.28190196 -0.14868386 -0.30546454
-0.08654893 -0.24910599 -0.520207 -0.36372495 -0.1953247 -0.32710326 -0.45544598 -0.09907046
-0.39806217 -0.18533875 -0.16047224 -0.12327204 -0.44077218 -0.058387857 -0.34122717 -0.6694969
-0.07389334 -0.05973533 0.009223579 -0.2052136 -0.0090208 -0.15313812 -0.19313985 0.0045391615
-0.38751012 -0.746649 -0.0811545 -0.07156375 -0.114518486 -0.32222006 -0.4497358 -0.12318004
-0.24463382 -0.10201958 -0.16820556 -0.5467073 -0.30392447 -0.47734922 -0.38025877 -0.56741893
-0.023755422 -0.059449743 0.1858188 0.3620447 0.09006317 -0.14766146 -0.30215698 -0.052477095
-0.09288039 0.29906237 -0.32663667 0.115666375 -0.027025284 0.075642064 0.14025927 -0.48083228
0.1281465 0.330274 -0.22883323 -0.07287474 0.2336289 -0.104568064 0.05533428 0.20307706
0.23306428 0.068801545 0.27764398 0.42169455 0.07471765 -0.28304088 -0.3093734 -0.17841996
0.1663315 -0.021645488 -0.048767034 0.009148051 0.25907084 -0.25928706 -0.14174357 0.2680276
-0.18142341 0.03643673 0.11417245 -0.167685 -0.063580275 -0.031772267 0.09276421 0.024434289
-0.2577749 0.13145837 -0.18020852 0.20661454 -0.22823812 0.18343173 -0.20112696 0.023919955
0.28342992 0.18811882 -0.20081569 0.0024008583 -0.2417803 -0.48260766 -0.32986522 0.11098694
00000000: 981d 34bd e641 883d 0091 33be b3d9 d33e
00000010: 3a58 733e 023b a63e 26c7 a73e c01c 413d
00000020: 946e d9bd fb5a 4a3e f3a0 373e 1b31 e0ba
00000030: 5e57 e73b f088 c33c a6a7 3d3c bc3b cf3e
00000040: 1e6a e73d c9fc 5f3e 2ee7 c4bd 9d30 853d
00000050: 71a8 793e ba70 5b3d 6922 9c3c a91b ab3e
00000060: 049e 543e 3edc ae3d 06ca 7b3e f46d c53e
00000070: 2b3b 153e 522d a23e 02fb 813e 7f1b b2bd
00000080: c0da 663d 4cee c83d 7523 ddbd e93a ac3c
00000090: c7bd c63e 00c7 a83e 6be9 f93d aafd ab3e
000000a0: 4eff 633e a74e ae3d 2dde 09be ed41 13bd
000000b0: 9ec1 bbbd 891b 573e 07f6 453e b3e0 34be
000000c0: 81de a53e 68a3 92bb c791 b23e 0c11 db3b
000000d0: 7450 be3d 8f49 953e f653 7ebe 1149 09bd
000000e0: 6195 ef3e b1dd d4bd 0b69 903e 0cbc 853d
000000f0: 14c2 223e 0a35 ad3e 38c4 be3e 922b 8e3e
00000100: ccf7 14be d70e f7bd 2e2a 37be 53df ddbe
00000110: 24e8 9fbe 9157 26bf 5572 d8be 5b16 a03b
00000120: 0c8a cfbe 6c37 8bbe cd11 a7be 8e78 89be
00000130: a6aa 31bc 83c5 41be 34cc 7bbe 7117 25be
00000140: 4f01 5abe bb18 24be 0801 383d d366 9fbe
00000150: a561 9fbe 7455 90be 9540 18be d965 9cbe
00000160: 9140 b1bd a415 7fbe 492c 05bf 283a babe
00000170: 3303 48be 147a a7be 3730 e9be 74e5 cabd
00000180: cece cbbe 71c9 3dbe d652 24be 0d76 fcbd
00000190: e4ac e1be 1b28 6fbd 54b5 aebe 2664 2bbf
000001a0: 6455 97bd 09ad 74bd 7f1e 173c 8423 52be
000001b0: facb 13bc 3dd0 1cbe 74c6 45be 3fbd 943b
000001c0: ba67 c6be 6424 3fbf 5534 a6bd 0490 92bd
000001d0: ab88 eabd 07fa a4be c543 e6be d145 fcbd
000001e0: 4a81 7abe a4ef d0bd 143e 2cbe 02f5 0bbf
000001f0: fd9b 9bbe 1e67 f4be 47b1 c2be 5e42 11bf
00000200: bb9a c2bc 9381 73bd 4947 3e3e ec5d b93e
00000210: 0a73 b83d 9134 17be 52b4 9abe 39f2 56bd
00000220: 1338 bebd b41e 993e ec3c a7be 7ee2 ec3d
00000230: 2164 ddbc 3aea 9a3d 20a0 0f3e a62f f6be
00000240: d638 033e ac19 a93e 4253 6abe 5a3f 95bd
00000250: 6a3c 6f3e c827 d6bd 33a6 623d 6ff3 4f3e
00000260: 67a8 6e3e d3e7 8c3d 5a27 8e3e 59e8 d73e
00000270: 9105 993d bcea 90be 3166 9ebe b9b3 36be
00000280: ce52 2a3e e151 b1bc f1bf 47bd b5e1 153c
00000290: efa4 843e 46c1 84be 3a25 11be ea3a 893e
000002a0: 0fc7 39be ae3e 153d 3fd3 e93d 9eb5 2bbe
000002b0: 6036 82bd a323 02bd 2afb bd3d 6b2a c83c
000002c0: 12fb 83be 069d 063e 9588 38be c392 533e
000002d0: 41b7 69be 87d5 3b3e 3af4 4dbe c8f3 c33c
000002e0: ba1d 913e 38a2 403e a1a2 4dbe b857 1d3b
000002f0: 4195 77be 5a18 f7be 18e4 a8be 1f4d e33d

gru.bias_hh_l0 f4 [192]
-0.052706886 -0.11064819 -0.22263482 0.32849926 0.23922087 0.12203533 0.19542749 -0.016363677
-0.01443941 0.32270598 0.1032311 0.09604928 -0.20937039 0.04157322 -0.008081693 0.41532728
0.014603699 0.3680968 -0.15490359 -0.008561129 0.18391567 -0.023446854 0.060350068 0.26985687
0.32892364 0.09286232 0.18375492 0.56720483 0.08166164 0.2682901 0.37686047 -0.026765104
-0.019980308 0.14012037 -0.045497637 0.063912384 0.30445588 0.39315787 0.24065058 0.22865635
0.15853757 0.14494164 -0.016343925 -0.046596438 -0.080403335 0.046074085 0.12206171 0.04433519
0.4224566 -0.09190889 0.36654857 0.052153513 0.104965724 0.24185272 -0.10146506 0.039374657
0.3863519 -0.19122331 0.29599735 0.057973187 0.18414478 0.52156216 0.36853138 0.14351225
-0.12414001 -0.11207514 -0.052518897 -0.32392383 -0.3738392 -0.59446347 -0.43536192 -0.03530743
-0.40471202 -0.37565258 -0.41576055 -0.1275054 -0.20162474 -0.13116941 -0.07558673 -0.14696181
-0.33098313 -0.22013623 -0.14759631 -0.34477982 -0.31736082 -0.28197134 -0.18850343 -0.20093144
-0.280557 -0.17328465 -0.72404015 -0.16787583 -0.042706065 -0.47962222 -0.41602448 -0.19208363
-0.32668406 -0.34094787 -0.26468593 -0.284828 -0.3189784 -0.083130784 -0.54118395 -0.58960265
-0.059272394 0.013264944 0.108744845 -0.3025602 0.037236694 -0.09682467 -0.0844335 -0.17635074
-0.41263455 -0.6611126 -0.20097354 0.09368034 -0.23196898 -0.36824092 -0.37885714 -0.14793667
-0.2074776 0.06146753 -0.12602827 -0.4936151 -0.31763023 -0.28776756 -0.35776567 -0.42374662
0.16617732 -0.064307906 -0.17065078 0.60131574 0.38093892 -0.47237518 -0.2971805 0.25558597
-0.17134453 0.5392042 -0.12472205 0.20648327 -0.054199666 -0.20178704 -0.02406211 -0.64122474
0.090045385 0.35936743 0.027743815 -0.17067829 0.30101904 -0.20324083 -0.0012851094 0.4117241
0.39044395 0.2529055 0.41321203 0.60764086 0.20488039 -0.3909269 -0.5060263 -0.10112193
0.16160692 0.20805138 0.17148386 -0.31405652 0.38347283 -0.43359864 -0.38898703 0.37127277
-0.42404857 -0.11240906 -0.151176 -0.12010479 -0.11683786 -0.20795302 0.105802216 -0.042234547
-0.4165354 0.28128052 -0.38586366 0.23456718 -0.101002224 0.28166884 -0.008174571 0.023233091
0.41402358 0.032756094 -0.23292708 -0.39265516 -0.3772482 -0.44099542 -0.55724734 0.28421652
00000000: 2de3 57bd 859b e2bd 62fa 63be 0e31 a83e
00000010: 51f6 743e a9ed f93d 251e 483e 1e0d 86bc
00000020: 4693 6cbc b839 a53e d46a d33d 7cb5 c43d
00000030: 3165 56be ae48 2a3d 1469 04bc c7a5 d43e
00000040: 5a44 6f3c 2f77 bc3e 0c9f 1ebe fa43 0cbc
00000050: 6454 3c3e 9e13 c0bc a231 773d ae2a 8a3e
00000060: ae68 a83e 9a2e be3d 402a 3c3e 5634 113f
00000070: 383e a73d 525d 893e dbf3 c03e 7e42 dbbc
00000080: bead a3bc b77b 0f3e bb5b 3abd 7fe4 823d
00000090: a4e1 9b3e fd4b c93e 1b6d 763e e424 6a3e
000000a0: ac57 223e 956b 143e b2e3 85bc e8db 3ebd
000000b0: 81aa a4bd 2eb8 3c3d 7dfb f93d d198 353d
000000c0: 3b4c d83e ba3a bcbd 41ac bb3e ec9e 553d
000000d0: 45f8 d63d 3da8 773e eacc cfbd 5247 213d
000000e0: ebcf c53e 0bd0 43be f78c 973e 4b75 6d3d
000000f0: 7390 3c3e 1985 053f 25b0 bc3e e0f4 123e
00000100: 1e3d febd a787 e5bd 0e1e 57bd 58d9 a5be
00000110: da67 bfbe c22e 18bf c2e7 debe 869e 10bd
00000120: 6a36 cfbe 8955 c0be 91de d4be c790 02be
00000130: b776 4ebe 4651 06be 37cd 9abd 287d 16be
00000140: 9f76 a9be 646b 61be 7d23 17be fb86 b0be
00000150: 1e7d a2be 8c5e 90be 0b07 41be f9c0 4dbe
00000160: 2ba5 8fbe 8871 31be b25a 39bf a4e7 2bbe
00000170: 8eec 2ebd 0b91 f5be 2901 d5be 92b1 44be
00000180: 2243 a7be b890 aebe ea84 87be fad4 91be
00000190: 2351 a3be 7940 aabd 088b 0abf 33f0 16bf
000001a0: 9cc7 72bd 3555 593c 9eb5 de3d 2ce9 9abe
000001b0: 8185 183d 034c c6bd 79eb acbd 4a95 34be
000001c0: d644 d3be ad3e 29bf 02cc 4dbe 7adb bf3d
000001d0: 4789 6dbe 138a bcbe 90f9 c1be b67c 17be
000001e0: 0275 54be 60c5 7b3d 8e0d 01be 1ebb fcbe
000001f0: 6ea0 a2be 4556 93be 102d b7be 51f5 d8be
00000200: 632a 2a3e ddb3 83bd 14bf 2ebe d4ef 193f
00000210: 6d0a c33e 29db f1be 0b28 98be 2adc 823e
00000220: f174 2fbe 4909 0a3f 466e ffbd 5a70 533e
00000230: 7800 5ebd 43a1 4ebe e71d c5bc 4e27 24bf
00000240: b769 b83d 02ff b73e ff46 e33c 4ac6 2ebe
00000250: 2b1f 9a3e 5d1e 50be 1e71 a8ba 80cd d23e
00000260: 45e8 c73e d47c 813e 8790 d33e 5a8e 1b3f
00000270: 2acc 513e 9227 c8be f18a 01bf 0419 cfbd
00000280: 497c 253e 6c0b 553e 7799 2f3e 04cc a0be
00000290: 8d56 c43e a400 debe 4f29 c7be 7717 be3e
000002a0: e51c d9be b936 e6bd e2cd 1abe 80f9 f5bd
000002b0: b048 efbd a3f1 54be d5ae d83d 22fe 2cbd
000002c0: 2144 d5be 0004 903e ec8f c5be 6132 703e
000002d0: 41da cebd e636 903e a3ee 05bc 5353 be3c
000002e0: e6fa d33e 412b 063d 7084 6ebe 190a c9be
000002f0: ad26 c1be 27ca e1be c3a7 0ebf d484 913e

fc.weight f4 [3, 64]
0.46539065 0.5472821 -0.30733377 0.627995 0.4603731 -0.49370122 -0.42977577 0.6370776
-0.83307105 0.6003933 -0.6451572 0.421457 -0.36855042 -0.7887861 -0.40561903 -0.29604578
0.43172675 0.23496927 0.003913642 -0.81437016 0.39318046 -0.39106068 -0.44473067 0.37325868
0.11958556 0.47466955 0.5655653 0.3961017 -0.57029986 -0.23076436 -0.6819289 -0.547007
0.5246692 0.6850344 0.66307914 -0.7102977 0.29311997 -0.28317872 -0.6596563 0.49777034
-0.3405049 -0.27792978 -0.1864604 -0.45364442 0.05964315 -0.3588761 0.25003716 0.25793573
-0.5384174 0.73295164 -0.45612907 0.30298874 0.39420977 0.59602654 -0.5613909 -0.5226874
0.37680143 -0.15530716 -0.37865716 -0.88960093 -0.5072869 -0.40956733 -0.22647189 0.41917795
-0.18709397 -0.4052384 0.71294606 0.15471214 -0.31073195 -0.23446141 0.26808465 -0.57974285
0.26057765 -0.008369428 -0.050843485 -0.22990113 0.72756124 0.3169366 0.42068112 -0.21323001
-0.22506915 0.27325362 -0.3085909 0.51291674 -0.3578834 0.3754372 0.4713327 -0.027765196
0.32696167 -0.16792077 0.0046751085 0.32404488 0.48777077 -0.15158169 0.09672811 0.110673144
0.11020942 -0.30736557 -0.638634 0.5068424 0.3097376 -0.26475504 0.012359454 0.093637906
-0.14018923 0.17627026 0.37738156 0.29760692 -0.41401726 0.55510944 -0.37390432 -0.11951885
0.036906306 0.05941612 -0.04670079 -0.3201406 -0.7310718 -0.3447188 0.073624544 0.43332762
0.15217212 0.43413717 0.11776554 0.46130666 0.08432808 -0.189462 -0.28849542 0.12434946
-0.07267121 -0.02576553 -0.50208557 -0.7301583 -0.4770646 0.8495386 0.45316225 0.043967288
0.51222134 -0.7156194 0.72217536 -0.17286746 -0.45249486 0.3229281 0.030838626 0.6345193
-0.29375198 -0.55677146 0.4208306 0.3469619 -0.36098832 0.049525652 -0.05259182 -0.42812467
-0.6513845 -0.19844444 -0.75921875 -0.57442695 0.06643115 0.75473946 0.4612939 0.45329115
-0.456905 -0.3592172 0.14816715 0.3236883 -0.6542009 0.8641143 0.7310457 -0.8115258
0.4947167 0.16764052 -0.2611362 0.23314892 0.3701342 -0.3806264 -0.055150203 -0.082696974
0.7432085 -0.64703697 0.42855573 0.021426162 0.35716838 -0.46309206 0.5927294 0.13782223
-0.76738685 -0.4835242 0.33424088 0.6566083 0.5403318 0.7027434 0.6965935 -0.84999526
00000000: af47 ee3e ae1a 0c3f da5a 9dbe 48c4 203f
00000010: 06b6 eb3e 68c6 fcbe 920b dcbe 8517 233f
00000020: 2544 55bf 60b3 193f 0629 25bf 36c9 d73e
00000030: a4b2 bcbe e3ed 49bf 4cad cfbe 5093 97be
00000040: 4a0b dd3e c99b 703e 023e 803b 907a 50bf
00000050: f34e c93e 1b39 c8be bdb3 e3be c31b bf3e
00000060: 46e9 f43d e307 f33e e3c8 103f d8cd ca3e
00000070: 2cff 11bf 7e4d 6cbe e492 2ebf a708 0cbf
00000080: b850 063f 6a5e 2f3f 8ebf 293f 12d6 35bf
00000090: d213 963e cdfc 90be 3cdf 28bf c1db fe3e
000000a0: a956 aebe d04c 8ebe 7aef 3ebe 1544 e8be
000000b0: 604c 743d 9cbe b7be df04 803e 2710 843e
000000c0: b9d5 09bf b8a2 3b3f c089 e9be 5721 9b3e
000000d0: ddd5 c93e 3295 183f 50b7 0fbf d7ce 05bf
000000e0: 1eec c03e d708 1fbe 5adf c1be e3bc 63bf
000000f0: 8edd 01bf cfb2 d1be 3fe8 67be 7e9e d63e
00000100: 9095 3fbe 687b cfbe a283 363f dc6c 1e3e
00000110: 4218 9fbe a716 70be 6442 893e 076a 14bf
00000120: 6f6a 853e ed1f 09bc 4241 50bd 346b 6bbe
00000130: 7441 3a3f 8445 a23e 8463 d73e f858 5abe
00000140: 8778 66be e6e7 8b3e a0ff 9dbe 834e 033f
00000150: 7e3c b7be 4e39 c03e 8552 f13e d673 e3bc
00000160: 8567 a73e 6cf3 2bbe a731 993b 36e9 a53e
00000170: 17bd f93e 3b38 1bbe 6319 c63d 9aa8 e23d
00000180: 7ab5 e13d 055f 9dbe 857d 23bf 6cc0 013f
00000190: ed95 9e3e f98d 87be 4f7f 4a3c 3bc5 bf3d
000001a0: c48d 0fbe 3180 343e 2838 c13e ef5f 983e
000001b0: 12fa d3be a71b 0e3f 6370 bfbe 4dc6 f4bd
000001c0: 112b 173d 515e 733d 5449 3fbd 78e9 a3be
000001d0: 8627 3bbf fc7e b0be 77c8 963d 1edd dd3e
000001e0: 02d3 1b3e 3a47 de3e 0f2f f13d 6330 ec3e
000001f0: 33b4 ac3d 5402 42be acb5 93be eeaa fe3d
00000200: a5d4 94bd 3c12 d3bc ae88 00bf a8eb 3abf
00000210: d041 f4be 5d7b 593f e204 e83e 0b17 343d
00000220: f020 033f d532 37bf 7ce0 383f 2b04 31be
00000230: 68ad e7be d556 a53e 49a1 fc3c db6f 223f
00000240: a966 96be 9388 0ebf 1c77 d73e fda4 b13e
00000250: 76d3 b8be 69db 4a3d 856a 57bd 2833 dbbe
00000260: 22c1 26bf 0535 4bbe 295c 42bf a50d 13bf
00000270: 0e0d 883d 9b36 413f b72e ec3e c715 e83e
00000280: 74ef e9be 51eb b7be 21b9 173e 79ba a53e
00000290: b679 27bf 9836 5d3f d025 3b3f 28c0 4fbf
000002a0: 824b fd3e f5a9 2b3e a5b3 85be 97be 6e3e
000002b0: 3b82 bd3e 77e1 c2be 2ee5 61bd 085d a9bd
000002c0: ea42 3e3f 37a4 25bf a86b db3e eb85 af3c
000002d0: c6de b63e 671a edbe 1dbd 173f 4521 0d3e
000002e0: 7773 44bf 7c90 f7be 9f21 ab3e 7b17 283f
000002f0: 2f53 0a3f fee6 333f f453 323f 4a99 59bf

fc.bias f4 [3]
0.08026401 0.047933456 -0.25980175
00000000: 7561 a43d df55 443d bc04 85be
