Demo/results/models/乳酸分类标签_linear_gru.pth (torch, 62216 bytes, 6 tensors)

gru.weight_ih_l0 f4 [192, 11]
0.19305612 -0.08912545 -0.06018194 0.029463202 0.018354986 0.08509565 0.0799378 -0.05605961
0.09498618 -0.001752057 0.10379498 -0.03597149 0.22480062 0.051762003 -0.12648776 -0.20757774
-0.300318 0.27370676 -0.06988328 -0.108944304 0.33583143 0.0871632 -0.07018495 0.22904257
0.6021363 -0.21020998 0.11392582 0.13046187 -0.10415511 0.14464441 -0.050484058 0.23294567
-0.60820216 -0.14610286 0.049849488 0.13345538 0.18185663 -0.043668274 -0.8064394 -0.051088843
-0.13267738 0.07711688 -0.03916142 -0.14524724 0.2625683 0.1375696 -0.19978525 0.3680809
0.014819353 0.36189842 -0.51810765 -0.08720489 0.28838795 -0.19860752 0.012688502 -0.41240206
-0.3340148 0.05499074 -0.37732464 -0.33952522 0.09336109 0.14841142 -0.020604549 -0.38705444
0.11010666 0.27577212 0.039756175 -0.13975698 0.23343538 -0.059644356 -0.41754895 -0.27672127
-0.024955235 -0.072821476 0.17671166 -0.13483852 0.07983078 0.059180062 0.35760677 -0.10044098
0.097717084 0.073729105 -0.8353536 0.3385076 -0.3011368 -0.026930379 0.004050255 -0.023556985
-0.083192535 0.24748932 0.57619596 0.06392135 -0.6746455 0.19063331 0.18956488 -0.21970575
-0.08652075 -0.34095362 0.7214016 -0.5003539 -0.15026534 0.055676926 0.12497038 -0.31471372
0.092479005 -0.0663518 0.1317988 -0.32575512 0.06223771 0.4119898 -0.05979429 -0.09032126
0.16206849 -0.30070406 0.24664964 0.30625376 0.24533348 0.2197001 0.014831682 -0.009074351
-0.09345394 -0.508038 0.058766715 0.2405558 -0.07532328 -0.23615184 0.20286843 -0.20752466
0.016703714 0.045490548 0.19124874 0.11124098 0.05148368 -0.04166304 0.15697847 0.008042081
-0.12919953 -0.29496408 0.046011318 0.05749589 -0.04791525 -0.6358504 0.13380058 0.040856678
-0.34809342 0.44721055 -0.0095916055 0.36591905 -0.3148674 -0.305067 -0.030300703 0.3286403
0.19016746 -0.3626459 -0.32391658 -0.12136932 0.047152616 0.18589999 -0.30865043 -0.19210477
-0.106414296 0.0030658087 -0.31154907 0.2580294 0.2920135 0.068273105 0.041608263 0.061068434
-0.18314436 -0.015156435 -0.25849378 0.07585722 -0.10073789 -0.0026113405 0.29004285 0.24280076
0.045129787 -0.15702026 0.27812707 -0.07983391 0.2824937 -0.13956314 -0.09352509 -0.054991506
0.10093049 0.15356074 -0.0993904 0.09718529 0.40093067 0.16424733 0.04724288 0.18873659
-1.109966 0.54330486 -0.6539057 0.22289288 -0.16425934 0.096446775 -0.20745496 -0.15514812
0.20130235 -0.078272454 -0.20095278 0.29416355 -0.07669879 0.1374282 -0.036354084 0.043082546
0.12884764 0.19806838 0.08956969 0.06127858 -0.29353708 0.48279124 0.020102354 0.1149022
0.34179726 0.1727609 -0.20056365 -0.30083343 -0.31453055 0.09774615 0.29780406 -0.014836999
-0.039721593 0.2641794 -0.44797912 0.119032964 0.073281266 0.27221897 -0.29391235 -0.22464374
0.2104947 0.16034943 0.20176256 -0.2807906 0.030632153 -0.10420246 -0.15720232 -0.23210175
-0.36616147 0.4499736 -0.4456475 -0.11071793 -0.068634294 0.10850383 -0.42046714 0.12644987
-0.10436721 -0.21818937 -0.18115619 -0.17298464 0.3150126 -0.0590532 0.48342043 -0.037397582
00000000: 81b0 453e 6787 b6bd 5781 76bd d05c f13c
00000010: 325d 963c a146 ae3d 6eb6 a33d c39e 65bd
00000020: 1d88 c23d 47a5 e5ba 7692 d43d d756 13bd
00000030: 2232 663e 6504 543d 0286 01be 428f 54be
00000040: 48c3 99be 4b23 8c3e f71e 8fbd 311e dfbd
00000050: 19f2 ab3e 9f82 b23d 21bd 8fbd 238a 6a3e
00000060: 9b25 1a3f 4941 57be f151 e93d cc97 053e
00000070: 464f d5bd aa1d 143e 5fc8 4ebd 4f89 6e3e
00000080: 23b3 1bbf fd9b 15be fa2e 4c3d 87a8 083e
00000090: a038 3a3e 81dd 32bd d072 4ebf 8942 51bd
000000a0: 94dc 07be 74ef 9d3d ba67 20bd b1bb 14be
000000b0: 5a6f 863e 0cdf 0c3e 8194 4cbe 1a75 bc3e
000000c0: dfcc 723c c04a b93e b4a2 04bf 7a98 b2bd
000000d0: 96a7 933e c55f 4bbe 6fe3 4f3c 5d26 d3be
000000e0: fd03 abbe f83d 613d b230 c1be 40d6 adbe
000000f0: 1934 bf3d 2af9 173e dfca a8bc 002c c6be
00000100: 9a7f e13d 0132 8d3e 5fd7 223d 741c 0fbe
00000110: af09 6f3e a44d 74bd fac8 d5be 69ae 8dbe
00000120: ec6e ccbc 6d23 95bd e7f3 343e 1c13 0abe
00000130: 527e a33d cb66 723d 3c18 b73e 00b4 cdbd
00000140: e51f c83d 49ff 963d bcd9 55bf de50 ad3e
00000150: 9a2e 9abe 199d dcbc 00b8 843b 94fa c0bc
00000160: d960 aabd d76d 7d3e 9481 133f 32e9 823d
00000170: 91b5 2cbf 6135 433e 4c1d 423e 8bfa 60be
00000180: ca31 b1bd 7991 aebe c6ad 383f 3117 00bf
00000190: 28df 19be 7d0d 643d 78f0 ff3d 2822 a1be
000001a0: a265 bd3d 74e3 87bd 44f6 063e 60c9 a6be
000001b0: f8ec 7e3d 54f0 d23e dcea 74bd 5afa b8bd
000001c0: 48f5 253e e2f5 99be b991 7c3e 4bcd 9c3e
000001d0: b338 7b3e 10f9 603e 9500 733c 96ac 14bc
000001e0: c764 bfbd c70e 02bf 5eb5 703d 4254 763e
000001f0: 1843 9abd cad1 71be bebc 4f3e 5881 54be
00000200: 3ad6 883c 4c54 3a3d b6d6 433e 50d2 e33d
00000210: 8de0 523d dda6 2abd f7be 203e efc2 033c
00000220: e24c 04be 8805 97be 5d76 3c3d cf80 6b3d
00000230: c842 44bd 18c7 22bf 0503 093e 5559 273d
00000240: 4d39 b2be c8f8 e43e 1c26 1dbc be59 bb3e
00000250: 4d36 a1be be31 9cbe 2e39 f8bc 8b43 a83e
00000260: 42bb 423e b9ac b9be 65d8 a5be 7a90 f8bd
00000270: 1a23 413d 915c 3e3e 6e07 9ebe 1db7 44be
00000280: bdef d9bd bceb 483b 5c83 9fbe 6e1c 843e
00000290: cb82 953e c5d2 8b3d 6d6d 2a3d e522 7a3d
000002a0: 328a 3bbe b252 78bc 4c59 84be 085b 9b3d
000002b0: ab4f cebd 0623 2bbb 7f80 943e c3a0 783e
000002c0: 03da 383d ebc9 20be ac66 8e3e f67f a3bd
000002d0: 04a3 903e a4e9 0ebe 158a bfbd c63e 61bd
000002e0: a5b4 ce3d 073f 1d3e 328d cbbd 1509 c73d
000002f0: c946 cd3e 7430 283e c081 413d 2a44 413e
00000300: 5e13 8ebf 0716 0b3f 5d66 27bf 083e 643e
00000310: 9a33 28be e385 c53d 136f 54be 26df 1ebe
00000320: 3422 4e3e 4f4d a0bd 91c6 4dbe 9b9c 963e
00000330: 4114 9dbd fab9 0c3e 05e8 14bd 5377 303d
00000340: a3f0 033e 70d2 4a3e 5070 b73d 40ff 7a3d
00000350: 7e4a 96be 6a30 f73e b1ad a43c d851 eb3d
00000360: 0d00 af3e 3ce8 303e 8f60 4dbe d706 9abe
00000370: 260a a1be 222f c83d c679 983e e216 73bc
00000380: 1cb3 22bd 8642 873e 855d e5be 8ec7 f33d
00000390: 7d14 963d 4960 8b3e ae7b 96be 0209 66be
000003a0: ec8b 573e a432 243e d89a 4e3e c9c3 8fbe
000003b0: 48f0 fa3c 1968 d5bd a5f9 20be 15ac 6dbe
000003c0: 8479 bbbe f162 e63e e92b e4be 15c0 e2bd
000003d0: 2390 8cbd 4237 de3d 7847 d7be 137c 013e
000003e0: 7abe d5bd 096d 5fbe 0281 39be e322 31be
000003f0: 5549 a13e c5e1 71bd e282 f73e 352e 19bd

gru.weight_hh_l0 f4 [192, 64]
0.10000183 -0.029131988 -0.08059293 -0.036777567 -0.009714158 0.050479878 0.028636916 0.032083627
-0.044374865 -0.067337625 0.059366725 -0.045524035 0.008085165 -0.019346202 0.07932405 -0.045783363
-0.11644107 0.0886235 -0.001519678 -0.06987202 0.07420086 0.0073246798 0.087014124 0.06262964
0.120792106 -0.10904009 0.036956415 -0.08165766 -0.094120435 -0.042259596 -0.11976355 0.10689548
0.036149215 -0.04471528 0.06400976 -0.104339436 -0.059203483 -0.052867964 -0.100659825 0.098190226
-0.07237647 0.041939612 -0.048456874 -0.06774378 0.10474755 -0.073667906 -0.041135076 -0.049688447
0.027733432 0.07678187 0.10094761 -0.095614314 -0.12041496 -0.08704468 -0.026262803 -0.043039657
0.036638204 -0.09475613 -0.10210652 0.06278221 -0.06831676 -0.010978692 0.068937495 -0.09736942
0.10074398 -0.018581195 0.08586614 0.048765637 -0.11823456 -0.055868447 0.09958657 0.114341564
0.115042396 0.018777281 -0.021703256 -0.11862984 0.11524607 0.0016289443 0.020098748 0.04382023
0.07548987 0.027263505 -0.08169172 0.05899019 0.009021261 -0.05839935 -0.024194377 -0.029100247
0.11019014 0.06926422 0.078991346 -0.07894518 -0.11122355 0.040959336 -0.076412804 -0.076633774
-0.11033999 0.051316027 -0.025032433 0.11016881 -0.12048951 0.05893961 0.083458975 0.0461957
0.0055736867 -0.09302815 0.04382148 -0.114915155 0.107491374 0.005508522 0.05599094 0.0068255668
-0.101177625 -0.097123936 0.031240106 -0.05591194 -0.02012419 0.08712602 -0.061636858 -0.08539268
0.028098399 0.06202442 -0.10242003 0.09525137 -0.06800667 0.07668756 0.004843831 0.044573538
-0.0070277983 0.11462816 -0.0047714347 -0.010710672 0.06037716 0.1070531 0.07300969 0.023250576
0.05784649 0.016091779 0.077444844 0.0019567013 -0.08060904 0.044310097 -0.11022009 0.0399297
0.10045165 0.0958867 0.10635524 -0.0214519 0.06431784 -0.07938748 -0.014935308 0.025220392
-0.049197998 -0.03390292 -0.04190734 -0.058225602 -0.028288256 -0.042422906 0.034881454 0.10187976
-0.0527156 0.017734762 0.07065187 -0.028251078 0.0066958936 0.10931217 0.02145534 -0.0794351
-0.027847368 0.0018300464 -0.09512563 0.01161814 0.036350306 -0.05610547 -0.0021195996 -0.018721448
-0.06085407 -0.11100929 0.087243766 -0.101560675 -0.052331626 -0.069088526 0.010517462 0.046422865
0.066737466 -0.11851351 -0.0924873 0.002750766 0.058783557 0.0901802 0.043593664 0.028316835
-0.1155971 -0.057023834 8.433222e-05 -0.05188528 -0.1026093 0.0002711274 0.10543622 0.11714167
0.11402866 0.09512062 0.08924589 -0.1119374 0.04160737 -0.027667398 -0.08691511 -0.11179609
-0.043815024 0.11916431 0.013257982 0.08029964 -0.04051268 0.12048597 -0.008351087 0.08317668
-0.038600534 0.028304817 0.11802077 0.04402445 -0.035548754 0.062251102 0.0045303092 -0.040068135
0.079854354 0.06384955 0.030099364 -0.044544633 -0.07743958 -0.039711226 0.050744653 -0.09313602
0.12023643 -0.089197256 0.07310638 0.052925035 0.10361019 -0.07690911 0.07501491 -0.106060855
0.055989638 0.06556459 -0.09269431 -0.010849776 0.071594454 -0.07193089 0.08027387 0.07834703
-0.11282004 0.09402742 -0.05065823 -0.04357627 -0.072587 0.0702196 -0.062326454 0.07774362
00000000: c2cd cc3d 35a6 eebc e80d a5bd 13a4 16bd
00000010: 2228 1fbc fdc3 4e3d f797 ea3c 1f6a 033d
00000020: 6bc2 35bd 4fe8 89bd 862a 733d 6977 3abd
00000030: a477 043c ed7b 9ebc a674 a23d 5687 3bbd
00000040: a878 eebd 3d80 b53d ef2f c7ba 1019 8fbd
00000050: 9ff6 973d de03 f03b 7634 b23d f843 803d
00000060: da61 f73d 6950 dfbd 9c5f 173d 223c a7bd
00000070: 37c2 c0bd 6618 2dbd 9846 f5bd 04ec da3d
00000080: 3311 143d 5f27 37bd 8d17 833d eaaf d5bd
00000090: 5a7f 72bd 148c 58bd bd26 cebd f517 c93d
000000a0: 1d3a 94bd dfc8 2b3d b77a 46bd 40bd 8abd
000000b0: e285 d63d 33df 96bd 417d 28bd 1d86 4bbd
000000c0: 3931 e33c d03f 9d3d 9fbd ce3d 70d1 c3bd
000000d0: 1e9c f6bd 7b44 b2bd 1725 d7bc 5a4a 30bd
000000e0: f111 163d 800f c2bd 391d d1bd f693 803d
000000f0: a8e9 8bbd f9df 33bc 1a2f 8d3d 9e69 c7bd
00000100: dc52 ce3d 9737 98bc 96da af3d 7abe 473d
00000110: f624 f2bd 50d6 64bd 0bf4 cb3d e92b ea3d
00000120: 599b eb3d d0d2 993c 07cb b1bc 34f4 f2bd
00000130: 2206 ec3d 4d82 d53a 21a6 a43c d77c 333d
00000140: 6f9a 9a3d b757 df3c fd4d a7bd b39f 713d
00000150: e9cd 133c 2834 6fbd 4933 c6bc a463 eebc
00000160: 5eab e13d 66da 8d3d 37c6 a13d 03ae a1bd
00000170: 2cc9 e3bd fac4 273d 517e 9cbd 2bf2 9cbd
00000180: eff9 e1bd c130 523d d110 cdbc 2fa0 e13d
00000190: 34c3 f6bd a96a 713d 8aec aa3d b437 3d3d
000001a0: 79a3 b63b 8b85 bebd 277e 333d a358 ebbd
000001b0: 7024 dc3d d580 b43b c256 653d 01a9 df3b
000001c0: 3736 cfbd eae8 c6bd 40eb ff3c eb03 65bd
000001d0: 7cdb a4bc 206f b23d ee76 7cbd 5be2 aebd
000001e0: 9d2e e63c 510d 7e3d 98c1 d1bd 2613 c33d
000001f0: 1547 8bbd 5e0e 9d3d 00b9 9e3b be92 363d
00000200: 7249 e6bb 2bc2 ea3d b259 9cbb d07b 2fbc
00000210: 0a4e 773d a83e db3d 1b86 953d fe77 be3c
00000220: 71f0 6c3d e8d2 833c 679b 9e3d 003c 003b
00000230: 5a16 a5bd 817e 353d 12bb e1bd 538d 233d
00000240: 98b9 cd3d 3f60 c43d c7d0 d93d e5bb afbc
00000250: 12b9 833d e795 a2bd 39b3 74bc ff9a ce3c
00000260: d783 49bd cadd 0abd 08a7 2bbd f87d 6ebd
00000270: c6bc e7bc a4c3 2dbd dbdf 0e3d 56a6 d03d
00000280: 50ec 57bd 7e48 913c edb1 903d ce6e e7bc
00000290: 3a69 db3b 0fdf df3d 1cc3 af3c dfae a2bd
000002a0: 2a20 e4bc 2bde ef3a 3ad1 c2bd 035a 3e3c
000002b0: 0fe4 143d d9ce 65bd fbe8 0abb b95d 99bc
000002c0: 1e42 79bd d758 e3bd dcac b23d 0bff cfbd
000002d0: b059 56bd 497e 8dbd 6f51 2c3c e725 3e3d
000002e0: a7ad 883d 36b7 f2bd fb69 bdbd 3246 343b
000002f0: 07c7 703d 66b0 b83d 458f 323d b5f8 e73c
00000300: 2cbe ecbd d391 69bd 84db b038 a985 54bd
00000310: d324 d2bd 1b26 8e39 f2ee d73d f9e7 ef3d
00000320: dc87 e93d 9ace c23d 8dc6 b63d 703f e5bd
00000330: 7d6c 2a3d bda6 e2bc 8d00 b2bd 59f5 e4bd
00000340: 6277 33bd 6b0c f43d 0238 593c 2374 a43d
00000350: a0f0 25bd 59c1 f63d ffd2 08bc 8958 aa3d
00000360: 981b 1ebd 81df e73c e0b4 f13d fb52 343d
00000370: 929b 11bd 03fb 7e3d fd72 943b 7c1e 24bd
00000380: ae8a a33d 8ec3 823d f192 f63c 6f74 36bd
00000390: a498 9ebd 3da8 22bd a0d9 4f3d 19be bebd
000003a0: 843e f63d 0dad b6bd ccb8 953d ecc7 583d
000003b0: 9431 d43d 8682 9dbd 6ba1 993d 6f36 d9bd
000003c0: 6455 653d ba46 863d 84d6 bdbd 42c3 31bc
000003d0: 1da0 923d 8150 93bd a066 a43d 6874 a03d
000003e0: 310e e7bd 7391 c03d 017f 4fbd 087d 32bd
000003f0: 7ea8 94bd 4bcf 8f3d 064a 7fbd 0c38 9f3d

gru.bias_ih_l0 f4 [192]
-0.05078663 0.30875155 0.30600378 0.029023364 -0.08280109 0.13099732 0.46592447 0.26413012
-0.029423581 0.19907457 -0.03991525 0.2779856 0.14848298 -0.036188796 0.062004846 0.11180171
-0.027008196 0.48531333 0.21074364 0.32007784 0.0665241 0.35640708 -0.12065793 0.3480064
0.14928001 0.37923798 -0.03448543 0.14156461 0.49795273 0.3839471 -0.08175246 -0.12137266
-0.24222326 0.4280451 -0.019821566 -0.09013938 0.25028455 0.28112692 -0.029871726 0.22659668
0.0037706571 0.12510538 -0.16236623 -0.08158981 0.19583951 0.6026843 0.13023822 -0.060841043
0.35137284 0.41692987 0.39330027 0.10617752 0.09165797 0.49618977 0.3078596 0.23519307
0.41540053 0.15173726 0.23107685 -0.13000186 0.08277609 0.24644758 0.22772582 -0.13392237
-0.3362814 -0.05816366 -0.23488846 -0.029311601 0.07624889 -0.40631822 -0.3959679 -0.24686173
-0.28840294 -0.412247 -0.28156132 -0.3909772 0.072783805 -0.07332776 -0.31646776 -0.4293209
0.05441332 -0.58812046 -0.42589462 -0.10231433 -0.32366672 -0.12674414 -0.1729413 -0.40875295
-0.26769745 -0.3894044 0.12093607 0.113853216 -0.4541805 -0.3344982 -0.48395663 0.059549246
-0.441813 -0.3841059 -0.357229 0.054812845 -0.078948736 -0.5502158 -0.37030128 -0.502477
-0.11982891 -0.18075581 -0.42992747 -0.42951936 -0.08410741 -0.39338356 -0.36911806 -0.04359353
-0.2800213 -0.15292077 -0.092158765 -0.12356945 -0.29755348 -0.41749015 -0.40692332 -0.009219487
-0.1240699 -0.22294737 -0.49381757 -0.43645406 -0.376098 -0.16484344 -0.21940964 -0.16841654
0.09161417 0.1773487 -0.18918143 0.22360884 0.22633669 -0.03452514 -0.4065408 0.36165985
-0.065116554 0.24280398 0.083386965 0.15428077 -0.3640353 0.06559625 0.07495808 -0.3581134
-0.051165696 -0.4206054 0.15127651 -0.19172628 0.24981196 -0.14750074 -0.018150028 -0.1653501
0.03968317 -0.308267 -0.13053529 0.13508558 0.4343234 -0.33434367 -0.0010742631 0.09712314
-0.047308803 0.4190608 0.101557426 -0.062813684 -0.26569912 0.29870397 0.012883382 -0.36410412
0.12616442 0.17157976 -0.07207345 0.18549412 -0.18681727 -0.38455057 -0.05552712 -0.049735826
0.36199594 0.29842877 0.20439252 -0.1041137 0.28355518 0.2995375 -0.26562798 -0.23427096
-0.21055877 0.032147724 0.20455992 -0.08773902 -0.30841267 0.18308404 0.20771962 0.12012373
00000000: a405 50bd af14 9e3e 87ac 9c3e 68c2 ed3c
00000010: 9e93 a9bd 2924 063e a78d ee3e 103c 873e
00000020: b909 f1bc 34da 4b3e 2c7e 23bd 2154 8e3e
00000030: ec0b 183e b43a 14bd cbf8 7d3d 4cf8 e43d
00000040: 4b40 ddbc fd7a f83e 2ecd 573e 3ee1 a33e
00000050: ca3d 883d fd7a b63e 811b f7bd e52d b23e
00000060: dcdc 183e 7b2b c23e 9840 0dbd 50f6 103e
00000070: a9f3 fe3e b794 c43e d56d a7bd 3b92 f8bd
00000080: 6009 78be ba28 db3e d660 a2bc ff9a b8bd
00000090: 4c25 803e deef 8f3e 8db5 f4bc f608 683e
000000a0: 211d 773b a01b 003e 5543 26be 8f18 a7bd
000000b0: 278a 483e 8549 1a3f 2b5d 053e 7534 79bd
000000c0: 24e7 b33e d577 d53e a75e c93e 9973 d93d
000000d0: 2cb7 bb3d 960c fe3e c69f 9d3e 74d6 703e
000000e0: 61af d43e 0361 1b3e 699f 6c3e 351f 05be
000000f0: 8386 a93d c15c 7c3e f530 693e f222 09be
00000100: 132d acbe 053d 6ebd 9a86 70be e21e f0bc
00000110: 6128 9c3d f108 d0be 4ebc cabe 52c9 7cbe
00000120: 8da9 93be 0a12 d3be ce28 90be 2a2e c8be
00000130: ad0f 953d dd2c 96bd 1008 a2be f3cf dbbe
00000140: 80e0 5e3d 108f 16bf dc0e dabe 2d8a d1bd
00000150: a5b7 a5be 37c9 01be 8617 31be 1148 d1be
00000160: a40f 89be 0360 c7be 55ad f73d e02b e93d
00000170: 598a e8be 5943 abbe 2ac9 f7be e9e9 733d
00000180: 5035 e2be 87a9 c4be b8e6 b6be 6f83 603d
00000190: e0af a1bd f1da 0cbf 2198 bdbe 55a2 00bf
000001a0: dc68 f5bd 0d18 39be 741f dcbe f6e9 dbbe
000001b0: 8140 acbd 9269 c9be 0bfd bcbe 218f 32bd
000001c0: f45e 8fbe 4397 1cbe bcbd bcbd fb11 fdbd
000001d0: ee58 98be 45c1 d5be 4158 d0be 550d 17bc
000001e0: 5c18 febd 514c 64be a8d5 fcbe e876 dfbe
000001f0: eb8f c0be b8cc 28be ecac 60be 6375 2cbe
00000200: 36a0 bb3d e69a 353e c7b8 41be b7f9 643e
00000210: cec4 673e 3c6a 0dbd 1e26 d0be 7b2b b93e
00000220: d45b 85bd 9ba1 783e c9c6 aa3d c7fb 1d3e
00000230: d662 babe 5457 863d 9f83 993d a45a b7be
00000240: 1f93 51bd 9759 d7be 3be8 1a3e e553 44be
00000250: b5ce 7f3e 6f0a 17be 5eaf 94bc 8951 29be
00000260: d28a 223d 2cd5 9dbe 0bab 05be e053 0a3e
00000270: a35f de3e 182f abbe 4ace 8cba 7fe8 c63d
00000280: e0c6 41bd 238f d63e 57fd cf3d 76a4 80bd
00000290: b709 88be baef 983e d214 533c db6b babe
000002a0: 3f31 013e 9bb2 2f3e 3f9b 93bd 2cf2 3d3e
000002b0: 074d 3fbe d0e3 c4be 6870 63bd cbb7 4bbd
000002c0: 8857 b93e a8cb 983e 464c 513e 9039 d5bd
000002d0: 252e 913e fb5c 993e 6400 88be bae4 6fbe
000002e0: b89c 57be 55ad 033d 2878 513e 84b0 b3bd
000002f0: 44e8 9dbe 627a 3b3e 74b4 543e 6e03 f63d

gru.bias_hh_l0 f4 [192]
-0.1567219 0.2530632 0.39361247 0.18586196 -0.2589306 0.12709358 0.43326852 0.29059026
0.12081032 0.052526876 -0.0633044 0.08492265 0.21045665 -0.096431665 -0.072460264 -0.049144406
-0.095810845 0.47856742 0.10289618 0.27181527 0.059617598 0.17697568 0.0019048712 0.27821076
0.04379561 0.3825708 -0.05230374 0.14484668 0.31130973 0.24426796 -0.1871537 0.075605
-0.12209618 0.38498327 -0.0031464235 -0.048109643 0.2885451 0.4052215 -0.06283799 0.3395708
-0.053459242 0.2843948 -0.085944384 -0.073992126 0.17167905 0.4939571 0.16473714 0.14639664
0.42185864 0.3151517 0.26117975 -0.0063833334 0.10054916 0.3165434 0.35751188 0.099243626
0.4749896 0.015346384 0.12407556 -0.061778836 0.15797177 0.077112295 0.19441615 -0.20860049
-0.27804556 -0.013140424 -0.2630512 -0.028175378 -0.011419383 -0.3608951 -0.34643775 -0.047120593
-0.33136153 -0.37165383 -0.15723273 -0.37564617 0.06453115 -0.02941863 -0.45972946 -0.5198565
0.058556654 -0.56181085 -0.40441325 -0.19869423 -0.30150092 -0.24422738 -0.3149838 -0.35846803
-0.33961046 -0.47495165 0.33340186 -0.07450945 -0.46490556 -0.3592912 -0.39799812 0.03177588
-0.48164892 -0.3757336 -0.3020562 -0.054927442 -0.24404739 -0.3312526 -0.1933773 -0.2887173
-0.1118316 -0.25784087 -0.27965218 -0.43731946 -0.10998516 -0.29009953 -0.39268687 -0.009725294
-0.35531002 -0.23547167 -0.19457877 0.032871492 -0.27160576 -0.39089033 -0.41026455 -0.23267102
-0.09603372 -0.18406114 -0.45134708 -0.5004151 -0.33393067 -0.19536403 -0.30680618 -0.15109546
0.018762808 0.3369262 -0.53121877 0.2213152 -0.18321034 -0.2672345 -0.6456556 0.545178
-0.4755633 0.39459738 0.081405506 0.39555076 -0.21481812 0.24395177 -0.16463684 -0.14608014
-0.11145791 -0.78354657 0.22320117 -0.3250712 0.26204747 -0.32495356 0.224824 -0.6121952
0.37187558 -0.62837005 0.047254175 0.26834533 0.6018392 -0.60015714 -0.08891829 -0.16319083
0.12401706 0.4774997 -0.12233328 -0.074778065 -0.4257508 0.43262804 -0.14741857 -0.53199726
0.34611735 0.4879772 0.13856752 -0.111581616 -0.2916772 -0.68645185 -0.23923284 0.21339597
0.53881395 0.6012588 0.37258837 -0.28063384 0.19417828 0.58521074 -0.6552424 -0.3546706
-0.34042132 0.14167038 0.30223197 0.092173524 -0.27830628 0.18638328 0.4492944 -0.21183817
00000000: b57b 20be 8091 813e 9387 c93e 9952 3e3e
00000010: 8d92 84be d224 023e 5fd5 dd3e 3fc8 943e
00000020: 676b f73d 6c26 573d bda5 81bd edeb ad3d
00000030: f381 573e f77d c5bd 0c66 94bd a54b 49bd
00000040: 7a38 c4bd ca06 f53e 3bbb d23d 5f2b 8b3e
00000050: 9531 743d 1d39 353e dfac f93a a471 8e3e
00000060: 0763 333d 52e0 c33e 723c 56bd b052 143e
00000070: fd63 9f3e 6121 7a3e 38a5 3fbe cbd6 9a3d
00000080: 900d fabd 871c c53e 3a34 4ebb 9e0e 45bd
00000090: 2fbc 933e 3179 cf3e 34b1 80bd 39dc ad3e
000000a0: 14f8 5abd 329c 913e 9c03 b0bd 2f89 97bd
000000b0: a2cc 2f3e f2e7 fc3e dab0 283e 00e9 153e
000000c0: dbfd d73e 905b a13e 5ab9 853e 482b d1bb
000000d0: b8ec cd3d fa11 a23e cc0b b73e 3e40 cb3d
000000e0: d631 f33e 666f 7b3c 541b fe3d ce0b 7dbd
000000f0: 5ac3 213e 0ded 9d3d 0715 473e 5e9b 55be
00000100: fd5b 8ebe ef4a 57bc a6ae 86be 0dd0 e6bc
00000110: 5d18 3bbc 3ec7 b8be 4a60 b1be 8601 41bd
00000120: 38a8 a9be 6949 bebe 9e01 21be b254 c0be
00000130: e828 843d 57ff f0bc a961 ebbe 5115 05bf
00000140: 1ad9 6f3d d6d2 0fbf 410f cfbe 8076 4bbe
00000150: 545e 9abe be16 7abe 8e45 a1be 1f89 b7be
00000160: 6ce1 adbe dd2c f3be a6b3 aa3e 6998 98bd
00000170: 1a08 eebe 04f5 b7be 69c6 cbbe 6d27 023d
00000180: b09a f6be 2860 c0be 1ca7 9abe 99fb 60bd
00000190: 8fe7 79be f199 a9be b304 46be c1d2 93be
000001a0: f707 e5bd b803 84be 922e 8fbe 56e8 dfbe
000001b0: e63f e1bd ed87 94be 410e c9be d756 1fbc
000001c0: 32eb b5be 7c1f 71be a83f 47be 42a4 063d
000001d0: e90f 8bbe c722 c8be 320e d2be 5041 6ebe
000001e0: 54ad c4bd 867a 3cbe f716 e7be 341b 00bf
000001f0: f6f8 aabe 820d 48be b315 9dbe c5b8 1abe
00000200: 76b4 993c 9781 ac3e f4fd 07bf 74a0 623e
00000210: 7e9b 3bbe f6d2 88be af49 25bf c990 0b3f
00000220: 087d f3be ab08 ca3e eeb7 a63d a185 ca3e
00000230: 48f9 5bbe 7ece 793e 8f96 28be 0896 15be
00000240: 0b44 e4bd 8296 48bf d98e 643e bb6f a6be
00000250: 162b 863e 5060 a6be 4338 663e d3b8 1cbf
00000260: 7a66 be3e dcdc 20bf 988d 413d 8f64 893e
00000270: 2212 1a3f e6a3 19bf cb1a b6bd 7f1b 27be
00000280: a8fc fd3d d77a f43e df89 fabd 3e25 99bd
00000290: 02fc d9be 6c81 dd3e e5f4 16be f930 08bf
000002a0: 4b36 b13e 26d8 f93e a5e4 0d3e e784 e4bd
000002b0: b756 95be 4fbb 2fbf 74f9 74be 7984 5a3e
000002c0: b6ef 093f 19ec 193f e7c3 be3e 3daf 8fbe
000002d0: acd6 463e 5fd0 153f f7bd 27bf 6397 b5be
000002e0: b44b aebe 0a12 113e 26be 9a3e 79c5 bc3d
000002f0: 297e 8ebe 42db 3e3e ea09 e63e 1bec 58be

fc.weight f4 [3, 64]
0.5559177 0.22101425 -0.26378134 0.034013018 0.6586934 -0.69272345 -0.09773786 0.25034645
-0.50322956 0.53033704 0.60684365 0.33964884 -0.039649487 -0.23858473 -0.73881626 -0.69135815
0.3830003 -0.25455797 0.50893766 0.49079573 0.22801092 -0.60713565 0.48690295 -0.4019638
0.5879563 -0.33199048 0.40373734 -0.17249416 0.19074452 -0.58892804 -0.7945907 0.4177989
0.5875332 0.25020096 -0.5511092 -0.5243603 -0.6458773 0.24944685 -0.5900436 -0.4334079
-0.3774528 0.11845028 0.6202535 0.5062492 -0.49287137 -0.4310869 -0.6170431 0.3994526
0.18389124 0.31724572 0.3561895 0.3995357 0.7532058 0.2737088 -0.24009767 -0.5175818
-0.4616924 0.5340341 0.5170642 0.6098894 -0.32694846 -0.056922395 0.53307015 -0.52992564
-0.25209135 0.19408074 -0.2570976 0.3876562 -0.3050648 0.62027913 -0.3174516 0.37272313
0.35536832 -0.120656475 -0.42875034 -0.056918614 -0.471602 0.46366507 0.29518992 0.35350573
-0.60774803 -0.3892025 -0.24433087 -0.34289372 0.443234 0.5358095 -0.29172152 -0.3811346
-0.07331813 -0.20829399 -0.34460345 0.6094978 0.22455111 0.6517926 0.27626783 -0.5950611
-0.27200785 0.015946068 0.39667612 0.5626917 0.39062247 -0.09431786 0.4714277 -0.15140612
0.41131663 0.36061302 -0.32828236 -0.65910435 0.34038234 -0.3034415 0.28110352 -0.17526534
0.44607952 0.16371185 0.075304404 -0.64327824 0.064213045 0.12911996 -0.24215429 0.4412992
-0.030458342 -0.39577273 -0.5050834 -0.37129015 -0.06521125 0.26095045 0.01997264 0.55944645
-0.21597347 -0.4825489 0.5421177 -0.41275048 -0.22916669 -0.05747373 0.6843726 -0.65244496
0.16913044 -0.47571114 -0.09248542 -0.63166666 0.64283997 -0.49111405 0.22705902 0.3129891
0.30674645 0.94300145 -0.3993338 0.072162956 -0.79929155 0.19706824 -0.10396092 0.7265482
-0.52734506 0.6547152 -0.031755343 -0.33090273 -0.8111006 -0.13256665 0.39237195 0.38488552
-0.41629845 -0.5391452 0.207005 -0.25222212 0.18766904 -0.4908436 0.11941403 0.738357
-0.19131437 -0.38926733 -0.36186695 0.10277522 0.4535462 0.74155146 0.45030344 -0.094132885
-0.8090503 -0.61448395 -0.46873286 0.45709318 -0.72583544 -0.6328925 0.8702399 0.11418493
0.5856129 -0.27648032 -0.11100552 -0.36692622 0.21050277 -0.19632375 -0.6049608 0.07565276
00000000: 9f50 0e3f 8f51 623e 590e 87be 3c51 0b3d
00000010: 21a0 283f 5356 31bf ca2a c8bd 692d 803e
00000020: a7d3 00bf 2bc4 073f 1b5a 1b3f 74e6 ad3e
00000030: 8067 22bd 8e4f 74be 1023 3dbf d9fc 30bf
00000040: 9e18 c43e 6c55 82be bd49 023f 9449 fb3e
00000050: b27b 693e 3e6d 1bbf 584b f93e 33ce cdbe
00000060: 4e84 163f a8fa a9be a9b6 ce3e 4fa2 30be
00000070: 8852 433e fdc3 16bf 4c6a 4bbf bde9 d53e
00000080: 9368 163f 571a 803e 7e15 0dbf 7a3c 06bf
00000090: 3758 25bf ff6e 7f3e 190d 17bf a4e7 ddbe
000000a0: 7e41 c1be 0f96 f23d efc8 1e3f 8c99 013f
000000b0: a359 fcbe 6cb7 dcbe 89f6 1dbf 0d85 cc3e
000000c0: fc4d 3c3e 086e a23e 785e b63e f18f cc3e
000000d0: 18d2 403f 8f23 8c3e 2adc 75be 3e80 04bf
000000e0: f262 ecbe 75b6 083f 525e 043f b621 1c3f
000000f0: ca65 a7be 7527 69bd 4977 083f 35a9 07bf
00000100: 1e12 81be 1abd 463e 4ca2 83be e07a c63e
00000110: 7431 9cbe 9dca 1e3f 0489 a2be 91d5 be3e
00000120: d6f2 b53e be1a f7bd 2a85 dbbe 7e23 69bd
00000130: d175 f1be 8265 ed3e 2223 973e b4fe b43e
00000140: 6095 1bbf 8d45 c7be df31 7abe c48f afbe
00000150: 91ef e23e d02a 093f 865c 95be 1324 c3be
00000160: d127 96bd 054b 55be dd6f b0be 0c08 1c3f
00000170: baf0 653e e1db 263f fa72 8d3e ed55 18bf
00000180: 9d44 8bbe 54a1 823c 2219 cb3e 900c 103f
00000190: abff c73e b929 c1bd f95e f13e 350a 1bbe
000001a0: 1898 d23e 45a2 b83e a014 a8be 10bb 28bf
000001b0: 9846 ae3e af5c 9bbe cdec 8f3e c278 33be
000001c0: 8964 e43e 14a4 273e 3239 9a3d e2ad 24bf
000001d0: 2182 833d 0638 043e 4bf7 77be f8f1 e13e
000001e0: c683 f9bc b9a2 cabe 254d 01bf be19 bebe
000001f0: 7a8d 85bd 4c9b 853e a99d a33c e237 0f3f
00000200: 2628 5dbe a610 f7be 3ac8 0a3f 0854 d3be
00000210: acaa 6abe 9369 6bbd 0b33 2f3f a206 27bf
00000220: 8830 2d3e 6990 f3be ff68 bdbd e8b4 21bf
00000230: 2991 243f 4d73 fbbe 2982 683e 1b40 a03e
00000240: df0d 9d3e 8b68 713f 7b75 ccbe 2cca 933d
00000250: 5f9e 4cbf 42cc 493e 76e9 d4bd 10ff 393f
00000260: 1600 07bf 6a9b 273f e411 02bd 156c a9be
00000270: 4aa4 4fbf 8dbf 07be fae4 c83e b70f c53e
00000280: 1225 d5be 6b05 0abf 1ef9 533e 4223 81be
00000290: 502c 403e da4f fbbe 588f f43d f704 3d3f
000002a0: eae7 43be 0c4e c7be a046 b9be d17b d23d
000002b0: 3537 e83e 51d6 3d3f 2c8e e63e bec8 c0bd
000002c0: ec1d 4fbf d24e 1dbf c1fd efbe 1e08 ea3e
000002d0: 5ad0 39bf 3e05 22bf 0bc8 5e3f cad9 e93d
000002e0: baea 153f d48e 8dbe dd56 e3bd c1dd bbbe
000002f0: 0a8e 573e 1809 49be b6de 1abf d6ef 9a3d

fc.bias f4 [3]
0.14072324 0.116901875 -0.19925024
00000000: c119 103e 406a ef3d 4108 4cbe
