Demo/results/models/乳酸分类标签_forward_lstm.pth (torch, 81928 bytes, 6 tensors)

lstm.weight_ih_l0 f4 [256, 11]
-0.16234875 -0.044179246 -0.17484592 0.054635756 0.3747921 -1.057072 0.41883916 -0.1752252
-0.5315224 0.6273987 -0.22727203 0.13569188 -0.12944444 -0.16110164 -0.33015096 0.2236415
-0.9212716 0.79228604 -0.43674845 -0.44531584 0.27906263 -0.19872098 0.1274032 0.10181944
0.15037848 -0.39775243 0.32823 0.5969185 -0.26390687 0.22843237 0.29417226 0.48849156
-0.84231055 -0.23026662 0.27150953 -0.28017077 0.2322442 0.34978032 0.14334334 0.19213243
0.37852713 0.35521564 0.07348198 0.55904496 -0.26787934 -0.5177583 -0.0123942075 -0.15987477
0.106645554 0.52243227 -0.62219375 0.25886756 -0.02428843 -0.11335508 0.32960045 -0.11159177
0.076097235 0.1229663 0.19165991 -0.3035937 0.8532513 -0.92791533 0.17445605 0.3865921
0.42586905 0.0796533 -0.16124693 0.15520374 0.053816326 0.26367936 0.36532497 0.26846457
0.10429929 0.48626822 0.39152 -0.23359975 -0.28446406 0.20055787 -0.37139374 0.14133026
0.33857456 -0.59319556 -0.25920334 -0.20609859 0.28687397 -0.117632255 -0.06990792 0.29110244
-0.15340745 -0.30411556 -0.17502418 0.74572766 -0.49746886 -0.058006365 -0.6466959 0.099707015
-0.14222567 -0.13669688 0.35941678 -0.15481438 0.03524487 -0.37381425 0.4352055 -0.2029523
0.09237629 -0.4218347 -0.27533045 0.012967837 0.5001233 0.5744902 0.110834904 0.10689271
-0.25665158 0.2242563 -0.36797714 -0.36883968 0.30454573 -0.28750604 -0.27281457 -0.031382553
-0.066727474 -0.17248927 -0.10595158 -0.20619012 0.19806018 0.40980306 -0.21046555 -0.0035964267
0.3235253 -0.0030813266 0.2224336 0.43303442 0.6841119 -0.089269415 0.046400197 0.0003786701
-0.5159287 -0.18558797 -0.06403516 -0.027027369 0.13872673 -0.42470178 0.008982963 -0.22973144
0.05642336 -0.592929 0.0068875374 0.10689845 0.15416916 -0.20050865 0.2420743 -0.30328476
0.33949322 0.43942168 -0.20679493 -0.42913955 -0.08069507 0.14948918 0.2165168 0.74711376
-0.56412894 0.12268228 -0.006518168 0.115272775 0.11788492 -0.52739346 -0.27675685 -0.0075393915
-0.5215498 0.18771535 -0.16586585 0.26946837 0.24652578 -0.29445472 0.04010272 0.05913736
0.0806078 -0.33600485 0.106105424 -0.6996986 0.1938971 0.13757329 0.36399102 0.27744102
-0.1935925 0.29417995 -0.40565187 0.16542628 0.5365688 -0.24787693 0.2116402 0.44720814
-0.44789028 0.47396868 -0.16082843 -0.06793367 -0.20730399 0.7241159 0.24629563 -0.21509185
-0.15538184 0.27472192 -0.3202375 -0.15011345 -0.10473819 0.15263042 0.10679397 -0.40637815
-3.5532663e-05 -0.22119719 0.64307517 0.13145043 0.44442713 -0.33591005 0.24207766 0.0513009
0.32075742 0.2657093 0.19814962 0.15944141 0.56768394 -0.19175318 -0.40492377 0.4043913
-0.15208796 0.26452824 0.05536879 0.79567194 0.16153765 -0.70061386 -0.28632236 -0.064471446
5.315304e-05 -0.3560878 0.023176966 0.51091087 -0.26991066 0.26836202 0.48765898 -0.12617117
-0.57311094 -0.61160153 0.100996345 0.1925761 0.036475174 0.41998446 0.37692964 -0.5011076
0.3555023 -0.4324466 0.30871242 -0.32034642 -0.23606354 -0.31958622 -0.1308129 -0.32586244
00000000: c03e 26be 4cf5 34bd cf0a 33be bec9 5f3d
00000010: c0e4 bf3e 234e 87bf 1672 d63e 3c6e 33be
00000020: da11 08bf 349d 203f 00ba 68be d0f2 0a3e
00000030: 158d 04be d4f7 24be 8c09 a9be 4702 653e
00000040: 75d8 6bbf 42d3 4a3f 7e9d dfbe 7000 e4be
00000050: 4ce1 8e3e 837d 4bbe fc75 023e b686 d03d
00000060: d1fc 193e 35a6 cbbe c30d a83e a7cf 183f
00000070: cd1e 87be 2dea 693e bf9d 963e 911b fa3e
00000080: aaa1 57bf 03cb 6bbe 4c03 8b3e 8b72 8fbe
00000090: 6cd1 6d3e 6816 b33e 99c8 123e 5dbe 443e
000000a0: 4fce c13e d3de b53e b87d 963d 921d 0f3f
000000b0: 7b27 89be cf8b 04bf 1311 4bbc 36b6 23be
000000c0: fc68 da3d 1fbe 053f 1748 1fbf 4a8a 843e
000000d0: 88f8 c6bc b526 e8bd 64c1 a83e 3a8a e4bd
000000e0: ded8 9b3d c1d5 fb3d 7f42 443e a270 9bbe
000000f0: ad6e 5a3f dc8b 6dbf 9ba4 323e 66ef c53e
00000100: 820b da3e 4521 a33d ea1d 25be bbed 1e3e
00000110: 826e 5c3d fb00 873e e00b bb3e 3074 893e
00000120: de9a d53d 26f8 f83e 4f75 c83e c634 6fbe
00000130: 46a5 91be 0b5f 4d3e 5227 bebe e1b8 103e
00000140: a559 ad3e aadb 17bf 4db6 84be 820b 53be
00000150: 25e1 923e 2ee9 f0bd e22b 8fbd 610b 953e
00000160: d816 1dbe 09b5 9bbe 8a39 33be 02e8 3e3f
00000170: 3db4 febe 1598 6dbd dd8d 25bf 3133 cc3d
00000180: 9ba3 11be 44fa 0bbe 7a05 b83e a987 1ebe
00000190: ed5c 103d 9564 bfbe 41d3 de3e bad2 4fbe
000001a0: c82f bd3d b8fa d7be 1df8 8cbe 0d77 543c
000001b0: 1508 003f ca11 133f 69fd e23d 91ea da3d
000001c0: d667 83be 72a3 653e 8067 bcbe 8ed8 bcbe
000001d0: 6bed 9b3e fe33 93be 5aae 8bbe fe8a 00bd
000001e0: 6aa8 88bd 07a1 30be 24fd d8bd 8123 53be
000001f0: 4ad0 4a3e b5d1 d13e 4884 57be 07b2 6bbb
00000200: 1ca5 a53e 15f0 49bb a2c5 633e b0b6 dd3e
00000210: f521 2f3f e2d2 b6bd 220e 3e3d 3e88 c639
00000220: e713 04bf c60a 3ebe de24 83bd 8068 ddbc
00000230: 610e 0e3e 8372 d9be 472d 133c b83e 6bbe
00000240: 2e1c 673d 32ca 17bf dab0 e13b 93ed da3d
00000250: 85de 1d3e 2452 4dbe 53e2 773e 2448 9bbe
00000260: 0ed2 ad3e e1fb e03e 0dc2 53be 2eb8 dbbe
00000270: 7543 a5bd b113 193e 94b6 5d3e d942 3f3f
00000280: c16a 10bf d940 fb3d 5b96 d5bb 2214 ec3d
00000290: a66d f13d 4203 07bf 13b3 8dbe 000d f7bb
000002a0: 4a84 05bf 7438 403e bdd8 29be c2f7 893e
000002b0: 4171 7c3e c5c2 96be c042 243d 043a 723d
000002c0: b415 a53d d408 acbe cd4d d93d 731f 33bf
000002d0: f68c 463e 03e0 0c3e 085d ba3e c00c 8e3e
000002e0: 1d3d 46be c19e 963e 9ab1 cfbe 8265 293e
000002f0: 935c 093f 73d3 7dbe 35b8 583e 77f8 e43e
00000300: e051 e5be 06ac f23e 35b0 24be cf20 8bbd
00000310: 7f47 54be a95f 393f ec34 7c3e 0a41 5cbe
00000320: 6b1c 1fbe 5aa8 8c3e 2bf6 a3be 57b7 19be
00000330: fa80 d6bd 264b 1c3e ccb6 da3d cc10 d0be
00000340: e808 15b8 8481 62be 93a0 243f f19a 063e
00000350: f48b e33e 67fc abbe 35e3 773e e420 523d
00000360: 513a a43e 0d0b 883e bce7 4a3e 9c44 233e
00000370: bc53 113f f25a 44be 2b52 cfbe 600c cf3e
00000380: f2bc 1bbe 3f70 873e 62ca 623d 28b1 4b3f
00000390: 206a 253e 6e5b 33bf d898 92be 9b09 84bd
000003a0: a4f0 5e38 2451 b6be 9fdd bd3c 0ecb 023f
000003b0: bb31 8abe bf66 893e 70ae f93e 0433 01be
000003c0: 66b7 12bf eb91 1cbf 2cd7 ce3d ab32 453e
000003d0: fe66 153d 3408 d73e ecfc c03e 9648 00bf
000003e0: 6604 b63e a469 ddbe 8e0f 9e3e 7204 a4be
000003f0: a4ba 71be cea0 a3be d1f3 05be 71d7 a6be

lstm.weight_hh_l0 f4 [256, 64]
-0.09068363 -0.0612862 -0.011101375 -0.0101494305 -0.036538757 -0.025777267 -0.051038526 0.036773343
-0.041748337 -0.021362675 -0.10509903 -0.07789974 0.010928359 -0.080463655 0.03587586 -0.019549044
0.09331293 -0.11514427 0.062314235 -0.006599488 0.12119602 -0.11460689 -0.05700487 -0.11316526
-0.06332635 -0.04069926 0.051785488 -0.0043378794 -0.069176376 -0.050264716 0.029558582 -0.083295174
-0.10999789 0.043128077 0.062399574 0.11597871 0.09961418 -0.09565802 0.00041399334 -0.060858402
-0.05544737 -0.029904686 -0.07107092 -0.02158261 0.02640607 -0.10991579 0.018933449 -0.08119765
0.10486391 -0.077517636 -0.1026368 0.044592477 -0.076562315 0.027113909 -0.11691125 -0.06590144
-0.08780387 -0.03397587 0.07181961 -0.087835096 0.11085278 0.0022076673 -0.0066970102 0.023815135
0.06162034 -0.09791737 -0.064882554 -0.030444337 -0.10283788 0.036663383 0.007723595 -0.027287515
0.0811078 0.10677278 0.066783525 0.052010264 -0.09523891 0.0025287035 0.030971337 0.048213586
-0.085153826 0.07506908 -0.055438668 0.06317746 0.027581576 0.055877734 0.09751815 0.07989039
-0.057392485 -0.1149065 -0.019311063 -0.020969972 0.08294417 -0.081803456 0.11074797 -0.040741246
-0.038853504 -0.1118535 0.11353221 -0.11539444 -0.035561625 0.004016985 -0.076814726 0.074898705
0.09591664 0.08217726 0.118521504 0.0032448936 0.08241643 0.11059579 0.08560198 0.10741741
0.0969119 -0.039191682 -0.11950033 0.09711805 0.054218967 0.05254647 -0.06887094 0.079832636
-0.043449253 0.023673285 -0.11980971 -0.010491257 -0.063782424 0.03901053 0.10229603 0.05566843
-0.0017278708 0.053157184 0.04561765 -0.11169935 -0.020668238 -0.00035051367 0.014887156 0.05933121
0.022511926 -0.058009747 -0.11051789 -0.07503867 -0.08101782 -0.015447075 -0.045975193 0.05873989
0.081828274 0.031067405 0.10705732 -0.037157662 -0.08410484 -0.049661666 0.00097564317 0.060177654
0.08520613 0.036108933 -0.07197782 0.013459151 0.11402652 0.06681914 0.05936981 0.08821574
0.064296424 0.11554165 0.055570308 -0.0014703777 0.1123046 -0.044249874 0.1035695 0.11425981
0.050875112 0.11126681 0.08112064 0.002830519 -0.12105213 0.012097442 0.0484655 0.08275002
-0.08417418 0.10450017 0.10475343 0.051196318 0.077444196 -0.008450687 -0.07371984 -0.035219006
0.03240176 -0.06932218 -0.114345744 -0.07620374 -0.0045847557 -0.027505836 0.02571102 0.052778732
0.039061468 -0.0054393956 -0.009986967 0.10832562 0.096463665 -0.032533977 -0.07589805 0.057747383
0.033098586 -0.066345766 0.03294321 -0.11064553 -0.060688462 0.08599099 0.04790013 0.092819065
-0.08104121 0.10396471 0.014960451 -0.112578586 0.0071363566 0.03546424 -0.010372369 -0.07137637
0.07098771 0.017749932 0.035466753 -0.11368353 -0.11293639 -0.029848412 0.09078991 -0.10754558
0.0095982235 -0.0849455 -0.084289245 -0.05002429 -0.10128355 0.05430003 0.02623607 0.038855627
-0.07629938 0.020352302 0.06086383 0.007446815 0.1055569 -0.035986893 -0.07669963 0.018261759
0.009193188 -0.0052859285 0.0764257 -0.1070448 0.03975471 -0.014410377 0.07147162 -0.06968983
-0.11744129 0.059338335 -0.019019665 -0.07991885 0.08595444 -0.02388984 0.052134853 -0.022050602
00000000: 57b8 b9bd 3d07 7bbd 8be2 35bc cc49 26bc
00000010: aaa9 15bd d92a d3bc c60d 51bd a59f 163d
00000020: 4e00 2bbd c700 afbc 293e d7bd e689 9fbd
00000030: dc0c 333c 21ca a4bd 91f2 123d 5125 a0bc
00000040: d91a bf3d c2d0 ebbd 363d 7f3d 8540 d8bb
00000050: 9e35 f83d 04b7 eabd f07d 69bd 30c3 e7bd
00000060: 3fb1 81bd 44b4 26bd 051d 543d c524 8ebb
00000070: 58ac 8dbd 60e2 4dbd d724 f23c a996 aabd
00000080: 9346 e1bd 11a7 303d b296 7f3d 3f86 ed3d
00000090: 8502 cc3d 5ae8 c3bd 3f0d d939 a946 79bd
000000a0: c81c 63bd acfa f4bc a18d 91bd 04ce b0bc
000000b0: 8b51 d83c 881b e1bd 521a 9b3c f44a a6bd
000000c0: e4c2 d63d 91c1 9ebd 3e33 d2bd 9aa6 363d
000000d0: b4cc 9cbd fd1d de3c 2a6f efbd 56f7 86bd
000000e0: 84d2 b3bd 482a 0bbd 2916 933d e3e2 b3bd
000000f0: c806 e33d 83ae 103b 9872 dbbb f517 c33c
00000100: 9c65 7c3d e788 c8bd 25e1 84bd 6766 f9bc
00000110: ab9c d2bd 582c 163d 3616 fd3b 118a dfbc
00000120: d91b a63d b0ab da3d cdc5 883d b708 553d
00000130: 9e0c c3bd 9bb8 253b 9ab7 fd3c 9c7b 453d
00000140: 2165 aebd d1bd 993d a813 63bd 2f63 813d
00000150: c2f2 e13c 0de0 643d 99b7 c73d 939d a33d
00000160: 6214 6bbd 1954 ebbd 3c32 9ebc 38c9 abbc
00000170: a2de a93d 9288 a7bd d5cf e23d 4be0 26bd
00000180: da24 1fbd 7313 e5bd 9383 e83d ec53 ecbd
00000190: 11a9 11bd eaa0 833b 0a51 9dbd 7e64 993d
000001a0: f16f c43d 8d4c a83d 67bb f23d 48a8 543b
000001b0: f2c9 a83d 0c80 e23d 1750 af3d a9fd db3d
000001c0: bf79 c63d 7587 20bd 97bc f4bd d4e5 c63d
000001d0: b514 5e3d f83a 573d 350c 8dbd 4b7f a33d
000001e0: d8f7 31bd 7aee c13c cb5e f5bd 85e3 2bbc
000001f0: 5ca0 82bd 81c9 1f3d 9580 d13d 9404 643d
00000200: b979 e2ba 59bb 593d 93d9 3a3d a1c2 e4bd
00000210: 7050 a9bc 26c5 b7b9 42e9 733c 4805 733d
00000220: ee6a b83c a19b 6dbd 3457 e2bd e0ad 99bd
00000230: acec a5bd ba15 7dbc 7c50 3cbd 3d99 703d
00000240: 9595 a73d 1281 fe3c de40 db3d a232 18bd
00000250: 293f acbd 086a 4bbd 4ec2 7f3a d87c 763d
00000260: 8d80 ae3d f6e6 133d 1b69 93bd c583 5c3c
00000270: bc86 e93d 79d8 883d c22d 733d 74aa b43d
00000280: d8ad 833d 1aa1 ec3d b19d 633d b0b9 c0ba
00000290: f4ff e53d 5b3f 35bd 3f1c d43d 0c01 ea3d
000002a0: 6c62 503d dadf e33d 9422 a63d 3b80 393b
000002b0: 2eea f7bd 5934 463c c383 463d d878 a93d
000002c0: 8363 acbd 2f04 d63d f788 d63d 3bb3 513d
000002d0: 109b 9e3d c074 0abc 6dfa 96bd ce41 10bd
000002e0: b5b7 043d c9f8 8dbd 1a2e eabd b510 9cbd
000002f0: b83b 96bb eb53 e1bc eb9f d23c 832e 583d
00000300: ebfe 1f3d f53c b2bb 60a0 23bc d3d9 dd3d
00000310: be8e c53d 5942 05bd 7070 9bbd 8588 6c3d
00000320: 6292 073d 4ae0 87bd 76ef 063d 209a e2bd
00000330: 7794 78bd 0b1c b03d ed32 443d ec17 be3d
00000340: eff8 a5bd 73eb d43d ae1c 753c 9a8f e6bd
00000350: 19d8 e93b f342 113d def0 29bc c62d 92bd
00000360: 0162 913d 4e68 913c 9645 113d e9d2 e8bd
00000370: 324b e7bd a884 f4bc 0ff0 b93d db40 dcbd
00000380: de41 1d3c e8f7 adbd d79f acbd 45e6 4cbd
00000390: c06d cfbd b569 5e3d 07ed d63c 1427 1f3d
000003a0: d942 9cbd dfb9 a63c 5a4c 793d 6904 f43b
000003b0: 372e d83d fe66 13bd b214 9dbd af99 953c
000003c0: 069f 163c 9535 adbb 1485 9c3d 4e3a dbbd
000003d0: d6d5 223d 8019 6cbc b65f 923d 8bb9 8ebd
000003e0: 0f85 f0bd c10c 733d 21cf 9bbc 7eac a3bd
000003f0: e208 b03d a0b4 c3bc 5b8b 553d 77a3 b4bc

lstm.bias_ih_l0 f4 [256]
0.19476648 0.47223035 0.5344563 0.63369024 0.5098963 0.5296565 0.49901354 0.42502335
0.60200125 0.5559969 0.5760091 0.48358902 0.41370344 0.36850607 0.34000832 0.292713
0.37102896 0.47464865 0.4121825 0.4194925 0.43476817 0.66537535 0.5617444 0.38748655
0.3344943 0.21101375 0.43871257 0.38873568 0.6324309 0.44131353 0.24388517 0.25366035
0.49944386 0.386789 0.3300082 0.52759516 0.077878654 0.32959786 0.2049093 0.37886295
0.71379083 0.31518972 0.56903213 0.6801266 0.54605895 0.3032937 0.42940882 0.4795813
0.3312643 0.40562198 0.40287092 0.39023653 0.23595805 0.4424138 0.44496927 0.5081093
0.2514155 0.43019688 0.08364634 0.30873656 0.7644015 0.39485756 0.42289668 0.6817144
-0.04877881 -0.026879715 -0.05824837 -0.05613155 -0.08055389 -0.115509346 0.0049651084 -0.026764248
0.052509513 -0.09097465 -0.045435 -0.091615275 0.038039356 0.044708867 -0.025371846 0.024411252
-0.06882176 0.034642134 -0.049375426 -0.10924157 0.043138534 -0.104257494 0.06432819 -0.06011029
0.03715655 0.119695075 -0.046537135 -0.054414067 -0.108243756 0.04267301 0.053606875 0.034291565
-0.07582772 -0.12073278 -0.0874103 -0.002330608 0.045733795 0.11122417 0.11026143 -0.05143984
0.06787552 0.08013357 -0.04370308 -0.004517821 0.11982486 0.10147655 0.104120836 -0.02471841
-0.1142516 0.06007755 0.041840587 -0.111052915 0.07956374 -0.08073617 -0.0589998 -0.018269813
-0.09141724 0.016307004 0.10823557 0.042843286 -0.024604551 -0.04768245 -0.06633965 0.06283456
-0.22467002 -0.18889514 -0.2162877 -0.48443735 0.4582024 -0.5933507 0.2275235 0.31873032
0.14467484 0.01768684 -0.034639385 -0.29447922 0.059275884 -0.15099363 -0.23295362 -0.27731398
0.3012578 -0.434367 0.23637795 0.3077145 0.069199815 -0.17151864 0.081874855 0.18831277
0.10610885 0.009051831 0.41493925 0.28865469 0.32234195 0.38261738 -0.30841264 0.051709544
0.41118446 0.1586996 0.25900415 0.10584725 0.19233614 -0.12595631 -0.07480809 0.13720204
0.022412693 -0.006748818 -0.11776857 0.035091534 -0.09762081 -0.12364934 0.050469995 -0.19021966
0.04185064 -0.29575524 0.365587 -0.22447373 -0.20937248 -0.40262058 0.31689745 0.07634628
0.06055901 0.119389385 -0.12739213 -0.17160554 -0.5054636 -0.09164095 0.0031880534 0.033818703
0.16434087 0.30727258 0.5745645 0.67742914 0.5898938 0.41127226 0.47412166 0.21457426
0.7429147 0.64570117 0.50148064 0.36481756 0.4305453 0.33194262 0.3984175 0.23303075
0.4438328 0.27322307 0.50428545 0.5434065 0.4374463 0.66915077 0.5015393 0.36010355
0.40745082 0.3001845 0.47224844 0.4307703 0.47724086 0.43347004 0.18782514 0.021695001
0.5670574 0.38400564 0.42686877 0.5849993 0.19521266 0.5083159 0.16864125 0.32051876
0.72574073 0.43848395 0.5429388 0.82262415 0.4493632 0.2810931 0.44159546 0.5910924
0.34687752 0.4126015 0.54076046 0.578914 0.3024806 0.39655426 0.7340913 0.34315056
0.13183151 0.4810003 0.18914379 0.414214 0.620833 0.42292196 0.43820748 0.698672
00000000: dd70 473e 2dc8 f13e 21d2 083f 8639 223f
00000010: 9088 023f 9297 073f b47e ff3e a99c d93e
00000020: c11c 1a3f d055 0e3f 5575 133f fb98 f73e
00000030: f0d0 d33e d4ac bc3e 9215 ae3e 7ade 953e
00000040: 82f7 bd3e 2605 f33e 9609 d33e b9c7 d63e
00000050: ef99 de3e 0a56 2a3f 7bce 0f3f a364 c63e
00000060: d642 ab3e fd13 583e ef9e e03e 5d08 c73e
00000070: fee6 213f d9f3 e13e 09bd 793e c5df 813e
00000080: 1bb7 ff3e 3509 c63e d6f6 a83e 7a10 073f
00000090: d87e 9f3d 0dc1 a83e bed3 513e 53fa c13e
000000a0: ffba 363f 8c60 a13e 17ac 113f c71c 2e3f
000000b0: 85ca 0b3f 5049 9b3e 79db db3e ae8b f53e
000000c0: 799b a93e afad cf3e 1945 ce3e 15cd c73e
000000d0: fd9e 713e 1084 e23e 03d3 e33e 7313 023f
000000e0: 88b9 803e c442 dc3e c64e ab3d b812 9e3e
000000f0: d1af 433f c52a ca3e ea85 d83e d684 2e3f
00000100: 4acc 47bd d932 dcbc d895 6ebd 32ea 65bd
00000110: 70f9 a4bd 2a90 ecbd 59b2 a23b b240 dbbc
00000120: 3714 573d eb50 babd 0d1a 3abd caa0 bbbd
00000130: 28cf 1b3d a520 373d 9ed8 cfbc 1bfa c73c
00000140: 6cf2 8cbd e9e4 0d3d e33d 4abd 0bba dfbd
00000150: 08b2 303d f484 d5bd 80be 833d 3536 76bd
00000160: 7731 183d b122 f53d b99d 3ebd 49e1 5ebd
00000170: e7ae ddbd e5c9 2e3d e292 5b3d 5075 0c3d
00000180: 904b 9bbd bf42 f7bd 2c04 b3bd 1dbd 18bb
00000190: 5c53 3b3d 7fc9 e33d bfd0 e13d 95b2 52bd
000001a0: 5202 8b3d 121d a43d 0002 33bd 3b0a 94bb
000001b0: bc66 f53d f0d2 cf3d 4e3d d53d 437e cabc
000001c0: befc e9bd e113 763d 0961 2b3d b66f e3bd
000001d0: 50f2 a23d 0159 a5bd c6a9 71bd 93aa 95bc
000001e0: f638 bbbd 4496 853c 9caa dd3d 717c 2f3d
000001f0: 7c8f c9bc ac4e 43bd 15dd 87bd 68af 803d
00000200: e60f 66be ba6d 41be 867a 5dbe 2c08 f8be
00000210: 8199 ea3e d5e5 17bf ecfb 683e 9f30 a33e
00000220: a425 143e fee3 903c 07e2 0dbd fbc5 96be
00000230: 45cb 723d 139e 1abe 658b 6ebe 19fc 8dbe
00000240: 763e 9a3e 5a65 debe 100d 723e c18c 9d3e
00000250: a2b8 8d3d 95a2 2fbe 01ae a73d 10d5 403e
00000260: 994f d93d 224e 143c eb72 d43e 8cca 933e
00000270: 010a a53e 6de6 c33e 43e8 9dbe 63cd 533d
00000280: c586 d23e 2682 223e 319c 843e 71c6 d83d
00000290: c4f3 443e b1fa 00be fc34 99bd b17e 0c3e
000002a0: d39a b73c 3025 ddbb a630 f1bd 24bc 0f3d
000002b0: 6bed c7bd dd3b fdbd a0b9 4e3d f1c8 42be
000002c0: 946b 2b3d 3b6d 97be 382e bb3e 71dc 65be
000002d0: bd65 56be 4924 cebe 6240 a23e 705b 9c3d
000002e0: b90c 783d 6c82 f43d 1573 02be 5db9 2fbe
000002f0: 1066 01bf 40ae bbbd a9ee 503b 7b85 0a3d
00000300: f948 283e d552 9d3e a916 133f ff6b 2d3f
00000310: 4803 173f 4792 d23e 13c0 f23e 5bb9 5b3e
00000320: a82f 3e3f ac4c 253f 0961 003f 5ec9 ba3e
00000330: 6f70 dc3e 62f4 a93e 61fd cb3e 9d9f 6e3e
00000340: 0e3e e33e e5e3 8b3e da18 013f b01c 0b3f
00000350: f6f8 df3e 774d 2b3f e164 003f 7e5f b83e
00000360: 659d d03e c8b1 993e 8cca f13e ed8d dc3e
00000370: ea58 f43e c9ef dd3e 3c55 403e b7b9 b13c
00000380: ac2a 113f 639c c43e 8b8e da3e 84c2 153f
00000390: d4e5 473e fe20 023f 4bb0 2c3e 091b a43e
000003a0: 25ca 393f f880 e03e 0afe 0a3f 7f97 523f
000003b0: ef12 e63e 6feb 8f3e cd18 e23e d551 173f
000003c0: ee99 b13e 8140 d33e 476f 0a3f b533 143f
000003d0: bdde 9a3e 2909 cb3e 68ed 3b3f 6eb1 af3e
000003e0: d7fe 063e ac45 f63e e9ae 413e db13 d43e
000003f0: e9ee 1e3f 3a89 d83e bb5c e03e 2bdc 323f

lstm.bias_hh_l0 f4 [256]
0.16398989 0.45536935 0.7004345 0.50881296 0.5488342 0.33735952 0.46796456 0.35539252
0.5729599 0.68576896 0.54300594 0.33189064 0.31169692 0.42086124 0.42944214 0.2364212
0.3685345 0.46362242 0.46440223 0.39828315 0.42066962 0.5980228 0.5263054 0.53448236
0.39452586 0.17184287 0.49648777 0.5052041 0.5099877 0.49799883 0.2970672 0.06732322
0.3393047 0.24091709 0.4247454 0.35056844 0.18344453 0.25057974 0.12616009 0.21900663
0.6467446 0.3331088 0.5453315 0.80287635 0.3443695 0.38656816 0.26105145 0.50407267
0.37397936 0.51165634 0.4411657 0.41793996 0.3591033 0.5623751 0.47269502 0.57929945
0.124661565 0.4411745 0.06507185 0.42360726 0.6201777 0.28472406 0.2568209 0.75440764
-0.015440963 -0.07132429 -0.05972415 0.12045076 -0.028941415 0.027841158 -0.025243247 0.014897718
0.010222417 0.054299418 -0.04189008 -0.031114077 0.11601141 -0.07527469 -0.073572226 0.10617288
-0.09090696 -0.046028186 0.059821974 0.072199844 0.11914572 -0.042869985 0.0034529846 -0.030329553
-0.036967177 0.11785098 -0.043667164 -0.04702596 0.11232868 0.03966061 0.10699491 -0.09293164
-0.037109017 -0.049284864 0.0925217 -0.01606849 -0.112347156 -0.030213961 -0.115374155 -0.0803851
0.087974496 0.09310336 0.08810332 0.0637048 0.08105415 0.09367402 -0.046363555 0.10551938
0.121116914 0.077947564 0.112484455 0.03959964 -0.02098478 -0.09175546 0.08463719 -0.009827049
-0.1003485 0.105239764 -0.05576306 0.044334225 0.032290418 -0.0065451725 0.05715367 0.008157816
-0.15732409 -0.048790902 -0.2047991 -0.4933479 0.36735064 -0.609068 0.11613696 0.38124996
0.07309247 -0.11694041 -0.046358544 -0.20203093 0.14096196 -0.273948 -0.060334563 -0.31588486
0.20855898 -0.40787804 0.22243656 0.37156704 0.14491846 -0.07491973 -0.0014840083 0.13547239
0.0075842114 -0.08229909 0.3129868 0.049679138 0.46532315 0.27634403 -0.36489838 -0.098306276
0.33727652 0.14057718 0.37934595 0.2542513 0.32473215 -0.06731916 -0.08714995 0.2734852
-0.0059794546 -0.08239917 -0.10617263 0.042098805 -0.08563792 -0.15718134 0.15012777 -0.2697406
0.035553083 -0.24290799 0.27757314 -0.3507808 -0.18732211 -0.45223796 0.47055787 -0.040735595
0.22720689 0.34673554 0.0047983998 -0.012185392 -0.52931446 -0.06247775 -0.06952508 -0.021978177
0.17965849 0.22853515 0.5757788 0.62563217 0.7255898 0.55233103 0.406839 0.388755
0.67480636 0.51296985 0.50159013 0.4900606 0.4022237 0.49953008 0.41541615 0.3055977
0.46618932 0.31276992 0.38112122 0.536347 0.51153475 0.66128266 0.36196956 0.39750493
0.61277634 0.23250994 0.5394537 0.36857298 0.40508 0.59900784 0.18801807 0.096240476
0.46645838 0.2332212 0.3630485 0.3648206 0.0567191 0.40929964 0.28329802 0.34671763
0.7568324 0.32669857 0.62618405 0.8725107 0.3104729 0.389994 0.5383657 0.60555327
0.4641361 0.3774549 0.42492896 0.53231347 0.2087112 0.5017328 0.72367114 0.5309018
0.26531687 0.49498293 0.07861604 0.24931096 0.75388056 0.39232096 0.36547804 0.6819821
00000000: f7ec 273e 2c26 e93e ad4f 333f 9141 023f
00000010: 6680 0c3f 63ba ac3e 0d99 ef3e 02f6 b53e
00000020: 80ad 123f 8e8e 2f3f 7002 0b3f 92ed a93e
00000030: bd96 9f3e 207b d73e d7df db3e 6618 723e
00000040: 8eb0 bc3e eb5f ed3e 21c6 ed3e c5eb cb3e
00000050: 0262 d73e 0618 193f f3bb 063f d6d3 083f
00000060: 4bff c93e 94f7 2f3e a533 fe3e 0e55 013f
00000070: 8e8e 023f b4f9 fe3e 3119 983e c2e0 893d
00000080: 58b9 ad3e f8b2 763e 3b78 d93e b57d b33e
00000090: e2d8 3b3e fd4b 803e 1c30 013e 4643 603e
000000a0: 0e91 253f 3d8d aa3e d89a 0b3f 4e89 4d3f
000000b0: 3351 b03e 43ec c53e 89a8 853e e80a 013f
000000c0: 397a bf3e e9fb 023f 78e0 e13e 3afc d53e
000000d0: 63dc b73e d1f7 0f3f 1505 f23e f84c 143f
000000e0: 904e ff3d a0e1 e13e 6444 853d 0de3 d83e
000000f0: f7c3 1e3f 5ac7 913e 077e 833e dc20 413f
00000100: 18fc 7cbc 7812 92bd 4fa1 74bd e3ae f63d
00000110: 8c16 edbc 2413 e43c edca cebc 8f15 743c
00000120: ed7b 273c 1169 5e3d ef94 2bbd f3e2 febc
00000130: 6497 ed3d 9e29 9abd 09ad 96bd 2b71 d93d
00000140: 6e2d babd 0d88 3cbd e307 753d 83dd 933d
00000150: ac02 f43d 7098 2fbd 784b 623b af75 f8bc
00000160: e56a 17bd db5b f13d 57dc 32bd 4b9e 40bd
00000170: 940c e63d 2a73 223d 2620 db3d f252 bebd
00000180: a0ff 17bd edde 49bd 047c bd3d 11a2 83bc
00000190: 4416 e6bd 4583 f7bc 4949 ecbd f1a0 a4bd
000001a0: f92b b43d f9ac be3d 836f b43d aa77 823d
000001b0: b8ff a53d 2ad8 bf3d b6e7 3dbd 8b1a d83d
000001c0: 250c f83d f9a2 9f3d 405e e63d 3b33 223d
000001d0: 46e8 abbc 49ea bbbd 4356 ad3d a201 21bc
000001e0: 8483 cdbd f287 d73d ce67 64bd ce97 353d
000001f0: f542 043d e378 d6bb f719 6a3d 5ca8 053c
00000200: 9119 21be f8d8 47bd dbb6 51be 1998 fcbe
00000210: 6215 bc3e e1eb 1bbf 37d9 ed3d 3233 c33e
00000220: 81b1 953d 747e efbd 75e2 3dbd 32e1 4ebe
00000230: 5558 103e ea42 8cbe 6021 77bd a9bb a1be
00000240: 7c90 553e 64d5 d0be 69c6 633e 093e be3e
00000250: 8165 143e 846f 99bd 0e83 c2ba 46b9 0a3e
00000260: fa84 f83b 6d8c a8bd ce3f a03e 5a7c 4b3d
00000270: d63e ee3e f77c 8d3e f6d3 babe cd54 c9bd
00000280: 82af ac3e 77f3 0f3e a239 c23e 3a2d 823e
00000290: 4b43 a63e a1de 89bd ac7b b2bd 4106 8c3e
000002a0: 4def c3bb e5c0 a8bd 0971 d9bd cc6f 2c3d
000002b0: ef62 afbd 25f4 20be 18bb 193e 711b 8abe
000002c0: 1ca0 113d dfbc 78be 111e 8e3e 8b99 b3be
000002d0: 5ed1 3fbe bc8b e7be f6ec f03e 5eda 26bd
000002e0: eca8 683e 5287 b13e e53b 9d3b 3da5 47bc
000002f0: 2781 07bf abe8 7fbd 2a63 8ebd 940b b4bc
00000300: 65f8 373e 1e05 6a3e 3d66 133f 6e29 203f
00000310: 41c0 393f 9165 0d3f 344d d03e e50a c73e
00000320: 1cc0 2c3f fe51 033f 3668 003f 39e9 fa3e
00000330: 44f0 cd3e 68c2 ff3e 6db1 d43e 4d77 9c3e
00000340: 5eb0 ee3e 6123 a03e 5222 c33e 094e 093f
00000350: f1f3 023f d249 293f 1354 b93e c485 cb3e
00000360: e9de 1c3f 1617 6e3e a319 0a3f 99b5 bc3e
00000370: a566 cf3e 9458 193f cf87 403e ba19 c53d
00000380: a2d3 ee3e 8ad1 6e3e 7ee1 b93e c4c9 ba3e
00000390: 4952 683d b98f d13e 700c 913e f984 b13e
000003a0: c5bf 413f 0945 a73e 994d 203f dc5c 5f3f
000003b0: 4ef6 9e3e 4bad c73e 56d2 093f 8a05 1b3f
000003c0: 3fa3 ed3e c541 c13e 4a90 d93e b245 083f
000003d0: 64b8 553e 9071 003f 8342 393f 2ee9 073f
000003e0: 9dd7 873e 676e fd3e 7201 a13d 5f4b 7f3e
000003f0: 51fe 403f 4bde c83e f01f bb3e 6196 2e3f

fc.weight f4 [3, 64]
0.015162239 -0.012304986 -0.47967854 -0.27021012 0.59349024 -0.39354578 0.5233684 0.24451482
0.6744701 -0.8488068 0.50405395 -0.56804806 0.7044415 -0.5058479 -0.6435243 -0.5886354
0.8163927 -0.27182436 0.6190257 0.44697714 0.7442453 -0.78203344 0.48557657 0.4447507
0.8074378 0.83867604 0.3941659 0.49985033 0.38603997 0.5173465 -0.33471593 0.3818959
0.48679766 0.3497479 0.69925904 0.55683434 0.2898106 -0.6921946 0.46723032 0.58746135
-0.9266386 -0.5683643 -0.70675135 0.81248456 0.4952482 -0.5517028 0.53694755 -0.5717093
-0.6669806 0.138227 0.37106508 -0.51220644 -0.8027592 -0.3632403 0.5064398 0.5743714
-0.3204536 0.92004466 0.2753233 0.528468 -0.29642218 -0.6103211 -0.6689402 0.7858838
-0.71112096 -0.7356503 -0.39798877 -0.14016148 0.1870537 -0.35279334 -0.26758304 0.53117764
-0.5566242 0.2577102 -0.4871039 -0.05238215 -0.5224508 -0.055134274 -0.081380785 0.3115564
-0.51590675 -0.5349611 -0.30955642 -0.18278657 -0.69050777 0.87078214 -0.61854833 -0.05000353
-0.3798522 -0.7981573 0.18765715 -0.062876746 0.16909131 0.069167376 -0.2757296 -0.5130728
0.13709493 0.5728565 -0.39549577 -0.19675066 0.46362793 0.41966954 -0.6217326 -0.2864702
0.26462346 0.42068815 0.51313734 -0.37311354 -0.45490035 0.54272825 -0.3527214 0.62587905
0.45558256 -0.7711503 -0.16683076 -0.076257676 0.615803 -0.37189355 0.2465942 -0.5463578
0.5980744 -0.74291253 -0.49545127 -0.32165504 -0.62969714 0.19051583 0.41935867 -0.16006656
0.90204954 0.73033184 0.71650547 0.8736994 -0.6365248 0.87267447 -0.40822285 -0.95943046
-0.5138646 0.551553 -0.06153372 0.5804632 -0.22542372 0.61540323 0.55449975 0.5984906
-0.05871787 0.98546034 -0.15654933 -0.7809364 0.1356398 -0.33996898 0.2631813 -0.48628742
-0.17219463 0.4628225 -0.7223028 -0.669056 -0.64941925 -0.7106743 0.73825985 0.32512876
-0.61356413 -0.8682782 -0.54201496 -0.41704226 -0.70776254 0.10215684 0.23965468 -0.5044524
0.34361464 0.119071014 0.18883537 -0.4387658 0.3505639 0.110419646 -0.14038119 0.0024241174
0.19906063 0.73320955 -0.63516945 0.80125344 -0.11200386 0.81628126 -0.75570065 -0.008104071
-0.43882328 0.04051667 0.17488807 -0.19061379 1.1568521 0.5019429 0.4051625 -0.6658611
00000000: 0a6b 783c da9a 49bc 6d98 f5be fb58 8abe
00000010: faee 173f d57e c9be 79fb 053f 1862 7a3e
00000020: 13aa 2c3f 674b 59bf ae09 013f 996b 11bf
00000030: 4756 343f 3f7f 01bf 02be 24bf cfb0 16bf
00000040: 1dff 503f 902c 8bbe 7878 1e3f 30da e43e
00000050: dc86 3e3f 5833 48bf 7e9d f83e 5db6 e33e
00000060: 3eb4 4e3f 79b3 563f 1dd0 c93e 62ec ff3e
00000070: 08a7 c53e d270 043f e35f abbe dc87 c33e
00000080: 8b3d f93e 2812 b33e a402 333f b28c 0e3f
00000090: 0e62 943e aa33 31bf d038 ef3e de63 163f
000000a0: 3038 6dbf 5380 11bf a8ed 34bf fdfe 4f3f
000000b0: 2c91 fd3e 653c 0dbf 6575 093f 8a5b 12bf
000000c0: 3ebf 2abf 618b 0d3e 3efc bd3e f61f 03bf
000000d0: a081 4dbf a2fa b9be 0aa6 013f 010a 133f
000000e0: 7f12 a4be 0c88 6b3f 2df7 8c3e ae49 073f
000000f0: a6c4 97be 013e 1cbf aa3f 2bbf ae2f 493f
00000100: 060c 36bf 9453 3cbf 2fc5 cbbe 7e86 0fbe
00000110: 018b 3f3e 54a1 b4be a500 89be 42fb 073f
00000120: ec7e 0ebf 97f2 833e af65 f9be aa8e 56bd
00000130: 56bf 05bf 7ad4 61bd f8aa a6bd 5284 9f3e
00000140: 7712 04bf 36f3 08bf 2e7e 9ebe 672c 3bbe
00000150: 1ec5 30bf 94eb 5e3f 2f59 1ebf 80d0 4cbd
00000160: fd7b c2be 0954 4cbf 3229 403e 86c5 80bd
00000170: 4626 2d3e a0a7 8d3d 6e2c 8dbe bd58 03bf
00000180: 9d62 0c3e b9a6 123f 6c7e cabe 0179 49be
00000190: a460 ed3e edde d63e de29 1fbf 39ac 92be
000001a0: ba7c 873e 7064 d73e f85c 033f bd08 bfbe
000001b0: b3e8 e8be 3df0 0a3f e697 b4be 9c39 203f
000001c0: 1e42 e93e 1b6a 45bf afd5 2abe fc2c 9cbd
000001d0: 44a5 1d3f d568 bebe 3183 7c3e 1bde 0bbf
000001e0: 671b 193f 842f 3ebf caab fdbe f8af a4be
000001f0: d533 21bf 9516 433e 2eb6 d63e 7de8 23be
00000200: b8ec 663f 07f7 3a3f e76c 373f c4aa 5f3f
00000210: 4af3 22bf 9867 5f3f 9602 d1be 3c9d 75bf
00000220: a18c 03bf 9432 0d3f c80a 7cbd 3c99 143f
00000230: 7ad5 66be 118b 1d3f b2f3 0d3f ae36 193f
00000240: 2682 70bd 2147 7c3f 784e 20be 73eb 47bf
00000250: 29e5 0a3e 6a10 aebe b3bf 863e aafa f8be
00000260: ca53 30be 12f7 ec3e d6e8 38bf 4147 2bbf
00000270: 5740 26bf c0ee 35bf 99fe 3c3f 4777 a63e
00000280: 8a12 1dbf 7b47 5ebf 7ec1 0abf 9086 d5be
00000290: ed2f 35bf 9b37 d13d 0968 753e cb23 01bf
000002a0: 42ee af3e 81db f33d 0f5e 413e e9a5 e0be
000002b0: 1d7d b33e b223 e23d 16c0 0fbe f1dd 1e3b
000002c0: 8dd6 4b3e 9fb3 3b3f 779a 22bf f21e 4d3f
000002d0: 4862 e5bd cff7 503f 9975 41bf f0c6 04bc
000002e0: 72ad e0be cff4 253d dc15 333e 4330 43be
000002f0: bb13 943f 547f 003f 7671 cf3e e075 2abf

fc.bias f4 [3]
0.13224883 0.019280266 -0.19580081
00000000: 3d6c 073e a6f1 9d3c 0280 48be
