Demo/results/models/疲劳分类标签_forward_gru.pth (torch, 62216 bytes, 6 tensors)

gru.weight_ih_l0 f4 [192, 11]
-0.3195384 0.21546315 0.20186286 0.1919409 -0.17329109 0.12866671 0.11024684 -0.0044984203
-0.31896314 -0.39473128 0.5285222 -0.3619253 0.14985467 -0.12380038 -0.11478451 -0.016400035
0.08873105 -0.2085573 0.09792428 -0.17890076 -0.33287752 0.28562835 0.021518463 -0.07048605
0.066522464 -0.10007763 -0.026526092 -0.36577886 0.018586319 0.10463119 -0.114178196 0.23539846
0.031468257 -0.1720855 0.14731397 0.16521436 -0.056431733 0.39406705 0.07114325 -0.07657644
0.19166705 0.3820814 0.04805081 0.3882233 -0.06902314 -0.26739502 -0.03273042 -0.06087812
-0.19557142 -0.107857205 -0.16699934 0.100824505 -0.42814493 -0.06535746 -0.08068301 -0.23705776
-0.12756853 0.2345244 0.30111977 -0.23669279 -0.10024742 0.0975882 0.082810834 -0.35781476
-0.36781776 0.36322227 -0.043684382 -0.2231227 -0.29551294 -0.11891357 0.26728216 -1.028891
0.2896941 -0.0004083963 0.13259625 -0.04863702 0.5646142 0.015506536 0.06979192 0.13914771
0.012909597 -0.02457998 -0.030561006 0.06653917 0.029944746 0.059195198 0.25917664 0.017172044
-0.31533495 0.055759847 0.02235833 0.3314261 -0.04092285 0.21983816 -0.41050154 0.3384319
-0.11891264 0.17569532 0.27151978 -0.17499608 0.8549977 -0.17422813 0.13787909 -0.00021576064
-0.29559314 0.1335373 -0.123170614 -0.48531225 -0.062152814 0.5014905 -0.48371485 -0.09463595
-0.09017071 0.1319441 -0.152595 0.11299715 -0.27025548 0.021549845 -0.22931476 -0.11909029
0.43329132 -0.2702037 0.14922313 -0.009498019 -0.09379948 0.063871264 -0.28222883 0.032498
0.1129478 -0.124788865 0.1844788 0.29014838 0.0023483532 0.27502126 0.16620716 -0.26814672
-0.033478875 -0.43957183 0.17940113 -0.6565479 -0.14000294 0.6634562 -0.06887293 -0.28674012
-0.13933648 0.2500846 -0.30945316 -0.03819737 0.08367533 0.417591 -0.19434933 0.22464618
-0.27280408 -0.37324816 -0.36267152 0.07136413 0.18938021 0.13250044 -0.055464406 0.0886935
-0.001687184 0.12169535 0.102749646 -0.2077896 0.2182713 0.0008579937 -0.111077785 -0.16165093
0.03138963 0.10419697 -0.917156 0.4623333 -0.046013847 0.056956634 -0.057251375 0.29491678
-0.09495301 0.21721973 -0.08897938 0.39563644 -0.20448889 -0.34054336 0.20010906 -0.05919036
-0.060573902 -0.07921931 0.15400596 -0.33763337 -0.3814903 -0.10767971 0.19886824 -0.10671088
0.258882 -0.22393169 0.5294938 -0.07717247 -0.01574713 0.2588936 -0.070747666 -0.0937666
0.059239794 0.18098557 -0.7130192 0.37988853 -0.13822965 0.13305293 -0.18705769 -0.50256556
0.11501433 -0.06639359 -0.03991881 -0.09568684 -0.04679455 0.15198669 -0.7484634 0.16549942
0.18460342 0.086922616 0.002944205 0.45145684 -0.029891659 -0.365252 0.23070745 -0.60014004
0.121476375 0.19879098 -0.3126825 -0.16909054 0.57747 0.697287 0.3492185 0.3122899
0.06165104 -0.03083018 0.5921215 -0.26353067 -0.28608805 0.23634681 -0.22374076 -0.46640092
-0.34581715 -0.210045 -0.27904716 -0.21787097 0.1352038 -0.566476 0.17226738 0.24759768
-0.14819643 0.147288 0.66483915 0.4211957 0.2798929 0.37901294 -0.350303 -0.03813434
00000000: 8a9a a3be 5fa2 5c3e 23b5 4e3e 288c 443e
00000010: 3873 31be 35c1 033e 18c9 e13d 7c67 93bb
00000020: 234f a3be 381a cabe 3b4d 073f 464e b9be
00000030: 8173 193e 0e8b fdbd 2414 ebbd 5e59 86bc
00000040: a0b8 b53d 0b90 55be 868c c83d c331 37be
00000050: ec6e aabe e13d 923e 7d47 b03c fd5a 90bd
00000060: ee3c 883d 80f5 ccbd 3f4d d9bc 5e47 bbbe
00000070: 5642 983c e148 d63d 42d6 e9bd 4b0c 713e
00000080: dce4 003d 2e37 30be 79d9 163e f42d 293e
00000090: f624 67bd 28c3 c93e 8db3 913d 1cd4 9cbd
000000a0: 5e44 443e 2ca0 c33e edd0 443d 34c5 c63e
000000b0: 015c 8dbd 00e8 88be 5510 06bd 565b 79bd
000000c0: e043 48be 3de4 dcbd e001 2bbe 147d ce3d
000000d0: d035 dbbe 22da 85bd 223d a5bd 45bf 72be
000000e0: 53a1 02be 2a27 703e 5f2c 9a3e 985f 72be
000000f0: 854e cdbd 52dc c73d ba98 a93d 7f33 b7be
00000100: 9c52 bcbe 45f8 b93e 65ee 32bd 477a 64be
00000110: 794d 97be f588 f3bd 35d9 883e b3b2 83bf
00000120: c952 943e 061e d6b9 50c7 073e 9d37 47bd
00000130: 8e8a 103f 200f 7e3c 11ef 8e3d bd7c 0e3e
00000140: c682 533c f45b c9bc 135b fabc b045 883d
00000150: af4e f53c aa76 723d cdb2 843e 63ac 8c3c
00000160: 9573 a1be 7064 643d d128 b73c afb0 a93e
00000170: b89e 27bd 411d 613e 422d d2be f246 ad3e
00000180: 7888 f3bd 79e9 333e a404 8b3e 2c32 33be
00000190: 21e1 5a3f dc68 32be 2d30 0d3e ce3d 62b9
000001a0: fc57 97be 01be 083e e040 fcbd d97a f8be
000001b0: f393 7ebd ae61 003f 79a9 f7be 7ed0 c1bd
000001c0: 6cab b8bd 5b1c 073e dd41 1cbe 0d6b e73d
000001d0: ed5e 8abe 4d89 b03c 7dd1 6abe 9ce5 f3bd
000001e0: 5cd8 dd3e 2458 8abe f3cd 183e 949d 1bbc
000001f0: f119 c0bd f0ce 823d 4c80 90be 9f1c 053d
00000200: 2d51 e73d 4e91 ffbd 03e8 3c3e 548e 943e
00000210: d4e6 193b 96cf 8c3e 3632 2a3e 874a 89be
00000220: 2521 09bd 8f0f e1be eeb4 373e 8613 28bf
00000230: ee5c 0fbe 44d8 293f 400d 8dbd 9acf 92be
00000240: 39ae 0ebe 170b 803e a570 9ebe d874 1cbd
00000250: f95d ab3d 7dce d53e 8303 47be a609 663e
00000260: faac 8bbe 621a bfbe 15b0 b9be 5b27 923d
00000270: e3ec 413e 32ae 073e a52e 63bd f0a4 b53d
00000280: 8024 ddba 693b f93d 686e d23d ccc6 54be
00000290: 8382 5f3e fcea 603a c07c e3bd d287 25be
000002a0: 6a92 003d 3965 d53d bcca 6abf f3b6 ec3e
000002b0: 0479 3cbd 5c4b 693d 6b80 6abd 55ff 963e
000002c0: b976 c2bd d96e 5e3e d23a b6bd dc90 ca3e
000002d0: 8965 51be b35b aebe 64e9 4c3e 9771 72bd
000002e0: 571c 78bd bc3d a2bd bdb3 1d3e 48de acbe
000002f0: b252 c3be 2e87 dcbd 1ea4 4b3e 3c8b dabd
00000300: 2e8c 843e 594e 65be e88c 073f 9a0c 9ebd
00000310: 2000 81bc b48d 843e 27e4 90bd b408 c0bd
00000320: 6da5 723d 4854 393e 6d88 36bf c080 c23e
00000330: 138c 0dbe 073f 083e 0d8c 3fbe 23a8 00bf
00000340: a28c eb3d 5df9 87bd e881 23bd 76f7 c3bd
00000350: a4ab 3fbd 66a2 1b3e 4c9b 3fbf ae78 293e
00000360: ae08 3d3e 7c04 b23d 90f3 403b 5a25 e73e
00000370: 5adf f4bc 4f02 bbbe 933e 6c3e c7a2 19bf
00000380: 9bc8 f83d dd8f 4b3e ec17 a0be 1226 2dbe
00000390: 13d5 133f 6781 323f c4cc b23e 76e4 9f3e
000003a0: cd85 7c3d 938f fcbc 4695 173f 7eed 86be
000003b0: 227a 92be e604 723e 4c1c 65be 1acc eebe
000003c0: f20e b1be 0916 57be 45df 8ebe 9119 5fbe
000003d0: dd72 0a3e 9204 11bf dc66 303e 3f8a 7d3e
000003e0: cec0 17be aad2 163e e632 2a3f f6a6 d73e
000003f0: 1f4e 8f3e fc0d c23e ea5a b3be c132 1cbd

gru.weight_hh_l0 f4 [192, 64]
0.033718724 -0.0029370002 -0.09896774 0.06623473 0.065235734 0.00084523787 -0.06931052 -0.009252643
0.048978504 0.025598718 0.018604893 -0.06355499 0.10734225 0.039784383 -0.004850914 -0.108640455
0.094291 -0.1019627 0.023128606 -0.116779566 -0.0044871666 0.075462215 -0.007734251 0.09733042
0.035364423 0.077061355 0.10489355 -0.027618246 -0.055496898 -0.09021543 -0.07205 -0.010267307
0.002968464 -0.09529396 0.002836545 -0.06707429 -0.024749832 0.09574722 0.09472703 -0.076935485
0.029001994 -0.100441694 0.016253874 -0.08855288 -0.014343384 0.010099007 -0.037157368 0.02340442
-0.040950373 0.1024199 -0.090748884 -0.06169405 0.11377193 0.004262477 0.083308615 0.106167756
0.07944801 -0.019211406 0.029683612 -0.032145634 -0.0006219775 -0.119638264 0.05852524 -0.1012445
-0.08577298 -0.010155217 -0.03152098 0.04830682 0.10888735 0.023373991 0.051092077 0.01726092
0.011513028 -0.08952942 -0.062793314 0.055887785 0.04708902 -0.10700217 -0.055585936 -0.07849479
0.056175727 -0.032384332 0.083545834 -0.044692986 -0.11161987 0.11095113 0.0011109333 0.08628688
0.10967986 0.119974844 0.08277449 0.082864985 0.105325475 -0.00798535 0.07926278 -0.11186323
0.05913889 0.05341725 0.08403387 -0.10393872 -0.10385295 -0.08848455 -0.11638548 0.011476891
-0.11336478 -0.0606391 -0.031522583 -0.066519395 -0.000105862775 -0.054208454 0.07451336 0.062655985
0.0572689 0.0039188988 0.08669102 0.09371404 -0.032136116 0.0057351766 -0.09408929 0.0195817
-0.030569684 -0.050581615 0.064919665 0.11231033 0.02315218 0.015122475 -0.077744626 0.0929453
0.081168905 -0.09264872 -0.0725295 0.010897523 0.038429588 0.08568146 -0.041671224 -0.07341539
0.031813152 -0.06158773 -0.0022494283 -0.0342865 -0.12084748 -0.057106726 0.036028087 0.10867176
0.06878076 -0.096819766 -0.08204234 0.10416011 -0.028778762 -0.060419098 -0.0056487164 0.017752806
0.0016721756 0.011065377 -0.012651277 -0.0049974485 0.03832613 0.018082313 0.003059266 0.028995715
-0.061928056 0.01038241 0.045318928 0.08077264 0.054437324 0.08447776 -0.10049009 -0.04035977
0.00035570434 -0.030855618 -0.049098447 0.0681929 -0.032091435 0.104500696 -0.043401964 -0.008639945
0.050232675 -0.04747138 0.021098392 0.034349695 -0.011949905 -0.046489265 0.057586372 0.08700417
-0.0040261857 0.03159227 -0.06598999 -0.02456527 -0.02577579 -0.08321949 0.093653806 0.022199925
0.11698032 0.047462456 0.108387664 0.11252614 0.08932745 0.010406762 -0.07765062 0.09732902
-0.07461883 -0.10444509 0.014623562 0.02516096 0.044340927 0.06309221 0.10983273 0.024073849
-0.097799435 -0.059798807 -0.07059319 -0.024044812 -0.07272791 -0.07360412 0.07544104 -0.039083403
0.11857386 0.06348742 0.011800303 0.07606977 -0.032811534 0.12119142 -0.101579405 -0.015266204
-0.0699854 0.1182759 -0.069480285 -0.016684402 -0.0661447 0.083873555 0.09658728 -0.034166526
-0.010351521 -0.11156955 -0.042225868 -0.035415635 0.008359998 -0.095121495 -0.01027116 -0.030921157
0.09551473 0.0051299366 -0.06871691 0.082833424 0.010425603 0.0140316645 -0.06447113 0.060928576
-0.055654503 0.08156597 -0.09188275 -0.10219154 -0.11254401 -0.02113149 0.00013206564 0.031664677
00000000: a51c 0a3d b07a 40bb 99af cabd 13a6 873d
00000010: 509a 853d f492 5d3a adf2 8dbd 6698 17bc
00000020: af9d 483d 67b4 d13c 4a69 983c 1e29 82bd
00000030: 41d6 db3d f3f4 223d 6af4 9ebb e37e debd
00000040: a41b c13d d2d1 d0bd 3478 bd3c 202a efbd
00000050: 1509 93bb ef8b 9a3d 9a6f fdbb 2c55 c73d
00000060: 49da 103d 58d2 9d3d 6ed2 d63d a93f e2bc
00000070: b750 63bd dec2 b8bd f38e 93bd 3538 28bc
00000080: 908a 423b 7b29 c3bd 54e5 393b 3f5e 89bd
00000090: 29c0 cabc 1e17 c43d 3f00 c23d 5a90 9dbd
000000a0: 9795 ed3c 60b4 cdbd d826 853c 365b b5bd
000000b0: 8300 6bbc 4e76 253c 5332 18bd a0ba bf3c
000000c0: 94bb 27bd 86c1 d13d 8dda b9bd e6b2 7cbd
000000d0: 4201 e93d 40ac 8b3b b59d aa3d 7b6e d93d
000000e0: a3b5 a23d 3d61 9dbc 0c2b f33c 24ab 03bd
000000f0: 340c 23ba e804 f5bd 29b8 6f3d 4759 cfbd
00000100: bea9 afbd 1162 26bc 251c 01bd 5fdd 453d
00000110: 5500 df3d d07a bf3c ed45 513d c666 8d3c
00000120: 24a1 3c3c 335b b7bd c899 80bd 97ea 643d
00000130: 6be0 403d f423 dbbd 14ae 63bd e0c1 a0bd
00000140: 8518 663d 6fa5 04bd 141a ab3d fe0f 37bd
00000150: f598 e4bd 593a e33d bc9c 913a 2db7 b03d
00000160: d69f e03d 5fb5 f53d ac85 a93d 1eb5 a93d
00000170: e2b4 d73d fcd4 02bc 8654 a23d 8d18 e5bd
00000180: 9f3b 723d 0ccc 5a3d f319 ac3d d3dd d4bd
00000190: dbb0 d4bd 6337 b5bd 835b eebd 9209 3c3c
000001a0: cb2b e8bd b460 78bd d31d 01bd 523b 88bd
000001b0: a502 deb8 af09 5ebd 769a 983d c851 803d
000001c0: cb92 6a3d 1b6a 803b 108b b13d 26ed bf3d
000001d0: 29a1 03bd 26ee bb3b e3b1 c0bd cd69 a03c
000001e0: 466d fabc ab2e 4fbd 9af4 843d f502 e63d
000001f0: a4a9 bd3c 42c4 773c 9338 9fbd 1b5a be3d
00000200: e23b a63d 9dbe bdbd 598a 94bd 868b 323c
00000210: 5868 1d3d c379 af3d 72af 2abd cf5a 96bd
00000220: 824e 023d 6a43 7cbd 256b 13bb 0070 0cbd
00000230: e27e f7bd bee8 69bd 3092 133d 4d8f de3d
00000240: eddc 8c3d 7149 c6bd d005 a8bd e551 d53d
00000250: 70c1 ebbc 047a 77bd de18 b9bb 556e 913c
00000260: e72c db3a 8e4b 353c 4d47 4fbc a3c1 a3bb
00000270: dcfb 1c3d 5c21 943c f77d 483b 6c88 ed3c
00000280: 46a8 7dbd fc1a 2a3c 57a0 393d 206c a53d
00000290: acf9 5e3d ad02 ad3d c0cd cdbd 4950 25bd
000002a0: d47d ba39 ecc4 fcbc 741b 49bd b8a8 8b3d
000002b0: 4f72 03bd 7604 d63d 42c6 31bd 8e8e 0dbc
000002c0: c7c0 4d3d 5a71 42bd 89d6 ac3c 44b2 0c3d
000002d0: 89c9 43bc 876b 3ebd b0df 6b3d 3e2f b23d
000002e0: 18ee 83bb e566 013d c325 87bd 1b3d c9bc
000002f0: c027 d3bc fb6e aabd 91cd bf3d 9edc b53c
00000300: 6193 ef3d fe67 423d 5afa dd3d 1b74 e63d
00000310: 4ff1 b63d 2081 2a3c 4a07 9fbd 7054 c73d
00000320: c2d1 98bd 4fe7 d5bd aa97 6f3c 5c1e ce3c
00000330: d59e 353d 7d36 813d fbef e03d 8536 c53c
00000340: 124b c8bd 98ef 74bd 2a93 90bd a0f9 c4bc
00000350: 5ff2 94bd c2bd 96bd d580 9a3d eb15 20bd
00000360: dad6 f23d b105 823d 0f56 413c 78ca 9b3d
00000370: 6365 06bd 3533 f83d dd08 d0bd 1a1f 7abc
00000380: 8154 8fbd a33a f23d ae4b 8ebd baad 88bc
00000390: df76 87bd e6c5 ab3d 8dcf c53d 33f2 0bbd
000003a0: 6d99 29bc 947e e4bd 08f5 2cbd fc0f 11bd
000003b0: 60f8 083c 0fcf c2bd 5e48 28bc 5e4e fdbc
000003c0: 3a9d c33d 0719 a83b 74bb 8cbd 92a4 a93d
000003d0: 26d0 2a3c 11e5 653c 7109 84bd 3e90 793d
000003e0: faf5 63bd 0f0c a73d 062d bcbd cc49 d1bd
000003f0: 797d e6bd f21b adbc 1a7b 0a39 d2b2 013d

gru.bias_ih_l0 f4 [192]
0.12975353 0.20840335 -0.11508468 0.091443725 -0.12733215 0.15777078 0.17969435 -0.0569406
0.1773025 0.24087892 0.0241057 0.07432035 0.099829145 0.19565587 0.09617003 0.08061222
0.40289843 0.081296094 0.059233345 0.28735775 -0.030690556 -0.2952091 0.12773983 0.08877616
0.08576694 0.058545776 0.31037965 0.21830253 0.17774485 -0.15333994 0.057503723 0.04168068
0.25041434 -0.09756164 -0.045805257 -0.22297668 0.18614605 0.08755031 0.41966787 0.42369515
-0.010637184 0.3739186 0.13260771 0.20586276 0.30530527 0.20174411 -0.18380946 0.08152907
-0.12768589 -0.1303187 0.25773028 0.19962113 0.31585884 -0.001281247 0.18828443 -0.21110821
-0.050882846 -0.031037295 -0.023710433 0.24685852 -0.20557636 -0.040100623 0.27440792 0.17113818
-0.28531235 -0.1801437 0.1532183 -0.026218805 0.096246324 -0.2472134 -0.10537678 0.0760108
-0.26508397 -0.30067283 -0.102163106 -0.17254238 0.117911406 -0.3742636 0.014126833 -0.17434168
-0.22372384 -0.020074733 0.20484546 -0.10878259 -0.056118812 -0.018042957 -0.15843073 -0.12076818
-0.27175257 -0.3103762 0.11266536 -0.1298393 -0.35283583 -0.44261333 -0.13203694 -0.11437697
-0.09686144 -0.07163077 0.0020361345 0.118601866 0.056712303 -0.2587535 -0.37104356 -0.10288558
0.0069319364 -0.04811235 -0.08130566 -0.2538593 -0.12667425 -0.20249683 0.09079026 -0.12293722
0.03152322 -0.21632698 -0.3811935 -0.30867848 -0.24546038 -0.1762363 -0.32116792 -0.044558845
-0.19798726 -0.08290335 -0.07025583 0.039006557 0.064240195 0.08721198 -0.1451393 -0.20667951
-0.14635515 -0.054437768 0.101681374 -0.091213144 -0.075844474 -0.038170572 0.27993226 0.063484274
0.12662329 0.22464234 -0.09780772 0.041737095 -0.22061564 0.1741552 0.011206414 -0.25311792
0.27634853 -0.004369347 -0.0023050176 -0.120262995 -0.0250412 -0.09930015 -0.11656419 -0.0038289337
-0.23119935 0.16208005 0.2150209 0.16519696 0.09396728 -0.24222876 0.11434178 -0.009860154
-0.08274475 -0.10745926 0.083788686 0.07287633 -0.05982236 0.17497177 0.29680535 -0.33616763
0.104058 0.2851932 -0.21618725 0.25082457 0.19765446 0.3168371 -0.010538616 -0.24572739
-0.106659696 0.06389443 0.21740158 -0.30701292 0.34075624 -0.0654827 0.21292499 0.16920984
-0.12498435 0.10584409 -0.052741468 -0.22465973 0.10360448 0.008182924 -0.1433792 0.09396399
00000000: 1cde 043e b067 553e 84b1 ebbd d946 bb3d
00000010: 5c63 02be aa8e 213e cc01 383e 8c3a 69bd
00000020: c98e 353e f7a8 763e 5179 c53c 4535 983d
00000030: 3973 cc3d 035a 483e cbf4 c43d 0518 a53d
00000040: b448 ce3e 917e a63d aa9e 723d 8e20 933e
00000050: c36a fbbc a625 97be 3bce 023e 46d0 b53d
00000060: 94a6 af3d b2cd 6f3d 15ea 9e3e b38a 5f3e
00000070: bf02 363e 2505 1dbe 0689 6b3d 5cb9 2a3d
00000080: 4f36 803e 66ce c7bd 4b9e 3bbd 0054 64be
00000090: 129d 3e3e 944d b33d b5de d63e 92ee d83e
000000a0: 9547 2ebc 4272 bf3e 51ca 073e b0cd 523e
000000b0: f950 9c3e 0296 4e3e 8c38 3cbe b7f8 a63d
000000c0: 17c0 02be 4472 05be 39f5 833e 7b69 4c3e
000000d0: 40b8 a13e 84ef a7ba a2cd 403e c02c 58be
000000e0: 886a 50bd ed41 febc 623c c2bc 7bc8 7c3e
000000f0: 9c82 52be 8d40 24bd 327f 8c3e d93e 2f3e
00000100: 7614 92be 9777 38be 42e5 1c3e d2c8 d6bc
00000110: cb1c c53d 8225 7dbe c8cf d7bd 8dab 9b3d
00000120: 16b9 87be caf1 99be e43a d1bd f3ae 30be
00000130: 897b f13d 7b9f bfbe 3b74 673c a086 32be
00000140: dd17 65be c473 a4bc 02c3 513e 68c9 debd
00000150: d7dc 65bd d3ce 93bc aa3b 22be 4f55 f7bd
00000160: 2723 8bbe a1e9 9ebe 19bd e63d 98f4 04be
00000170: e6a6 b4be 379e e2be b134 07be 793e eabd
00000180: 4a5f c6bd 27b3 92bd ab70 053b 89e5 f23d
00000190: 294b 683d 577b 84be 6cf9 bdbe adb5 d2bd
000001a0: 4c25 e33b 7511 45bd 9583 a6bd d9f9 81be
000001b0: e5b6 01be 545b 4fbe 3ef0 b93d 82c6 fbbd
000001c0: 7e1e 013d d284 5dbe cb2b c3be 1b0b 9ebe
000001d0: f759 7bbe 4a77 34be 1f70 a4be 5683 36bd
000001e0: 2cbd 4abe 3bc9 a9bd 4ae2 8fbd 57c5 1f3d
000001f0: 5d90 833d 329c b23d 669f 14be cba3 53be
00000200: 20de 15be 23fa 5ebd 533e d03d f5cd babd
00000210: 5954 9bbd bf58 1cbd 4853 8f3e 0b04 823d
00000220: 89a9 013e a408 663e 6a4f c8bd 84f4 2a3d
00000230: 11e9 61be be55 323e 1b9b 373c ac98 81be
00000240: 8e7d 8d3e bd2c 8fbb c70f 17bb 724c f6bd
00000250: 3423 cdbc e15d cbbd 35b9 eebd d9ee 7abb
00000260: 86bf 6cbe 50f8 253e 702e 5c3e 6429 293e
00000270: eb71 c03d d10a 78be 062c ea3d 7c8c 21bc
00000280: 1476 a9bd 9a13 dcbd 6799 ab3d 2f40 953d
00000290: 4a08 75bd cd2b 333e dff6 973e 2a1e acbe
000002a0: 5c1c d53d d804 923e 3160 5dbe 146c 803e
000002b0: ee65 4a3e 7938 a23e 29aa 2cbc f69f 7bbe
000002c0: 6670 dabd 15db 823d 859e 5e3e cc30 9dbe
000002d0: 9a77 ae3e cb1b 86bd 0209 5a3e 5845 2d3e
000002e0: cbf7 ffbd c9c4 d83d 7007 58bd 330d 66be
000002f0: 962e d43d ac11 063c ffd1 12be 3170 c03d

gru.bias_hh_l0 f4 [192]
-0.005404394 0.09069895 0.033403102 0.0512333 -0.020874763 0.10622945 0.13088419 0.054387208
-0.014407799 0.11967455 -0.13825731 0.098211005 0.0029502285 0.3728869 0.11763933 0.07920274
0.29333887 -0.030301351 -0.08194873 0.21375898 -0.039372273 -0.19108146 0.22694802 0.088442765
0.045290943 0.071981624 0.2872395 0.3043317 0.18863012 -0.038612243 0.030114062 -0.16079386
0.14563085 -0.023482481 0.08652883 -0.011731673 0.19007494 -0.012356395 0.3256 0.46604744
0.039967425 0.32213873 0.08271535 0.1260849 0.27638492 0.26020023 -0.10114724 0.12312216
-0.21460518 -0.018042393 0.26574054 0.20455383 0.2268019 0.0025949453 0.071267515 -0.19282864
0.12992963 0.050668385 0.07065465 0.06337884 -0.15685913 -0.0766839 0.30306265 0.17740192
-0.40460706 -0.16555624 0.13688585 -0.07395618 0.037929025 -0.30935553 -0.3103232 0.11366839
-0.28716612 -0.37820533 -0.27415493 -0.124218285 0.081722185 -0.37605685 -0.03754866 -0.16207187
-0.28808463 -0.19014132 0.17385349 -0.045640852 -0.078466125 -0.021898754 -0.085462704 -0.070889555
-0.1280254 -0.2560274 0.056496833 -0.16177964 -0.25205427 -0.3252438 -0.109970436 -0.080823995
-0.16162246 0.062697925 -0.0793298 -0.068813115 -0.049262676 -0.14886938 -0.28261715 -0.10373994
-0.09981217 -0.22120391 -0.15538861 -0.21516645 -0.25343153 -0.22375439 0.08977834 0.03182516
-0.037614115 -0.23782195 -0.30058688 -0.14245477 -0.105712675 -0.13958716 -0.13323092 0.035383623
-0.17383607 -0.116063334 0.07819813 0.24258992 0.179635 0.08184513 -0.15271527 -0.14463377
-0.30030867 -0.25908044 0.005701213 -0.3603083 -0.045078147 -0.21507555 0.35314322 -0.039520796
0.31967065 0.7056318 0.17160287 0.16197585 -0.36710826 0.4412641 -0.099382214 -0.21666257
0.39031652 0.29235533 0.20486346 -0.38905498 0.42884085 0.15331091 -0.4758095 -0.3639215
-0.3975064 0.28521368 0.5561559 0.29113913 0.48258078 0.18886748 -0.26003075 0.2308794
-0.33926335 0.12902956 0.25053653 -0.027561037 -0.21055156 0.1554131 0.47235218 -0.3555791
-0.16945218 0.40968618 -0.32634822 0.43052363 0.2376152 0.41625386 -0.024073923 -0.23884259
0.029644104 -0.10638196 0.40821016 -0.3646496 0.43034244 -0.39477706 0.2902738 -0.20775977
-0.2065806 0.17495428 -0.2262454 -0.24473366 -0.14115605 0.005316642 -0.2736421 0.41587555
00000000: 5817 b1bb 5fc0 b93d b1d1 083d 02da 513d
00000010: 8d01 abbc d38e d93d 8106 063e 1fc5 5e3d
00000020: b00e 6cbc ee17 f53d 5393 0dbe da22 c93d
00000030: 9f58 413b 08eb be3e e4ec f03d 0c35 a23d
00000040: 8330 963e 8a3a f8bc bcd4 a7bd a2e3 5a3e
00000050: d244 21bd dcaa 43be 1065 683e 7b21 b53d
00000060: ff82 393d 1a6b 933d 0e11 933e 5dd1 9b3e
00000070: 4128 413e df27 1ebd c4b1 f63c 25a7 24be
00000080: 4120 153e 555e c0bc 0736 b13d 3436 40bc
00000090: 01a3 423e 7a72 4abc 0bb5 a63e c59d ee3e
000000a0: e2b4 233d 5eef a43e aa66 a93d 661c 013e
000000b0: 5382 8d3e f738 853e 4926 cfbd 7927 fc3d
000000c0: 76c1 5bbe a4cd 93bc 250f 883e 8f76 513e
000000d0: c23e 683e f50f 2a3b b4f4 913d df74 45be
000000e0: 460c 053e a789 4f3d 63b3 903d c4cc 813d
000000f0: ae9f 20be 730c 9dbd 072b 9b3e d9a8 353e
00000100: a828 cfbe 9387 29be ce2b 0c3e 5676 97bd
00000110: 775b 1b3d d963 9ebe afe2 9ebe f9ca e83d
00000120: 7007 93be 21a4 c1be 095e 8cbe 2866 febd
00000130: f65d a73d 868a c0be a0cc 19bd 2bf6 25be
00000140: d47f 93be 68b4 42be a606 323e e7f1 3abd
00000150: d9b2 a0bd 0465 b3bc 1207 afbd 8b2e 91bd
00000160: 1719 03be 0616 83be 3969 673d 90a9 25be
00000170: 420d 81be 5b86 a6be 2e38 e1bd 0d87 a5bd
00000180: 5c80 25be c567 803d aa77 a2bd e4ed 8cbd
00000190: a9c7 49bd 3771 18be 32b3 90be 9b75 d4bd
000001a0: 536a ccbd 4783 62be 311e 1fbe 9854 5cbe
000001b0: c7c1 81be df1f 65be b5dd b73d 195b 023d
000001c0: 4211 1abd 9987 73be 86e6 99be aadf 11be
000001d0: e37f d8bd f0ef 0ebe b06d 08be 6bee 103d
000001e0: 1502 32be 9db2 edbd 5726 a03d 7e69 783e
000001f0: 3df2 373e 6b9e a73d 6461 1cbe e01a 14be
00000200: 0fc2 99be 31a6 84be 3ed1 ba3b 547a b8be
00000210: dda3 38bd c43c 5cbe 30cf b43e 8fe0 21bd
00000220: dfab a33e 49a4 343f aab8 2f3e ffdc 253e
00000230: 9df5 bbbe 5eed e13e e788 cbbd cbdc 5dbe
00000240: 91d7 c73e 99af 953e bac7 513e 3732 c7be
00000250: 0791 db3e 89fd 1c3e 4e9d f3be eb53 babe
00000260: f585 cbbe 8707 923e 3c60 0e3f 3010 953e
00000270: d414 f73e 7a66 413e c022 85be a66b 6c3e
00000280: edb3 adbe 5320 043e 5346 803e afc7 e1bc
00000290: d49a 57be 9d24 1f3e 25d8 f13e 770e b6be
000002a0: df84 2dbe 63c2 d13e 1d17 a7be 986d dc3e
000002b0: 6651 733e 3a1f d53e ad36 c5bc 2793 74be
000002c0: 31d8 f23c c9de d9bd ec00 d13e 5ab3 babe
000002d0: d855 dc3e 3820 cabe c49e 943e fabe 54be
000002e0: dd89 53be 3727 333e e0ac 67be 769b 7abe
000002f0: 368b 10be 3a37 ae3b d11a 8cbe a4ed d43e

fc.weight f4 [3, 64]
-0.7127427 -0.43772215 -0.2655595 -0.32353538 -0.35079426 -0.38756025 0.69381344 -0.37345803
0.33632252 0.5190434 0.55342263 0.3967998 -0.56270087 0.057288095 -0.6525455 -0.6224789
0.30385286 0.70872873 -0.045032002 -0.3975571 0.25559375 -0.3586706 -0.51956385 -0.39391345
-0.3208735 0.5092538 -0.20547037 0.3091094 -0.28373006 0.69715285 -0.028086709 -0.046859767
-0.5365276 0.6578507 0.6103086 -0.28698263 -0.39002785 0.3908408 0.34319177 -0.4575971
-0.42021623 0.43391946 -0.4975244 0.16121891 0.41907772 0.43743327 -0.43927455 -0.32900622
0.4939155 0.8174076 0.35939127 -0.28163314 0.25084606 -0.6115257 0.45531127 -0.6115271
-0.6636848 0.615675 -0.33723876 -0.42939278 -0.22812033 0.30999008 -0.20166947 1.1473666
0.2999463 -0.110103115 0.406607 0.65777296 0.34106293 0.5372662 -0.26536542 0.22379091
0.14039439 0.2573917 0.03993591 -0.3752452 -0.10719848 0.61229473 0.62893873 0.16017349
0.066706754 -0.41934457 0.34263802 0.21045841 -0.705767 0.45825434 0.66473097 0.5850735
0.008448282 -0.22642145 0.75621074 0.31346178 0.6979282 -0.21708341 -0.5137106 0.49003467
0.32791248 -0.4172156 -0.50821435 0.43219507 0.043218147 0.21826175 0.3839865 -0.018544916
0.5519085 -0.10694793 -0.0040794737 0.26925635 -0.20463486 0.12648119 0.41561538 0.20557833
-0.5715271 -0.17656097 0.084401146 -0.01206082 0.23640071 0.5527934 -0.59373814 0.54950595
0.3746945 -0.5337774 0.041904643 0.4028237 0.5272733 -0.22459187 -0.38753483 -0.75269336
0.5369659 0.45006254 0.077149175 -0.19603513 0.3308908 -0.124295235 -0.7611977 0.039531786
-0.88363004 -1.0726087 -0.71174324 0.13137358 0.60705566 -0.9111674 0.26258802 0.5560558
-0.48525372 -0.5928837 -0.470323 0.3077681 0.14490423 -0.12928136 -0.063889556 -0.25398722
0.67115736 -0.44778565 -0.31039196 -0.66552365 -0.47193697 -0.6524892 0.46268073 -0.42867696
0.33219954 -0.12538287 -0.29107723 -0.14955235 0.37171715 -0.7583383 -0.8527261 0.43159923
-0.21385479 -0.391345 0.83642036 -0.58006656 -0.33040884 -0.6272174 0.07975356 0.2499823
0.022484053 -0.7805535 -0.6437015 0.49019969 -0.5059 0.350937 0.2912455 0.09353456
0.39883128 -0.18712208 0.52778715 0.21815331 -0.55243325 0.109534726 0.6514199 -0.53133994
00000000: 4e76 36bf 1e1d e0be 6af7 87be 6ea6 a5be
00000010: 4e9b b3be 4c6e c6be c29d 313f e435 bfbe
00000020: 7732 ac3e 07e0 043f 1bad 0d3f 5829 cb3e
00000030: 2a0d 10bf eca6 6a3d 390d 27bf c75a 1fbf
00000040: 9a92 9b3e 3f6f 353f 7a73 38bd 9b8c cbbe
00000050: 2fdd 823e aca3 b7be 2302 05bf 06af c9be
00000060: 8849 a4be 755e 023f d366 52be 9643 9e3e
00000070: 1145 91be 9c78 323f 1916 e6bc 07f0 3fbd
00000080: df59 09bf e768 283f 2f3d 1c3f 63ef 92be
00000090: bbb1 c7be 491c c83e d5b6 af3e 2b4a eabe
000000a0: 9526 d7be b12a de3e 85bb febe 9216 253e
000000b0: 5b91 d63e 41f7 df3e 98e8 e0be 8173 a8be
000000c0: 7ee2 fc3e a041 513f 2202 b83e 3832 90be
000000d0: e56e 803e f38c 1cbf 8f1e e93e 0a8d 1cbf
000000e0: 3fe7 29bf e09c 1d3f 8faa acbe 5fd9 dbbe
000000f0: 6098 69be 05b7 9e3e 7182 4ebe e9dc 923f
00000100: 9092 993e be7d e1bd cb2e d03e cf63 283f
00000110: cd9f ae3e 478a 093f fadd 87be 7229 653e
00000120: 8cc3 0f3e d8c8 833e d693 233d 2420 c0be
00000130: e08a dbbd 59bf 1c3f 2102 213f 8504 243e
00000140: 8d9d 883d 55b4 d6be 406e af3e 6982 573e
00000150: 25ad 34bf 50a0 ea3e cf2b 2a3f 60c7 153f
00000160: aa6a 0a3c 06db 67be 0797 413f 107e a03e
00000170: 6cab 323f 1d4b 5ebe 8a82 03bf d3e5 fa3e
00000180: 25e4 a73e 489d d5be 561a 02bf ac48 dd3e
00000190: 8305 313d 0280 5f3e e199 c43e 82eb 97bc
000001a0: e049 0d3f 8407 dbbd 1bad 85bb f8db 893e
000001b0: cd8b 51be 4984 013e 8acb d43e 2083 523e
000001c0: 9a4f 12bf 66cc 34be 82da ac3d bf9a 45bc
000001d0: 0713 723e de83 0d3f 39ff 17bf 6cac 0c3f
000001e0: f5d7 bf3e a3a5 08bf 34a4 2b3d e83e ce3e
000001f0: 62fb 063f 69fb 65be f76a c6be 83b0 40bf
00000200: 9976 093f 996e e63e 6300 9e3d 6fbd 48be
00000210: 856a a93e 808e febd dadd 42bf 15ec 213d
00000220: 9435 62bf 3e4b 89bf ce34 36bf cc86 063e
00000230: 0068 1b3f 4442 69bf f071 863e ac59 0e3f
00000240: 2d73 f8be 3ac7 17bf 2dce f0be c893 9d3e
00000250: c661 143e 5562 04be 87d8 82bd 9d0a 82be
00000260: f8d0 2b3f 2944 e5be b2eb 9ebe c25f 2abf
00000270: b9a1 f1be 8809 27bf 7de4 ec3e 8c7b dbbe
00000280: 0f16 aa3e 5e64 00be 1308 95be 4024 19be
00000290: b651 be3e 7522 42bf 424c 5abf 93fa dc3e
000002a0: c0fc 5abe 5f5e c8be a51f 563f 3e7f 14bf
000002b0: 592b a9be 5291 20bf d655 a33d 5cfb 7f3e
000002c0: 7a30 b83c 5bd2 47bf 9fc9 24bf 74fb fa3e
000002d0: aa82 01bf 04ae b33e 211e 953e 0c8f bf3d
000002e0: 9d33 cc3e ee9c 3fbe 0f1d 073f 9563 5f3e
000002f0: 446c 0dbf be53 e03d 74c3 263f e505 08bf

fc.bias f4 [3]
0.08467532 -0.07621227 -0.18992604
00000000: 416a ad3d 2e15 9cbd f97b 42be
