Demo/results/models/疲劳分类标签_backward_lstm.pth (torch, 81928 bytes, 6 tensors)

lstm.weight_ih_l0 f4 [256, 11]
0	0x3e9b0794	0.3027922
1	0x3e31c571	0.17360474
2	0x3e15cd11	0.14629008
3	0x3d8862ee	0.06659494
4	0x3ee85cb0	0.45383215
5	0xbda11993	-0.07866206
6	0x3e4c8cf9	0.19975652
7	0xbe9edbbd	-0.31027022
8	0x3e870728	0.26372647
9	0xbe8684a3	-0.2627307
10	0x3de32714	0.11091438
11	0x3e41b2b8	0.18915832
12	0x3ee9c7b5	0.45660177
13	0xbefeaee9	-0.4974282
14	0xbe4011a9	-0.18756737
15	0x3e97dfa7	0.2966282
16	0x3e3a567e	0.18197057
17	0xbd7d2f45	-0.061812658
18	0x3f3eed1b	0.74580544
19	0x3eba2a6f	0.363605
20	0x3e487412	0.19575527
21	0xbe9ff71a	-0.3124321
22	0x3d4e612c	0.05038564
23	0xbecb18f7	-0.39667484
24	0x3ef9c4ab	0.48782858
25	0x3d213292	0.03935487
26	0xbe93cb84	-0.28866208
27	0x3e1d85eb	0.15383117
28	0xbe59f2eb	-0.21284072
29	0xbd3ef6a4	-0.046621934
30	0xbd9f5168	-0.07779199
31	0xbf341f38	-0.70360136
32	0x3f19f388	0.60137224
33	0xbec8903a	-0.39172536
34	0xbec23ece	-0.3793854
35	0xbed33183	-0.41248712
36	0x3c96b5d3	0.018397247
37	0xbe16830e	-0.14698431
38	0x3c2dd01e	0.010608701
39	0x3d877173	0.066134356
40	0x3e62fd47	0.2216693
41	0xbe674f5d	-0.22588868
42	0xbda457fa	-0.08024593
43	0xbe8ea699	-0.2786148
44	0xbdc62d23	-0.09676578
45	0xbded6fa9	-0.11593563
46	0xbe02b04f	-0.12762569
47	0xbe870e49	-0.26378086
48	0x3f14761c	0.5799272
49	0xbd80e95d	-0.062945105
50	0xbed607e4	-0.41802895
51	0x3db8dbd2	0.090263024
52	0xbea59b6b	-0.32345137
53	0xbe5abe8b	-0.21361749
54	0x3c317bd4	0.010832746
55	0x3f28f061	0.6599179
56	0xbee4968b	-0.44646105
57	0x3d94bca0	0.0726254
58	0xbe226c18	-0.15861547
59	0x3d18a4ce	0.037266545
60	0x3e972e87	0.29527685
61	0x3cb64d73	0.022253728
62	0x3eecbee0	0.46239376
63	0xbed925dd	-0.424117
64	0x3e8cc926	0.27497214
65	0x3e522fe4	0.20526081
66	0xbe771175	-0.24127753
67	0xbe87c249	-0.26515415
68	0x3deda819	0.11604328
69	0xbe42eeac	-0.19036359
70	0x3f0de10b	0.55421513
71	0xbee3c15c	-0.4448346
72	0x3e9dfd22	0.30857188
73	0x3dfe89d7	0.124286346
74	0x3f001a89	0.5004049
75	0xbd5804fa	-0.05273912
76	0xbee0b7d6	-0.43890256
77	0xbc0105c2	-0.007874908
78	0x3f0dbfb3	0.55370635
79	0xbe7c96a7	-0.24666844
80	0xbf00c922	-0.50306904
81	0xbe4de9c2	-0.20108703
82	0xbe92ae63	-0.28648672
83	0xbd884e60	-0.06655574
84	0xbea86401	-0.32888797
85	0xbe10a46f	-0.14125226
86	0xbec8a839	-0.39190844
87	0xbf356c2f	-0.708682
88	0xbca9ae4b	-0.020712992
89	0xbefe1db4	-0.49632037
90	0xbe648fc0	-0.22320461
91	0xbdfa30d6	-0.12216346
92	0xbd8af0d3	-0.06784215
93	0x3e17d8b6	0.14828762
94	0xbf108826	-0.56457746
95	0x3f181f12	0.5942241
96	0xbec3eb1c	-0.38265312
97	0xbee72ab9	-0.45149782
98	0xbe36393d	-0.17795272
99	0xbe8e088c	-0.27740896
100	0x3eaee85e	0.34161657
101	0x3e264efa	0.16241065
102	0x3cef5532	0.029215429
103	0xbece931c	-0.4034661
104	0xbd4c759b	-0.049916845
105	0x3e101011	0.14068629
106	0xbdc60921	-0.0966971
107	0xbeb20b8e	-0.3477444
108	0xbe7bd014	-0.24591094
109	0xbe0ed367	-0.13947831
110	0x3f3a4ed5	0.7277654
111	0x3e9ec3ba	0.31008703
112	0xbebc7558	-0.36808276
113	0x3ebb2398	0.36550593
114	0xbe45ee2f	-0.19329141
115	0xbe8db957	-0.27680466
116	0x3e944b0f	0.28963515
117	0xbe76c02b	-0.24096744
118	0xbe7a3e51	-0.24437834
119	0x3d45843d	0.048221815
120	0x3edd8661	0.43266585
121	0xbeee2991	-0.46516088
122	0x3de2e1c6	0.11078219
123	0x3d78997c	0.06069325
124	0xbe76d16c	-0.24103326
125	0x3d679bb8	0.05654499
126	0x3e10ed5e	0.14153048
127	0xbd77ae84	-0.060469165
128	0x3f191cb0	0.598094
129	0xbd44eed5	-0.04807933
130	0xbeb48e7f	-0.35264966
131	0xbf5c2f53	-0.8600971
132	0xbe722cbc	-0.23649877
133	0xbe63e5fc	-0.22255701
134	0x3e22b993	0.15891103
135	0xbed6a088	-0.4191935
136	0x3de4e9b0	0.11177385
137	0xbda621d8	-0.08111924
138	0xbd828cd6	-0.063745186
139	0x3ee84c6b	0.45370802
140	0x3e62662f	0.22109292
141	0xbf25ab65	-0.6471465
142	0xbf0684b6	-0.5254625
143	0x3ce87ec6	0.028380763
144	0x3e9fa753	0.31182346
145	0x3baf8dac	0.005357465
146	0x3ecdfa03	0.40229806
147	0xbe9b9d0a	-0.3039325
148	0x3e9631d8	0.29334903
149	0xbf64542c	-0.89190936
150	0x3f206a54	0.62662244
151	0xbe164f1f	-0.1467862
152	0x3bc92482	0.0061383853
153	0x3e36796d	0.17819758
154	0xbd0d9e5d	-0.034574855
155	0x3ea97c27	0.33102533
156	0x3e93cc80	0.2886696
157	0x3f256109	0.6460119
158	0x3d0e1755	0.03469022
159	0x3f1635a7	0.58675617
160	0xbf161e04	-0.5863955
161	0x3e5447b6	0.2073048
162	0x3e2211fa	0.1582717
163	0x3f284d9b	0.65743417
164	0x3e110740	0.14162922
165	0xbe98ee6d	-0.29869404
166	0xbe31dce5	-0.17369421
167	0xbec9a6a0	-0.39384937
168	0xbeafe209	-0.3435214
169	0xbe808f91	-0.25109532
170	0xbd9d1c98	-0.076714694
171	0xbda77d34	-0.081781775
172	0x3eb72e80	0.35777664
173	0xbe1abb89	-0.15110601
174	0xbec59f74	-0.38598216
175	0x3e9a0e0f	0.3008885
176	0x3e49cddd	0.19707437
177	0x3e14c6de	0.14528987
178	0xbe91bf07	-0.28466055
179	0xbd95ea47	-0.073200755
180	0x3f225ee5	0.6342605
181	0xbe8af483	-0.27139673
182	0xbe5ead10	-0.21745706
183	0xbeb0374d	-0.3441719
184	0x3ea4c920	0.32184696
185	0x3f2a018f	0.6640863
186	0x3e557816	0.2084659
187	0x3e949dcf	0.29026648
188	0x3eb6910b	0.35657534
189	0xbe87bd28	-0.26511502
190	0x3dce9fe4	0.100890905
191	0x3ebe54cb	0.37174067
192	0xbd657ff3	-0.056030225
193	0x3ea4e86f	0.32208583
194	0xbefc01b2	-0.49220043
195	0x3e75a42e	0.23988411
196	0x3e0e4770	0.13894439
197	0x3f292675	0.66074306
198	0x3df78ba0	0.12087178
199	0x3f235874	0.63806844
200	0xbe03fe9e	-0.12890097
201	0x3d616f10	0.055037558
202	0x3f38f4ca	0.7224852
203	0x3deaa99f	0.11458134
204	0xbf0f0770	-0.55870724
205	0x3e7b98f3	0.24570064
206	0x3eba4cb2	0.3638664
207	0x3f001809	0.50036675
208	0x3e47635e	0.194715
209	0x3eada0b7	0.33911678
210	0x3e83bdaa	0.2573064
211	0x3da18fb0	0.07888734
212	0xbeffa278	-0.4992864
213	0x3eef6099	0.46753386
214	0x3f088731	0.53331286
215	0xbf0e589b	-0.5560395
216	0x3d841268	0.06448823
217	0x3e489a5e	0.19590136
218	0x3ec97540	0.39347267
219	0x3e7f67f1	0.24941994
220	0xbf48142b	-0.78155774
221	0x3e234005	0.1594239
222	0x3e38182c	0.17977971
223	0x3f3d1d5c	0.73872924
224	0xbed1def0	-0.409904
225	0x3f2cb7bb	0.6746785
226	0xbed17772	-0.40911442
227	0xbe38a458	-0.18031442
228	0xbe845e4d	-0.25853196
229	0xbd860fd6	-0.06545989
230	0x3e945852	0.28973633
231	0x3e629957	0.22128807
232	0x3cb6b73a	0.022304166
233	0x3f12676c	0.5718906
234	0xbe465786	-0.19369325
235	0x3ef13fbf	0.47118947
236	0xbe0a2f01	-0.13494493
237	0x3f65ae17	0.89718765
238	0xbf259497	-0.64679855
239	0x3ecf231d	0.40456477
240	0x3dcefe3b	0.10107084
241	0xbce172bf	-0.027520536
242	0xbe017af6	-0.12644562
243	0x3e76aef3	0.24090175
244	0xbe1b2f7b	-0.15154831
245	0x3d65f899	0.056145284
246	0xbf216f64	-0.63060594
247	0xbe38fd8d	-0.18065472
248	0x3e15ee64	0.1464172
249	0xbe0e6698	-0.13906324
250	0xbf6963e2	-0.91168034
251	0xbea1749a	-0.31534272
252	0xbeb2ab49	-0.34896305
253	0xbc0c4b65	-0.008562897
254	0xbee26857	-0.4422023
255	0xbee0655b	-0.43827328

lstm.weight_hh_l0 f4 [256, 64]
0	0x3d897f1d	0.06713698
1	0xbd92a5e3	-0.07160547
2	0x3d986525	0.07441167
3	0xbdeb291e	-0.11482452
4	0x3deedc42	0.116631046
5	0xbc2f8440	-0.010712683
6	0x3dd870f2	0.105684176
7	0xbd818ce4	-0.06325701
8	0xbdb4d900	-0.08830452
9	0x3dcb40ef	0.099244945
10	0x3db2bc6e	0.08727346
11	0x3d791e7a	0.06082008
12	0x3d913fee	0.07092272
13	0x3de1960b	0.110149466
14	0x3dc1d547	0.094645076
15	0xbddcc117	-0.107790165
16	0xbd9b0340	-0.07568979
17	0xbd25edff	-0.040510174
18	0x3d76b3ee	0.060230188
19	0xbc88dc22	-0.01670653
20	0x3df39bc8	0.11894947
21	0xbdd0dde4	-0.10198572
22	0x3d9c0917	0.07618921
23	0xbdcf18ef	-0.101121776
24	0xbdb9ea6c	-0.090779155
25	0xbd403cee	-0.046933107
26	0xbd9bab0f	-0.07600986
27	0xbdad1058	-0.08450383
28	0x3c8bd14a	0.01706757
29	0xbd0365ce	-0.03207951
30	0x3d86789b	0.065659724
31	0xbdbe34d8	-0.09287423
32	0x3df0ecf4	0.11763945
33	0x3c249160	0.010044426
34	0xbc018adf	-0.007906645
35	0xbd133fd1	-0.035949532
36	0xbdba8686	-0.091076896
37	0xbd8a7eb7	-0.0676245
38	0xbcb71b29	-0.022351818
39	0xbd37a437	-0.04483434
40	0x3dab661c	0.08369085
41	0xbdc08018	-0.09399432
42	0xbd68ab5d	-0.05680405
43	0x3c85c871	0.01633093
44	0xbde9876f	-0.11402785
45	0x3df71a59	0.12065572
46	0xbdf12e7b	-0.117764436
47	0x3d01fd1c	0.031735525
48	0xbd82f310	-0.06394017
49	0xbda04f20	-0.07827592
50	0xbdbd6fc5	-0.09249834
51	0xbddb0ece	-0.10696183
52	0x3bcd123b	0.0062582768
53	0x3de2672f	0.11054837
54	0xbd9160a7	-0.07098513
55	0x3db21afe	0.086965546
56	0xbd68efa3	-0.05686916
57	0x3da1aed5	0.07894675
58	0x3c173649	0.009229251
59	0xbd81f3df	-0.06345343
60	0x3cb02b44	0.021505006
61	0xbd7a1339	-0.06105349
62	0xbb4d177d	-0.0031294518
63	0xbd27e2e9	-0.040987883
64	0xbd2c2247	-0.042024877
65	0xbd385dec	-0.045011446
66	0x3c89dc62	0.01682872
67	0xbd5ecdf5	-0.054395635
68	0x3ddc065c	0.107434005
69	0xbd1e3b6c	-0.038630888
70	0xbdda70ac	-0.10666022
71	0x3da2f00b	0.07955941
72	0x3d541370	0.05177635
73	0x3de260f5	0.11053649
74	0xbb224b7f	-0.0024764237
75	0xbdaf83c5	-0.08570055
76	0xbd134e77	-0.0359635
77	0x3d51761a	0.05113802
78	0x3dd3dcd8	0.10344857
79	0x3d8c88c0	0.068620205
80	0x3c012552	0.007882433
81	0x3cb084cb	0.021547696
82	0x3dc22b80	0.09480953
83	0x3db2837e	0.087164864
84	0x3d9a184d	0.07524166
85	0x3cf43c3e	0.029813882
86	0x3ddbb52e	0.10727917
87	0xbd942955	-0.07234446
88	0xbdd3f867	-0.10350113
89	0xbda43cdb	-0.0801942
90	0x3db3a5f1	0.08771885
91	0x3dc554d8	0.09635323
92	0xbdf3424c	-0.118778795
93	0x3d204d52	0.03913624
94	0x3d904fc6	0.070464656
95	0x3c78d340	0.015187085
96	0xbd70f2f0	-0.058825433
97	0x3d341935	0.04396935
98	0xbd99db86	-0.07512574
99	0xbda9d9a5	-0.082934655
100	0x3dc74605	0.09730152
101	0xb9e25fb9	-0.00043177398
102	0xbd06e480	-0.03293276
103	0x3d354ab3	0.04426069
104	0xbc116dd1	-0.00887628
105	0x3d3e8318	0.04651174
106	0xbda810f0	-0.082063556
107	0x3d544f3c	0.051833376
108	0x3d572958	0.052529663
109	0xbdb0587d	-0.08610628
110	0x3dab56c8	0.083661616
111	0x3c8e581e	0.017376002
112	0x3bc29b00	0.0059388876
113	0x3d3b9150	0.045792878
114	0x3d4e08fc	0.050301537
115	0x3c596eae	0.013271017
116	0xbc1166ca	-0.0088746045
117	0xbdacca47	-0.08437019
118	0xbdac488b	-0.08412274
119	0xbd23b194	-0.039964274
120	0xbd0f040f	-0.03491598
121	0x3deebbde	0.116569266
122	0x3c78d2e5	0.015187
123	0xbc8dc642	-0.01730645
124	0xbd3c3d8d	-0.045957137
125	0xbdb68fe0	-0.08914161
126	0xbd106264	-0.035250083
127	0x3cf99df5	0.030470828
128	0x3df77a5e	0.120838866
129	0x3b5691ba	0.0032740668
130	0xbcb5fc13	-0.022214925
131	0xbaa6d315	-0.0012727702
132	0x3d7f514e	0.062333398
133	0xbca68b47	-0.020330084
134	0x3df0eac1	0.11763526
135	0xbd9e3047	-0.07724052
136	0xbce4870e	-0.02789643
137	0x3d92aaea	0.071615055
138	0xbb9053f5	-0.0044045397
139	0x3cdbd31a	0.02683406
140	0xbce63ebd	-0.028106088
141	0x3d881f35	0.06646577
142	0xbd0bf506	-0.03416922
143	0x3da93b8c	0.08263311
144	0xbd9fc790	-0.078017354
145	0xbd0ba705	-0.03409483
146	0xbdb0ad09	-0.08626754
147	0x3d5c4041	0.053772215
148	0x3dc40cbe	0.09572743
149	0x3c964de6	0.018347692
150	0xbd991aa6	-0.07475786
151	0x3dcbc05f	0.09948801
152	0xbd8fcefd	-0.07021902
153	0xbccafb45	-0.024778018
154	0x3d0dc53e	0.034611933
155	0xbd878ac0	-0.06618261
156	0x3d83d7bd	0.06437633
157	0x3c73c671	0.014878855
158	0xbac95513	-0.0015360437
159	0xbdc3083a	-0.095230535
160	0x3cb0c762	0.021579448
161	0x3b5fba5b	0.0034138176
162	0x3de01481	0.10941411
163	0xbd63b7b6	-0.055595122
164	0xbd2027bc	-0.039100394
165	0x3d5a32d6	0.053271137
166	0xbde6b6bc	-0.112653226
167	0x3dec1b98	0.115287006
168	0x3dca80f0	0.09887874
169	0xbddff56d	-0.10935483
170	0xbdeab3d7	-0.11460083
171	0xbdad6e32	-0.08468284
172	0xbd9257d5	-0.07145659
173	0x3dea52c0	0.114415646
174	0xbdf4fe9f	-0.119626276
175	0xbdbda9f1	-0.092609294
176	0x3bd40808	0.006470684
177	0x3dd3c59b	0.103404246
178	0x3d30f33c	0.043200716
179	0x3cc8ff5b	0.024535825
180	0xbccd0bf6	-0.025030117
181	0x3d4d314e	0.05009585
182	0x3d08a438	0.033359736
183	0xbd29a5d5	-0.041417915
184	0x3d84a54d	0.06476841
185	0x3d27097b	0.040780526
186	0x3d7452c2	0.059649237
187	0xbde438f8	-0.111436784
188	0xbc4f5b38	-0.012656026
189	0x3db2545f	0.08707499
190	0x3cc7ae3f	0.02437508
191	0xbd83944e	-0.06424771
192	0xbc8e52ba	-0.017373431
193	0xbdd4c718	-0.103895366
194	0xbdc039ee	-0.09386049
195	0x3d1e1442	0.038593538
196	0x3d671b72	0.05642266
197	0x3dbe3b25	0.09288625
198	0x3d5acc8c	0.053417727
199	0xbde93b7f	-0.11388301
200	0xbc469154	-0.01211961
201	0xbdb5eaa3	-0.08882644
202	0xbdd29cf2	-0.10283841
203	0x3d6bbb04	0.0575514
204	0x3dca1937	0.098680906
205	0xbdc12faf	-0.09432923
206	0x3db11550	0.08646643
207	0xbd7a930e	-0.0611754
208	0x3ab38864	0.0013697264
209	0x3d49fc69	0.049312983
210	0x3da48a31	0.080341704
211	0x3dc9d1f3	0.09854498
212	0xbd8afb16	-0.06786172
213	0xbd81b36c	-0.0633305
214	0xbda9c177	-0.082888536
215	0xbd2073ac	-0.039172813
216	0x3ceb51c3	0.02872551
217	0xbc28cec9	-0.010303208
218	0x3d2e1b88	0.042506725
219	0x3dc9959f	0.09842991
220	0x3c5f122d	0.013615173
221	0x3da5aeb1	0.0808996
222	0x3df35ad0	0.118825555
223	0xbdd0dbcc	-0.10198173
224	0x3de5551d	0.11197875
225	0xbd41114e	-0.047135644
226	0x3da10e39	0.07864041
227	0x3dc9f764	0.09861639
228	0xbd6f082c	-0.058357403
229	0xbc81fec5	-0.015868554
230	0xbb3d0107	-0.0028839724
231	0xbd818a6b	-0.06325229
232	0x3dc84e95	0.09780613
233	0x3ba82e1c	0.00513245
234	0x3c4d4e55	0.012530883
235	0x3c93328f	0.017968444
236	0x3d8138ec	0.06309685
237	0xbd599b2d	-0.053126503
238	0x3dddb5c5	0.108256854
239	0x3d87f540	0.066385746
240	0xbce0361f	-0.027369557
241	0xbd47d812	-0.048790045
242	0x3d4ee068	0.05050698
243	0x3c36023e	0.011108933
244	0xbd34f811	-0.044181887
245	0xbd216875	-0.03940626
246	0xbdbadd94	-0.09124294
247	0x3da674d6	0.081277534
248	0x3d09012f	0.033448394
249	0xbddee02b	-0.108826004
250	0x3d0be444	0.034153238
251	0xbd5a43e8	-0.053287417
252	0xbdbd0e58	-0.092312515
253	0x3d096878	0.033546895
254	0xbd7bbc7e	-0.061459057
255	0xbdb26afb	-0.08711811

lstm.bias_ih_l0 f4 [256]
0	0x3eeab09b	0.45837864
1	0x3f12ad85	0.5729602
2	0x3e9a791d	0.30170527
3	0x3ef5c93f	0.480051
4	0x3e296c49	0.16545214
5	0x3e8ee92a	0.27912265
6	0x3e01438c	0.12623423
7	0x3f0601fe	0.5234679
8	0x3eb0feb3	0.3456932
9	0x3ec4fd7a	0.38474637
10	0x3e9bfc73	0.3046604
11	0x3e28ee06	0.16497049
12	0x3e8aed77	0.27134296
13	0x3ea2f308	0.31826043
14	0x3f06d08d	0.52661973
15	0x3eb9601b	0.36206135
16	0x3e870885	0.26373687
17	0x3ee698a5	0.45038334
18	0x3ebad691	0.36491826
19	0x3e7e82ae	0.24854538
20	0x3ec51d69	0.38499
21	0x3e80ea93	0.25178966
22	0x3dceb86d	0.1009377
23	0x3e97d0d2	0.29651505
24	0x3db843de	0.0899732
25	0x3de8a9de	0.113605246
26	0x3dc4f6ef	0.09617411
27	0x3e658cad	0.22416945
28	0x3e972c82	0.29526144
29	0x3e8e90e7	0.27844927
30	0x3e988ea3	0.29796323
31	0x3edeadc4	0.43491948
32	0x3d127e33	0.035764884
33	0x3ee0c79b	0.43902287
34	0x3ea4a62f	0.32158038
35	0x3e81eb7d	0.25374976
36	0xbc6c11e3	-0.014408561
37	0x3eb66f00	0.3563156
38	0x3e7a3ff0	0.24438453
39	0x3dfcb0b9	0.12338395
40	0x3e34cf60	0.17657232
41	0x3ddfb4d1	0.1092316
42	0x3f217e54	0.63083386
43	0x3f0b122a	0.5432459
44	0x3eaa0c4b	0.33212504
45	0x3f1547cc	0.5831268
46	0x3d1b5eda	0.037932254
47	0x3e947ec7	0.29002973
48	0x3ef0f8f8	0.47064948
49	0x3df6ddb0	0.12054002
50	0x3e47b767	0.19503556
51	0x3e80f65e	0.25187963
52	0x3e8d87fe	0.27642816
53	0x3e2e76b8	0.17037475
54	0x3ebd759e	0.37003797
55	0x3e1b760e	0.15181753
56	0x3ef82120	0.48462772
57	0x3e7f381f	0.24923752
58	0x3eaeb140	0.34119606
59	0x3edd7360	0.43252087
60	0x3e8aff64	0.27147973
61	0x3e76558d	0.24056073
62	0x3e896dc6	0.26841563
63	0x3db3d08e	0.08780013
64	0x3cf47f4e	0.02984586
65	0x3d263217	0.040575113
66	0xbd39a1a5	-0.045320172
67	0xbdc6d46a	-0.097084835
68	0xbdee463d	-0.11634491
69	0x3d9355bb	0.07194086
70	0xbddfe59d	-0.10932467
71	0xbcea49f4	-0.028599717
72	0xbdbdd4b7	-0.09269088
73	0xbccab87f	-0.024746178
74	0x3dc16273	0.09442606
75	0x3d127699	0.035757635
76	0xbdc28eaf	-0.09499871
77	0x3dbf1adb	0.09331294
78	0x3d7a9d65	0.06118526
79	0xbd902f7a	-0.070403054
80	0xbd4034b0	-0.046925247
81	0x3dcb8d15	0.09939019
82	0xbdf64f4e	-0.12026845
83	0x3d92d165	0.07168845
84	0xbd8880ba	-0.06665178
85	0xbdce9508	-0.10087019
86	0x3dc6dd99	0.09710235
87	0x3dcc6f5f	0.0998218
88	0xbde30f3f	-0.11086892
89	0x3da23a01	0.079212196
90	0x3d929000	0.07156372
91	0xbdc2c58d	-0.09510336
92	0x3dc5acd7	0.09652107
93	0xbca40214	-0.020020522
94	0x3d951e8e	0.072812185
95	0x3bd98c69	0.0066390526
96	0xbd932565	-0.07184867
97	0xbd86ef2d	-0.06588588
98	0x3d889827	0.06669646
99	0xbce790c8	-0.02826728
100	0xbd852a15	-0.06502167
101	0x3dab38ea	0.08360465
102	0xbd8e7706	-0.06956296
103	0x3d0af358	0.033923477
104	0xbdced200	-0.10098648
105	0x3de80245	0.11328558
106	0x3db243d7	0.08704346
107	0xbd8c0ed7	-0.06838768
108	0xbda0e759	-0.07856626
109	0xbdc53615	-0.09629456
110	0x3c87dbad	0.016584242
111	0x3d86ea98	0.06587714
112	0xbcf4b94f	-0.029873518
113	0x3c1fcf37	0.009753994
114	0x3be7bef0	0.007072322
115	0x3db1d7d1	0.08683742
116	0xbdd41a4a	-0.10356577
117	0xbb66c1c6	-0.0035210713
118	0xbdd98468	-0.106209576
119	0x3dae2e1b	0.08504888
120	0x3d920ba3	0.07131126
121	0xbdac9484	-0.084267646
122	0x3db537f1	0.088485606
123	0xbd62bdb3	-0.055356693
124	0xbcaebc5f	-0.021330057
125	0x3dbe3629	0.09287674
126	0x3d39fc07	0.045406368
127	0xbdd8cf0c	-0.10586366
128	0xbe791475	-0.2432421
129	0x3e1b991b	0.15195124
130	0x3e0f9558	0.14021814
131	0xbe587d67	-0.21141587
132	0xbe6f828d	-0.23389645
133	0xbe85fc22	-0.26168925
134	0x3c93fcfe	0.018064972
135	0x3e117d56	0.14207968
136	0x3e6872c3	0.22700028
137	0x3e16739f	0.14692543
138	0xbdf86b03	-0.12129786
139	0x3e261be3	0.16221575
140	0x3d95ab32	0.073080435
141	0x3e88dc22	0.26730448
142	0xbe7a5892	-0.2444785
143	0x3df481d3	0.119388245
144	0x3d984512	0.07435049
145	0x3e373ab4	0.17893487
146	0xbe1e9f3a	-0.15490428
147	0x3b4cedb8	0.003126962
148	0xbcf5c723	-0.030002182
149	0x3ca84eff	0.02054548
150	0x3d8f5529	0.06998665
151	0xbd17f7ba	-0.037101485
152	0x3ce557b6	0.027995925
153	0xbe63fb63	-0.22263865
154	0x3c8e8b0d	0.017400289
155	0xbd878f3a	-0.06619115
156	0xbeceda71	-0.40401033
157	0x3d7f0676	0.06226202
158	0x3e458f89	0.19293036
159	0xbe465ece	-0.19372103
160	0x3d008aaa	0.03138224
161	0xbe7f55b4	-0.24935037
162	0x3e6dbee3	0.23217349
163	0xbe1fe2d8	-0.15613878
164	0x3d968530	0.07349622
165	0xbdf45604	-0.11930469
166	0xbe024b7a	-0.12724105
167	0xbdd6b5b8	-0.10483879
168	0x3e0d91d6	0.13825163
169	0xbe42ad5d	-0.19011445
170	0x3eb610a9	0.35559586
171	0x3e0eedc9	0.13957895
172	0xbdd845db	-0.10560199
173	0x3d236553	0.039891552
174	0xbe4885ff	-0.19582365
175	0xbe33ec05	-0.17570503
176	0x3e60854d	0.2192585
177	0xbe863fe1	-0.2622061
178	0xbdfd1cc6	-0.12359004
179	0x3e3e03f0	0.1855619
180	0xbe20f80a	-0.1571962
181	0xbdf33736	-0.11875765
182	0x3e9f56ea	0.31120998
183	0xbe269797	-0.16268764
184	0x3d5e8f17	0.05433568
185	0xbcf36eeb	-0.029715976
186	0x3ddbd17a	0.10733314
187	0x3d51113b	0.051041823
188	0xbe76bcc3	-0.24095444
189	0x3ed010e2	0.4063788
190	0xbeaba7c6	-0.33526438
191	0x3e82b1d1	0.25526288
192	0x3eb090c5	0.3448545
193	0x3efde6fb	0.49590287
194	0x3e1109cc	0.14163893
195	0x3e829fd3	0.2551256
196	0x3e85a58b	0.26102862
197	0x3dd0d9bb	0.10197779
198	0x3de2ab4f	0.11067831
199	0x3f2223d5	0.63335925
200	0x3ecbdab6	0.398153
201	0x3eaa11bb	0.33216652
202	0x3e3f3bba	0.18675128
203	0x3e1d82ca	0.15381923
204	0x3da75d4b	0.08172091
205	0x3ed12464	0.40848076
206	0x3ed14114	0.40869963
207	0x3ee52a3a	0.4475878
208	0x3e5b2312	0.21400097
209	0x3e971292	0.29506356
210	0x3ef50a51	0.47859433
211	0x3e8a381c	0.26995933
212	0x3ee4e9ae	0.44709533
213	0x3e806820	0.2507944
214	0x3e860a89	0.26179913
215	0x3e1c3dc2	0.15257934
216	0x3e46250b	0.19350068
217	0x3e4c166c	0.19930428
218	0x3e922215	0.28541628
219	0x3e2549b0	0.16141391
220	0x3e53b286	0.2067357
221	0x3e99046b	0.29886183
222	0x3e3320f4	0.1749304
223	0x3e9e1600	0.3087616
224	0xbc9910fe	-0.01868486
225	0x3ea04e83	0.313099
226	0x3e9ca2ff	0.30593106
227	0x3ef11117	0.4708335
228	0x3e370049	0.17871203
229	0x3ed547c7	0.41656324
230	0x3e077853	0.13229494
231	0x3e77412a	0.24145952
232	0x3e50498f	0.2034056
233	0x3e0fdf64	0.1405006
234	0x3f0607b1	0.52355486
235	0x3efe35af	0.49650332
236	0x3ea2bbc8	0.3178389
237	0x3f047935	0.5174745
238	0xbc2b07f3	-0.010438907
239	0x3ee20df3	0.44151267
240	0x3f240dc6	0.64083517
241	0x3e1bab78	0.15202129
242	0x3e355d41	0.17711355
243	0x3e63f04e	0.22259638
244	0x3e4ca627	0.19985257
245	0xbd80e19c	-0.062930316
246	0x3f022113	0.5083172
247	0x3e26efc1	0.16302396
248	0x3f018a3e	0.50601566
249	0x3e87664c	0.26445234
250	0x3e85a995	0.26105943
251	0x3ec9b6e6	0.39397353
252	0x3e182fb9	0.14861955
253	0x3e6a1878	0.22860897
254	0x3ea83f5e	0.32860845
255	0x3e9542cf	0.29152533

lstm.bias_hh_l0 f4 [256]
0	0x3ef51bf6	0.47872895
1	0x3ef48dd1	0.47764447
2	0x3e96364b	0.29338297
3	0x3ef37954	0.47553504
4	0x3e1db528	0.15401137
5	0x3e1478bd	0.14499183
6	0x3d08a874	0.033363774
7	0x3f0d52eb	0.5520465
8	0x3f0bfbe7	0.5468125
9	0x3e8ef7aa	0.27923328
10	0x3e9ce46c	0.30643022
11	0x3e09af45	0.13445766
12	0x3e7cadf7	0.24675737
13	0x3e954a50	0.29158258
14	0x3ef68f8e	0.481564
15	0x3f01cda8	0.5070443
16	0x3ea27d89	0.317364
17	0x3ed9ad38	0.42514968
18	0x3efd695b	0.49494442
19	0x3e67d8f1	0.2264135
20	0x3ee67755	0.45012918
21	0x3ee9891c	0.4561242
22	0x3e20d849	0.15707506
23	0x3ec016e9	0.3751748
24	0x3e7cd4ea	0.24690595
25	0x3d0f45ff	0.034978863
26	0x3e8b1137	0.2716157
27	0x3e7eb53a	0.2487382
28	0x3e87dd35	0.26535955
29	0x3ecdaf44	0.4017278
30	0x3e707536	0.23482212
31	0x3eda4eb0	0.4263816
32	0x3ccdbfa6	0.0251158
33	0x3eae5fcf	0.3405747
34	0x3ed1381d	0.40863124
35	0x3ed7a69a	0.42119294
36	0x3c792cdd	0.01520845
37	0x3ecf2b47	0.40462705
38	0x3db8df07	0.09026914
39	0x3e089ed7	0.13341843
40	0x3e266c68	0.16252291
41	0x3d34c45c	0.044132575
42	0x3ed5879c	0.41705024
43	0x3f157f5d	0.58397466
44	0x3eca12b5	0.39467397
45	0x3f2a593a	0.665424
46	0x3e23a420	0.15980577
47	0x3ebcddce	0.36887974
48	0x3f02c351	0.5107928
49	0x3e902555	0.28153482
50	0x3e827215	0.25477663
51	0x3eb90536	0.36136788
52	0x3da3fc85	0.08007149
53	0x3e1464fc	0.14491647
54	0x3ea73444	0.32657063
55	0x3e463ac7	0.1935836
56	0x3ea079ef	0.31343028
57	0x3e862c78	0.26205802
58	0x3e59c01b	0.21264689
59	0x3f0733ab	0.52813214
60	0x3e239c9a	0.15977708
61	0x3e8eb691	0.27873662
62	0x3eac2e03	0.33628854
63	0x3e2fa9ac	0.17154568
64	0xbdac9c8c	-0.084282964
65	0x3c0a858b	0.008454691
66	0x3cb44272	0.02200434
67	0x3d0fa2bc	0.035067305
68	0x3cf110e0	0.029426992
69	0xbdc77c8b	-0.097405516
70	0xbdd11160	-0.10208392
71	0x3d203391	0.039111678
72	0xbc73270d	-0.014840853
73	0xbda8c113	-0.08239951
74	0xbdde6d8b	-0.108607374
75	0x3dd0eb1e	0.10201095
76	0x3dc30873	0.09523096
77	0x3d9b03bd	0.075690724
78	0x3b8842cc	0.0041583534
79	0x3d931205	0.07181171
80	0xbdb165ce	-0.08661996
81	0x3cc6c31c	0.024262957
82	0x3deb865a	0.11500235
83	0xbda9e28a	-0.08295162
84	0xbd866204	-0.06561664
85	0x3d951b08	0.072805464
86	0x3c3bd1b8	0.011463575
87	0xbdbe5c08	-0.09294897
88	0xbdc069a2	-0.09395148
89	0xbada5a09	-0.0016658913
90	0x3c876852	0.016529236
91	0x3dadc34f	0.08484518
92	0xbd4d97d8	-0.050193638
93	0xbd9c4b6c	-0.07631573
94	0xbdb68527	-0.089121155
95	0x3d87208d	0.065980054
96	0xbc734971	-0.014849053
97	0x3b5559f5	0.003255484
98	0xbdba5ee9	-0.09100134
99	0xbda27d1a	-0.079340175
100	0xbdac4f70	-0.08413589
101	0xbdcaa67b	-0.09895035
102	0xbd835030	-0.06411779
103	0xbd52f36b	-0.051501673
104	0xbdcbda21	-0.09953714
105	0x3d11e5a7	0.035619404
106	0x3d3a65d9	0.045507286
107	0x3ccdf5d4	0.025141634
108	0xbc4204e1	-0.011841984
109	0x3b04f68a	0.002028855
110	0xbdf13231	-0.117771514
111	0xbda6bed4	-0.08141866
112	0xbdd4f96e	-0.103991374
113	0xbd65cd20	-0.056103826
114	0x3de361e7	0.11102658
115	0xbd153a47	-0.03643253
116	0xbcec2104	-0.028824337
117	0xbd757076	-0.059921704
118	0xbd899eb3	-0.067197226
119	0x3de05367	0.10953408
120	0xbcce6a48	-0.025197163
121	0x3dcaba4b	0.09898814
122	0xbdc83853	-0.09776368
123	0xbc7b154d	-0.015324903
124	0x3d945388	0.07242495
125	0x3debd1f8	0.11514658
126	0x3d04d1b1	0.03242654
127	0xbb3d258d	-0.0028861493
128	0xbec11be4	-0.3771659
129	0x3e90e99c	0.2830323
130	0x3de1d38b	0.11026677
131	0xbe4cf3ca	-0.20014873
132	0xbe54e9db	-0.20792334
133	0xbe5afb87	-0.21385013
134	0xbdb6df0b	-0.08929261
135	0x3e01acff	0.12663649
136	0x3e34d332	0.1765869
137	0x3e1e46d4	0.15456706
138	0xbdb69ab8	-0.08916229
139	0x3e4eb946	0.20187864
140	0xbcc3ea5d	-0.023915464
141	0x3eb85247	0.36000273
142	0xbe72b92c	-0.2370345
143	0x3de7db03	0.1132107
144	0xbcca494d	-0.024693156
145	0x3e460c58	0.19340646
146	0xbe450299	-0.19239272
147	0x3ce5dc9b	0.028059294
148	0xbd7aff62	-0.06127871
149	0xbb453d0c	-0.0030096201
150	0x3e0a8ea7	0.1353098
151	0xbd4443ed	-0.04791634
152	0x3e0810a5	0.132876
153	0xbecb8346	-0.3974859
154	0x3dea328e	0.11435424
155	0xbe5ee05b	-0.21765272
156	0xbe3e62d6	-0.1859239
157	0x3e72e895	0.23721536
158	0x3e51ede4	0.20500904
159	0xbe74c536	-0.23903355
160	0x3e0a37d2	0.13497856
161	0xbe9ec2c1	-0.3100796
162	0x3ec3101a	0.38098222
163	0xbe3add4f	-0.18248485
164	0xbd73535e	-0.059405677
165	0xbe231057	-0.15924202
166	0xbe3c801b	-0.18408243
167	0xbdf732d7	-0.12070244
168	0x3e82e0b5	0.25562063
169	0xbe0d098b	-0.13773172
170	0x3e89b46d	0.26895466
171	0x3e07c676	0.132593
172	0x3cdf9e6f	0.027297227
173	0xbde04ed0	-0.10952532
174	0xbe056b31	-0.13029172
175	0xbdbfbc98	-0.09362143
176	0x3d569573	0.05238862
177	0xbe8f5c83	-0.28000268
178	0xbea8f49c	-0.32999122
179	0x3e01746d	0.12642069
180	0xbe757c68	-0.23973238
181	0xbe010830	-0.1260078
182	0x3e5e6b80	0.21720695
183	0xbe21dbb2	-0.15806463
184	0x3dec98b2	0.11552562
185	0x3df72f22	0.12069537
186	0x3e66699b	0.22501223
187	0x3ddd6587	0.108103804
188	0xbe103af7	-0.14084993
189	0x3e80457c	0.25053012
190	0xbe7d472f	-0.24734186
191	0x3d2a1350	0.041522324
192	0x3e822628	0.25419736
193	0x3f077655	0.52914935
194	0x3d4f45bb	0.05060361
195	0x3e96d383	0.29458246
196	0x3e5f49b7	0.21805464
197	0x3e7ae8ed	0.24502917
198	0x3e789f60	0.24279547
199	0x3f1ccc30	0.61249065
200	0x3ef107c4	0.47076237
201	0x3e644b4e	0.22294351
202	0x3e4b6bdf	0.19865368
203	0x3e4853d3	0.19563226
204	0x3e0650fa	0.13116828
205	0x3ecce39b	0.400174
206	0x3f15954e	0.58430946
207	0x3f00f2d5	0.5037053
208	0x3ddaaeee	0.106778964
209	0x3eb3c88a	0.35113937
210	0x3efadd81	0.4899712
211	0x3ebd7c7d	0.3700904
212	0x3ee4abce	0.44662327
213	0x3ed0d1af	0.40784976
214	0x3ea46077	0.32104847
215	0x3eb96ee8	0.36217427
216	0x3e57ee74	0.21087056
217	0x3e55ad8a	0.20866981
218	0x3d816fbe	0.06320141
219	0x3e4b53ba	0.19856158
220	0x3e9af457	0.30264542
221	0x3ea6a4e5	0.3254768
222	0x3dcca258	0.09991902
223	0x3edbcd87	0.42930242
224	0x3ca44a2f	0.020054905
225	0x3edb777b	0.42864594
226	0x3edd92d2	0.43276078
227	0x3ec53e21	0.38523963
228	0x3e44f1b6	0.1923283
229	0x3ed4c172	0.41553837
230	0x3eaa399a	0.33247072
231	0x3e6abaee	0.2292287
232	0x3e6e2280	0.23255348
233	0x3e3774a9	0.17915596
234	0x3f2d1d37	0.67622703
235	0x3f1065e4	0.5640547
236	0x3ec1d528	0.37857938
237	0x3eaa4037	0.33252117
238	0x3c57e31e	0.013176708
239	0x3ec32b71	0.3811908
240	0x3ede7c2c	0.4345411
241	0x3e6b5849	0.22982897
242	0x3e8dcf10	0.2769704
243	0x3e967310	0.2938466
244	0x3cedbde3	0.02902121
245	0x3dc6c5bf	0.09705686
246	0x3efe9702	0.49724585
247	0x3e819b75	0.25313917
248	0x3ebb066f	0.36528346
249	0x3e2ab715	0.16671403
250	0x3e95ee36	0.29283303
251	0x3ee0a9aa	0.43879443
252	0x3e92d0cd	0.28674927
253	0x3eb86dac	0.36021173
254	0x3e943e9a	0.2895401
255	0x3e3672f9	0.17817296

fc.weight f4 [3, 64]
0	0xbdee8261	-0.116459616
1	0x3e6a1052	0.22857788
2	0xbc589a52	-0.013220387
3	0xbef818f3	-0.48456535
4	0xbe8f6543	-0.28006944
5	0xbf13f9a5	-0.578028
6	0xbf0400f1	-0.51563936
7	0x3ee89949	0.45429447
8	0x3f258e7e	0.6467055
9	0x3ecd37b5	0.40081564
10	0xbf05a273	-0.52201
11	0xbf0f1f23	-0.55906886
12	0x3f019d46	0.50630605
13	0x3eecfc5a	0.4628628
14	0xbf149be7	-0.5805039
15	0x3ef79fb5	0.48364034
16	0xbe4c90af	-0.19977067
17	0x3f02cfdf	0.51098436
18	0x3e4f66b5	0.20254023
19	0xbf29d674	-0.66342854
20	0xbf51226e	-0.8169316
21	0xbe7c3470	-0.24629378
22	0x3ec6c074	0.38818705
23	0xbf3f7962	-0.7479459
24	0x3ed4d213	0.41566524
25	0xbed7d943	-0.42157945
26	0x3f0e63ce	0.5562104
27	0xbeda1660	-0.42595196
28	0xbf081d78	-0.53169966
29	0x3f6f8221	0.93557936
30	0x3ee7cba6	0.4527256
31	0xbe44132f	-0.19147943
32	0x3edd9a47	0.43281767
33	0xbf082c7e	-0.5319289
34	0x3ef22b29	0.47298554
35	0xbeacfd57	-0.33787033
36	0xbef227ba	-0.47295934
37	0xbedc0228	-0.42970395
38	0x3f090331	0.53520495
39	0x3f11645a	0.5679375
40	0x3c81d42f	0.015848247
41	0xbf13fee7	-0.57810825
42	0x3f0bd218	0.5461745
43	0x3f076c3d	0.52899534
44	0xbf10e53d	-0.5659979
45	0xbf3f4b44	-0.7472422
46	0xbee9dd3f	-0.4567661
47	0xbf66b54c	-0.9012039
48	0x3f5c1269	0.8596559
49	0xbee7b493	-0.45254955
50	0xbefebba4	-0.49752533
51	0x3f0d5c8a	0.5521933
52	0xbdb5ee07	-0.08883291
53	0xbf1bdd77	-0.60884804
54	0x3e815a60	0.25264263
55	0xbecf732d	-0.4051756
56	0x3f52e771	0.823844
57	0x3f42f68a	0.7615744
58	0x3f1876c9	0.5955625
59	0x3f2a6c7d	0.6657179
60	0xbf4fd0d2	-0.8117801
61	0x3efca024	0.49340928
62	0x3d5fb337	0.054614272
63	0x3f2f1fd8	0.68407965
64	0xbede9f86	-0.43481082
65	0x3edd4676	0.4321782
66	0x3f0b852c	0.5450008
67	0x3eb5edad	0.35532895
68	0x3ef0bcd2	0.47019058
69	0x3eac96d2	0.33708817
70	0x3dd567d7	0.104201965
71	0x3ea4282b	0.32061896
72	0xbefe9d32	-0.49729306
73	0xbec3c294	-0.3823439
74	0x3f1a03f7	0.601623
75	0x3f28cbf2	0.65936196
76	0xbec00b17	-0.3750846
77	0x3ed6c25e	0.41945165
78	0x3da39f6b	0.07989391
79	0xbe4eb46f	-0.20186017
80	0x3f1e8420	0.61920357
81	0xbf2bd1e0	-0.6711712
82	0xbf39166d	-0.72299844
83	0x3f36f7c0	0.71471786
84	0x3eb05325	0.34438434
85	0xbeec6e99	-0.4617813
86	0xbf21a189	-0.6313711
87	0x3f0b28b1	0.54358965
88	0xbeddcbf3	-0.43319663
89	0x3deab663	0.11460569
90	0xbed32ba9	-0.41244248
91	0x3f4a0f10	0.78929234
92	0x3f01c912	0.50697434
93	0xbf1f7840	-0.6229286
94	0xbe9efbec	-0.31051576
95	0xbf0b6ea2	-0.5446569
96	0xbf384651	-0.71982294
97	0x3d88c65f	0.06678461
98	0xbe82ad2f	-0.25522754
99	0x3e40808a	0.18799034
100	0x3f3a987d	0.7288893
101	0xbe4d7e4f	-0.20067714
102	0xbf8aaf36	-1.083472
103	0xbf19e569	-0.6011568
104	0x3f1f9a01	0.62344366
105	0x3e5b0298	0.21387708
106	0x3ed3bfe4	0.41357338
107	0xbebf6a6d	-0.37385884
108	0x3f514403	0.817444
109	0x3f05c95a	0.52260363
110	0x3ecb579d	0.3971528
111	0x3f466541	0.7749825
112	0xbe72e6d1	-0.23720862
113	0xbd9bf7e9	-0.076156445
114	0xbddc3843	-0.107529186
115	0xbee95da5	-0.45579258
116	0xbeee101b	-0.46496662
117	0x3f2e881c	0.68176436
118	0x3ed7d090	0.42151308
119	0x3e67a441	0.22621252
120	0xbf2f5446	-0.68487966
121	0xbf123524	-0.57112336
122	0x3e510681	0.20412637
123	0xbf609d01	-0.8773957
124	0x3eaec547	0.34134886
125	0x3e65158d	0.22371502
126	0xbef32df2	-0.4749599
127	0xbe9126b1	-0.28349832
128	0x3f05d664	0.5228026
129	0xbf22794b	-0.6346633
130	0xbf364475	-0.7119821
131	0x3ebe0e0d	0.37120095
132	0x3df17272	0.11789407
133	0x3e9973b8	0.299711
134	0x3eb71114	0.35755217
135	0xbf3f5fab	-0.7475535
136	0xbe96b36b	-0.2943376
137	0xbed9e409	-0.4255679
138	0xbe65ad64	-0.22429425
139	0x3e3517c4	0.17684847
140	0xbe3d214d	-0.18469734
141	0xbf6723d7	-0.9028906
142	0x3f3c8bb3	0.73650664
143	0xbf258be3	-0.64666575
144	0xbee31199	-0.44349363
145	0x3e41d814	0.18930084
146	0x3ef26801	0.47344974
147	0x3de6c3e6	0.112678334
148	0x3f4495f4	0.7679131
149	0x3f53afe9	0.8269029
150	0x3e847635	0.25871435
151	0x3f0d2117	0.55128616
152	0xbeeeb500	-0.46622467
153	0x3f14cba7	0.5812325
154	0xbe212588	-0.15736973
155	0xbf08bd64	-0.5341399
156	0x3ed4660b	0.41484103
157	0xbef93275	-0.48671308
158	0xbe6a1c07	-0.22862254
159	0x3f134ba3	0.5753729
160	0x3d95d7da	0.07316561
161	0x3ef3677b	0.47539887
162	0xbf37cff5	-0.7180169
163	0x3f29bc0d	0.6630257
164	0xbe85f954	-0.26166785
165	0x3f6be4ce	0.92146003
166	0x3f0d9699	0.5530792
167	0x3d1ca19b	0.038240056
168	0xbf8030db	-1.001491
169	0x3ecc75b2	0.39933544
170	0xbf6372df	-0.88847154
171	0xbf317db5	-0.6933244
172	0xbec0cbb7	-0.37655422
173	0x3ea83395	0.32851854
174	0x3ea54757	0.3228099
175	0x3eba4b4f	0.3638558
176	0xbf33f95d	-0.70302373
177	0x3f128dbe	0.5724753
178	0x3f3a3a60	0.72745323
179	0xbe8270ff	-0.25476834
180	0x3f156176	0.5835184
181	0xbd0a34e3	-0.033741843
182	0xbf7bc7e4	-0.98351884
183	0x3f49d261	0.7883664
184	0xbe5e48e3	-0.21707492
185	0xbed6ef0a	-0.41979247
186	0xbf4d8906	-0.80287206
187	0x3e1646cb	0.14675443
188	0x3ed51ad0	0.4162202
189	0xbf55eba6	-0.83562696
190	0x3f094e38	0.5363498
191	0xbecae4b8	-0.39627624

fc.bias f4 [3]
0	0x3e8c79e2	0.2743674
1	0xbd470489	-0.04858831
2	0xbe15e275	-0.14637168
