Demo/results/models/肌肉疲劳分类标签_backward_cnn-lstm.pth (torch, 145344 bytes, 8 tensors)

conv1d.weight f4 [64, 11, 3]
000000 06 73 9a bc 8c de ff bd 84 2e 59 3c fc 63 fe 3c
       -0.018853676 -0.12493619 0.013255719 0.031053536
000010 96 9c fc 3d 43 db db 3d 53 28 dc bc c3 cf 14 3e
       0.12334554 0.1073518 -0.026874697 0.1453238
000020 47 ad 47 bd cb b0 1e 3e c9 7a 07 be 44 ce c1 bc
       -0.048749235 0.15497129 -0.13230433 -0.023657925
000030 d5 96 99 3d 3a 4d a0 be 12 41 47 3d 7c f0 f6 bd
       0.07499472 -0.3130892 0.04864604 -0.120575875
000040 99 09 83 3e ef b7 97 3c 81 7a 92 bd ef 55 03 3e
       0.2559326 0.018520324 -0.07152272 0.1282575
000050 de 78 0a bc 77 20 96 3d 3c 8f ef bd 0b c8 a2 bd
       -0.008451669 0.07330411 -0.11697242 -0.079483114
000060 fe 35 1f be 59 13 3c be ff 26 6b bd c4 08 8e 3c
       -0.1554794 -0.18366756 -0.057410236 0.017338164
000070 2b d8 23 3d 1a 20 e8 3d 43 a6 bf 3d b7 e3 72 bd
       0.040001076 0.11334248 0.09357884 -0.059299197
000080 7b 3e 07 be 48 77 86 bb 9a b5 c5 bd 19 93 00 be
       -0.13207428 -0.004103575 -0.096537784 -0.12556113
000090 ed 6a 04 3d c5 77 45 bd 25 7a 5d bd 00 61 8d 3d
       0.032328535 -0.048209924 -0.054071564 0.06903267
0000a0 59 51 57 3e 18 3f 8d 3d 70 82 b1 3d dc eb 5a 3e
       0.21027125 0.068968 0.08667457 0.21379036
0000b0 fc 8d cc bc 88 ac 1f be 82 d6 ea bd c2 d2 25 3e
       -0.024970047 -0.15593159 -0.11466695 0.16193679
0000c0 15 0c 0f be d3 91 b7 3e 81 f2 a7 bc 5e 2e 3a 3d
       -0.13969453 0.35853443 -0.020501377 0.045454375
0000d0 67 67 74 be 36 82 26 be 53 c1 83 bd 09 80 11 3e
       -0.2386757 -0.16260609 -0.06433358 0.14208998
0000e0 ee 43 dd 3c 56 25 81 bc f0 60 14 3e d8 05 36 bd
       0.02700993 -0.015764873 0.14490104 -0.044439167
0000f0 22 3b 1f 3e c0 25 3d 3e 31 65 a1 3d a4 6c 87 bd
       0.15549901 0.18471432 0.07880629 -0.066125184
000100 98 16 46 be 66 a7 bb 3d a4 01 1d 3e 42 61 1f 3e
       -0.19344556 0.09162788 0.15332657 0.15564445
000110 d5 fd fd bd b4 08 67 bd 72 48 95 3e 8c 1b 26 bd
       -0.1240193 -0.056404784 0.29156834 -0.040553614
000120 b1 a5 f5 bd eb ed a6 bd 0e 29 42 bc 88 a6 fb bd
       -0.11994494 -0.08150848 -0.0118506085 -0.12287623
000130 db a3 8a 3e 49 84 05 be f2 9a 98 bd 96 dd 05 3e
       0.27078137 -0.13038744 -0.074514285 0.1307281
000140 1a 60 1a be f1 9c 05 be 8d ea 74 bd 42 47 21 bd
       -0.15075722 -0.1304815 -0.059793998 -0.039374597
000150 71 f4 97 3b ec e7 27 bd 8b bf ca 3d c6 5c 08 3e
       0.004637294 -0.040992662 0.09899815 0.1331664
000160 28 ee 7c 3d 5d 6f 15 be 34 d5 8b bd 15 8c 8f 3c
       0.06175056 -0.14593263 -0.06827775 0.017522851
000170 e5 a9 87 bc 8d 58 b9 bd c0 6d 1b bd 8a e9 85 3d
       -0.016560504 -0.09050093 -0.037946463 0.06538685
000180 12 63 10 3e f1 22 77 be 72 24 c9 bd 3f f5 57 bd
       0.14100292 -0.24134423 -0.098214045 -0.05272412
000190 1e 3e 3e 3a 6b 2b 50 3d 66 6e 1c 3e ae 15 1a be
       0.0007257181 0.050822657 0.15276489 -0.15047333
0001a0 5b 6b 25 be bb 31 1a 3e fd a7 07 bd de 08 77 3b
       -0.16154234 0.15058033 -0.03311919 0.0037694494
0001b0 c9 d1 20 3d 11 7f 61 3e c7 cb 1b bd de 1b e9 bd
       0.039262567 0.22021128 -0.038036134 -0.11382268
0001c0 41 0b df ba c2 60 fb bd 1c e1 7e 3c 3e ef 0e 3e
       -0.0017016904 -0.122743145 0.0155566 0.13958451
0001d0 5c 08 38 bd 2f 98 20 be 1d e7 81 be d8 82 21 be
       -0.044929847 -0.15683053 -0.25371638 -0.15772569
0001e0 c5 57 5e bc 28 6b ab 3c 07 3b b3 bd ce 4b 0a 3e
       -0.013570731 0.02092512 -0.08751493 0.1350548
0001f0 74 bd 90 be 5e 2c c5 bd 85 60 fb 3d e8 cc 84 3d
       -0.2826954 -0.09627603 0.12274269 0.06484395
000200 98 1d 2c be 51 ae e7 3d 3d 30 a1 3e 02 d4 0e be
       -0.16808164 0.11312545 0.31482115 -0.13948062
000210 04 d4 86 bc c5 58 03 be 67 b0 15 3e 1c 8c b8 3d
       -0.016458519 -0.12826832 0.14618073 0.09011099
000220 64 61 1c 3e d2 90 b5 bd 63 1f 02 bc 9f 33 fa bc
       0.15271527 -0.08865513 -0.0079420535 -0.030542193
000230 0c 39 52 3d 93 bc c2 3c a1 7c 28 3e 68 93 0e bd
       0.051323935 0.02377156 0.16453792 -0.034808546
000240 51 68 7e bd e0 b8 91 bc a2 fc 9a bd a1 d3 9d 3d
       -0.062111203 -0.01778835 -0.07567717 0.07706381
000250 5e 04 23 3e 53 6b b8 3d 10 c5 96 3d 17 2c 43 be
       0.15919635 0.090048455 0.073618054 -0.19059788
000260 98 d8 a3 3d a8 96 d8 3d 2d 9b 93 3e f7 66 fc 3d
       0.08000296 0.105756104 0.28829327 0.123243265
000270 a5 a8 df 3d 09 ad 3b 3e 1b c8 2f bd 33 03 53 bc
       0.10920838 0.18327726 -0.042915445 -0.012879181
000280 d1 30 b9 bd 59 bc e6 3d ca 86 1c be c2 81 8a bc
       -0.09042514 0.11266393 -0.15285793 -0.016907576
000290 43 3a 3f 3d 5a 85 db 3d 6c de b5 3b 1c cd 11 3e
       0.046686422 0.10718794 0.0055501964 0.142384
0002a0 35 a9 62 bd 93 b6 1c be 15 f1 0c be 32 99 12 3d
       -0.05533715 -0.15304022 -0.1376384 0.03579063
0002b0 b3 0a 5f be 8f e1 e8 3d e5 68 8c bd 29 51 d3 3e
       -0.21781425 0.11371147 -0.068559445 0.41272858
0002c0 2a 78 7f bd 37 01 e1 3d 88 4f 27 bd 9b ba 2b be
       -0.062370457 0.1098656 -0.04084733 -0.16770403
0002d0 ef 34 0c 3e 70 f6 cf bd ab 61 a1 3d 66 94 02 3e
       0.13692068 -0.10154426 0.07879957 0.12751922
0002e0 67 83 06 be 53 fe 76 3d 74 7d 25 3e 81 c7 66 3d
       -0.13136064 0.060301136 0.16161138 0.056342606
0002f0 1c b4 bc 3d 4a 17 d9 bd 9c 3d 00 be 83 42 2f bd
       0.09214041 -0.10600145 -0.12523502 -0.04278804
000300 e6 fe 02 3e b9 5a dd 3d fe 0c 70 bd 6d d9 be bc
       0.12792549 0.108083196 -0.05860614 -0.023297036
000310 0c 48 1a 3e 5d af aa 3d 23 d8 f1 3d 84 28 20 3e
       0.15066546 0.08334229 0.11808803 0.15640455
000320 fd 76 38 3c 95 c3 11 3e 98 be ad 3c 29 b5 9a bd
       0.011258838 0.14234765 0.021209046 -0.07554085
000330 a4 3f 0a be de 4f a8 bd 1d 98 40 3d 3f 3e 16 3e
       -0.1350084 -0.082183585 0.047020067 0.14672183
000340 65 64 44 be d1 bc f9 3d 53 7c 64 bd 4e 42 25 3e
       -0.19178922 0.12194217 -0.055782627 0.16138574
000350 12 db 4a bd 52 64 74 3d 09 a9 2e be 67 4e 9c 3c
       -0.049525328 0.059665985 -0.1705667 0.019080354
000360 9d 39 d7 3c 0a 90 c9 bd 79 72 3c bc 75 3f de 3c
       0.02627259 -0.098419264 -0.011501902 0.027129868
000370 0b a4 de bd 70 5a 0c be d5 e1 fe 3d 00 26 3d 3e
       -0.108711325 -0.13706374 0.12445418 0.18471527
000380 57 6f 02 bc 37 47 92 3c 3c fa a3 3e 60 2e 2c be
       -0.007961116 0.017856224 0.3202685 -0.16814566
000390 2f c3 18 3b 0a 44 13 3e 1f 98 c5 bd 55 93 38 3d
       0.0023309698 0.14381424 -0.096481554 0.04506238
0003a0 0d 8e 4a 3e f7 1f e2 bd 99 16 b7 3d fd 9e 9d 3d
       0.1978075 -0.11041253 0.08939857 0.0769634
0003b0 39 84 d4 bc 56 73 6c bd 43 8c 55 bd 37 0e 1e 3e
       -0.025941955 -0.05772718 -0.052135717 0.1543511
0003c0 1c fb 9e bd 77 9c 43 be ef 54 c4 bc b7 78 be 3b
       -0.07762739 -0.19102655 -0.02396628 0.00581273
0003d0 84 d6 ca bc 0b cb b0 bd 18 a3 ab bc fd cb 22 be
       -0.024760492 -0.086324774 -0.020951793 -0.15898128
0003e0 ef 9b 13 3d 6a 3a 09 bd c8 dc 06 3e 05 77 47 3c
       0.03603738 -0.033502974 0.13170159 0.012174373
0003f0 d1 73 df 3d b8 38 92 3b 58 00 67 3c ad c9 dd 3d
       0.10910762 0.004462328 0.014099203 0.10829482

conv1d.bias f4 [64]
000000 ee 90 84 bc a0 87 2f 3e 0f 4f 24 3d 8d 91 20 3e
       -0.01618239 0.1714158 0.04011446 0.15680523
000010 3f bc 25 be 69 52 fb bd dc 7b 5a 3b d2 b7 0c 3e
       -0.16185091 -0.12271578 0.0033337986 0.13741997
000020 57 8c f6 3c 91 1a 75 3e 1a 3f be 3d 53 98 92 3e
       0.030096216 0.23935916 0.092893794 0.2863184
000030 48 cd 92 3e 41 78 32 be 8c 3c 34 be 1d d9 12 be
       0.28672242 -0.17428686 -0.17601222 -0.14340635
000040 bf 4c 96 3d 78 11 bf bd 19 12 48 be bf 03 6a be
       0.07338857 -0.09329504 -0.19538154 -0.22852992
000050 46 b5 99 3d f6 62 01 3e e2 da 5d bc cf 91 3c 3e
       0.07505278 0.12635407 -0.013540955 0.18414997
000060 45 88 4d bd 3c e6 45 be 3f 37 96 3d 46 b6 4a 3d
       -0.050178785 -0.19326109 0.07334756 0.049490236
000070 40 12 5c 3e 43 60 0a 3c b2 83 bf 3e fa 6e da bd
       0.21491337 0.008445802 0.37405163 -0.10665698
000080 8d 79 f9 bd 17 a7 18 3e cd 96 95 3e a4 93 3c 3e
       -0.12181387 0.1490749 0.29216614 0.18415695
000090 bc 83 0c 3e 17 67 3f 3e 08 3c a0 3d f5 93 ae bd
       0.13722128 0.1869167 0.0782395 -0.08524314
0000a0 43 55 9e bd 58 80 18 3e af 98 19 3d 04 44 32 ba
       -0.07731106 0.1489271 0.037499126 -0.0006800296
0000b0 50 ae 10 bd ab 99 40 bd 79 df d2 3d ef 3c 01 be
       -0.035322487 -0.04702155 0.1029653 -0.126209
0000c0 5d fd c0 bd 6d 52 b8 bd 57 90 87 3e bb 46 52 3e
       -0.09423325 -0.090000965 0.2647731 0.20534794
0000d0 ad 8f 25 be dc 39 9b be 88 37 9e 3e 93 4f 22 be
       -0.16168089 -0.3031758 0.30901742 -0.15850668
0000e0 70 b3 a4 bd eb 44 4c 3e e1 ec 07 bd 1c db c2 bd
       -0.080420375 0.19948165 -0.03318489 -0.09514448
0000f0 fa 68 81 3d c8 58 40 3e 8a 8c 1c 3b 05 5e 1d 3e
       0.06318851 0.18783867 0.0023887479 0.15367897

lstm.weight_ih_l0 f4 [256, 64]
000000 e4 dd 9b 3d ed b6 32 3e 99 12 b1 3e 1c 56 1a 3e
       0.07610682 0.17452593 0.345845 0.1507191
000010 a8 2e d7 3d 27 d6 7c 3e 96 89 d0 3d 1c 3d a1 3e
       0.10506946 0.24691068 0.101824924 0.31491935
000020 2d f7 d4 3d 48 c4 b3 3e 51 b3 05 3e a3 07 f2 3d
       0.103987075 0.35110688 0.13056685 0.11817863
000030 9c 76 47 3e f9 b0 ef 3d 33 38 82 3e 29 bb 00 3e
       0.1947884 0.11703677 0.25433502 0.12571396
000040 9c 9f be 3e 64 d6 4a 3e 1b 44 b5 bc 1a c1 57 3e
       0.37231147 0.19808346 -0.022127202 0.21069756
000050 50 9c c7 3d 28 85 2c 3e 3d 01 76 3e db f8 ed 3d
       0.09746611 0.1684767 0.2402391 0.11619731
000060 e6 3e 17 3e af d6 a8 3e 27 2e 9a 3d 13 80 91 3e
       0.14770088 0.3297629 0.07528334 0.28418025
000070 67 ef 4e 3e 1a 25 aa 3d 69 ff 9d 3e df b7 50 3e
       0.20208512 0.08307858 0.30858925 0.20382641
000080 f8 01 aa 3d 4a 96 98 3e 94 e7 94 3e a9 bf 35 3e
       0.08301157 0.2980216 0.2908293 0.17748894
000090 e2 81 33 3e 4b f8 44 3e 72 22 82 3e a9 48 39 3e
       0.17530015 0.19235341 0.25416905 0.18094124
0000a0 c8 fe a1 3e 43 6d 9b 3e ac f2 57 3d be 53 2e 3e
       0.31639695 0.30356798 0.052721664 0.17024133
0000b0 bb 34 99 3d 19 a7 8a 3d 86 c3 29 3e 89 f1 dd 3d
       0.07480761 0.067701526 0.16578493 0.10837085
0000c0 3c 4f d9 bc 84 b8 3f 3e 65 fe 8a 3e 8e 1d 40 3e
       -0.02652704 0.18722731 0.27147213 0.18761274
0000d0 e2 f5 59 3c 52 83 b3 3c 23 d3 c8 3e 50 a5 89 3e
       0.013303252 0.021913204 0.39223585 0.26883936
0000e0 fd 2d b7 3e c5 c2 94 3d 1b d5 69 3c c9 cb 4d 3e
       0.35777274 0.07263712 0.014272 0.20097269
0000f0 5a db 71 3e c9 ef c9 3e 28 fa c2 3d 74 49 02 3e
       0.23618832 0.39440754 0.0952037 0.12723333
000100 94 3c 14 3e 8e a4 6e 3e 52 3b 8d 3e ba 41 e2 3d
       0.14476234 0.2330496 0.2758432 0.110476926
000110 79 f7 a6 3c 9a b9 24 3e bc 7b 2a 3e b4 f6 80 3d
       0.020381676 0.16086426 0.16648763 0.06297055
000120 ba 13 de 3d 96 91 22 3e b8 94 54 3e a8 bd 24 3e
       0.10843606 0.15875849 0.20759857 0.16087973
000130 76 10 08 3e 4b 6f f1 3d 13 10 bd 3e b4 62 8b 3d
       0.1328753 0.117888056 0.36926326 0.068059355
000140 93 cc 5b 3e e3 b0 f9 3d 49 c7 87 3e d2 9b e2 3d
       0.21464758 0.121919416 0.2651923 0.110648766
000150 cd c5 3e 3e 96 05 64 3e a7 1d 5e bd bb 4a b1 3d
       0.18630143 0.22267756 -0.054227497 0.08656832
000160 ec d3 6a 3e 0c 11 92 3e c3 65 54 3e 1f 14 a3 3e
       0.22932404 0.2852863 0.20741944 0.3185129
000170 6e 4a 2d 3e a0 dc 0e 3d fd 82 b0 3e f3 b7 95 3e
       0.16922924 0.034878373 0.34474936 0.29241905
000180 6f 15 2a 3e 66 cf b4 3d bf ca 82 3e 78 15 7c 3c
       0.16609739 0.088286206 0.25545308 0.015385978
000190 bd 94 1e 3e 3a 3b a6 3d c3 1e 93 3e d5 cd f0 3d
       0.15486427 0.08116765 0.28734407 0.11758009
0001a0 a0 43 bb 3e 6f cc 7d 3e 3c b3 e3 3d f2 c0 51 3e
       0.3657503 0.24785016 0.111181706 0.20483759
0001b0 9b a4 9f 3d c9 bf ec bc 52 a7 1d 3e 01 ca 97 3d
       0.07795068 -0.028900044 0.15395859 0.07411576
0001c0 72 5c 68 3e 41 57 34 3e bc 32 1a 3e df 97 c3 3d
       0.22691515 0.1761141 0.15058416 0.095504515
0001d0 4f 16 54 3e 4c f8 8b 3d b0 4b 65 3e 40 e3 65 3d
       0.20711635 0.06834468 0.22392154 0.056124926
0001e0 f1 cf 5e 3e f4 18 4d 3e ef 30 4b 3e 45 a4 2e 3c
       0.21759011 0.2002905 0.19842885 0.010659282
0001f0 20 40 50 3e 6d 5c a3 3e 27 4e 7e 3d 5f c3 ab 3e
       0.20336962 0.31906453 0.06208625 0.33547494
000200 1d 2b 0d 3d f4 53 a0 3c 19 b2 34 be c7 1c a1 3d
       0.034464944 0.019571282 -0.17646064 0.07866817
000210 36 9d cf bc 7b 1b 36 be 6b e9 b7 3d b4 76 77 3e
       -0.025343519 -0.1778392 0.08980068 0.24166375
000220 d0 13 f8 3d a1 6a 86 3e 12 5f d0 3e fa 6b 55 bd
       0.12113154 0.26253226 0.40697533 -0.052104928
000230 d9 11 0b 3e 7c 92 7f 3e d1 be af 3e b0 99 7b bd
       0.13581027 0.24958223 0.3432527 -0.061425865
000240 01 41 b1 3d e4 0f 21 3e d3 6e 98 bd 80 cd 4d 3d
       0.08654977 0.15728718 -0.07443013 0.05024481
000250 18 ee c1 3e 5d a2 d5 3e 48 8a bd bd 6e 0b 6a bd
       0.37876964 0.41725436 -0.09254891 -0.057139806
000260 5c 05 d9 3d 7f f6 b0 3b 29 a2 b6 bd 83 f9 5a 3c
       0.10596725 0.0054004784 -0.08917648 0.013365152
000270 b5 fd a3 3d 21 65 0f 3e 95 ca e7 3e 8f 7c a5 3e
       0.08007375 0.14003421 0.45271745 0.32321593
000280 d1 89 87 3d a4 3a 15 3e 76 8b ab 3e 4c f3 f9 bc
       0.06618083 0.14573151 0.33504838 -0.03051152
000290 3e 01 c3 3d 3a 71 9a 3e 6b 26 0e be 4a 65 02 be
       0.09521721 0.3016451 -0.13881843 -0.12733951
0002a0 e5 f6 82 3e cb 39 1a 3e 28 65 35 bd 05 43 02 3e
       0.2557899 0.15061109 -0.044285923 0.12720878
0002b0 13 20 c6 bd 6b 68 dd 3c 98 37 1b bc 61 49 8f 3e
       -0.096740864 0.02702733 -0.009473704 0.2798567
0002c0 ff 86 ce 3d 77 c1 71 3c f7 8d 06 bd 56 7b 04 3e
       0.10084342 0.014755598 -0.032850232 0.12937674
0002d0 96 16 df 3b 56 a4 9c 3e 13 69 34 3e 73 94 15 3d
       0.0068081124 0.30594128 0.17618208 0.036518525
0002e0 36 eb 14 3e 69 63 87 3e e2 e7 49 be 61 c9 59 3d
       0.14542851 0.2644303 -0.19717363 0.053170566
0002f0 19 e5 a3 3c 48 3c dc 3d db 00 40 bd c4 84 70 be
       0.020006703 0.10753685 -0.046875816 -0.23488146
000300 39 9c 10 3e b5 30 d8 3d 7f 33 86 3d 57 02 c6 3d
       0.14122094 0.10556165 0.06552791 0.09668415
000310 b3 a6 3a 3e 12 4e ce 3d 7f 7b ff bc ab 07 cb 3d
       0.18227653 0.100734845 -0.031186817 0.09913572
000320 4d 82 af 3c 4e ee 8b 3e f7 e5 cc 3c a1 4f d4 3d
       0.021424437 0.2733025 0.025012 0.103667505
000330 b0 47 e7 3d 67 76 d5 bc 75 68 a5 3e 34 0c 7a 3d
       0.1129297 -0.026057435 0.32306257 0.061046794
000340 2b b8 09 3e 16 3e 39 3e 75 1c 67 3e d6 b3 9a bd
       0.13449161 0.1809009 0.22569449 -0.07553832
000350 22 67 af 3c f9 9f bb 3d 14 80 1a 3d 82 cc 4a 3e
       0.021411482 0.09161372 0.0377198 0.19804576
000360 af a7 52 3e 3a 6e 08 3e 74 e9 3e 3d 6c 76 03 3d
       0.20571779 0.13323298 0.046609357 0.032095358
000370 df 8c aa 3d 72 93 46 3e b2 fe 07 3e bc 24 51 3e
       0.0832765 0.19392183 0.13280752 0.2042417
000380 2e 11 c4 3d 13 55 44 3e ce 50 aa bc 69 ad b2 3d
       0.09573589 0.19173078 -0.020790484 0.087244816
000390 4c 8e 77 3e 88 cd 0a 3e 05 bd 55 3e b8 74 5a 3c
       0.24175376 0.13554966 0.20872886 0.013333492
0003a0 92 c5 58 3e c5 a9 74 3d 97 b3 1a 3e 9f 00 0f 3e
       0.21169117 0.059732217 0.1510757 0.1396508
0003b0 8e 9f 14 3e f8 56 41 3e 5a 14 05 3d 9a c8 a5 3d
       0.1451399 0.18880832 0.032490112 0.08094902
0003c0 f7 9e 3e 3e 26 d5 b3 bc 09 86 56 3d f1 b5 53 3e
       0.18615328 -0.021952223 0.05237392 0.20674874
0003d0 56 a5 3f 3e 55 15 13 3e d7 7d 89 3e dd 71 39 3e
       0.18715414 0.14363606 0.2685382 0.18109842
0003e0 59 45 89 3e 95 80 40 3d bb 9a 0b 3d 58 f3 af 3d
       0.2681072 0.046997625 0.03408311 0.08591336
0003f0 92 6a 19 3e 39 f4 aa 3e ca 22 9e 3c 5d 8e 06 3e
       0.1498206 0.33389452 0.019303698 0.13140245

lstm.weight_hh_l0 f4 [256, 64]
000000 43 6e 5f bd bf ec 30 3c 4a 4d 38 bd 40 b4 02 bd
       -0.054548513 0.010798632 -0.044995584 -0.03191018
000010 5c 2a a6 bd f9 c0 ae 3c 75 4c 82 bd 2c 27 d3 bb
       -0.08113548 0.02133225 -0.06362239 -0.0064438786
000020 ae c5 51 3d ea bf 3f ba c3 9a 69 3c c2 05 1a 3d
       0.051213913 -0.0007314669 0.0142580895 0.037603147
000030 ec 7b e3 bd 99 c0 dd 3d 38 ca cd 3d 90 66 94 bc
       -0.111076206 0.10827751 0.10048336 -0.018115312
000040 f5 3b e0 3c 7c 80 64 3d 0e e2 b9 3d b3 36 4d 3c
       0.02737234 0.055786595 0.0907632 0.012525248
000050 cd bf c0 bd 72 94 38 3d b9 94 77 3d e0 4d ef 3d
       -0.09411583 0.045063443 0.060444567 0.11684775
000060 4e cf f0 3d 2b d3 19 bd 83 9d eb 3c d9 5a 81 bd
       0.1175829 -0.0375549 0.02876163 -0.06316156
000070 0e d7 b3 bd bd 88 e1 bd 08 d7 a1 3d 71 fc 53 bc
       -0.08781253 -0.11012409 0.07902342 -0.012938605
000080 8b a3 c5 bc c6 fd 7f 3d 07 a6 2f bc b4 e7 8a bd
       -0.024125835 0.062497877 -0.010720736 -0.06782475
000090 45 d5 45 3c cd b2 b2 bb 1a a0 de 3b c7 22 5f 3d
       0.012074773 -0.0054534436 0.006793988 0.054476526
0000a0 22 79 39 3d a5 d1 e9 3d 41 20 bb bd 42 37 e5 bd
       0.045281537 0.1141694 -0.09137011 -0.1119218
0000b0 cc 2e a1 3d 54 12 fb bc 86 6c 87 ba e5 84 cc bd
       0.07870254 -0.030648388 -0.0010332025 -0.09986285
0000c0 9d 60 99 bd 85 b4 95 bd d0 a3 81 3d 3d 47 28 bd
       -0.07489131 -0.07309822 0.06330073 -0.041083563
0000d0 9d 68 49 bd 3c f7 f6 3c 1b 9b b3 3d c2 ce a0 bd
       -0.049172033 0.030147187 0.087698184 -0.07851936
0000e0 73 e0 cc bc 3a 6f 8d 3c 9b d2 d5 bd e1 5f 2b 3d
       -0.02500937 0.017264951 -0.104405604 0.041839484
0000f0 29 a8 47 3d 3e d9 8b bd f7 c0 04 bd 52 ee e4 3d
       0.048744354 -0.06828545 -0.032410588 0.111782685
000100 e0 6d 7c 3d 45 ca da 3d 30 f4 c7 bc 01 3d e2 bd
       0.061628222 0.10683111 -0.02440843 -0.11046792
000110 a7 c2 94 3d 12 a0 1a bd 9b 5d a2 bd 30 82 a5 bc
       0.072636895 -0.03775031 -0.0792801 -0.02020368
000120 5c ff ad 3d 3a 94 9b 3d f9 17 8a bd 2f 39 3d bc
       0.084959716 0.07596631 -0.06742854 -0.011549278
000130 4d 4d b3 3d 5c 84 43 3c 7d 78 9e 3d ae 20 a9 bd
       0.08754978 0.011933412 0.07737825 -0.08258186
000140 1d 0c 71 bb 9c 6d 1b bc cb 96 d5 bd 24 95 29 3c
       -0.0036780902 -0.009486582 -0.10429152 0.010350499
000150 e6 3c d2 3c 58 2e a6 3c 8c 06 ce 3c fa 46 42 3d
       0.025663804 0.02028577 0.025149606 0.04743097
000160 5d b4 dc bd b2 47 cc 3d ec d3 b8 3d a9 f7 cb 3c
       -0.10776589 0.09974612 0.09024796 0.024898367
000170 eb ee d9 bb 2d bd f4 bb 0e d8 df ba 01 4c bc 3d
       -0.0066507957 -0.0074688406 -0.0017077939 0.09194184
000180 a0 da 0e bd 25 2b a2 bd 09 aa db 3d b2 59 d8 bd
       -0.034876466 -0.079183854 0.10725791 -0.10563983
000190 f3 62 8d bd 11 9b 8e bd 3c ab 8c 3d 4f 39 87 3d
       -0.06903639 -0.0696317 0.06868598 0.066027276
0001a0 8d 89 ea 3d 0d 33 d2 3b e6 c1 a4 bd 84 eb d6 3d
       0.11452017 0.006414777 -0.08044796 0.1049414
0001b0 16 ee 45 3d b7 2c 93 bd 67 82 a3 bd f7 c5 bd 3d
       0.04832276 -0.07186263 -0.07983857 0.092662744
0001c0 1e 8e 38 bd db a2 e1 3c 17 97 7b 3d cc d6 a7 bd
       -0.04505741 0.027543476 0.061423387 -0.08195266
0001d0 68 2c d2 3d 93 65 11 3d e1 79 df 3d 3a 19 c3 3d
       0.10262376 0.03549726 0.109119184 0.09526296
0001e0 75 96 b1 3d 56 c4 23 bd dd 0c f6 3d 7a fc a4 3b
       0.086712755 -0.039982162 0.12014172 0.0050349804
0001f0 a1 8b db bd 9b 56 73 bc 04 9d a0 bd d5 bb ad bc
       -0.107199915 -0.014852191 -0.07842448 -0.02120773
000200 70 6f 74 3d 5e 43 1d bd f3 22 98 bd da 03 5c 3d
       0.059676588 -0.038394324 -0.07428541 0.05371461
000210 d0 80 1f 3d ab 76 cb 3d 38 3a 2a 3d 63 8d 51 bd
       0.038941205 0.099347435 0.041559428 -0.051160228
000220 8c 82 8e 3d 3d 35 da 3d 6c 44 d0 bd a0 ef cb bd
       0.069584936 0.10654686 -0.101693004 -0.09957814
000230 9e e5 8b 3d 15 a6 47 3d 27 4f cb bd bd 85 94 3d
       0.068309054 0.048742373 -0.099272065 0.07252071
000240 fe 35 ba 3d 4d 5f 32 3d 16 85 45 bd 77 7f ae bd
       0.090923294 0.043547917 -0.048222624 -0.08520406
000250 65 7a 51 bc 65 55 51 3c 72 47 fc bc 52 71 b0 3c
       -0.012785529 0.012776707 -0.030795787 0.02153841
000260 41 1e 9c 3d f1 b4 a2 bd 99 0e 1a bd 62 b2 a9 bd
       0.07622958 -0.07944668 -0.037611578 -0.08285977
000270 0b cc d4 3d b2 41 c0 3d 31 33 1b bc 94 69 ad 3d
       0.103904806 0.093875304 -0.009472654 0.08467403
000280 bc 22 d6 3d c3 1f 23 3c b6 95 2a bd 5a 40 dc bd
       0.10455844 0.009956303 -0.04164668 -0.107544616
000290 fb b8 ce 3d 75 95 9a bd 71 e1 ad 3d 82 75 2e 3c
       0.10093876 -0.07548038 0.08490265 0.010648133
0002a0 f4 b2 e1 3d 60 9b 75 bd cf 91 b5 3d 41 bd b9 3d
       0.11020461 -0.05996263 0.088657014 0.090693004
0002b0 da 77 05 3d e2 50 3f 3c 17 12 c5 bd 54 4f e3 3d
       0.032585002 0.011676999 -0.09622591 0.11099115
0002c0 e5 68 ab bd 95 44 df 3d 6e 39 ea bd 35 d2 b6 bd
       -0.083696164 0.10901753 -0.11436735 -0.089268126
0002d0 70 e3 b7 bb f2 f9 52 3d 13 31 f2 3d 5d 22 a3 bd
       -0.0056118295 0.051507898 0.118257664 -0.07965539
0002e0 64 ef 36 bc cc b2 1f bb 4a ff 33 bd 17 79 9c bd
       -0.011165474 -0.0024368046 -0.043944634 -0.076402836
0002f0 ef f3 e6 bc 8f b6 0f bd 07 83 49 bd 01 23 95 3c
       -0.028192488 -0.03508621 -0.049197223 0.018205168
000300 fc 45 21 bd b8 16 59 3d d5 12 f8 3d 8a 26 ae 3d
       -0.039373383 0.053000182 0.12112967 0.085034445
000310 77 f6 b9 bd 75 21 81 bc 64 cf e9 bd f1 2a 2f 3d
       -0.090802126 -0.015763024 -0.1141651 0.04276556
000320 89 ab d1 bd 56 e2 8d 3d 4c 22 6b bc bd f7 87 bd
       -0.10237796 0.06927936 -0.014351439 -0.06639049
000330 6d f8 fb 3b b5 cd e8 bd df dc 67 bd 80 29 dd 3d
       0.007689527 -0.113673605 -0.056607123 0.10798931
000340 96 23 86 bd 61 10 dd 3d 59 07 b8 bd 5e 46 90 3d
       -0.06549756 0.1079414 -0.089857765 0.070446715
000350 36 fc 0b 3d f1 f4 30 bd 57 23 1c bc ba 00 a4 3c
       0.034176074 -0.043202344 -0.00952991 0.020019878
000360 c8 f0 4e 3d 4d 71 ba 3c fb fc 59 3d b4 b6 96 3c
       0.050522596 0.022759104 0.053219777 0.018397667
000370 f1 35 df bc 80 68 ef bd b8 81 8c bd 9f 8a 81 bd
       -0.027247401 -0.11689854 -0.068606794 -0.06325268
000380 39 83 40 3d c8 b7 7d 3d c4 74 97 bc e0 58 8a bd
       0.047000144 0.061942846 -0.018488295 -0.06755233
000390 b4 44 03 bb 7b e0 ea bd af 33 56 3d c4 d2 a7 bd
       -0.0020029964 -0.114685975 0.052295383 -0.08194497
0003a0 18 a2 c0 3c 1a ac d0 bb 17 ae d6 3d 82 c7 d1 bd
       0.023514792 -0.0063681724 0.10482424 -0.10243131
0003b0 7c 09 8e bd 17 51 b6 bd a4 12 aa bd bd 4c e9 bc
       -0.06935403 -0.089021854 -0.08304337 -0.028478974
0003c0 c9 f1 2f bd c3 72 fa bd 3c 81 58 bd 88 fa b2 bd
       -0.042955194 -0.1222892 -0.052857623 -0.08739191
0003d0 af 17 97 bb 09 e1 53 ba a7 b0 41 3d 3c e7 c2 bc
       -0.0046109776 -0.0008082544 0.04728761 -0.023791902
0003e0 81 1a da 3c 13 77 b3 3c 74 a1 73 bd c9 23 95 3d
       0.026623966 0.021907365 -0.059480146 0.07282216
0003f0 ca 2a ac 3b d8 50 b2 bc 05 77 0f ba 2c 8a 23 bc
       0.0052541243 -0.021767065 -0.00054727524 -0.009981673

lstm.bias_ih_l0 f4 [256]
000000 b0 5d 98 3e a6 e9 11 3e 45 aa 83 3e 0a 11 59 3e
       0.29758978 0.14249286 0.25715843 0.21197906
000010 f0 c0 a4 3e c1 c2 7a 3e 09 9c 99 3e 3a 9d 7b 3e
       0.3217845 0.24488355 0.30001858 0.24571696
000020 c7 8e 19 3e 38 9e 69 3e a9 d7 42 3e 10 cc c9 3e
       0.14995871 0.22814262 0.1902758 0.394135
000030 20 c2 91 3e e5 ef ff 3d 31 2c ec bc 27 0a c7 3e
       0.28468418 0.12496928 -0.028829666 0.38874933
000040 a0 bf ad 3e 1b f6 81 3e ee ff 98 3e 81 86 9f 3e
       0.3393526 0.25383076 0.2988276 0.31157306
000050 24 d6 f7 3d 51 9b a1 3e d2 2a 57 3e 9d d9 13 3e
       0.12101391 0.3156381 0.21012428 0.14438482
000060 30 20 0b 3e c6 f7 c8 3e 87 e9 85 3e 2c f6 57 3d
       0.13586497 0.39251536 0.2615473 0.052725002
000070 a5 f5 cb 3e 5c 49 53 3e 1e 3a c2 3d 57 98 f6 3d
       0.3983585 0.20633453 0.09483741 0.12040775
000080 68 84 b0 3e 7c 65 19 3e 4e 8a 2b 3e 65 a2 21 3e
       0.34476018 0.1498012 0.16751978 0.15784605
000090 95 d6 e1 3d 50 a5 27 3e 8f 69 2b 3e 37 64 a5 3e
       0.110272564 0.16371655 0.16739486 0.3230302
0000a0 97 c2 29 3d 48 b9 93 3e bf 9c 52 3e 4c af 10 3e
       0.04144534 0.28852296 0.20567606 0.1412937
0000b0 fc 0c 67 3d 72 a7 8f 3e 47 59 cd 3e 48 8d 91 3e
       0.056408867 0.28057438 0.40107176 0.28428102
0000c0 13 f3 33 3d 68 5e 80 3e 34 3a 94 3e 7f de 88 3e
       0.043932986 0.25072026 0.28950655 0.2673225
0000d0 92 c4 c7 3c 22 3a 10 3e 8f ff ab 3e d5 85 a8 3e
       0.024385724 0.14084676 0.33593413 0.32914606
0000e0 67 86 87 3e 75 94 9d 3d 80 a3 d8 3d b1 ad 90 3e
       0.26469728 0.076943316 0.1057806 0.28257516
0000f0 1c b9 57 3e 97 f4 54 3e 9d 48 38 3e 9b 71 64 3e
       0.21066707 0.20796429 0.1799645 0.22308962
000100 1d e5 ba 3d 81 e8 f3 bd f4 b1 58 bd 90 78 12 3d
       0.09125731 -0.11909581 -0.052904084 0.03575951
000110 86 31 bf 3d 79 21 94 bd 66 e2 c4 3d 08 d0 10 3d
       0.09335618 -0.07232947 0.096134946 0.035354644
000120 1b d2 c7 bd 6a 3e 68 3d 60 59 d4 3d 2c 56 ca 3c
       -0.09756871 0.056700148 0.103686094 0.024699293
000130 01 fb 51 bd 68 db 9e 3d 9a 85 df bd 07 9b 91 3d
       -0.051264767 0.07756692 -0.10914154 0.07109647
000140 80 d2 c9 bc 0d ea c9 3d 2d 6a 1c bd 21 93 18 3d
       -0.024636507 0.09859095 -0.038187195 0.037249688
000150 e7 dc 4e 3d df d7 8e 3d 2f 96 b7 bd ce 2d 68 3d
       0.050503638 0.06974768 -0.08964192 0.056684308
000160 2f 78 b3 bb ef 1c f5 3d e1 44 bb 3c 04 b7 4f 3d
       -0.0054769735 0.11968409 0.022859992 0.050711647
000170 7c 87 4f bd 3a 12 cc bd 16 7e 14 bd 11 ce 1a 3d
       -0.050666317 -0.09964414 -0.036253057 0.037794176
000180 f0 9d a4 3c 8c b5 e6 3c bb bc 33 3d 5c 31 ee 3c
       0.020094842 0.02816274 0.04388116 0.02907627
000190 27 4d 13 3d 3f 41 f2 3d 04 64 95 3d c0 d0 4e bd
       0.03596225 0.11828851 0.07294467 -0.05049205
0001a0 e0 35 a9 3d 96 f6 29 3c 43 cb 17 bd fb 7f be 3c
       0.08262229 0.010373732 -0.03705908 0.023254385
0001b0 de 18 5c 3d 71 3a 47 3d 86 d7 18 3b 5b 4a f5 3c
       0.053734653 0.04863972 0.0023321821 0.029942682
0001c0 dd 6e 9d bd 29 bb cd 3d 7a da f9 bc d3 22 47 bd
       -0.07687161 0.100454636 -0.030499686 -0.048617195
0001d0 dd 31 b7 bd 95 52 0a bd da dd e0 3d 1a e7 c5 3d
       -0.089450575 -0.033770163 0.10979815 0.0966322
0001e0 b2 c0 ac 3d 8d bc 8b 3d 42 cb b4 3d b3 4b f6 3d
       0.08435191 0.068230726 0.08827831 0.12026157
0001f0 ee 31 7d bd 4b 5e 32 3d f1 23 a4 bd 36 3f 34 3d
       -0.061815195 0.043546956 -0.08014668 0.044005595
000200 45 c7 cc 3d 8d 1f 70 bd 86 0e e4 bd 94 f2 ce 3d
       0.09998945 -0.05862384 -0.111355826 0.10104862
000210 89 04 c8 3d 44 5b cc bd 66 9f e2 3c 3e 23 a7 bb
       0.0976649 -0.09978345 0.027663898 -0.0051006367
000220 9d 76 9d bc e5 de 23 be d3 b2 fd 3c f2 d7 38 bd
       -0.019221598 -0.16002996 0.03096906 -0.045127816
000230 4a 32 1f bd f9 98 4e 3d 0b ce 14 3c ed d2 80 bd
       -0.03886632 0.050438855 0.009082328 -0.06290231
000240 dd bb 1b bd 08 dc 65 3d de 8a f0 bd 0a d4 3c bc
       -0.038020957 0.05611804 -0.11745237 -0.011525163
000250 9a 33 db 3c 2c 66 0b 3d e2 5f 78 3c a7 d9 0a 3d
       0.026758004 0.034032986 0.015159579 0.033898976
000260 45 84 57 3d 79 fe e9 3c 8b 72 d7 3c c3 6c bb bd
       0.052616376 0.028563725 0.026299736 -0.09151604
000270 7e fa 9d bc e9 08 87 3c bf d0 cb bd 64 c7 1b bb
       -0.019284483 0.01648374 -0.099519245 -0.002376997
000280 6e c4 ba bd a4 ee 17 3e b9 2d 0b 3e 75 1b a4 3d
       -0.09119497 0.14837128 0.1359166 0.080130495
000290 63 58 d7 3d 2b 5a 02 3d 88 59 6a bd eb e7 06 3e
       0.10514905 0.031824272 -0.05721429 0.13174407
0002a0 96 7d 04 3e 8c c3 61 3d 42 72 3c bc 1f 51 bd bc
       0.12938532 0.05511813 -0.011501851 -0.02310997
0002b0 33 a6 bf 3b 67 a8 0c bd cd b4 47 bd 3b 86 dc bc
       0.00584867 -0.03434029 -0.04875641 -0.026919475
0002c0 ea 43 36 bd be bd 67 bd de 96 2e 3e 99 ad c0 3d
       -0.04449836 -0.056577437 0.17049739 0.09408111
0002d0 a1 d2 6c 3d 48 39 fc bd ae 01 ea 3c 92 70 9a 3d
       0.05781806 -0.12315613 0.028565254 0.07541002
0002e0 40 e0 58 3c 66 18 49 3d ff db eb 3d 06 9b f3 bd
       0.013237059 0.049095534 0.1151657 -0.11894803
0002f0 10 27 44 bd d4 96 ff 3d ef e8 0d 3e ee c1 81 bd
       -0.047888815 0.1247994 0.13858388 -0.06335817
000300 10 d2 68 3e 71 16 74 3e f2 8d 81 3e 5d b1 9f 3d
       0.22736382 0.23836686 0.25303608 0.07797501
000310 58 ec 3b 3e 08 06 87 3e 31 a7 a3 3e 61 a7 37 3e
       0.18351877 0.2637179 0.31963494 0.17934944
000320 a7 20 b4 3d 9e 2c 00 3e 4f 9f ba 3e 6a dd 8b 3e
       0.087952904 0.1251702 0.36449668 0.27317363
000330 54 b2 f9 3d 27 15 18 3e e1 08 40 3e 28 97 93 3e
       0.121922165 0.14851819 0.18753387 0.2882626
000340 4f a2 84 3e 84 c2 7d 3e 49 fb 45 3e 0b b4 95 3e
       0.25905082 0.24781233 0.19334139 0.29238924
000350 e4 f3 8e 3d 3e 0b 65 3e dc fd 84 3d 2e 45 6c 3e
       0.06980112 0.2236757 0.06493732 0.23073265
000360 38 fa a5 bb 91 fe 7b 3e 6e 4c c2 3d 21 28 f4 bb
       -0.005065229 0.24608828 0.09487234 -0.007451073
000370 0d 1c c8 3e 4f 56 69 3e cf 4d 52 3e 54 b0 40 3e
       0.390839 0.2278683 0.20537494 0.18817264
000380 01 f2 d9 3d a2 a6 14 3e 89 d6 70 3e b2 1a d8 3d
       0.10641862 0.1451669 0.23519339 0.10551967
000390 4c 1a bc 3d 66 7f cf 3e 28 84 60 3e ad c4 b7 3e
       0.09184703 0.40526885 0.21925414 0.3589224
0003a0 8b 7a e4 3d a7 b5 cd 3e c4 91 7b 3d cf 57 97 3e
       0.11156186 0.40177652 0.06141831 0.2955918
0003b0 1e a0 80 3e c7 b6 40 3e 96 83 87 3e bb c4 a8 3e
       0.2512216 0.18819724 0.2646758 0.32962593
0003c0 72 7d 20 3e 6e 7f 59 3e 5d 00 4b 3e 40 0a ae 3e
       0.15672854 0.21240017 0.19824357 0.33992195
0003d0 c9 34 be 3d 5f 8b cf 3d 09 9f b5 3e 63 56 a7 3e
       0.09287412 0.10134005 0.35472897 0.32683095
0003e0 58 d5 29 3e 2e 3c 8e 3c 68 39 90 3e 10 12 1a 3e
       0.1658529 0.01736268 0.28168797 0.15045953
0003f0 44 17 88 3d 63 eb 12 3e 20 a6 6d 3e 8e 55 0f 3e
       0.066450626 0.14347605 0.23207903 0.1399748

lstm.bias_hh_l0 f4 [256]
000000 ba 6c 93 3e d8 70 0e 3e 5f ee 8d 3e 4e 52 92 3e
       0.2879389 0.13910234 0.27720925 0.28578418
000010 7d 09 9f 3e 3f 2c 8b 3d 17 a7 8c 3e bf df 71 3e
       0.31061926 0.06795549 0.2747123 0.23620509
000020 13 83 8f 3e 66 69 07 3e 74 ad 7c 3e a1 19 ab 3e
       0.2802969 0.132238 0.24675542 0.3341799
000030 39 ed 77 3e 1c d7 23 3d 91 f2 49 bd 8f 37 be 3e
       0.24211587 0.040000066 -0.049303595 0.37151763
000040 cf 60 b6 3e 37 e7 72 3e fd 29 9c 3e b9 a5 48 3e
       0.35620734 0.23721014 0.30500785 0.19594468
000050 f2 8a 51 3e 1f af 97 3e 35 fd ee 3d 29 6b fa 3d
       0.2046316 0.29625794 0.11669389 0.122274704
000060 a9 81 41 3e 4d cd b5 3e 06 6f 74 3e 34 50 62 3e
       0.18897118 0.35508195 0.23870477 0.22100908
000070 36 7d 69 3e 0d f9 96 3e 28 63 5b 3d 43 f7 68 3e
       0.2280167 0.29486886 0.05356136 0.22750573
000080 cd 36 5e 3e cb 35 15 3e 67 fc 8b 3e 66 0a e3 3d
       0.21700592 0.14571302 0.27341005 0.11085968
000090 ca eb 36 3e 0e e9 92 3e 6c cb 0f 3e d1 9a 7c 3e
       0.17863384 0.28693432 0.14042443 0.24668433
0000a0 c4 49 c8 3d be 97 94 3e d4 85 d9 3d be c3 6b 3e
       0.09779695 0.2902202 0.10621229 0.23023888
0000b0 bb 9d 74 3e a2 d7 46 3e e5 fa 9e 3e 15 f7 e2 3d
       0.23888294 0.19418195 0.31050792 0.110822834
0000c0 33 7c f5 3d 30 5c 7b 3e 08 0b 94 3e 83 a8 9c 3e
       0.1198658 0.24546885 0.28914666 0.30597314
0000d0 ae ce 00 3e 7c fe 33 3e f9 a7 60 3e 35 40 10 3e
       0.12578842 0.17577547 0.21939076 0.14086993
0000e0 4d 26 46 3e 90 d7 e4 3d 33 1e 80 3e 14 67 3e 3e
       0.19350548 0.11173928 0.2502304 0.18594009
0000f0 c7 8f 96 3d 84 10 9f 3e 36 98 1b 3e 86 73 dc 3d
       0.07351642 0.31067288 0.15194783 0.10764222
000100 d1 68 e4 bd af 94 ba bd 2b dd 81 bc 17 20 89 bd
       -0.11152805 -0.091103904 -0.015852531 -0.06695574
000110 02 6b c7 bd 87 e6 c3 3c 37 52 d4 3b 6e a3 ea 3d
       -0.09737207 0.023913635 0.0064795273 0.11456953
000120 ad ee a8 bd 43 28 82 bd 6c 5d c2 bc 9f 68 da bd
       -0.08248649 -0.063553356 -0.023726188 -0.10664486
000130 01 80 19 3d 3f b5 93 bd 48 70 25 bd 27 e8 26 3d
       0.03747559 -0.07212304 -0.040390283 0.04074874
000140 ae 06 bd 3d 20 84 e5 bc 17 c8 de 3c b5 5f 60 bd
       0.0922979 -0.028017104 0.02719502 -0.054778773
000150 2f 01 19 bd 27 57 82 3c 59 09 12 bc 85 fe ee 3c
       -0.037354644 0.015910698 -0.0089133615 0.029174099
000160 5a 3c ab 3d 87 78 bd bd e6 c1 4f bd f3 28 db bd
       0.083611205 -0.092515044 -0.050722025 -0.1070117
000170 e3 e4 4a bd be ba 81 3d ad bd ba 3c 65 3c ce bd
       -0.04953469 0.06334446 0.022795523 -0.10070113
000180 7b 4c b6 3c 78 32 73 3c 79 f6 75 3d 6f 9b 58 bd
       0.022253266 0.014843576 0.060049508 -0.052882608
000190 ee bc 1b bc 42 4a 6d 3d a3 b5 b9 bd 3e 81 9b 3d
       -0.009505494 0.057932146 -0.090678476 0.0759301
0001a0 6a eb 7f 3d b1 1d aa bd a5 2c d7 bd e9 c6 e1 bc
       0.062480368 -0.083064444 -0.10506562 -0.027560668
0001b0 c8 7a 88 bd d3 b3 96 3b 51 a2 4f bd 54 06 5b 3d
       -0.06664044 0.0045990734 -0.050691906 0.05347283
0001c0 e1 6c 8a bc 9b ea c5 bd 84 80 3f bd ab aa f9 bd
       -0.01689762 -0.09663888 -0.04675342 -0.121907555
0001d0 c3 e8 e8 bc ae fd e7 3d 18 40 af 3c 46 00 59 3d
       -0.028431302 0.113276824 0.021392867 0.052978776
0001e0 25 66 84 bc d5 2e f6 3d ed 7b 47 bd c9 57 af 3d
       -0.016161988 0.12020651 -0.04870217 0.085616656
0001f0 7c be e1 3c f4 bc ee bd 27 6f 81 bd 34 ca a7 3d
       0.02755665 -0.11657134 -0.06320029 0.08192864
000200 d8 33 cf 3d c2 f5 4d 3c 4b f0 1c bd 92 76 8a bc
       0.1011731 0.0125708 -0.0383151 -0.016902242
000210 3e dc cd bd 5e cb 03 be e4 32 7d 3d b2 f7 eb bd
       -0.100517735 -0.12870547 0.06181611 -0.115218535
000220 99 75 29 3e 8b d6 87 3c 69 b2 88 bd 1b 43 4c 3d
       0.16548766 0.016581794 -0.06674654 0.049868684
000230 30 93 12 be ad b6 b3 3d d5 2b d2 3c 1e 2a 8b 3d
       -0.1431396 0.08775077 0.025655666 0.067951426
000240 15 47 df 3d 0a c1 15 3e d9 ad a2 bd 6c 3b e6 bb
       0.1090223 0.1462442 -0.07943315 -0.0070261266
000250 7e 5d 8b 39 d3 1a 18 bd 58 0e ae bb 61 0d f5 bd
       0.00026581803 -0.037134957 -0.0053117685 -0.119654424
000260 ea 4a cb 3d 5e b6 43 be 02 0c 0c be 11 b7 48 3c
       0.09926398 -0.19112536 -0.13676456 0.012250678
000270 ba fe f7 bd 98 63 91 bd cd e2 74 3d 14 52 59 3c
       -0.12109132 -0.07099074 0.059786607 0.013264198
000280 55 e8 5d 3b e6 c2 d9 3d 96 d3 cf 3d 59 c1 f5 3c
       0.0033860405 0.10632877 0.10147779 0.029999422
000290 2e 8f ae 3d a4 2a 6f bd 26 5d e5 bc 64 df 34 3d
       0.08523403 -0.058390275 -0.027998518 0.044158354
0002a0 b9 e8 83 3c c7 5e a0 bd 06 e6 eb 3d 29 52 6d 3a
       0.016102182 -0.07830577 0.11518483 0.00090530753
0002b0 c7 5d ee 3d 16 25 3c bc b9 e0 1f be c6 ce 0d 3e
       0.1163898 -0.011483451 -0.15613069 0.13848409
0002c0 f2 30 da bd 2e 67 c9 bd e2 a2 e0 3d 67 89 ed 3d
       -0.10653867 -0.09834133 0.109685674 0.11598473
0002d0 4a de b6 3c 93 31 2c bd 6a 3f 58 3d 98 ad 5c bd
       0.022322793 -0.042039465 0.05279485 -0.05387649
0002e0 9b c1 7c bd 86 3c c3 3d ec 41 c2 bd b0 aa bb bd
       -0.061708074 0.09533028 -0.0948523 -0.091634154
0002f0 ee c1 7c bd 3c 54 9e bd 8e 39 0a 3e de 15 9b 3c
       -0.061708383 -0.0773091 0.13498518 0.018931326
000300 c4 43 66 3e 5c ed 8c 3e b4 3e 14 3e 27 b7 9d 3e
       0.22486788 0.2752484 0.14477044 0.30803797
000310 fb a3 9c 3e e1 09 61 3e b7 d7 66 3e b3 d5 1f 3d
       0.30593857 0.21976425 0.22543226 0.03902216
000320 5a b1 ef 3d 05 ba 5f 3e 11 94 79 3e 3c 6d 29 3e
       0.11703749 0.21848305 0.24372889 0.16545576
000330 62 be 94 3e c0 60 e5 bc 97 ff 9d 3d d3 26 9f 3e
       0.290515 -0.028000236 0.077147655 0.31084308
000340 b2 9b 73 3e d8 98 79 3e 87 32 6c 3e 64 0a 72 3e
       0.23789862 0.24374712 0.2306615 0.23636776
000350 1b e4 05 3d 49 48 93 3e 75 80 30 3e ee 78 b7 3d
       0.03268824 0.28766087 0.17236502 0.089586124
000360 10 6c ec 3d 1c d5 70 3e 87 91 a5 3d a1 13 35 3e
       0.11544049 0.23518795 0.08084398 0.17683269
000370 83 79 32 3e 12 ef 0f 3e 7f 93 46 3d d6 dd 13 3e
       0.17429166 0.14056042 0.048480507 0.14440092
000380 01 ec 70 3e 58 0a 33 3e 67 8a 9a 3e 58 b7 52 3d
       0.23527528 0.17484415 0.30183718 0.05144438
000390 a7 08 b9 3d 4f b2 b9 3e 95 98 6c 3e b5 87 30 3e
       0.090348534 0.3626885 0.2310508 0.17239268
0003a0 a5 ed 38 3e 52 46 90 3e 6d ea 63 3e 2c dc 57 3e
       0.18059404 0.2817865 0.22257395 0.21080083
0003b0 15 34 81 3e f6 d6 ac 3e c3 fc a7 3e 49 dc e5 3d
       0.25235048 0.33757752 0.3281003 0.11223657
0003c0 22 44 28 3e fb c4 98 3e 8e 4d 43 3e ef 12 9e 3e
       0.1643224 0.29837784 0.19072554 0.3087382
0003d0 a8 21 4b 3e 2c 45 db 3c e3 2e cc 3e 58 f1 84 3e
       0.19837058 0.026766382 0.39879522 0.2596538
0003e0 a8 ec 23 3e b0 4a 7f 3e 54 84 99 3e ed a1 55 3e
       0.16008246 0.24930835 0.2998377 0.20862551
0003f0 98 17 01 3e e9 24 89 3e 65 03 43 3d 11 c4 d9 3d
       0.12606657 0.26785973 0.04761066 0.106331

fc.weight f4 [3, 64]
000000 8e ae 40 3e 6e 53 30 be 39 43 0a 3e 06 78 3a 3e
       0.18816587 -0.17219326 0.13502206 0.18209848
000010 d6 73 ec bd fb 8f a3 3c a6 7e 3b bf 32 cf cb 3d
       -0.115455315 0.019966116 -0.73240125 0.09951629
000020 9b 65 dd be 4c 68 f3 3e d2 2a 31 bf c9 66 fe 3e
       -0.4324158 0.4754051 -0.69205964 0.49687794
000030 d9 68 f5 3e c2 61 c7 3e 42 35 86 3e a1 ab 2d 3e
       0.47931555 0.3894177 0.26212507 0.16960002
000040 ff 80 40 be ed 34 38 bd ea c0 32 be 26 b3 24 3f
       -0.18799208 -0.04497235 -0.17456403 0.6433586
000050 db 8b 6d 3e 99 15 2b be b6 be d2 3e bc df dc 3e
       0.23197882 -0.16707458 0.41161126 0.43139446
000060 4d 9f 68 3e fd 35 06 3f ab 69 29 3f 74 73 c7 3e
       0.22717018 0.5242613 0.6617686 0.3895527
000070 90 07 18 3f 1b 7c 1b be c9 0d a0 be a7 ec 12 3f
       0.5938654 -0.15184061 -0.31260517 0.5739235
000080 be 14 3b bd 79 9a c1 be 2f 3b d7 be ed f8 87 3e
       -0.04567408 -0.37813166 -0.4203734 0.26557103
000090 cc a6 f7 be f2 50 37 bf 5f 2d 16 bf c3 d8 19 bf
       -0.48369443 -0.7160789 -0.5866298 -0.6009638
0000a0 4a 01 2b 3e 79 17 22 3f e7 b4 e4 be 69 13 21 3f
       0.1669971 0.63317066 -0.44669268 0.6292024
0000b0 87 1b c8 bd 39 46 3a 3e df d8 11 3f 5d 87 ed be
       -0.097708754 0.1819085 0.56971544 -0.46392336
0000c0 08 0c 14 3f 20 c8 d3 3e 37 84 c8 3d 48 45 3e bf
       0.5783086 0.4136362 0.09790843 -0.74324465
0000d0 cf 97 ee 3e 3a 19 5b 3e a0 dc 13 bf 65 ee 1d 3e
       0.46600196 0.21396342 -0.5775852 0.15422972
0000e0 92 4b eb 3d ba 57 d9 be 5c 67 51 3e d2 18 33 be
       0.11489023 -0.42449743 0.20449585 -0.17489937
0000f0 ce ee b4 be d7 e1 2d 3e 2c 29 7a 3e a7 15 84 3d
       -0.35338444 0.16980682 0.24429768 0.06449442
000100 f5 14 75 3e 90 77 16 be 60 4f 90 be f3 fa 2b 3e
       0.23933776 -0.14694047 -0.28185558 0.16794948
000110 2c 5a 85 be 08 de a2 be a2 63 09 3f af af ae be
       -0.26045358 -0.3181002 0.5366765 -0.3411841
000120 0b e4 c6 3d 92 86 00 bf 5d ae 00 3f de 82 85 be
       0.097114645 -0.5020534 0.5026606 -0.26076406
000130 9f 8a a8 be 82 38 3f be c8 b4 56 be 50 50 79 3e
       -0.3291826 -0.186739 -0.209674 0.24347043
000140 9b d7 94 bd cc 0d 68 3e 80 7c 43 be d7 2d cf be
       -0.07267686 0.22661513 -0.19090462 -0.4046466
000150 2d 61 b3 3c 76 5f 99 be 96 71 f8 bd cb da 50 be
       0.021896923 -0.29955643 -0.1213104 -0.20395963
000160 07 0e 92 3d d7 a2 a7 be 8f c5 10 bf 65 99 b7 be
       0.07131582 -0.32741424 -0.5655145 -0.35859218
000170 a4 34 8b be 6d 11 2e be 40 12 37 3d 67 da c1 be
       -0.271886 -0.16998835 0.04469514 -0.3786194
000180 6f a8 9e be 63 3f 19 3e 8a 64 16 3e a0 0e ac 3d
       -0.3098788 0.14965586 0.1468679 0.08401227
000190 78 c1 9a 3e 4a 8e 0e 3f 0f 12 18 3f 73 3d ce 3e
       0.3022573 0.55685866 0.59402555 0.40281257
0001a0 a0 f9 49 bd 10 85 c5 be 8b 32 26 3e f6 4b ac be
       -0.049310327 -0.3857808 0.16230218 -0.33651704
0001b0 89 e4 a8 3e 77 2d 13 3e af a0 bb be 25 1c 81 3e
       0.32986858 0.14372812 -0.3664603 0.25216785
0001c0 1e 8a 27 be 38 b5 0b be aa 94 5b 3e 4e 65 31 3f
       -0.16361281 -0.13643348 0.2144343 0.69295204
0001d0 a1 1d 9a be f4 aa ad be c7 f9 b9 3e 6c 72 1e 3e
       -0.3010073 -0.3391949 0.36323377 0.15473336
0001e0 8a 40 a6 3e fc 0e 62 3e 27 34 04 3e 1f 5b 9a bd
       0.32471114 0.22076029 0.1291052 -0.07536911
0001f0 2c e1 64 3e 62 cf 8e 3e 5b fd 16 3d 55 15 70 3e
       0.22351521 0.27892596 0.036862712 0.23445638
000200 78 95 23 bf 42 10 ea 3e 5c b9 bc 3e 14 39 ef be
       -0.63899946 0.4571553 0.36860168 -0.46723235
000210 c2 8f 14 3f a5 aa a0 3e ab a5 8e 3e 82 2b fe 3e
       0.58031857 0.3138019 0.2786077 0.4964257
000220 5b 55 52 3e 88 db bd 3d 0d a3 7d 3d be a8 4b be
       0.20540373 0.09270388 0.061923075 -0.19888589
000230 50 0f b2 be 26 d6 82 bd 8f 1f b7 be 44 af 15 bf
       -0.34777308 -0.06388502 -0.35766265 -0.5847056
000240 44 8f fa 3e b7 74 d4 be ef 24 ed 3e 54 59 b8 be
       0.48937428 -0.41495296 0.4631724 -0.36005652
000250 7f 75 7d be cb dc 0a 3f 5e f2 f8 bd 3a dd 81 be
       -0.24751852 0.54243153 -0.12155603 -0.25364095
000260 d8 e3 e8 be 3a 71 7f be bb da 51 be 24 93 09 bd
       -0.4548633 -0.24945536 -0.20493595 -0.03358759
000270 8a 31 9b bd 25 5e 1c 3f c2 00 b1 3e 6d 73 78 be
       -0.07577808 0.61081153 0.3457089 -0.24262781
000280 cf 92 1a 3f 80 32 83 3e aa 50 74 3e f4 9c d1 be
       0.6038026 0.25624466 0.23858896 -0.40940058
000290 e9 ba 87 3e ff ef 22 bd 5f fd 8d bd 8b ca 5e 3e
       0.2650979 -0.03977966 -0.06933092 0.21756952
0002a0 7f 1c d6 be ad a2 88 be 4e 74 53 3e 24 28 d1 bd
       -0.41818616 -0.26686612 0.20649835 -0.10212734
0002b0 7b af 7e be cd 95 1f bf 6d 9c 9e be cf d4 8d 3e
       -0.24871628 -0.6233795 -0.30978718 0.27701423
0002c0 82 a7 21 be 54 25 63 be 53 00 22 bf d3 d2 eb bd
       -0.15786555 -0.22182208 -0.63281745 -0.11514821
0002d0 6c df 2a be 5a 63 84 3e c9 33 29 3e 5f 5e 20 bf
       -0.16686791 0.2585705 0.1652366 -0.62644
0002e0 9f af fd be 7a 93 98 3e 94 3f 06 bf 16 87 02 3f
       -0.4954805 0.29800016 -0.5244076 0.50987375
0002f0 03 52 62 3e 35 99 11 bf 11 17 da be 1f 9a a8 be
       0.22101597 -0.568744 -0.42595723 -0.32930085

fc.bias f4 [3]
000000 b0 ff cc bc a8 54 c8 3d 69 74 99 bd
       -0.025024265 0.09781772 -0.074929066
