Demo/results/models/肌肉疲劳分类标签_forward_cnn-lstm.pth (torch, 145344 bytes, 8 tensors)

conv1d.weight f4 [64, 11, 3]
000000 d8 33 ee bc a7 4a 55 3c 07 53 5a bd ab 2c d2 3d
       -0.029077455 0.013018287 -0.053301837 0.10262426
000010 cf 6a 16 3e 83 fc b6 3d d6 d3 b7 3d 00 86 d0 3d
       0.14689182 0.089348815 0.089759514 0.101818085
000020 95 46 95 bd a7 05 24 bd 03 f1 03 be d8 80 88 bd
       -0.07288853 -0.040044453 -0.12884907 -0.066652
000030 cb b3 26 3e 73 5f f2 bd d2 46 13 3e ff a5 14 3e
       0.16279523 -0.11834612 0.14382485 0.14516447
000040 79 5d 97 3e 05 e8 92 3c 0e 47 6f 3d 3b 41 39 3e
       0.295635 0.017932901 0.058417372 0.1809129
000050 f4 d4 81 3c d1 82 7b bc 71 b3 ca 3d f6 95 1c be
       0.015848614 -0.015351013 0.09897507 -0.1529158
000060 fc e0 a5 3d 07 18 a2 bd 97 8c db bd d4 4b 25 bd
       0.08099553 -0.07914739 -0.10720175 -0.04035552
000070 80 42 a1 3b 40 76 07 bd e4 92 55 3d 00 20 25 3e
       0.0049212575 -0.033071756 0.05214204 0.16125488
000080 b3 83 67 3d dd 06 d5 bd bb 2c 63 3e 65 49 16 3e
       0.056522083 -0.104017 0.22185032 0.14676435
000090 f7 23 dd bd d6 74 4d be 7d 2d 05 3e b0 f8 4d 3b
       -0.107978754 -0.200641 0.13005634 0.0031428747
0000a0 58 a5 45 be 5f a1 c9 3d 0f 5e 04 bd f8 2b 97 be
       -0.19301355 0.09845232 -0.032316264 -0.29525733
0000b0 d4 60 e6 3d ae a2 6a 3d a2 00 60 3c 39 39 48 3d
       0.11248937 0.05728405 0.013672026 0.048882697
0000c0 78 14 10 be 69 1b 14 be a1 c9 0b 3d af bb 6a 3d
       -0.14070308 -0.14463581 0.034127835 0.057307895
0000d0 ba 42 79 be e4 e9 ed bc 8e 7a ff 3d 21 4c 81 3d
       -0.2434186 -0.029042192 0.12474547 0.063133486
0000e0 73 46 01 3e d0 5d b0 3d ea b7 71 bd 07 cb 4f 3d
       0.1262453 0.08611643 -0.059013285 0.05073073
0000f0 80 dc df bd 93 72 77 bd 2c 6f 8a ba 84 0e 1d 3d
       -0.10930729 -0.060412 -0.0010561696 0.03834392
000100 cd 11 6c be 06 3b 2d 3e cd 44 2c be 51 1f 96 be
       -0.23053665 0.16917047 -0.1682312 -0.29320768
000110 2b d2 19 3d 33 be 0c 3e 17 b2 4a 3e f5 23 1c be
       0.037553947 0.1374443 0.19794498 -0.15248092
000120 1c f0 06 3e 67 a8 61 be cf e7 20 be b7 de ec 3d
       0.13177532 -0.22036897 -0.15713428 0.11565917
000130 c3 34 ba 3d cb d1 95 3d e7 f4 16 bd 33 19 32 bd
       0.09092095 0.073154055 -0.03685465 -0.043481063
000140 2b 3e 8f 3d 2c f9 a2 bc 24 8b c7 3d 8b e1 8b 3c
       0.069942795 -0.019894205 0.09743336 0.01707532
000150 c0 e3 c6 bd 8a 37 f8 bd 82 d6 8f bd 30 1b ce 3d
       -0.097114086 -0.12119968 -0.07023336 0.10063779
000160 42 a2 a8 3d 92 ad 11 be 25 71 86 bd 2b e7 38 be
       0.08234073 -0.14226368 -0.06564549 -0.18056934
000170 5f 45 1f be 4f 60 b2 bd 3c a3 58 be 73 f8 c1 bd
       -0.15553807 -0.08709776 -0.21156019 -0.09471216
000180 34 98 83 bd 55 86 71 3e 0c cc da bc f5 0c b4 3d
       -0.06425515 0.235864 -0.026708625 0.08791534
000190 78 94 fc 3d 45 4e c9 bd 62 7f 6d bc 09 d4 dc 3d
       0.12333006 -0.09829382 -0.014495702 0.1078263
0001a0 e2 d0 28 3e 1b 3b 1b be 99 de f1 bd af 0c 8e bd
       0.16485932 -0.15159266 -0.11810035 -0.06936013
0001b0 85 a7 9e 3d fa da 8f be 92 c3 94 3c 65 df 1c be
       0.077467956 -0.28096753 0.018159661 -0.15319593
0001c0 50 42 86 be 58 66 1f 3e 5d ac 0d 3e 48 8e dd bc
       -0.26222467 0.15566385 0.13835283 -0.027045384
0001d0 29 ad 0e be 10 fc 23 3e 15 34 07 be 70 b9 6d bd
       -0.13933243 0.16014123 -0.13203461 -0.058038175
0001e0 55 9d 81 bb 58 f9 5d be a4 38 0d 3e 25 bf 05 be
       -0.003955523 -0.21677148 0.13791138 -0.13061197
0001f0 75 35 65 be f9 62 b4 bd 77 50 23 be 27 3e 03 be
       -0.22383673 -0.0880794 -0.15948664 -0.12816678
000200 b0 9c 1b 3d af d5 08 bd c3 ea 37 bc 50 51 d0 3d
       0.037991226 -0.03340691 -0.011225405 0.10171759
000210 22 7b 86 3d 1d 15 e0 3c af 74 28 3d 94 07 52 3d
       0.065664545 0.027353818 0.041126903 0.05127676
000220 70 93 63 3c 05 37 94 bd 82 e4 74 bd ac 58 99 be
       0.013890132 -0.07237057 -0.059788235 -0.29950464
000230 79 f3 df 3d 41 9a 0c be 9e 14 9a 3e eb ea 98 bc
       0.109351106 -0.13730718 0.30093855 -0.018666705
000240 cc 38 5a 3d ae c5 bb 3d e0 93 1d be bf 5f 64 3d
       0.053276822 0.09168564 -0.15388441 0.055755373
000250 28 31 38 bd 06 46 25 be d8 d6 cb 3d f0 cd 1c be
       -0.044968754 -0.16139993 0.099530876 -0.15312934
000260 2b 47 b8 bd aa c3 b5 bd 2b 25 94 3d 0f c0 30 3d
       -0.08997949 -0.088752106 0.07233652 0.04315191
000270 79 72 e7 3d be 83 e6 bd 9e 97 06 3e 4e bb 05 bc
       0.11301131 -0.112555966 0.13143775 -0.008162333
000280 7b cb 11 bd 51 69 21 be e3 96 19 3e 99 04 cf 3d
       -0.035594445 -0.15762831 0.14998965 0.10108299
000290 18 9c cc bd cc f5 2b 3e af d7 4f bd d2 e6 08 3b
       -0.0999071 0.16792983 -0.0507428 0.0020889533
0002a0 cc 58 9d bd 0e 37 ee 3d 09 04 02 bd 58 0a b6 3d
       -0.07682952 0.116315946 -0.03174213 0.08888692
0002b0 eb 26 9e 3d a8 cc 97 3d c8 9a 62 bd fb a8 82 bc
       0.07722267 0.07412082 -0.055323392 -0.015949717
0002c0 73 d0 16 3e 48 98 73 3d a0 53 7c 3d 2b c9 ae 3d
       0.14727955 0.0594714 0.06160319 0.085344635
0002d0 ff 5c d3 bd 7d 53 4b 3d 81 2a fc bd 54 9f eb bc
       -0.10320472 0.049640168 -0.123127945 -0.028762497
0002e0 5e 35 62 3e be 25 f2 bc af 83 31 3c c1 f7 a6 3e
       0.2209067 -0.029559013 0.0108346185 0.32610896
0002f0 46 5b d2 bd 3e 28 e5 bd 91 c8 82 bd 01 27 d9 bd
       -0.10271315 -0.11189316 -0.06385911 -0.106031425
000300 74 56 1f 3e c7 47 d2 be 4f 38 18 be af 74 06 be
       0.15560323 -0.41070387 -0.1486523 -0.13130449
000310 6c e0 73 be 6d 73 bf 3c be 2f 91 3d 35 84 b4 3d
       -0.23816079 0.023370469 0.07089184 0.08814279
000320 2a ad d0 bd 93 45 91 3b e6 3d 9f be 45 78 4a bd
       -0.101892784 0.0044333427 -0.31101912 -0.049431104
000330 24 8f 3f 3c b0 fd d4 bd 81 e4 ca 3d ff 29 03 3d
       0.011691842 -0.103999496 0.09906865 0.032022472
000340 b3 6c 9f bd 6d 64 4a 3d ec 10 70 3d 86 f5 e2 3d
       -0.077844046 0.04941218 0.058609888 0.11081986
000350 c3 3b 78 bb 42 3e 0e be 8c dc 8d be 00 55 c4 3d
       -0.0037877418 -0.13890937 -0.27707326 0.09586525
000360 4f 86 0f be 29 56 39 3d 80 b6 9e 3d 02 4b e7 3d
       -0.14016078 0.045248184 0.07749653 0.112936035
000370 41 19 0b bc b1 cf bb 3d 5b e0 16 3e 4c 8f f7 bc
       -0.008489908 0.09170473 0.14734022 -0.030219696
000380 c5 dc 2e be 72 6e b9 3d c2 22 d4 3e e9 d0 18 be
       -0.17076404 0.09054269 0.41432768 -0.14923443
000390 ee 03 12 be c2 e5 d2 bd a5 e9 21 3e 14 ce 72 3d
       -0.14259312 -0.10297729 0.15811785 0.059278563
0003a0 ec 77 94 3d 03 a6 0d 3e f8 1b b6 3c be 1f 35 be
       0.07249436 0.1383286 0.022230133 -0.1768789
0003b0 ea 3e a9 bd a5 b3 e4 bd 38 7b 9b 3d 7a 63 6d bd
       -0.08263953 -0.11167077 0.075918615 -0.057956196
0003c0 88 df 07 3c 4e 1c ab bd 71 7d 96 3d 61 98 2b 3e
       0.00829304 -0.08355008 0.07348145 0.16757347
0003d0 3b 21 52 3d bf 84 5d 3d ab b1 7d bd 75 b0 44 be
       0.051301222 0.054081675 -0.061937016 -0.19207938
0003e0 d5 8e f6 bd 55 1d 76 bd 59 ef 11 be 5a 1c 45 3b
       -0.12038962 -0.060086567 -0.1425146 0.0030076713
0003f0 c5 7c 99 bc b0 bb 7d be 0d e5 16 be 0a 11 c2 3d
       -0.018736253 -0.24778628 -0.14735813 0.09475906

conv1d.bias f4 [64]
000000 2f 94 1c 3e 1a 42 85 3e 86 f9 81 3e 51 67 41 3e
       0.15290903 0.26026994 0.25385684 0.18887068
000010 1b a7 b3 3c f1 48 09 3e 42 cf e0 3d a8 3a 84 bd
       0.021930268 0.13406731 0.10977031 -0.064565
000020 e0 e5 a4 3e 5b db 5e bc 8d 2d da bd 4c a8 48 bd
       0.3220663 -0.013602103 -0.10653219 -0.048988625
000030 31 14 f1 bc a0 ac 58 3e 7a cf 2e be ed 60 9e 3d
       -0.029428573 0.21159601 -0.17071334 0.07733331
000040 78 ec 52 3e 64 55 36 3e 6a 1e 22 3e 69 8b 86 bd
       0.20598018 0.17806011 0.15831915 -0.06569559
000050 35 43 79 3c 18 40 da bd 4b f6 3a 3e 62 48 c2 3c
       0.015213777 -0.10656756 0.18258016 0.023716155
000060 63 88 3f be 72 e3 56 be 42 14 10 bd 1e 9a 1d bc
       -0.18704371 -0.20985201 -0.03517557 -0.009619264
000070 90 49 93 3d 9b 90 2b bc 5f e3 a4 3c 48 92 0f 3e
       0.07191765 -0.010471488 0.02012795 0.14020646
000080 d0 2c 02 be bb 45 e4 3d 3f e0 f1 3d ed 54 26 3e
       -0.12712407 0.111461125 0.1181035 0.16243334
000090 85 b5 dd bd 54 0a 40 be 58 6b 15 3e 47 e9 8c be
       -0.10825638 -0.1875394 0.1459173 -0.27521726
0000a0 9e 4d 02 3e 4f 81 40 bd b8 b5 53 be 4b 80 3f 3e
       0.12724921 -0.04699832 -0.20674789 0.18701284
0000b0 f7 34 f3 3d d7 ea 9c 3e 85 2c 75 3e 0d ab 0a be
       0.118753366 0.3064792 0.23942764 -0.13541813
0000c0 d4 4e 84 3d ac 8c c3 3d f2 f3 04 3e e9 4d 35 3e
       0.06460348 0.095483154 0.12983683 0.17705502
0000d0 8d 9d d6 3d 0b 8c b2 3a 1c 41 2b 3c 00 dc 8c bc
       0.10479269 0.0013622058 0.010452535 -0.017194748
0000e0 bb df 20 3e 16 0d 28 3e bc d2 e8 3d bd ba 39 3d
       0.15710346 0.16411242 0.113683194 0.045344103
0000f0 64 f0 c6 3d a0 eb 61 3d b7 b2 84 3e 36 92 80 bc
       0.097138196 0.05515635 0.259176 -0.015694719

lstm.weight_ih_l0 f4 [256, 64]
000000 68 45 e3 3d 9d 75 61 3e 04 bc 69 3e d8 6a cf 3d
       0.110972226 0.22017522 0.22825629 0.10127801
000010 05 a5 0c 3e c5 45 0b 3e b0 f5 8c 3e c1 10 5e 3e
       0.13734825 0.13600834 0.27531195 0.21686079
000020 d8 8a 1c 3e 66 2a 2a 3e af 71 90 bb 3e 6d 88 3d
       0.1528734 0.16617736 -0.0044080834 0.06661461
000030 c5 a4 33 3c 2a e8 52 3e 8f 50 59 3e bc 1b 20 3d
       0.010964577 0.20596376 0.21222137 0.03908895
000040 fb 27 6c 3e 59 52 ad 3e f2 8b a0 3e 98 2a e4 3d
       0.23062126 0.3385189 0.3135677 0.111409366
000050 60 d7 84 3e 4a ca 25 3e e2 f4 de 3d 7b 21 96 3e
       0.25945568 0.16190448 0.108865514 0.2932242
000060 13 e8 60 3d e7 d0 db 3d 7d db 20 3e 6c 44 bc 3d
       0.054908823 0.10733204 0.15708728 0.09192738
000070 6f 2b 91 3e 4d 82 65 3e 22 e0 a6 3e 9f 13 e2 3d
       0.2835345 0.22412987 0.32592875 0.11038899
000080 70 1b 94 3e a6 77 4c 3d b2 4a 50 3e 9c bb 9a 3e
       0.28927183 0.049918793 0.20340994 0.3022126
000090 aa 89 89 3d e5 84 45 3d ca 3f 15 3e 63 01 13 3e
       0.067157105 0.04822244 0.14575115 0.14355998
0000a0 7f da a9 3e 63 88 30 3e 19 9e 62 3e c7 d0 4a 3e
       0.33174512 0.17239527 0.22130622 0.19806205
0000b0 97 ce a0 3e 75 e7 5e 3e 2b 7f 8e 3d 02 32 b4 bc
       0.31407616 0.21767981 0.06957849 -0.021996502
0000c0 dd d7 b3 3c c8 d9 2d 3e cb df 4b 3d d0 07 12 3e
       0.021953518 0.16977608 0.049773972 0.14260793
0000d0 d4 fd a8 3d 12 6f f4 3d 03 dc dd 3d 4a 60 73 3e
       0.08251539 0.119352475 0.108329795 0.237672
0000e0 df b5 83 3e 9e c2 85 3c 0b 5a 9e 3e be 9b 0a 3e
       0.25724694 0.016328152 0.30928072 0.13535973
0000f0 24 0d 6c 3e 6b 24 a1 3d 32 0b 65 3e 5d f1 80 3e
       0.23051888 0.07868274 0.22367552 0.25184146
000100 94 19 19 3e 4b a4 62 3e e6 3c 0d 3d c7 1c 52 3e
       0.14951164 0.22132985 0.034481905 0.2051879
000110 90 30 cb bd 44 92 52 3e ad 7d 84 3e d2 73 59 3e
       -0.09921372 0.20563608 0.25877133 0.21235588
000120 1e 16 a7 3e 65 41 c0 3c 51 fb 4e 3e 2b de df 3d
       0.32634062 0.023468683 0.20213057 0.10931047
000130 59 83 8c bd 15 eb 3b 3e ad 8d ee 3d 1d b4 c1 bd
       -0.0686099 0.18351395 0.11648116 -0.09458182
000140 c3 af 0a 3e 5a 2b 87 3e 6c 78 12 bd 71 a4 c4 bd
       0.1354361 0.26400262 -0.035759374 -0.09601677
000150 e1 52 57 3d a9 03 03 bd 7a b2 14 3e 9c a4 b3 3d
       0.052569274 -0.031985912 0.14521208 0.08771631
000160 91 2c ff 3d 17 64 b7 bd 2c 72 6e 3e e7 aa d6 bc
       0.12459672 -0.089546375 0.2328574 -0.02620454
000170 cf 98 96 3d 05 1f bd bd fd 85 d3 3d 35 fa 5c 3d
       0.07353365 -0.09234432 0.103282906 0.053949554
000180 73 ca 6c 3c 42 43 e6 3d 93 52 03 bd 3f cc c8 3e
       0.0144525645 0.11243297 -0.03206117 0.39218327
000190 11 0d d1 3d 02 00 c4 bd a6 b6 38 3e 89 5d 33 3e
       0.1020757 -0.09570314 0.18038425 0.1751615
0001a0 0f ba 60 3e 7f e3 48 3e aa 0a c2 3b 85 77 9e 3d
       0.21945976 0.19618033 0.0059216814 0.0773764
0001b0 17 ad 1b bd ce 6a 2d 3e 84 9b e7 3c cf ec 5e 3e
       -0.03800687 0.16935274 0.028272398 0.21770023
0001c0 99 90 6e 3e 58 e8 12 3c 88 92 c5 3e 20 b5 34 3e
       0.23297347 0.008966528 0.38588357 0.17647219
0001d0 33 59 57 3e cc ac ac 3c 69 56 d0 3d 44 9d 0d bd
       0.2103012 0.02107849 0.101727314 -0.03457381
0001e0 90 4c ce 3d 24 7d 91 3e a5 51 07 3e f0 a7 36 3e
       0.10073197 0.28415787 0.13214739 0.178375
0001f0 ea 00 1e 3e 36 31 49 bc 9f 0d aa 3e 17 95 45 3e
       0.15430036 -0.012279799 0.33213517 0.19295155
000200 bc 09 14 bd c7 13 9e 3d f3 32 aa 3e fb 7e 4c be
       -0.036142096 0.07718616 0.33241996 -0.19970314
000210 97 0c 62 3e 5e 7b 50 3e 1c 3b 25 bd 29 f8 94 bd
       0.22075115 0.20359561 -0.040339574 -0.07273895
000220 8e 48 8b 3d e2 71 f6 3d 31 0a ee 3d 3c 16 54 3e
       0.06800948 0.1203344 0.116230376 0.20711607
000230 db 79 59 bd ad 95 61 3e 0b 5a 26 3e f2 b7 44 bd
       -0.053094726 0.22029753 0.16245286 -0.048026986
000240 8f d9 74 3e 37 fd 63 bc fc 96 e4 3e 3d e9 9e bd
       0.23911117 -0.013915352 0.44646442 -0.077593304
000250 5f 9c 73 3e 8e e5 4d 3e da 46 b8 3e c9 a9 a3 bd
       0.2379012 0.201071 0.35991555 -0.07991368
000260 40 46 39 3e ef 3d 2e 3e 36 5d 99 3d a2 27 71 bd
       0.18093204 0.17015813 0.07488482 -0.058875687
000270 cf 58 7d 3e da 9b 04 3e e8 ec f9 3d 26 f0 da bc
       0.24740909 0.12950078 0.122033894 -0.02672584
000280 fb a7 2e 3e 88 89 24 3e a3 81 17 3e 0b 9d 8a 3e
       0.17056267 0.16068089 0.14795546 0.2707294
000290 15 54 57 3e f1 4d 50 3e 7a 42 3e 3e c9 2b d0 bd
       0.21028168 0.20342232 0.18580046 -0.10164601
0002a0 9a d2 02 3e 1f 5f 24 3e 2b 69 79 3e a5 9b d5 3e
       0.1277565 0.16051911 0.24356525 0.4172031
0002b0 75 fb 9d 3e 5c 2a c0 bd 8c 5c 09 3d 99 52 2d 3e
       0.3085591 -0.093830794 0.033535525 0.1692604
0002c0 aa 9e 0f bd ce c2 23 3e 4a 1b 89 bc 4b 78 b8 bd
       -0.035063423 0.15992281 -0.016736645 -0.09007319
0002d0 d3 fa 34 be 4a 3d 4c 3e d9 92 83 bd 9a b2 62 3e
       -0.17673807 0.19945255 -0.06424493 0.22138444
0002e0 9b 72 0e bd 61 5e 5a 3e b2 55 95 bb e3 9a 24 3e
       -0.034777265 0.21325065 -0.004557335 0.1607471
0002f0 d2 74 a6 bc ef 3d 1f be c7 94 5b be f2 49 10 be
       -0.020319376 -0.1555097 -0.21443473 -0.14090708
000300 a6 63 b3 3e a5 76 83 3e 74 74 d3 3b ce b3 b7 3e
       0.35036963 0.25676456 0.0064530913 0.35879368
000310 31 e4 82 3e 71 68 01 3d d4 fa 87 3e 63 9a a8 3d
       0.2556472 0.031593744 0.26558554 0.08232572
000320 f8 cc 96 3e 2a 6d 2b 3d 5f 53 12 3e f5 39 38 3e
       0.29453254 0.041852154 0.14289616 0.17990859
000330 aa ec 04 3e 92 66 7a 3e 99 6f b5 3e bd 52 3a 3e
       0.12980905 0.2445319 0.35436705 0.18195625
000340 05 a6 c0 3e 1c d0 da 3e 91 0b 02 3f a4 e0 9e 3e
       0.37626663 0.427369 0.507989 0.31030762
000350 79 2c 68 3e 0b 28 55 3e 03 c8 c1 3e 19 11 85 3e
       0.22673215 0.20816056 0.3784791 0.25989607
000360 c3 f4 3e 3e ce 93 a9 3e 21 ff 9a 3d 32 bd 2e 3d
       0.18648057 0.3312058 0.07568193 0.0426609
000370 2c c9 80 3e 7b 6d 65 3e d4 d1 0b 3f 2c 14 88 3e
       0.25153482 0.22405045 0.5461705 0.2657789
000380 05 f1 b9 3d bf 2f c6 3d 26 b0 9e 3e 73 51 69 3e
       0.09079174 0.096770756 0.30993766 0.22784977
000390 b3 d2 9c 3e 19 df 60 3e 44 5f 84 3e fc 49 59 3e
       0.306295 0.21960105 0.25853932 0.21219629
0003a0 f8 f2 44 3e e8 81 8a 3e 04 b6 bd 3d 22 8d 5b 3e
       0.1923331 0.27052236 0.09263232 0.21440557
0003b0 87 20 f4 3e 9b aa bd 3b 4b 3c 7a 3e 68 42 d6 bd
       0.47681066 0.00578816 0.24437062 -0.10461885
0003c0 e3 00 0b 3e 73 36 e2 3e fd 47 79 3e 4e 26 93 3e
       0.13574557 0.44182166 0.24343868 0.28740162
0003d0 ba 43 77 3e c8 3d d5 3d c0 f7 1f 3e 64 30 bb 3e
       0.2414693 0.104121745 0.15621853 0.36560357
0003e0 8e 51 1c 3e 1f 70 41 3e 68 63 b7 3e 0a a2 71 3e
       0.15265486 0.18890427 0.35818028 0.23596969
0003f0 b3 1e c7 3e 58 d3 20 3d 09 79 45 3d 71 eb 76 3e
       0.3889061 0.039264053 0.04821113 0.24113251

lstm.weight_hh_l0 f4 [256, 64]
000000 97 7a 80 3c 8f 92 95 bd ba 3f ed bd 1e 8c bb 3d
       0.015683455 -0.073033445 -0.115844205 0.091575846
000010 ae f7 ff bc f0 3d e8 bd a8 24 10 bc eb 39 79 bd
       -0.031246033 -0.11339939 -0.008797802 -0.06084625
000020 3c 67 da bc 6e ba 8e bd ba 8b f6 bd b5 1b d4 3c
       -0.026660554 -0.069691524 -0.120383695 0.025892118
000030 97 58 fa 3d 37 d2 d5 3d f4 e8 2c bd 1f 77 b3 3d
       0.122239284 0.10440486 -0.04221435 0.08762955
000040 41 c0 ec 3d 31 bf 0d 3d e7 53 9b 3d 4e 1b fb bc
       0.11560107 0.034606162 0.075843625 -0.030652668
000050 8f 0a 92 bd da ef 92 3d 48 e5 c0 bd 20 d0 c3 bb
       -0.0713092 0.07174654 -0.09418732 -0.005975738
000060 79 2e 95 3d f1 a0 b3 3d d7 23 b4 bd 86 61 3f 3d
       0.072842546 0.087709315 -0.087958984 0.046723865
000070 7a 99 a6 bd 59 37 c0 3d 20 35 3e 3d d4 21 d0 bd
       -0.08134742 0.09385557 0.046437383 -0.10162702
000080 57 88 52 bb 49 57 a3 bc 38 3a 0e 3d 44 8e 39 3c
       -0.0032124722 -0.019939082 0.03472349 0.011325423
000090 61 25 98 3d 35 07 0e 3c 6d 43 93 bd 99 66 8b 3d
       0.074290045 0.0086687105 -0.07190595 0.06806678
0000a0 d2 30 50 bd cb 27 f3 3d 48 bd b7 bc 02 d6 54 bd
       -0.05082781 0.11872824 -0.022429124 -0.051961906
0000b0 1c 71 86 3d 1c 3d b3 bb e4 89 fd bc a2 b9 d1 bd
       0.06564543 -0.0054699313 -0.03094954 -0.10240485
0000c0 25 09 48 bd 88 9e cc bd 9b 44 8d 3d cf 7c 9a bd
       -0.048836846 -0.09991175 0.06897851 -0.075433366
0000d0 dc 6b c9 bd 4a fa 54 3c 74 71 e6 3d 26 f2 b7 3d
       -0.09835026 0.012999127 0.11252108 0.08981733
0000e0 21 39 8c bd 8a 49 34 3d a4 3b 43 bc 1a 5a c8 3d
       -0.06846834 0.044015445 -0.011916075 0.097828105
0000f0 10 2e 19 bd 07 f5 e6 bb 10 93 3f bd 54 0d cc 3d
       -0.037397444 -0.0070482525 -0.04677111 0.0996348
000100 27 b3 5b 3d 4c cc 03 3c 95 50 b7 bc 24 f6 ee 3d
       0.05363765 0.008044314 -0.022377292 0.11668041
000110 8f 3a 46 3d eb f6 22 3d 92 ce 27 bd 16 4e ee 3c
       0.04839569 0.03978626 -0.040968485 0.029089969
000120 d2 84 b6 bc 4d f1 d7 bd 1e f3 9b bc 0d a1 b4 bd
       -0.02228013 -0.10544071 -0.019036826 -0.088197805
000130 39 f3 f6 3d 7e ff 02 bd 34 5c 3f 3c fb 5d 17 bd
       0.1205811 -0.031981938 0.011679698 -0.03695486
000140 44 8f ae 3c d3 53 db 3d 80 39 f7 bc 2b a8 a5 bd
       0.021308549 0.107093476 -0.030178785 -0.08088716
000150 41 a5 14 3c e0 df b1 bc 90 ed c0 3d 31 fa bc bd
       0.009072603 -0.021713197 0.094203115 -0.09227408
000160 57 7d 60 bd 2c 7f 84 bd b3 19 bc 3d b9 3a 9f bc
       -0.054807033 -0.064695686 0.09184589 -0.01943718
000170 69 4e d1 bd 28 04 aa bd fb 3e db bc 4e 3b 7d bd
       -0.10220034 -0.08301574 -0.02676343 -0.061824135
000180 4e 60 4c 3d 2e 44 b0 bd 45 1b f2 3d 68 92 42 bc
       0.04989653 -0.08606754 0.118216075 -0.011875726
000190 68 83 ca 3d 7e 55 0e 3d 59 33 04 bd 22 b8 9f bd
       0.09888345 0.0347495 -0.03227553 -0.077987924
0001a0 4e f3 90 bb dc bd e8 bd ba fd eb 3d 3b 81 f7 ba
       -0.0044235354 -0.11364338 0.11523004 -0.0018883118
0001b0 30 c4 79 3d fb 69 f6 3d c8 49 e1 bd af ba 08 bd
       0.060978115 0.12031933 -0.11000401 -0.03338116
0001c0 1a ca 57 bd d9 79 a7 3d 65 2e c9 3c 2b 15 be bd
       -0.052682973 0.081775375 0.024558255 -0.09281381
0001d0 cd f6 af bc 3b 2c b0 3c 6c 4f b9 bd d3 79 f6 3d
       -0.021479988 0.021505466 -0.09048352 0.12034955
0001e0 be 18 89 3d bd 5c b3 bd ac 93 8c bd 40 d0 e4 bd
       0.06694172 -0.08757923 -0.06864104 -0.11172533
0001f0 4b c1 bd bd 01 28 cf bd 4f b8 c8 3d f0 7c 61 3c
       -0.09265383 -0.10115052 0.09800779 0.013762698
000200 a3 18 99 bd dc ff 8c 3d 49 10 66 3d 53 52 0b bd
       -0.07475402 0.06884739 0.056167874 -0.034014057
000210 9e 25 f0 3d da 44 ed 3d 3b ad a1 bd f0 a9 f0 3d
       0.11725925 0.11585398 -0.07894369 0.11751163
000220 23 c0 f9 3d e5 9b d7 3b 75 b2 01 3d 43 fd 55 3c
       0.1219485 0.0065798634 0.03166433 0.013060871
000230 4a ac 13 3d e8 d9 40 3d 26 12 1c 3d 0a 42 84 3b
       0.03605298 0.04708281 0.038103245 0.004036193
000240 57 87 3d 3d f9 2b 9c bd 8d 73 e8 bd 56 c9 9d 3d
       0.04627165 -0.076255746 -0.113501646 0.077044174
000250 85 a6 4e 3d f5 a7 9a bd 94 98 b9 3d 77 fd f4 bd
       0.050451774 -0.075515665 0.09062305 -0.11962407
000260 7d 7b b0 3c 9c 36 be bd 5d 21 bc bd 39 63 33 3c
       0.021543259 -0.0928776 -0.09186051 0.0109489495
000270 17 5a 97 3d 31 f0 fa bd 08 8d 3a 3d ab de df bd
       0.0739023 -0.12252844 0.045544654 -0.109311424
000280 6d 2e 14 3d ff 9f e6 bd a1 4f 57 bd c1 81 b9 3c
       0.036177088 -0.112609856 -0.052566174 0.02264488
000290 4f 55 8e 3d 19 e2 f5 3d 4c de c9 3d f5 25 23 bd
       0.06949865 0.12006015 0.09856853 -0.03983112
0002a0 e9 ff f6 3d a4 45 ae bd e9 76 a5 bd 4f 02 8c bc
       0.1206053 -0.08509377 -0.08079321 -0.017090945
0002b0 16 ef a9 3d 8f e0 30 3d a2 98 bf bd f7 09 18 3d
       0.08297555 0.043182906 -0.09355284 0.03711888
0002c0 12 56 54 bb a7 72 d2 bc 9f 23 67 3d 1a f2 dc bc
       -0.0032399935 -0.025689436 0.056430455 -0.026970912
0002d0 b8 dd 95 3d c6 1c c8 bd 84 30 9c 3d 63 3a ae bd
       0.0731768 -0.09771113 0.07626441 -0.0850723
0002e0 88 16 41 3d 43 21 8b bd e7 e0 2e bd 9c 15 d8 3d
       0.047140628 -0.067934535 -0.042694952 0.10550997
0002f0 6d 0e d3 3c 9d 89 07 bc 7a 61 45 3c 84 89 0b bd
       0.025763715 -0.008272556 0.012047166 -0.034066692
000300 3f cb af 3d 74 d5 6e 3d 07 f7 02 3d 38 31 ab 3b
       0.08583688 0.058309034 0.031973865 0.005224373
000310 95 0d bb bd 0a 24 ed 3d 29 e6 20 3d 2f cf b6 bd
       -0.0913345 0.115791395 0.039281998 -0.08926236
000320 7d cb 97 bd a5 da 20 3d 32 8c de bd f9 2e 85 bd
       -0.07411859 0.039271016 -0.10866584 -0.065031
000330 53 c7 bb bd 23 e6 bb 3d 1e 1c 7e bd 18 58 f1 bd
       -0.091688775 0.091747545 -0.062038533 -0.11784381
000340 97 0b d0 3d 81 02 87 ba 37 37 05 3d c2 d0 39 3d
       0.101584606 -0.0010300429 0.03252336 0.045365103
000350 a4 f8 20 bc 9d 58 45 bc c8 1f ae bc 80 80 40 3d
       -0.009824906 -0.012045053 -0.021255389 0.046997547
000360 48 fa 29 3d 1b e7 01 bd 39 ed 0f bd 0e e6 9d 3d
       0.041498452 -0.03171454 -0.035138343 0.07709895
000370 4a 42 47 bd 2e 7c df bd 84 c1 d8 bd 0f 60 85 3d
       -0.048647203 -0.10912357 -0.10583785 0.06512462
000380 9a 66 b0 bb 05 50 95 bd a9 40 cf bd 5a e5 d5 3d
       -0.005383325 -0.07290653 -0.10119755 0.10444136
000390 0a 06 e2 bb a2 c2 74 3d 12 2e 93 3d e1 bc f1 3d
       -0.0068976926 0.05975593 0.071865216 0.11803604
0003a0 3a 4f e9 3d 5c dd 9f 3d 90 65 dd bd db e6 ce bd
       0.113920644 0.07805893 -0.10810387 -0.10102626
0003b0 d8 e9 82 bd 39 b3 72 bd 5c d5 26 bd 75 e3 c8 bd
       -0.063922584 -0.05925295 -0.04073082 -0.09809009
0003c0 cc 0e 03 3d 25 c2 e0 3d bb 99 80 3d 2f e0 ca bd
       0.031996533 0.1097453 0.06279322 -0.09906041
0003d0 e3 fa 72 3d 94 5c 4d bd ca bc d9 3d c0 69 ec bc
       0.059321295 -0.050137118 0.10631712 -0.02885902
0003e0 33 19 f9 3c 43 49 df bd 6e ba 8e 3c c5 c8 2a bc
       0.030407524 -0.109026454 0.017422881 -0.010423844
0003f0 34 81 d4 3d 32 5b 42 3d 60 ff 44 bd 30 93 90 3d
       0.10376206 0.047450252 -0.048095107 0.07059324

lstm.bias_ih_l0 f4 [256]
000000 38 3e a6 3e 89 1f 8f 3e 49 17 9a 3e d6 cd 67 3e
       0.32469344 0.27953747 0.3009589 0.22637114
000010 a8 d6 5b 3e 0b 96 0a 3e 50 2c 93 3e e4 94 f2 3d
       0.21468604 0.135338 0.28744745 0.11844805
000020 ea 6d a4 3e a2 d6 3b 3e a3 83 13 3e d9 c9 28 3e
       0.32115108 0.18343595 0.14405684 0.16483249
000030 b5 51 6a 3e 4f ee a7 3d db 0c 17 3e b9 dd fa 3d
       0.22882731 0.08199751 0.14750998 0.122493215
000040 f1 32 52 3e 0e 5a 5a 3e 41 ac 43 3e e2 bb 9c 3e
       0.20527245 0.21323416 0.19108678 0.30612093
000050 32 53 89 3e ca 85 1d 3e 65 0c 82 3e ce d2 31 3e
       0.26821285 0.15383068 0.2540008 0.17365572
000060 40 70 71 3e bd 13 ad 3e f2 17 39 3e cd 5e 48 3e
       0.23577976 0.33804122 0.1807554 0.19567414
000070 83 51 ba 3b 91 d2 1b 3e 25 58 6d 3e 3b e4 33 3e
       0.0056859865 0.15217043 0.23178156 0.17567532
000080 4a 1e f5 3d e1 aa d6 3d 34 8b 82 3e 4f c5 01 3e
       0.11968668 0.10481811 0.2549683 0.12672924
000090 fb 99 80 3e 9e 3a 86 3e 73 ca a2 3e 63 26 a9 3e
       0.25117478 0.26216596 0.31795081 0.330371
0000a0 04 c6 8d 3e 8e 58 51 3e 3f e1 0e 3e 18 e6 c4 3e
       0.27690136 0.20443937 0.13953112 0.38456798
0000b0 c5 f0 27 3e be bd 83 3e 37 c3 9d 3e 10 cb a4 3e
       0.1640044 0.257307 0.30813 0.32186174
0000c0 b4 a9 38 3e bf 09 9b 3d 7a b3 c0 3e a1 62 80 3e
       0.18033487 0.07570218 0.3763693 0.25075248
0000d0 28 d8 43 3e ce 61 d0 3e e6 dc 76 3e a2 47 90 3e
       0.19125426 0.4069962 0.24107704 0.28179651
0000e0 fe ac 87 3e d1 77 8f 3b 9f b6 99 3e 72 99 c9 3e
       0.2649917 0.004378297 0.3002214 0.39374882
0000f0 37 42 4c 3e d3 1c 83 3e 41 79 b5 3e 97 c3 7c 3e
       0.19947134 0.2560793 0.35444072 0.24683987
000100 7e e1 f0 bc 26 3f 52 3c 5d e8 b3 bd 07 96 b4 3d
       -0.029404398 0.012832439 -0.08784554 0.08817678
000110 87 d3 61 3d 2f 33 b6 3d ea e9 89 3d 0f 8b fa bc
       0.05513337 0.08896481 0.06734069 -0.030583886
000120 18 4f 91 bc e6 0f b2 3c c7 d0 f9 3d 79 8b 82 bd
       -0.01773791 0.021736097 0.12198024 -0.063742585
000130 21 bb ca 3d 2d a5 ce bd 81 89 84 3d 10 e7 10 bd
       0.09898973 -0.100900985 0.06471539 -0.03537661
000140 38 b0 ce bd 7e c2 8d 3d eb 79 c7 bd 98 a7 99 3d
       -0.10092205 0.06921862 -0.09740051 0.07502669
000150 37 c9 de bd c4 dd 82 bd 7d 3f 34 3d d9 5a b0 bd
       -0.108782224 -0.06389955 0.04400586 -0.08611078
000160 9e 7c 93 3d 84 bc fb bc 25 1b 37 bd 1a 7b f2 bd
       0.07201503 -0.03072954 -0.04470362 -0.11839886
000170 39 9e d1 3d b8 c4 85 bd a8 91 67 bd de 55 24 bc
       0.10235257 -0.06531662 -0.056535393 -0.010030238
000180 6b 89 3c 3b 4e 03 e5 bd 66 a5 ac bc 10 ca 64 3d
       0.002876843 -0.11182271 -0.021074962 0.055856764
000190 d0 de a1 bd d2 89 22 bd b8 46 d1 3c 92 4c 3a bd
       -0.07903826 -0.039682217 0.025546417 -0.04548318
0001a0 40 e4 a9 bd 8f 47 0a bd 13 6d fb 3d 3b 45 f1 bb
       -0.08295488 -0.03375965 0.12276664 -0.0073629892
0001b0 4f 09 d9 bd cc c8 ac 3d 5a 8d 95 bd 47 8b f6 bd
       -0.105974786 0.084367365 -0.07302351 -0.12038284
0001c0 90 b9 ea 3d 00 20 bb bd f2 7e 20 3b dc c9 d7 3b
       0.114611745 -0.09136963 0.0024489728 0.006585343
0001d0 b8 b6 9d bd fc 26 7e 3d 01 17 f7 3d 9f 42 00 bc
       -0.077008665 0.062048897 0.120649345 -0.007828384
0001e0 9d 79 d4 3d aa 53 d8 3a a3 33 e0 bd e7 6e b0 3d
       0.103747584 0.0016504426 -0.10947349 0.08614903
0001f0 26 59 8a 3d d7 7c 0b bd 5f a2 a6 3c d8 bd d8 3d
       0.06755285 -0.034054603 0.020341096 0.10583085
000200 f4 5e 02 3e 6a 8b 42 bd 31 eb cf 3d 2b 17 90 3d
       0.12731534 -0.047496237 0.10152281 0.07035669
000210 db 5d 02 3e 35 7d b4 bb ff 65 09 bd f7 71 d3 3c
       0.12731116 -0.00550809 -0.033544537 0.025811179
000220 58 02 b7 bb 46 c3 f4 3d bc ef 75 bd fe 79 04 3e
       -0.005584996 0.11951308 -0.06004308 0.12937161
000230 e4 65 de bc 64 bd 07 be 05 24 bb bc 57 e3 16 bd
       -0.027148195 -0.1325584 -0.022844324 -0.036837902
000240 c1 64 c8 bd d0 b0 9e 3d cf 08 83 3c 7d 2b d9 bc
       -0.09784842 0.07748568 0.015995411 -0.026509995
000250 74 7e 1b bd 1f e9 9b 3d e7 6d 8a 3c 2b 4f 96 3c
       -0.037962392 0.07612824 0.016898109 0.018348297
000260 17 dc 42 bd 0a 81 cd 3c 83 51 b2 3a d0 9b 19 bb
       -0.047573175 0.025085945 0.0013604615 -0.0023438819
000270 4a ef 91 3d 0b 17 83 3d 4f 2e d5 bc 7d fb 4b 3d
       0.07125719 0.064008795 -0.026023058 0.049800385
000280 a0 c3 32 3d 61 6a 14 3d ba 3a 6a 3c e1 35 fc bc
       0.043643594 0.036234263 0.014296228 -0.03078741
000290 0b e1 5e 3d ad 39 85 bd 0a dc c0 bc 00 6e 88 3d
       0.054413836 -0.065051414 -0.023542423 0.06661606
0002a0 c4 a2 37 3d a7 33 dd 3d da 6b b3 bd ab 25 3e bc
       0.04483296 0.108008675 -0.087608054 -0.01160566
0002b0 95 58 20 bd b0 d0 9b 3c 1e 9d 13 3d ab a3 32 3c
       -0.03914698 0.019020408 0.03603851 0.010903279
0002c0 bc b3 d5 3d 72 f8 0a 3e f4 9d c5 bd 45 c2 3e 3d
       0.10434672 0.13571337 -0.09649268 0.04657199
0002d0 c3 18 2d 3d d3 8a 0a 3c ee e7 97 3d 57 cc be bd
       0.042259943 0.00845595 0.07417284 -0.093163185
0002e0 00 5a 4a bd 53 47 2c bc d7 9e 00 3e c8 d2 38 bd
       -0.049402237 -0.010515052 0.12560593 -0.04512289
0002f0 6e 85 4a bd 48 3f 8c 3d 89 e4 be bc c5 7f 26 be
       -0.049443655 0.068480074 -0.023302333 -0.16259678
000300 14 23 ff 3d 3f 4e 96 3d d1 90 84 3d 76 20 87 3e
       0.124578625 0.07339143 0.06472934 0.26391953
000310 19 71 ff 3d 73 81 7e 3e bc 2f c3 3d de f7 8a 3e
       0.124727435 0.24854068 0.09530589 0.27142233
000320 23 d3 67 3e ea 8f 96 3e 4a 5f 6d 3e 51 8f ae 3d
       0.22639136 0.29406673 0.23180881 0.08523429
000330 df ba 66 3e 07 26 cf 3d 73 2d 93 3e 58 3f 1c 3e
       0.22532223 0.10114675 0.28745613 0.15258539
000340 34 82 0f 3e ae 35 88 3e b3 dd e4 3d ce ab ac 3e
       0.14014512 0.26603454 0.11175098 0.33724827
000350 fe 1b 91 3e ed bb 14 3e 2f c0 2f 3e d9 1c f8 3c
       0.2834167 0.14524813 0.17163156 0.030287193
000360 81 17 5d 3e bc 97 d9 3e 80 a8 7c 3e 9d 66 5a 3e
       0.21590997 0.42498577 0.24673653 0.21328206
000370 a4 e8 f3 3d f6 20 81 3e 06 c0 45 3e dc 28 6d 3e
       0.11909607 0.2522046 0.19311532 0.23160118
000380 06 fa 26 3e 8c dd 64 3e cc f4 e9 3d 73 2f 3e 3e
       0.16306314 0.22350138 0.114236444 0.18572788
000390 22 ae 41 3d b0 49 92 3e f7 3f 45 3e 6f 67 99 3e
       0.047285207 0.28571844 0.19262682 0.29961726
0003a0 73 7e 38 3e 19 7c 07 bc 58 79 29 3e df cb c5 3e
       0.18016987 -0.008269333 0.16550195 0.38632104
0003b0 f9 d7 2c 3e 00 da bc 3d c6 31 48 3e 9f 50 4a 3e
       0.16879262 0.09221268 0.19550237 0.19757317
0003c0 44 54 80 3e 21 43 72 3e 0b 32 d8 3e 46 dc a8 3e
       0.2506429 0.2365842 0.4222568 0.32980555
0003d0 31 69 db 3d 10 c1 1a 3e 4b 1c 9c 3e ae 30 e5 3d
       0.10713423 0.1511271 0.30490336 0.111909255
0003e0 26 a7 0e 3e 1e ce 3c 3b 99 c5 ae 3e 6f 85 65 3e
       0.1393095 0.002880938 0.3413513 0.22414182
0003f0 d2 0d 88 3e e8 91 86 3e dd bb 0e 3e 58 89 6a 3e
       0.26573044 0.26283193 0.13938852 0.22903955

lstm.bias_hh_l0 f4 [256]
000000 dd 15 e6 3d 63 85 c4 3d b8 f5 82 3e 47 48 ba 3e
       0.11234639 0.09595754 0.25578094 0.36383268
000010 0d c4 a6 3e 79 5a d1 3d fd ac 23 3e 2c cc 91 3e
       0.3257145 0.102223344 0.15983959 0.28476083
000020 bf f7 b8 3e 31 27 82 3e c0 04 bb 3d 42 bb 67 3e
       0.36126515 0.25420526 0.09131765 0.22630027
000030 78 c5 99 3e 23 e6 2b 3e a1 5e 40 3e 89 e8 c0 3d
       0.3003347 0.16787009 0.18786098 0.094193526
000040 13 70 cc 3c e4 47 d0 3e 5a 28 17 3e e0 98 55 3e
       0.024955785 0.40679848 0.14761487 0.20859098
000050 d6 6b 01 3e 81 fa c9 3d 80 d8 b2 3e 8a 37 70 3e
       0.12638792 0.09862233 0.349308 0.23458686
000060 3e 7e bb 3e b2 91 93 3e 5c b6 05 3e 74 f1 81 3e
       0.36619753 0.28822094 0.13057846 0.25379527
000070 cb f8 6d 3e cd ce 0f 3e 32 0d 8f 3e f1 96 80 3e
       0.23239438 0.14043732 0.27939755 0.2511516
000080 8c 0c 9d 3d cb 99 81 3e 2d 74 53 3e 52 b3 e7 3d
       0.07668409 0.25312647 0.20649786 0.113134995
000090 38 e1 f8 3d 74 26 55 3e e7 93 a4 3e b1 77 9f 3e
       0.12152332 0.2081545 0.3214409 0.31146005
0000a0 e8 3a 3b 3e c8 67 e4 3d 5e 33 25 3e 1d ae b7 3e
       0.1828419 0.11152607 0.16132876 0.35875025
0000b0 9a e4 2a 3e 86 6c 36 3e e1 82 b1 3e 52 85 98 3e
       0.16688767 0.17814836 0.34670165 0.29789215
0000c0 e2 bb c6 3d 99 3b c7 3d a5 1e 5e 3e 86 44 97 3e
       0.097038046 0.09728164 0.21691377 0.29544467
0000d0 f3 65 9f 3e 16 98 74 3e 9f 3e dc 3d 06 34 b0 3e
       0.3113247 0.23886141 0.107541315 0.3441469
0000e0 81 49 ab 3e c3 eb f3 3d 1a 0b 64 3e 29 ea 92 3e
       0.33454517 0.11910202 0.2226986 0.28694275
0000f0 77 36 9e 3e b2 5b 55 3e a7 19 8b 3e ea b1 21 3e
       0.30900928 0.2083576 0.2716801 0.15790525
000100 69 ae 4d bd ae 5d 26 bd 1b a6 27 bd 36 e5 c4 3d
       -0.05021516 -0.040616684 -0.040929895 0.09614031
000110 8b c4 4a bd 41 6d 9f 3c db 87 91 3c 20 c5 70 bd
       -0.049503844 0.019461276 0.017764976 -0.058781743
000120 9b 92 b8 3d ac 04 fc 3d 0c 48 0f bd 5f e6 99 3d
       0.09012338 0.123055786 -0.03498082 0.07514643
000130 65 1b 22 3d 02 56 91 3c 71 ba ad bd 9e 0f b5 3d
       0.039576907 0.017741207 -0.084828265 0.08840869
000140 97 66 21 bd 62 48 c7 3d 98 0e 41 bc 59 76 a3 bd
       -0.039404478 0.09730603 -0.011783265 -0.079815574
000150 dd 83 e4 3d 2c 41 2c 3d 22 52 5c 3d 7c 40 5c 3d
       0.111579634 0.04205434 0.053789265 0.053772435
000160 a3 47 01 bd af c8 5b bd 66 6b 75 3d 2e d8 2a 3b
       -0.03156246 -0.053658184 0.059916876 0.0026068795
000170 d9 81 e5 bd 2a 28 d1 3a 45 ff e6 3a 86 6d c5 3d
       -0.11206407 0.0015957404 0.0017623684 0.096400306
000180 97 35 6b 3d df 1a 9a bd 1b 7c 2e 3d 9c 12 c6 bd
       0.057424154 -0.075246565 0.042598825 -0.09671518
000190 68 41 a6 3d 2f 80 1e 3d c6 37 a4 bd 1a 79 8a bd
       0.08117944 0.038696464 -0.080184504 -0.067613795
0001a0 76 09 86 3d 98 c8 cb 3d 70 c8 d9 bd 49 37 87 bb
       0.06544773 0.099503696 -0.106339335 -0.0041264636
0001b0 b7 6a bb 3d cb fe 69 3d 54 46 e1 3d 54 94 ed bc
       0.091512136 0.057127755 0.10999742 -0.029001392
0001c0 b0 c0 32 3c ac 3f a5 3d c6 e4 6b bd 1f 0a cb 3b
       0.010910198 0.08068785 -0.057591222 0.006196275
0001d0 e8 c0 e2 3d db f7 b5 bd 59 a9 16 bb 01 f1 d8 3d
       0.1107195 -0.08885165 -0.0022989123 0.10592843
0001e0 a0 c8 ad bc 1e a2 38 3d 8a e4 23 bd 84 ce 90 bd
       -0.02121383 0.045076482 -0.040012874 -0.0707064
0001f0 29 58 f5 bc 34 7d cd bd 71 34 cf 3d ba e2 2d bd
       -0.029949265 -0.10033646 0.10117424 -0.04245255
000200 48 bf 18 bd e9 ba 7f 3d 13 d9 b3 bc c2 85 84 3d
       -0.037291795 0.06243411 -0.021954095 0.06470825
000210 10 3b 88 bd f5 ee b3 bd a6 80 31 bd ce 82 9f 3c
       -0.0665189 -0.08785812 -0.04333558 0.019471552
000220 a6 4e ae bd 91 b9 03 bd 80 7c 57 bd ae 31 7a 3d
       -0.08511095 -0.03215939 -0.052608967 0.061082534
000230 e1 b3 22 3d 15 66 90 3d b2 27 04 bd 83 fe 8a 3d
       0.039722327 0.070507206 -0.03226442 0.067868255
000240 1d af 3b bc c6 b1 1e 3e 00 d7 e3 bd 02 b2 82 bd
       -0.0114553245 0.15497503 -0.11124992 -0.063816085
000250 39 55 8f 3c a3 7a a4 bc 5f f8 20 3d 7f 1c f1 3c
       0.017496692 -0.020078009 0.039299365 0.029432533
000260 d1 d3 57 3d ea ae 84 bd 06 6c 01 3e e4 1b 32 bd
       0.05269224 -0.06478675 0.12638864 -0.04348363
000270 e6 c1 eb bd c8 99 38 3c e2 f3 4b bd 11 d1 9a bd
       -0.115115926 0.011267133 -0.04979313 -0.075594075
000280 63 e8 f8 bd 1e 39 36 bc a7 df e2 3d 9b a4 41 3d
       -0.12153699 -0.011122016 0.110778145 0.04727612
000290 6e 69 7c 3d 5e c7 a0 3d c0 b1 1b 3e 0c c2 3b 3d
       0.061623983 0.07850526 0.15204525 0.045839354
0002a0 a2 45 14 3d c9 9d bb 3d 5b 8e e6 3c e4 42 a7 bd
       0.03619922 0.091609545 0.028144052 -0.08167055
0002b0 b3 2f d8 bc ae 0c 65 bd f8 5c ac 3d 6b 23 15 3e
       -0.026389932 -0.055920295 0.0841617 0.14564292
0002c0 1c 54 e1 bd b7 c2 03 3e ac a9 43 3d 1a 1d a3 bd
       -0.11002371 0.12867247 0.047769234 -0.07964535
0002d0 e1 5c 25 bd 57 ab ad bc e8 b0 60 bd 4e a0 17 bd
       -0.04037178 -0.021199865 -0.05485621 -0.037018113
0002e0 3f 5b 9d 3b 56 d2 db 3d e2 03 02 3e e4 b0 8a 3b
       0.004802137 0.10733478 0.12696794 0.004232513
0002f0 a6 14 a6 bd 11 6f 81 3d fe 48 ae bd 9a ad dd bd
       -0.08109407 0.06320012 -0.08510016 -0.108241275
000300 6c 28 6c 3e 0c 52 9f 3d 98 fe e7 3d 61 46 bb 3e
       0.23062295 0.07779321 0.11327857 0.36577132
000310 fe a4 1a 3e 12 d3 4b 3e 17 98 2d 3e f3 53 6d 3e
       0.15102002 0.19904736 0.16952549 0.23176555
000320 86 d3 75 3e 12 bf 82 3e 07 be 0f 3e 18 59 f2 3d
       0.24006471 0.255364 0.14037333 0.118333995
000330 38 5c 16 3e cb 74 92 3d 09 8d 97 3e 77 f4 0e 3e
       0.14683616 0.07151183 0.2959979 0.13960443
000340 a3 cf 44 3e aa 4d aa 3e 0c 8b 48 3e f5 60 a1 3e
       0.19219832 0.33262378 0.19584292 0.31519285
000350 5a f5 7d 3e 00 53 87 3c b4 30 4f 3e ac 09 e9 3d
       0.24800625 0.01651907 0.20233423 0.11378798
000360 dc 59 26 3e 75 36 d6 3e 78 98 4f 3e f9 cf 49 3e
       0.16245216 0.41838422 0.20273006 0.19708242
000370 3b 05 45 3e 46 a5 44 3e 58 2d d7 3c ec d8 52 3e
       0.19240277 0.19203672 0.026266739 0.20590562
000380 6e 44 ce 3d 5a 9e 70 3e ad f1 cc 3d ea 2f 09 3e
       0.10071646 0.23497906 0.100070335 0.13397184
000390 dd 9d 39 3d 92 62 67 3e a9 eb 6b 3e 81 c9 62 3e
       0.045316566 0.22596195 0.23039116 0.2214718
0003a0 14 64 ad 3e 45 34 00 3e 94 8b fb 3d 14 c3 8f 3e
       0.33865416 0.12519939 0.12282482 0.2807852
0003b0 43 1f 2e 3e d7 0c 87 3e a7 1d 06 3e 05 88 2f 3e
       0.17004113 0.26376984 0.13097249 0.17141731
0003c0 08 35 3b 3e 2a 5d fc 3d 24 92 88 3e dd 15 6b 3e
       0.18281949 0.12322457 0.26673996 0.22957559
0003d0 ba 44 98 3e ee 63 63 3e 9a 04 8f 3e 8e 04 89 3e
       0.29739934 0.22206089 0.27933198 0.26761287
0003e0 51 61 3d 3e 7f fc 24 3e e3 3a 37 3e d9 d9 9b 3e
       0.18494155 0.16111945 0.17893557 0.30439642
0003f0 8a 5d 9f 3e 37 b1 7d 3e 30 f5 9d 3e aa 6a ab 3d
       0.31126052 0.24774633 0.30851126 0.08369954

fc.weight f4 [3, 64]
000000 3e d6 82 3e b5 b2 83 3d d0 8a c9 3e 9d 90 14 bf
       0.2555408 0.0643057 0.39363718 -0.5803316
000010 66 89 a2 3d 36 27 b4 be 87 73 d8 3e 79 b1 83 3e
       0.07936363 -0.35186166 0.4227564 0.25721338
000020 d6 80 08 3f 47 7f ef be 27 87 b9 be 28 62 b1 3d
       0.5332159 -0.46776792 -0.36235926 0.086613
000030 0a 87 04 bf f7 51 02 3e e4 01 03 3f 72 07 a4 3e
       -0.51768553 0.1272658 0.5117476 0.3203693
000040 c9 6d d7 be 40 8e 06 bf 2f 1b 0f bd 22 b5 0a 3f
       -0.42075947 -0.52560806 -0.034938034 0.54182637
000050 42 ad d4 be cb 23 87 3e a1 97 00 bf bc 3f 18 3e
       -0.41538435 0.26394495 -0.5023137 0.14868063
000060 d8 b6 d9 bd 55 8a 89 3e 27 12 f6 be 2f 17 e3 3e
       -0.10630578 0.2686335 -0.48060724 0.44353625
000070 7b d4 e1 be 86 59 85 be a9 6a 6e bd fa 0d 06 be
       -0.44107422 -0.26044863 -0.058207188 -0.13091269
000080 90 7d 8d 3d ea 6c 87 3e d5 ce 98 3e f3 26 d0 3e
       0.06908715 0.26450282 0.298453 0.40654716
000090 a7 80 da 3e 53 d2 06 be 9f 80 05 bf 1d 1a 42 be
       0.4267628 -0.1316617 -0.52149385 -0.18955274
0000a0 ee d0 f4 be e5 90 b1 3e 1c 48 26 bd b3 5d 0e 3f
       -0.4781565 0.34680858 -0.040596113 0.55611724
0000b0 d1 af 26 3e 9d 91 58 bd 7e 76 fa be 7a bf 10 bf
       0.16278006 -0.052873243 -0.48918527 -0.5654217
0000c0 d9 95 81 3e 2e f2 5a 3e ab 48 f7 3e 4e f2 64 3e
       0.25309637 0.21381447 0.4829763 0.22358057
0000d0 57 b5 52 3e e1 b6 04 3f f7 a5 cd 3e 91 2d ed bc
       0.20576988 0.5184155 0.40165684 -0.028952392
0000e0 0e f7 41 be ff c5 87 3e 8b a6 92 be 43 8e ed be
       -0.189419 0.26518247 -0.28642687 -0.463976
0000f0 2e 30 ce 3e fa b1 00 be ec a9 ea 3e c5 50 00 be
       0.40271133 -0.12567893 0.45832765 -0.12530811
000100 ee 75 4c 3e fc f3 ac 3e 50 b9 4b be 52 37 c2 3e
       0.19966862 0.33779895 -0.1989491 0.3793283
000110 fa 17 0e 3e b5 50 38 3e a6 4f 64 be be a7 ae be
       0.13876334 0.17999537 -0.22296008 -0.34112352
000120 b0 84 d2 be 25 1d fa 3e 11 8d c6 3e 90 c8 42 3e
       -0.41116858 0.4885036 0.387795 0.19021821
000130 ff e8 f2 3e d9 4d 88 be 31 37 7e be 1d 4f 94 be
       0.47443387 -0.26621893 -0.24825741 -0.2896661
000140 c2 ba 67 3e 7c 44 da 3e 2d 5d 76 be 24 c8 e7 be
       0.22629836 0.42630374 -0.24058981 -0.45269883
000150 6c 5d 73 3e 20 51 dc bd cb c4 ca 3e d0 f3 cf be
       0.23766106 -0.10757661 0.39603266 -0.40615702
000160 37 87 a8 be ca 62 a3 be ca d3 b4 3e 39 a0 a9 bd
       -0.3291566 -0.31911308 0.35317832 -0.08282513
000170 ad 33 1e 3e 81 3a 78 3c 6e e7 0a 3e 6b 97 00 be
       0.154494 0.015150667 0.13564846 -0.12557761
000180 56 1d 91 be 01 32 2a 3d c6 8e 32 bd bd 84 ae bd
       -0.28342694 0.041551594 -0.04359319 -0.085214116
000190 b5 00 70 be fa 1a 8b 3e 46 4a 9f 3e 80 bb 85 be
       -0.2343777 0.2716902 0.31111354 -0.26119614
0001a0 bc 93 3b 3e 2a 13 15 be 2e 84 94 be 71 e1 f8 be
       0.18318075 -0.14558092 -0.29007095 -0.48609498
0001b0 aa cd 92 3e b9 0e 95 3e fa 6a 8a 3e ae 79 c1 3e
       0.28672534 0.29112795 0.27034742 0.37788147
0001c0 be 3b fd 3c 4a 84 f5 3d 04 84 36 be 27 31 3d be
       0.030912276 0.11988123 -0.17823797 -0.18475781
0001d0 d5 98 1d 3e e1 2b eb be 64 64 d4 be 37 af 44 be
       0.15390332 -0.45931914 -0.41482842 -0.19207464
0001e0 15 b6 19 be 72 54 14 be 60 2a b8 3b ac ce b7 3e
       -0.15010865 -0.14485338 0.005620286 0.35899866
0001f0 4e d2 cf be 03 71 81 be 2d 71 80 be 2e a2 6c be
       -0.40590137 -0.25281534 -0.25086346 -0.23108742
000200 29 83 bf be d6 98 df be a4 9a 07 be 18 00 57 3e
       -0.37404755 -0.43671292 -0.13242584 0.2099613
000210 5f d7 16 bf 2f 87 c5 3e c8 3a 55 3d 74 89 8e be
       -0.5892238 0.385797 0.05205801 -0.27839243
000220 22 f3 32 bd f1 bb e3 3d e1 3b 16 bc e3 50 a3 be
       -0.0436889 0.11119831 -0.00916955 -0.3189765
000230 38 ab 0f 3e 24 60 98 3e 9f 11 3d be 69 ec 7f be
       0.14030159 0.2976085 -0.18463753 -0.24992527
000240 28 a8 31 3e 01 a1 86 3d 72 a0 28 3f f0 f8 88 bd
       0.17349303 0.06573678 0.6586982 -0.06688106
000250 53 71 75 3e ef 13 9b be 03 77 76 3d 7a ad 84 3e
       0.23969011 -0.30288646 0.060172092 0.25913602
000260 b2 c3 db 3e 19 34 92 be 9f b5 4c 3e 45 4c b7 be
       0.4292274 -0.28555372 0.19991158 -0.35800377
000270 6a 0d 45 3e 6e 54 da 3e 1e 0a 0a bf 59 0a 14 3f
       0.19243398 0.4264254 -0.5392169 0.5782829
000280 49 df b0 3e 00 84 a0 be eb d5 c8 be 7b d0 cd be
       0.34545353 -0.31350708 -0.39225706 -0.4019812
000290 dd 73 86 be 60 ec b7 be a5 91 8f 3e 62 ed 0b 3f
       -0.26260272 -0.35922527 0.28040805 0.5465909
0002a0 f3 20 64 3e 3a 9d 96 be 0f 3c f5 3e 4d 25 48 be
       0.22278194 -0.2941683 0.47897384 -0.19545479
0002b0 20 96 d7 be c1 3a 04 bf 01 79 af 3e 6a c3 59 3e
       -0.42106724 -0.5165215 0.34272006 0.21265951
0002c0 ef 7d b1 be c8 a4 f6 be c4 ea b8 be 21 6f 8d be
       -0.34666392 -0.48172593 -0.36116612 -0.27623847
0002d0 a0 d8 e6 be 4f 6c 38 bd 39 55 78 bd ef 7e 18 3f
       -0.45087147 -0.045025166 -0.06062815 0.59568685
0002e0 e8 50 ff 3e a7 d2 b4 be dc 35 d0 3e 22 86 5e 3e
       0.49866414 -0.35316965 0.4066609 0.21730855
0002f0 dc 71 a0 be 67 14 cd 3e 24 b0 c4 be d0 85 02 3f
       -0.31336868 0.40054628 -0.38415635 0.5098543

fc.bias f4 [3]
000000 6e eb 88 3c b2 3c 81 b8 f9 dc 26 be
       0.016713824 -6.162505e-05 -0.16295232
