Demo/results/models/肌肉疲劳分类标签_backward_lstm.pth (torch, 81928 bytes, 6 tensors)

lstm.weight_ih_l0 f4 [256, 11]
00000000: 6ed4 af3d d6a4 56be 758a e03e d370 64bf
00000010: 73ab dc3d 3932 903e e229 263e 90b0 213c
00000020: 5e72 51bc 94bb 903e 43c0 1bbd adf3 843c
00000030: f654 9bbe 5330 d93d c510 983d 96ce abbd
00000040: ee80 823e 613b 97be afef 8fbd be3e 18bf
00000050: 0b6f f93e 4889 eb3e 9733 913e 2da1 2f3e
00000060: 6b8b b6be 81ea e4be 8b02 86bc 7158 6bbf
00000070: dec0 263f dbb4 d1be 9a1e 2fbe 8316 f7be
00000080: f5e6 813e 33ae a1be 95f6 263f 346e 983e
00000090: bc3c 5a3e 1a69 353e 4e29 17be a444 913e
000000a0: cd97 373e 1c17 063f 2236 7b3c a7be b8be
000000b0: 8f8b 65be 18d1 e7be b43b b8bd 0bc0 acbe
000000c0: 92da c53d 19b4 363d 8536 8bbe 2a55 2abe
000000d0: 86b0 313e bb2f d23e 24a7 033f b6a0 20be
000000e0: 1176 2ebe 9366 073f c34c 7fbf cbac 8bbe
000000f0: 24d3 49be 1f2e 7b3e 62a4 f1be d775 8ebe
00000100: 84d1 4cbf d115 463e d903 e23d 9926 89bd
00000110: e848 363e 524c e63c bdfc 55be 8df8 783f
00000120: 6123 6ebf 724a 2a3f 60b6 0a3f 3967 6d3d
00000130: fd6d d4be 046e 44bf 6306 b3bd c60b e73e
00000140: 963d 07bf 9fdc c0bd d134 94be 8b3d de3e
00000150: 55a3 713e 6b29 23be 0a67 c2be c48c 2ebf
00000160: b2e8 2c3e 3256 76be 49c5 053e 89dd 9f3d
00000170: 4a0d f1be 49b9 c03e 6457 16bf ed4a d5bb
00000180: edd8 29be b7cd 6dbe af05 0a3e dc1b e0bd
00000190: d71f 533e 389c 1e3e 6a50 17bf a470 ca3e
000001a0: 2980 a6be 0c23 e13e 39dc 6abe 9fcb 133f
000001b0: da28 2abe 43ec 8c3d 5b1d 12be 4539 4bbf
000001c0: 3546 babe 4996 76bd b7db cebd 4bf2 40be
000001d0: 1eb8 ebbe 485e 84be 5d1c 04bf d634 e3bd
000001e0: 9d38 243d b4d6 fa3e 0dac edbe f878 403f
000001f0: e30e 9abe 8d43 59bf 25cb a23e cb96 77be
00000200: 6f4e 06bd c83d a9be e00e 933d 3ec5 043f
00000210: eb14 583f c3e9 ddbc d255 ddbe c7fd 0e3f
00000220: 6c61 c7be 0b32 a23e 3eb9 08bf 3ce6 28bd
00000230: 4cbe 59be 2e60 553b 91ef 3a3e b109 a9be
00000240: 6a2b d2be b53c 1f3f a1cc 1ebc a1db d13d
00000250: 6d77 cebc 506a a13e 7aca 023f 27a0 063e
00000260: fe32 373e 1c67 d43e f210 8bbe 9ac2 1bbd
00000270: 2e7c d63d 3dba 44bf 632f 0f3f a039 88be
00000280: 0942 e53e 2ec9 c9be 2ad2 f53e f960 a5bc
00000290: 8115 993e c9d0 44bf d8aa b6be 919b 01be
000002a0: fa5b 043f 9742 893e a405 89be 2681 7d3e
000002b0: d9ff 343e d2c2 e73e 7664 1e3f dc23 163f
000002c0: 905e de3e b882 15be 7861 6dbe 8ddd f93d
000002d0: 85d8 7e3e 37e0 52be a408 c3bd 8790 59be
000002e0: 84ec debd 3392 223d 432c f43e 4e45 f73c
000002f0: 896b 0e3f 0408 e0be 5672 353f 753f 443f
00000300: 85db 30bf 2cab 8abe 4569 07be 6717 e33e
00000310: ed0c 9d3e d464 283e c254 173e 5f8a b0be
00000320: f3c6 15be 4b36 34be 0d43 91bd 847d 683d
00000330: f15b d5be fe9e c6bc 8908 22bf 768c 8d3d
00000340: d03f 163f 90b1 7c3d aa1b a63e fc82 39bf
00000350: 07d9 023f 15a5 413e 203a 3cbe fcd7 21bf
00000360: 9c40 1bbd c521 aa3e 188a 073e 9408 01bd
00000370: 1552 13be 00dd a4bd 81fa 563e 5582 57bf
00000380: 8483 2e3d e746 57be 9ff3 093f 513d a3bc
00000390: 87ac 893e d86e 86be 7439 9ebd 7869 1a3f
000003a0: b275 353e df56 e1be 08e1 f93e deaa 783e
000003b0: 5304 77be b43c b63c 2cfd a4be 7af4 3c3e
000003c0: 04c7 1a3f 2633 2f3f 2748 313f 2660 dfbd
000003d0: e6ac d8be f4d0 423e 92fb 823e 7f12 7dbe
000003e0: 9550 cabd 749c 18be 113d 6ebe b550 ac3e
000003f0: 2b26 003f 1e23 d33e 7c35 2a3f 2cbf cbbe
0.085854396 -0.20961317 0.43855634 -0.89234656 0.10774889 0.28163317 0.16226915 0.009868756
-0.012783615 0.2826811 -0.038025152 0.016229475 -0.30338258 0.1060492 0.074250735 -0.083890125
0.2548899 -0.2953749 -0.07028138 -0.59470737 0.48717532 0.46003175 0.28359672 0.17151327
-0.35653242 -0.44710162 -0.016358634 -0.91931826 0.6513804 -0.40958294 -0.17101517 -0.48259363
0.2537152 -0.31578216 0.65220004 0.29771578 0.21312231 0.17715874 -0.1476185 0.2837268
0.17929001 0.5237901 0.0153327305 -0.36082956 -0.22416519 -0.45276713 -0.089957625 -0.33740267
0.096608296 0.04460535 -0.27190033 -0.1663405 0.17352495 0.4105204 0.5142691 -0.15686306
-0.17037226 0.5289089 -0.99726504 -0.27280268 -0.1970945 0.24529313 -0.47195727 -0.2782428
-0.80007195 0.1934426 0.1103589 -0.06696815 0.17801249 0.028112564 -0.20897193 0.9725426
-0.93022734 0.66519845 0.5418453 0.05795977 -0.41490164 -0.7673037 -0.087414525 0.4512617
-0.5282835 -0.0941708 -0.28946546 0.4340633 0.23597462 -0.15933768 -0.37969238 -0.6818354
0.16885641 -0.24056318 0.1306354 0.07805926 -0.4708045 0.3764136 -0.587271 -0.006509176
-0.16586657 -0.23223005 0.1347873 -0.10942814 0.20617615 0.1548928 -0.5910708 0.39539063
-0.32519653 0.4397205 -0.22935571 0.57732576 -0.16617146 0.06881001 -0.1426901 -0.7938426
-0.3638169 -0.060201917 -0.10100501 -0.18842427 -0.46038908 -0.2585318 -0.5160578 -0.11094062
0.040093053 0.4899193 -0.46420327 0.75184584 -0.30089483 -0.848687 0.31795612 -0.24178617
-0.032789644 -0.33054948 0.071805716 0.5186347 0.8440692 -0.027089005 -0.43229538 0.55855983
-0.38941514 0.31678805 -0.5340766 -0.041235194 -0.21263999 0.0032558548 0.1825545 -0.33015206
-0.41048747 0.62202007 -0.009692342 0.10246969 -0.025203431 0.31526423 0.51090205 0.13147031
0.17890546 0.41484916 -0.27161366 -0.038027383 0.10472904 -0.7684668 0.5593168 -0.26606464
0.44776943 -0.394113 0.48011905 -0.020187842 0.2989922 -0.7688108 -0.35677218 -0.12657
0.51702845 0.26808617 -0.26762116 0.24756297 0.17675723 0.45265824 0.6187204 0.5864847
0.4343152 -0.14600646 -0.23181713 0.122004606 0.24887283 -0.20593344 -0.095231324 -0.21246539
-0.108849555 0.039690208 0.4769002 0.030184414 0.55632836 -0.43756115 0.7087759 0.7665933
-0.6908496 -0.2708372 -0.13223751 0.44353792 0.30673924 0.16444713 0.14778426 -0.3448057
-0.14626674 -0.17598836 -0.07092867 0.056760326 -0.41671708 -0.024245735 -0.63294274 0.069115564
0.5869112 0.061692774 0.3244298 -0.7246549 0.5111241 0.1891063 -0.18381548 -0.6322019
-0.037903413 0.3322889 0.13236272 -0.03150232 -0.1438678 -0.08049965 0.20993997 -0.84183246
0.04260589 -0.21023141 0.5388736 -0.019926699 0.2688944 -0.26256442 -0.07725802 0.6031718
0.17720678 -0.4401159 0.48804498 0.2428393 -0.24122743 0.022245742 -0.32224405 0.18452635
0.60459924 0.6843742 0.6925072 -0.10907011 -0.4231941 0.19025022 0.25582558 -0.24714087
-0.09878651 -0.14903432 -0.23265482 0.33655325 0.5005824 0.4123773 0.6648786 -0.3979429

lstm.weight_hh_l0 f4 [256, 64]
00000000: 0812 71bc 818a ebbd 1767 d93d 2c49 183c
00000010: f9fb 3fbd 27b2 0bbd 8978 cdbd 2d47 dc3c
00000020: e38e 933c 9cba 563d 38de 7cbd 50a8 dd3c
00000030: 3af7 7c3d bfa8 943d 4f5b 933d b014 ed3d
00000040: f153 80bd a008 f03d 50b4 e23d b8d1 a8bd
00000050: 0b24 ef3d 78b3 22b9 2ab0 3ebd 975b 01bd
00000060: 58ec f0bd 599a 523d 82d5 ecbd eb4f 08bd
00000070: 37c8 f33d c02c edbc cbd6 c7bc 7133 9a3d
00000080: 6624 af3d 4c8c a23d ab0b edbd 65c0 d9bc
00000090: 24c8 8dbd 3ed1 b33d 4e71 76bd 810c e5bd
000000a0: 6e98 febc b2db 993d 3290 85bd c4b0 0cbc
000000b0: d49f d73c b1d3 8f3d 3885 afbc fcc7 743d
000000c0: 405b 8dbd aaad f9bc d0a5 9bbd 4908 8f3d
000000d0: 5da4 443d 958e ca3d 4f22 bf3d 28a2 423d
000000e0: 21a7 f63d c4a3 c53d db7d 6abc 20f3 d73d
000000f0: 5307 603d d61f 5abd 54eb 653d 0477 38bb
00000100: 7ea3 b63d 94ad a5bd a489 99ba 9124 aebd
00000110: 6111 98bc 0579 8c3a 59ea 703b 9f5a c5bd
00000120: 3ff8 86bb 3665 f23d 7861 9ebd 861e 383d
00000130: 4e9a a83d 76c7 d2bc 9425 24bd c071 1b3d
00000140: 965a 37bd 889a 02bb e4aa 8a3d c150 253d
00000150: 4135 d33c aefb dabc 2e71 c43b 1d54 c4bd
00000160: c514 c1bc c1a5 9a3d 851e d43d e34a 553c
00000170: 6f03 92bc 4625 c6bd 6d2f 8abd 4cb8 f43c
00000180: d86b 12bd 4613 18bd 0eec 8abd 7ebd 99bd
00000190: 8eec d0bd f860 c13d 1594 c73c 9131 32bd
000001a0: be33 e53d 2ab5 853c 8f8b 45bd b767 ea3d
000001b0: 6ec0 733d 43bf c5bd 7b8d 24b9 77d6 99bd
000001c0: eed4 a03d 2e4a ea3d f1ee c2bd b9f3 a53d
000001d0: 9c44 bbbd 1b31 f8bd 2d6f b1bc d3b4 d93d
000001e0: 4ded d43d 4aec de3d 02db c53d 33c8 80bd
000001f0: d4ab f43c ac34 c03d 6399 783d 0bf9 edbd
00000200: 84ed c1bd 5ee3 d93d b040 c43c a020 153c
00000210: 0f2b b3bd 964c ecbd c773 cc3d 1b77 b8bd
00000220: 8b8d 253c 3d07 77bd 327c 55bd 7f3a 8abd
00000230: 31e0 5e3c 339f ef3c cb72 6bbd 9cd6 9d3d
00000240: a743 f23d d8c5 9f3d e756 86bd ceef 8fbc
00000250: 6b41 823c e7ae a0bd 6fb0 b2bd fb89 c7bc
00000260: 6502 a7bd 3e00 ed3d f646 b73d f39d f0bd
00000270: 65ef b6bd 8056 e13c 1ec1 993c 5acc babd
00000280: 509b 383b f757 613d 596b 943c 5d6a b0bd
00000290: 4ec9 98bd 599e 8d3d f2bd 8cbd 9c02 9d3d
000002a0: 64e3 053d a03c 723c 6a39 ce3d 77ba f2bd
000002b0: d744 63bd 9724 043d b9b5 913d 7b0b a53d
000002c0: 7c68 c0bc 0fd3 9a3c 1bc2 983c 82ab 19bc
000002d0: 1418 62bd bdfe a8bb c17a ccbd a702 ebbd
000002e0: 27c4 df3d ca30 07bd 75f0 3c3c 33be f93c
000002f0: 1e97 bbbd 8086 ec3d 9d7b 8e3b 4974 9e3c
00000300: 39e4 d83d 508e b33d 31b3 84bd a400 413d
00000310: 77fa 933c a4b9 98bd 2c40 f7bc 5c2c afbd
00000320: 1c35 f73d c722 02bc c7e2 c3bc 2c40 c6bd
00000330: 6c03 f73d 5bdb 22bb 4c4b 2bbd 1b76 583d
00000340: 0f0d 603d b80a cd3d 562f b5bd 2add 50bd
00000350: 7835 32bd 2ec6 cb3d 8242 5bbd 3b04 793d
00000360: 596b 943c 25e0 de3d 0c4c 0cbc cf56 ad3d
00000370: a955 bb3c 2bc8 f5bd 51dd 88bd dc12 963d
00000380: b88b fdbc 7779 f8bd 7391 e2bd cf13 f6bd
00000390: b87f 053d 5e67 6ebd 4a3f ee3d 8382 b33d
000003a0: 0dd6 47bd d83f 393d 7815 bbbc 1e12 243d
000003b0: 3312 963c 45c5 df3d c1e2 243d e853 41bd
000003c0: ac24 a33d 2898 e53d 37a1 f73d 905d 6a3c
000003d0: 007a 9a3d d418 a5bc aab5 bfbd dbac 51bd
000003e0: 7c56 943d 6868 61bd 7e47 d0bd b89c d6bd
000003f0: df70 af3d 4e05 943d efdc edbd 1f61 213d
-0.014713772 -0.11501027 0.10615366 0.009294789 -0.04687116 -0.034105446 -0.10032756 0.026889408
0.01801247 0.05242406 -0.06173536 0.027057797 0.06175921 0.07258748 0.0719515 0.115762115
-0.062660106 0.11720395 0.11069548 -0.08243126 0.116767965 -0.00015516381 -0.046554722 -0.031581488
-0.11763829 0.05141673 -0.11564161 -0.03327934 0.11903422 -0.028952003 -0.024394413 0.07529343
0.08551864 0.07936916 -0.11574491 -0.026580999 -0.069229394 0.08780144 -0.06016665 -0.111840256
-0.031078544 0.07512607 -0.06521644 -0.008587066 0.02632133 0.07022799 -0.021425828 0.059761032
-0.0690217 -0.030478317 -0.075999856 0.06984002 0.04800831 0.098904766 0.09332716 0.047517926
0.12043596 0.096503764 -0.014312233 0.10544419 0.054694485 -0.053253017 0.05613263 -0.002814711
0.089179024 -0.08089748 -0.0011713994 -0.08503068 -0.018562974 0.0010717219 0.0036760776 -0.09636425
-0.0041189487 0.11835711 -0.077334344 0.044950984 0.08232556 -0.025729876 -0.0400749 0.037950277
-0.044764124 -0.0019928534 0.06770876 0.040360216 0.02578223 -0.026731338 0.0059949374 -0.09586356
-0.023569474 0.07551146 0.10357384 0.013018343 -0.017823903 -0.09675078 -0.06747327 0.029873036
-0.03574738 -0.037127756 -0.06783305 -0.07506846 -0.10201369 0.094423234 0.024362603 -0.0435043
0.1119151 0.016321737 -0.048228797 0.11445563 0.059509687 -0.09655621 -0.00015692964 -0.07511609
0.07853113 0.1143993 -0.09518231 0.08103127 -0.091439456 -0.12118741 -0.021659458 0.106301926
0.10396824 0.10884912 0.09660913 -0.06288185 0.02986709 0.09385046 0.060693156 -0.11619767
-0.09469131 0.1063907 0.023956627 0.009102017 -0.08748447 -0.11538045 0.0998302 -0.090070926
0.010104547 -0.060309637 -0.052120395 -0.067494385 0.013603256 0.029250717 -0.057482522 0.07706949
0.1182931 0.078014076 -0.06559544 -0.017570402 0.015900334 -0.0784586 -0.08725058 -0.024357786
-0.081547536 0.11572312 0.089490816 -0.117488764 -0.0893238 0.027507067 0.018768843 -0.09121008
0.0028168745 0.05501553 0.018117594 -0.08614037 -0.07460271 0.06914968 -0.06872167 0.07666513
0.03268756 0.014784962 0.100695446 -0.118519716 -0.055485573 0.032261457 0.07114739 0.0805883
-0.023487322 0.018899469 0.018647244 -0.00937927 -0.055198744 -0.0051573203 -0.09984351 -0.11475115
0.10926085 -0.033005513 0.011531939 0.030486202 -0.09159683 0.11549091 0.004348232 0.019342558
0.10590405 0.08767378 -0.064794905 0.04711975 0.018063767 -0.07457283 -0.030181967 -0.08553383
0.12070677 -0.007942862 -0.023911847 -0.096802086 0.120611995 -0.0024849984 -0.041819856 0.05284701
0.054699954 0.1001181 -0.08846919 -0.05099217 -0.043508023 0.09949909 -0.053530224 0.06079505
0.018117594 0.10882596 -0.008563053 0.08463823 0.022867994 -0.1200107 -0.06682838 0.07327816
-0.030950412 -0.121325426 -0.110628985 -0.12015497 0.032592505 -0.058204047 0.11633165 0.087651275
-0.04878812 0.0452269 -0.022837386 0.04005634 0.018319225 0.10926298 0.040255312 -0.04719916
0.07965979 0.11210662 0.12091296 0.014304534 0.07542801 -0.02015344 -0.093608215 -0.05119024
0.07243058 -0.05503121 -0.10169886 -0.104791105 0.0856645 0.07227574 -0.11614405 0.039399263

lstm.bias_ih_l0 f4 [256]
00000000: e194 c53e 8adf 8f3e 0d69 1c3f 16a8 863e
00000010: c694 943e 37b1 023d 0163 233f 28ba 543e
00000020: 68e1 953e 6f8b ce3e 9c86 653e 1d41 003e
00000030: e408 c63e ec81 863e 4259 113f fcba de3d
00000040: ef1d 803e 378f 6b3e 38df ad3e d0f2 cf3e
00000050: b8ee f23e 1c5f bfbd 155f 5d3e 93a4 1c3f
00000060: 5c59 c53e 5dcb 223f 03bb 9c3e 778f e53e
00000070: e269 d13e bd67 3d3e 71b9 ec3e d426 793d
00000080: 7653 5e3d c1c7 c53e bf22 cc3e 1a69 a73e
00000090: 0da1 773e c9c8 bb3e e2c7 003f b1f1 9f3e
000000a0: 1b60 343e 26aa babc 88f8 303f d4e8 993e
000000b0: ff3d ec3e 1b97 f03e 6b82 ab3d 34c9 ea3e
000000c0: e93c 243f 8a29 883e 75e3 833e 08bd c939
000000d0: 0936 eb3e 4e2a 093f b2c1 dd3e e499 d63e
000000e0: cec3 bb3e 3d6f 213f 0ab5 a83e feab 713e
000000f0: 9e68 d73e fea6 023f b279 b03d 7a3a 043f
00000100: 1431 b3bc f122 0a3d ed47 afbd 0467 a6bd
00000110: 8f93 c83b 9e1b e5bd becf 7fbd 0c62 edbd
00000120: 5ea4 203d f7de d33d 5611 0d3d 3cc6 cbbd
00000130: aada bebc 4b7b 06b9 55b1 02bd ccbf ad3d
00000140: 0374 e23d 5106 c1bd 3834 7cbd a4b6 0e3d
00000150: 30cf 88bd c4af 16bd 2451 933d 80b4 64bc
00000160: fbcc 9dbd b673 6a3d c560 83bd 78cd 0a3d
00000170: ac5d bb3d c289 a73d e092 653d 3e5a e43c
00000180: f756 0ebd 4a75 e93d 8c0c 7fbc 91fb 183d
00000190: 03bc 9d3d 538e f63d 535b cbbd 26db 0d3d
000001a0: 8969 cebd d27c f63d 52d1 72bd fb52 91bd
000001b0: 1df3 f53c ed14 ed3c fa2d e2bd a4e8 eb3d
000001c0: 9d59 06bd a49f 2f3d 9e83 c9bd 88b8 fcbc
000001d0: 28ce 0ebd 6504 8abd af07 3bbd c490 563d
000001e0: 4299 8ebd d3b3 d3bd 2d43 4cbc b152 afbd
000001f0: c562 ee3d 8ee5 c5bc f101 cbbd 0eac f5bd
00000200: 21fd 863e d358 11be b65d 91be 86b0 643e
00000210: f0e1 c43d 2ac3 7b3d 0304 213e 1bd5 05be
00000220: 762b ad3d dec1 9bbe 5527 b23d f629 1abd
00000230: c633 dc3d d82d 483e 30ca 3e3e 0e00 46be
00000240: 54db 75bc 7fd3 48bd e653 82be c266 3f3e
00000250: 1b80 35be 3a6f 6dbe 9bb0 edbd 02af 87be
00000260: a857 173e ed75 353d e81e 3ebe 0d9f 7b3e
00000270: d6b0 68be ecd5 2abd 6639 f3bd 0387 13bd
00000280: 2c04 2d3e e780 4cbe 8560 f83d fe62 1d3e
00000290: c3f3 2bbe 9f91 1f3e de88 36bd 4490 923e
000002a0: 71ae 83be 984f d93a f71b 4c3e 24ef 76be
000002b0: 2043 3fbe 7972 a73d 7735 e4bd fac8 1cbd
000002c0: 6adc 61bd 5a00 40be 219e 14be 4224 c93d
000002d0: bf36 18be 6ee0 d0bd d31e 5f3e ed01 a8be
000002e0: 168c 44bd 24f1 9ebd 1a40 4cbe 3309 223d
000002f0: bda7 063e 4618 76be 24db cbbd 2bde 043c
00000300: 3c1f f03e 2b17 593e 4be1 3d3f cb03 f53c
00000310: 1eae d73e 464c 3f3e fa08 383f edb4 cb3e
00000320: fd48 5d3e 705a 093f 9a12 2b3e d297 4e3e
00000330: 61fd 973e cde7 c83e 9e2f 153f 3ccf 8d3e
00000340: dfc2 8b3e 37dc e13e 6595 963e 7feb 113f
00000350: 255a ce3e 8dd3 e63c 0e13 173e 5791 103f
00000360: fdf1 153f c0b9 fa3e 44d7 1d3e 4bac fd3e
00000370: 705b bc3e ff61 0d3e b1f4 e93e 6408 42bd
00000380: 04c4 423e e994 dc3e 2525 8a3e dd91 383e
00000390: 62d7 7e3e 118d 9f3e 8434 1b3f cfd2 a63e
000003a0: b1c6 a43e 12ce dc3d c2a5 053f 3e52 bd3d
000003b0: 843e e73e ef95 f83e ae66 213e 551e fe3e
000003c0: eafe 263f f1b1 e63e b5ec 933e bd0d d0bc
000003d0: 2be2 ed3e b5a6 da3e 37a9 133f bfae df3e
000003e0: 64d1 b43e 547f 623f 23e7 e43e beee d83e
000003f0: 7cba af3e 0318 f93e 615f 673d 5826 e43e
0.38590148 0.28100234 0.61097795 0.26300114 0.29019755 0.031907286 0.6382294 0.20774138
0.29273534 0.40340754 0.2241463 0.12524839 0.38678658 0.26270998 0.5677682 0.10875508
0.25022838 0.23003851 0.33959365 0.4061494 0.47447753 -0.093443125 0.21618302 0.6118862
0.38544738 0.6359156 0.3061143 0.44836017 0.40901095 0.18496604 0.4623523 0.060828045
0.054278813 0.38628963 0.3987026 0.32697374 0.2418253 0.36676624 0.50304997 0.31239083
0.17614786 -0.022786211 0.6912923 0.30060446 0.4614105 0.46990284 0.08374485 0.4585663
0.6415544 0.26594192 0.25759473 0.00038478547 0.45939663 0.53580177 0.4331184 0.41914284
0.36672825 0.6306036 0.32950622 0.23600766 0.42072004 0.5103606 0.086169615 0.5165173
-0.021873988 0.03372473 -0.08558641 -0.081251174 0.006121106 -0.11186908 -0.062453978 -0.115909666
0.039219253 0.103452615 0.03444036 -0.099499196 -0.023297627 -0.00012825166 -0.0319074 0.08483848
0.11057284 -0.09425033 -0.061573237 0.03484215 -0.06680143 -0.036788717 0.07193211 -0.01395905
-0.077051125 0.057239257 -0.06414942 0.033887357 0.09148726 0.08180572 0.056048274 0.027875062
-0.034750905 0.11399324 -0.015566956 0.037349287 0.07701876 0.12038865 -0.09929528 0.034632824
-0.10078723 0.12035526 -0.059281655 -0.070959054 0.030023152 0.028940642 -0.110439256 0.11518982
-0.032800306 0.042876855 -0.09839557 -0.03084971 -0.034864575 -0.067391194 -0.045661625 0.052384153
-0.06962825 -0.10337033 -0.012467188 -0.08560694 0.116399325 -0.024157312 -0.0991248 -0.119957075
0.26364997 -0.1419404 -0.28391808 0.22332963 0.09613407 0.06146542 0.15724187 -0.13069575
0.08455555 -0.30421346 0.08698908 -0.037637673 0.107520625 0.19548738 0.18631816 -0.19335958
-0.015005905 -0.049029823 -0.25454634 0.18691543 -0.1772465 -0.23186961 -0.116059504 -0.26500708
0.14779532 0.044301916 -0.18566477 0.24572392 -0.22723708 -0.041707918 -0.11876182 -0.03601743
0.16896123 -0.19971047 0.12127785 0.15369794 -0.16792206 0.15582894 -0.04456412 0.2862569
-0.25719026 0.0016579507 0.19932543 -0.24114662 -0.1867795 0.08176131 -0.1114301 -0.038277604
-0.055141844 -0.18750134 -0.14513446 0.09821369 -0.14864634 -0.101990566 0.21789102 -0.3281397
-0.04798516 -0.07760838 -0.19946328 0.039559554 0.13149925 -0.24032697 -0.09953907 0.00810961
0.4689883 0.21200244 0.74171895 0.029909035 0.42125028 0.1868144 0.718887 0.39786473
0.21609874 0.5365362 0.16706315 0.20175102 0.296855 0.3923935 0.58275783 0.2769717
0.27297112 0.44113323 0.29410854 0.56999964 0.4030315 0.028177047 0.14753363 0.5647177
0.5857237 0.4896984 0.15414149 0.49545512 0.3678851 0.13806914 0.45694497 -0.047371283
0.19020087 0.4308236 0.26981464 0.18024392 0.2488685 0.31162313 0.6062701 0.3258271
0.3218284 0.10781492 0.5220605 0.09244202 0.45164883 0.4855189 0.15761825 0.49632517
0.6523272 0.45057634 0.2889153 -0.025397176 0.46461615 0.42705312 0.57680076 0.43688008
0.35316002 0.8847554 0.44707593 0.42369646 0.34321964 0.48651132 0.056487445 0.44560504

lstm.bias_hh_l0 f4 [256]
00000000: 29d0 d33e 89f7 8a3e 1a55 133f c5e2 893e
00000010: 243c 983e 6e93 563e c8ea 513f 331c 533e
00000020: 6aed d03e 68f2 093f 4b7b 883e e353 753e
00000030: fb79 e33e 4bbf e03e 193d b23e baab af3d
00000040: bf45 d33e 9547 613e 4598 ee3e 9165 e03e
00000050: 74dd d43e 40b2 05be 0de2 743e 6df0 063f
00000060: 5bc3 c83e aeed 283f e79a 7f3e 0961 ad3e
00000070: 4a27 bb3e 19e4 aa3e f418 f63e 5c35 a13d
00000080: 0382 113e ba61 c83e 6e2d a03e 6a1c 9e3e
00000090: 644c 813e 28ea 863e dc7e 153f ab79 533e
000000a0: f202 a53e 40e4 03bd b3ac 2d3f 5865 8d3e
000000b0: 3079 a83e 5d00 053f 4de8 3e3e 75f3 f53e
000000c0: 8029 203f 7c2b a03e 9c08 003e f1f2 8bbc
000000d0: 1d00 b03e ae19 b53e 15fb 033f 03aa 0b3f
000000e0: 6e21 a33e 58d4 363f 9873 b73e c9bf b43e
000000f0: 448b c13e 0e51 bc3e ea5f 093e 2798 f33e
00000100: b6bc da3d 1047 a7bd 7bcf 97bc e2dd b63d
00000110: b8cd 70bd 0e7b 12bd dad3 dcbc 2c42 2a3d
00000120: 50e9 1d3d cec8 713d cda6 e43d e932 793a
00000130: b547 11bd f1af 00bc 929f 963c e576 a03c
00000140: 695d 9d3c d4a5 d0bd 9d5c 12bd dab7 e0bd
00000150: ffe2 c83c bab2 df3d e193 c4bd 6438 2c3c
00000160: 5ad9 ab3c b3c5 c8bc c014 8bbd 01aa a93d
00000170: 6872 9e3d 5af8 953d 5eea 8e3c 4bc2 8d3c
00000180: 5ce9 453d 7785 3ebd d50f aa3d 68cf eebd
00000190: 9224 eebd 4609 2fbd 679a 49bd a93d 31bd
000001a0: 2c99 07bd e6e2 7fbd 10f6 d8bd b049 2b3a
000001b0: f764 8d3d 2f78 b0bd d932 95bd a6a1 8fbd
000001c0: 8bf4 ea3d 8943 433c 29bb 6c3a 02f2 7f3d
000001d0: 5bd5 b23d f3a9 323d 4893 3abc 130b 4fbc
000001e0: 5b19 77bd 4ac1 853d 4058 ccbd 7f8b b03c
000001f0: eaf1 5abc fafe 383d bb67 803d d586 3a3d
00000200: 96fc 993e c3db a0bc dcb2 fdbd 0e12 a83e
00000210: 0cec f83d 3d04 d03d c7fd 413e 91cb 88be
00000220: 5bf5 5c3e 1154 a8be f237 56bc 8c45 133d
00000230: ffbe 8b3d 9c22 b13e 176c 7e3e d79f afbe
00000240: 475d 9b3d 3ab5 e7bd 8ea0 4abe 0d4b 8a3d
00000250: ee11 d0bd deea 55be f210 e7bd c78d a7be
00000260: 9b92 943e 58f0 0ebe b273 6abe 7151 443e
00000270: 59f7 95be 47df d63d e802 37bd f551 1cbe
00000280: f9d1 973d 2c42 94bd d8c3 863d 0eca 9e3d
00000290: 335c 78be 8a6e 163e 298d a53d d056 223e
000002a0: 8ab4 93be 3f38 863d 3368 c13d bd4e 4dbe
000002b0: 8a40 9bbd d576 95bd c9a2 bfbd 966f bc3c
000002c0: a491 a1bc 867e 78bd 17a6 79bd 818b babd
000002d0: 6c3c 4cbe 0b74 d1bd bb20 c93e b1e8 0bbe
000002e0: cd1e f0bd 8db7 b73c 2065 85bd 8541 9d3d
000002f0: 2d23 31bc 3479 97be 1165 31be 0259 27be
00000300: 57e8 013f 80c8 503e 046b 413f abe2 f43c
00000310: 9b42 a33e b5c3 8e3e e183 3b3f 6310 a53e
00000320: 6f62 763e 0ae5 113f 80e1 973e 6403 9b3e
00000330: 231e d73e c6c5 e03e 6c97 ce3e cebd af3e
00000340: 912d a03d 37cd f73e 8d4b ca3e 17ef ff3e
00000350: de02 f43e 66ec 54bc dcaf 223e 2ca0 243f
00000360: 7eb2 123f b358 1e3f 689c 073e b5e8 fb3e
00000370: d92b c63e 21a6 b53e 2743 003f 6db3 653d
00000380: 45b6 913e 5254 c83e fe7d 523e 6064 853e
00000390: 1c7a 893e 6465 8c3e be0f 1b3f 21ff 593e
000003a0: 0176 b63e d429 763e 7671 0b3f 0e68 183e
000003b0: 96c7 cc3e 1bb1 a43e 3140 573e 0a1c 1b3f
000003c0: a742 033f b943 b23e cbd8 b53e b750 943d
000003d0: 1743 be3e be69 bf3e 7b38 bc3e c4d3 0c3f
000003e0: 93f6 f33e e40a 543f bb0f d43e d3f1 ad3e
000003f0: 4c2e ad3e 2689 103f 60f5 563e b56a d93e
0.4136975 0.2714198 0.5755173 0.26930824 0.29733384 0.20954677 0.8199887 0.20616226
0.40806133 0.5388551 0.26656565 0.23957781 0.44429 0.43895945 0.3481224 0.08577676
0.4126415 0.21999963 0.46600547 0.4382749 0.41575205 -0.13056278 0.23914357 0.5271061
0.39211544 0.6598767 0.24961434 0.33863094 0.36553413 0.3337715 0.48065913 0.078715056
0.14209752 0.3913706 0.3128466 0.30881053 0.25253594 0.26350522 0.583967 0.20651881
0.3222881 -0.032200098 0.67841643 0.27616382 0.3290496 0.5195368 0.18643303 0.48037305
0.62563324 0.31283176 0.12503284 -0.017083617 0.34375086 0.35371155 0.51554996 0.5455629
0.31861442 0.7141776 0.3583038 0.3530257 0.37801564 0.3678059 0.13415495 0.4757702
0.10680525 -0.08167851 -0.018531552 0.089290395 -0.05878994 -0.035761885 -0.026956487 0.041567013
0.038552582 0.059029393 0.11164627 0.00095061824 -0.035468776 -0.007854448 0.018386636 0.019587943
0.01920958 -0.10187879 -0.035732854 -0.10972567 0.024522303 0.10922761 -0.09598518 0.010511491
0.020977665 -0.024508333 -0.06791067 0.08284379 0.07736665 0.0732276 0.01744574 0.01730456
0.048318252 -0.046514 0.08303801 -0.11660653 -0.11628069 -0.042733453 -0.049219515 -0.043271694
-0.03310506 -0.062472247 -0.10593808 0.00065341126 0.06904023 -0.08616673 -0.07285089 -0.07013254
0.11472424 0.011917957 0.00090305746 0.062486656 0.087321006 0.043619107 -0.011387654 -0.012636918
-0.060326915 0.065310076 -0.0997777 0.021550892 -0.013363341 0.04516504 0.06269785 0.045538742
0.3007552 -0.01963604 -0.1238763 0.32826275 0.12154397 0.101570584 0.18944465 -0.2671781
0.2157797 -0.32876638 -0.013074862 0.035954997 0.06823539 0.34596717 0.2484592 -0.34301636
0.075861506 -0.11313863 -0.19787809 0.06752596 -0.1015967 -0.20890376 -0.11282529 -0.32725355
0.290181 -0.13958871 -0.22895697 0.19171692 -0.29290274 0.104918055 -0.044680506 -0.15265639
0.07413096 -0.07239184 0.06580323 0.077533826 -0.24253921 0.14690605 0.08083565 0.15853429
-0.28848678 0.06553697 0.094437025 -0.20049568 -0.07580669 -0.07298056 -0.09357221 0.023002427
-0.019722767 -0.060667537 -0.06094941 -0.091086395 -0.19944924 -0.102272116 0.39282784 -0.13662983
-0.11724625 0.022426391 -0.06513429 0.076785125 -0.010811609 -0.29584658 -0.1732371 -0.16342548
0.5074515 0.20388985 0.7555392 0.02989324 0.31886753 0.27883688 0.73248106 0.32239065
0.24060987 0.5699011 0.2966423 0.30276024 0.4201518 0.4390089 0.403499 0.34324497
0.07821191 0.48398754 0.39510766 0.499871 0.47658437 -0.012995815 0.15887398 0.643069
0.5730361 0.61854094 0.13243258 0.4920098 0.38705328 0.3547831 0.50102466 0.056079317
0.28459373 0.3912683 0.20555875 0.26053143 0.26850975 0.27421105 0.60570896 0.2128873
0.35636905 0.24039394 0.5447 0.14883444 0.39996022 0.3216637 0.21020581 0.6058966
0.5127358 0.34817293 0.35516962 0.07241958 0.3716056 0.37385362 0.3676184 0.5501063
0.4764906 0.8282912 0.4141825 0.3397356 0.33824384 0.5645927 0.2099204 0.42464224

fc.weight f4 [3, 64]
00000000: 2b03 a03e cacf 15bf 8068 42be 0c88 093f
00000010: c16e 77bc 4b3b 463f c8b4 74bf 96b8 48bf
00000020: 59af ee3e daae 72be 53f2 3bbf 553f 73bf
00000030: 9e4e 73bf 8994 3f3f 34bc 7fbe ebe0 69bf
00000040: 2e04 0d3f 9c62 05be fa51 17bf 23d4 cc3d
00000050: c0bc 82be bfeb 403f 48d2 653f 2a68 5dbe
00000060: 02e1 e63e a4fb 85bf 8bf0 e13d da37 453f
00000070: c591 e7be daf6 033f 0aac 8abe f490 81bf
00000080: 7928 2d3f 5f41 0d3e 7347 65be a3e8 143f
00000090: 4a5c 09bf 2d95 243f 9233 413f cd50 ea3e
000000a0: 056c 693f e08c 14bf 41f6 173f 3a9a 923e
000000b0: 6fad a1be 12f4 17bf 8eb9 1ebf 2735 4ebf
000000c0: 77b0 653f c1d8 e0be 16bb d93c cd47 5d3f
000000d0: 16e4 883f 573b 29bf 38e9 7cbc 9b95 3fbe
000000e0: d8b3 2e3e 4f03 713f 88a4 debe 4cd0 22bf
000000f0: dc47 4a3f ea9b 2dbe 7c81 d9be 4ed4 e3bd
00000100: 0213 903e 74f4 f53e 688e fbbe 9962 16bf
00000110: 881b 053f 15bf 23bf bb2f 413f b9f0 0c3f
00000120: c752 d9bd a9a4 dbbe 77ed 673e b11d 8d3f
00000130: 0ffa f13e 528b dabe 069a 2d3f 3f11 113f
00000140: c289 49be 4afd c1be 4fe5 f53c de20 9f3e
00000150: f465 dfbd e7ac c1bd 0931 bfbe 5916 9abe
00000160: c2d3 a33e ee6c 573f b407 11bf 381c 05bf
00000170: 07a5 58be 51fb 28be 1c5d d4be b294 2b3f
00000180: bbf5 a4be 3d26 f7be 4b44 043f 57a3 cabe
00000190: 2205 e23e c098 edbd 92b1 d4be 1605 43bd
000001a0: 4043 44bf e573 d13e 28ec a7be 1bc7 07bf
000001b0: 6402 bcbe e86b ed3e 8fdf 773e f5cd 7d3e
000001c0: a0d4 d8be 42bf 4bbd 1230 9bbe b6a1 3fbf
000001d0: ce1a 13bf 50de d23d 4f02 163f 1efa 65be
000001e0: c1bc 29bf c1a6 17bf 2c9f 59be 74cd b83e
000001f0: 5642 71be 11c3 d1be 0f43 873d 5932 b5be
00000200: dc56 40bf 97bf db3e a844 633f aca8 e2bd
00000210: 0aa7 39bf 36c1 33bd 68a1 a83e d771 273f
00000220: 11a3 27bf 11fc 323f 0967 403f 57d8 65be
00000230: 1713 1d3f 1844 24bf d043 3cbf dc1b 123f
00000240: 792f 15bf 70f8 513f 4431 453f 263b 64bf
00000250: 6b68 4d3f a236 36bf 96e0 39bf 1732 5e3f
00000260: accf 3ebf 8d2b 863d e2ce 533f 62d1 2cbf
00000270: e7c3 323f b675 afbe 89c7 6e3f c2da fc3e
00000280: 96a8 3cbf 747c 4d3f c5c5 9fbe 53b8 b9be
00000290: 90c1 633e 6579 1fbf ec2e 2abf c278 03bf
000002a0: 2fa2 9fbe 418d 60bd e3a2 23bf 94f5 de3e
000002b0: ad40 4f3f 8cff 8f3e 0b13 9e3e c01d 253f
000002c0: b669 08bf c342 1e3f c279 133f e3f4 8dbd
000002d0: a535 f0be 1ec5 263f c76b 21bf 84e0 5d3f
000002e0: 6c67 333f ed75 babe aef1 403f 98bb 013f
000002f0: 467a 3dbf e052 153f a52b e53e 3554 4e3f
0.31252417 -0.58520186 -0.18985176 0.53723216 -0.015102089 0.77434224 -0.9558835 -0.78406656
0.46618155 -0.23699513 -0.7341663 -0.9501851 -0.95041835 0.7483602 -0.24974138 -0.9135882
0.550845 -0.13025898 -0.5910946 0.10001399 -0.2553463 0.7535972 0.8977399 -0.21621767
0.45093542 -1.046742 0.11032208 0.7703835 -0.452284 0.5154854 -0.2708438 -1.0122361
0.6763988 0.13794468 -0.22390537 0.58167475 -0.53656447 0.64290124 0.75469315 0.4576477
0.9118045 -0.5802746 0.5936013 0.2863329 -0.31577632 -0.59356797 -0.62001884 -0.80549854
0.8972239 -0.4391537 0.026578467 0.86437684 1.0694606 -0.6610617 -0.015436463 -0.18709414
0.17060792 0.94145674 -0.43484902 -0.63599086 0.790159 -0.16954008 -0.424816 -0.11124478
0.28139502 0.48038065 -0.49132085 -0.587442 0.51995134 -0.63963443 0.75463456 0.55054814
-0.10611492 -0.42899063 0.2264918 1.1024686 0.47261092 -0.42684418 0.67813146 0.5666694
-0.19681457 -0.37888557 0.03001657 0.31079763 -0.10908118 -0.09456807 -0.37342098 -0.30095175
0.31997496 0.8415059 -0.5665238 -0.51996183 -0.21156703 -0.1650212 -0.41477287 0.67023766
-0.32218727 -0.4827136 0.51666707 -0.39577743 0.4414454 -0.116014004 -0.41541725 -0.047612272
-0.76665115 0.40908733 -0.3279736 -0.53038186 -0.36720574 0.46371388 0.24206375 0.24785598
-0.4234972 -0.049742945 -0.30310112 -0.74856126 -0.57462776 0.10296309 0.5859727 -0.22458693
-0.6630364 -0.5923882 -0.21252126 0.36094248 -0.23560461 -0.40969136 0.06604587 -0.35389975
-0.75132537 0.4291961 0.88776636 -0.11067328 -0.72520506 -0.043885432 0.32935643 0.6540808
-0.65483195 0.6991587 0.7515722 -0.22445808 0.61357254 -0.641664 -0.73540974 0.5707376
-0.5827556 0.8201971 0.770283 -0.89152753 0.80237454 -0.71177113 -0.72608316 0.8679518
-0.7453563 0.065512754 0.82737553 -0.6750699 0.69830173 -0.34269494 0.93273216 0.4938565
-0.7369474 0.80268025 -0.31205574 -0.3627344 0.22241807 -0.6229461 -0.6647785 -0.51356137
-0.31178424 -0.05482221 -0.6392042 0.43546736 0.8095806 0.28124654 0.30873904 0.6449852
-0.532863 0.6182062 0.5760766 -0.06931474 -0.46915928 0.65144527 -0.6305508 0.8667071
0.70079684 -0.36418095 0.75368774 0.5067687 -0.740147 0.5832958 0.4475986 0.8059724

fc.bias f4 [3]
00000000: c3d7 af3d 4a5c 133d 778a 11be
0.08586075 0.035976686 -0.14212976
