Demo/results/models/肌肉疲劳分类标签_linear_gru.pth (torch, 62216 bytes, 6 tensors)

gru.weight_ih_l0 f4 [192, 11]
00000000: b0bf 6a3e 447c b83e b472 633e 4725 eebd
00000010: fe51 50be e806 e73e 440c b03d 29c3 803d
00000020: 7d82 663d 7366 f23d 4088 09bf 87fb 62be
00000030: 3d0d 64be 54c2 853e 3c14 dfbe cb60 d5be
00000040: 3fe3 7f3e b104 5ebd 4285 90bd d09c 0ebf
00000050: faa5 fbbe ee49 0e3d 938a 823e e992 2e3c
00000060: 6c99 f1be 5819 903e 570d 0f3d 9783 f8be
00000070: ac0b efba 199c 1abf d0c2 aabe d179 cdbe
00000080: 10e0 e43e a54a 433e cee1 a33c 9bbd 633e
00000090: 094e c83d 7545 633d 8788 97bd a651 053e
000000a0: a16f 89be 9d0d e83d 8595 b83c afcc a33d
000000b0: faa4 0cbf fd26 453d 3197 393e e37b 5e3e
000000c0: bb3b bc3e 10ba 453f 6a4c 8bbe 66c7 fc3e
000000d0: c8e7 543f 49a0 cabd 0863 c5bb 88e0 f9bc
000000e0: 8225 d43d 547b 0fbe dab3 463f e693 0cbf
000000f0: 6f9f 2d3e 023e 3ebe d2b4 1ebe 0604 04bf
00000100: 4588 01bf b06b 0cbe 48a9 b3bd 793d cf3e
00000110: 700e 9bbd 4196 1e3f f994 9abd f2b6 12be
00000120: 7b06 473d fd5a 4a3e 11c3 c9bd 0bdf fabe
00000130: e8fa 903e 0f26 16bd b314 483c 41b0 8b3e
00000140: ecfb 753e d1b4 813f 8c97 a9be 466b 5d3e
00000150: 6d51 3a3e 3bb3 bc3e c931 8c3e 824a d83d
00000160: ae93 52be fbf1 fe3d 748a 67be 3e2f 073f
00000170: e703 9abe 2002 aa3d 18e1 a5be 3e58 13bb
00000180: 5758 8bbe 84fd 83be 50d3 7e3e 786c 8e3d
00000190: 913f ab3d 9821 02bf da52 ff3d ffec e83d
000001a0: ce02 4ebe e2e8 863d 3a87 433e 6712 8f3e
000001b0: 0f1f 24be 2184 d53e f24c 213d 2fb6 013e
000001c0: 4280 18be 18e7 cb3d 5983 84bd 274e 80bd
000001d0: 692e d23a 6f17 20bd ffdf e53c 1e5d 32be
000001e0: 53a2 1b3e 06ae 1b3f 56b1 9dbe 4362 a6be
000001f0: b73c 39bd 6b5e 03bf 7cce a63e 10af 16bf
00000200: 49c4 083e 0ff3 32bf f57e dbbd 864a 1c3e
00000210: abb0 123e 35a5 713e 1c9b 5fbe b215 8fbe
00000220: 122f 873e 1fa8 a7be 41aa 8fbc 8de4 fcbd
00000230: 3a4b ed3e 1893 873e c003 47be e376 e23d
00000240: 18f3 3ebd ce49 d5bd 1bdd 953e 3baa 4abe
00000250: 4992 0d3e 8f2d c4bd 77f9 86be 085d 1b3e
00000260: c9fc cebd 4b18 56be b281 67be 5013 b1be
00000270: 1b44 7a3e 2cde a5be 07f0 13bf 1a54 b43e
00000280: cfee aa3d edd8 823d 44b6 21bf 5cc5 07bf
00000290: b037 26be 4042 a2be b61a f53c e996 4a3e
000002a0: 4dd4 82bd 2fbe a2be 26c8 5f3e 97aa 833e
000002b0: ec4d 47be df36 2e3e b43f b4be 85b5 97bd
000002c0: 910e e43e cf97 eb3e 5c9b 3bbe 38cb a6bc
000002d0: 5d83 17bf 2f28 be3e c509 9dbe 231b 63bd
000002e0: 062a ddbe 72b7 82be 38ab 5bbe d7b5 96be
000002f0: 41be 25be 7144 10bd 6056 b93e bf5d 83bd
00000300: 1c5d d83e c66e 9bbd b949 873d 9fc4 e2bd
00000310: ea4c eebd 2591 383e 689e ddbe c764 e6be
00000320: 4ae6 393e 3374 0e3e 7016 383d 4159 b2be
00000330: aa0d 0d3e dac5 88bd 8152 043e 359b 8c3d
00000340: edff 703f e14e 173b ca0a 273e 0fb0 dcbe
00000350: 230c 053f 8c3d b2bd c9e3 1f3e 3013 83be
00000360: 5d54 50be 3a05 333e 445f 77be 4fc9 aabe
00000370: 9d4a 44be 5af6 b1be 80ba 353e bbc7 a5be
00000380: 0a1f babe 259f 903d c810 733e e710 74bd
00000390: f40d 41bf 4f33 fbbe 00bd 3dbe a84d 2e3e
000003a0: 530b 3f3f b74b 36bd d167 193e c977 3f3d
000003b0: 2d0d 173d 4637 b03d 507c fd3c 6239 65be
000003c0: 87ea 5abe 4620 693e 5cbc b3be 6a4b 82bd
000003d0: 1f53 b63d 70d6 183f 3e3a 87bd 9e1a 293e
000003e0: 0f33 85be c43b 31bc acd3 3cbe 0365 39bd
000003f0: bbff ac3e c905 f0bb e2b7 98bd d080 383e
0.22924685 0.36032307 0.22211725 -0.11628204 -0.20343778 0.45122457 0.085960895 0.06287224
0.056276787 0.11835947 -0.53723526 -0.22166263 -0.22270675 0.26124823 -0.43570125 -0.4167541
0.24989031 -0.054203693 -0.07056667 -0.55708027 -0.49150068 0.034738474 0.2549635 0.010655143
-0.47187364 0.28144336 0.03492483 -0.48537895 -0.0018237731 -0.60394436 -0.33351755 -0.40132
0.44702196 0.19071443 0.020005133 0.22240297 0.09780509 0.05548616 -0.073990874 0.13019428
-0.2684298 0.113307215 0.022532234 0.07998025 -0.54939234 0.048132885 0.18124081 0.21726947
0.3676432 0.77237034 -0.27206737 0.4937088 0.8316617 -0.09893853 -0.0060237683 -0.030502573
0.103587165 -0.1401189 0.7761818 -0.54913175 0.1695535 -0.18578342 -0.15498665 -0.5156864
-0.50598556 -0.13712955 -0.08772522 0.40476587 -0.07571113 0.6194802 -0.075479455 -0.143276
0.048590165 0.19761272 -0.09851659 -0.48998293 0.28316426 -0.03665739 0.012211966 0.2728291
0.24021882 1.0133306 -0.33123434 0.21622953 0.18195124 0.36855492 0.27381733 0.10561086
-0.20564148 0.12448498 -0.2261141 0.5280646 -0.30081102 0.083011866 -0.32398295 -0.0022483016
-0.27215835 -0.25779355 0.24885297 0.069542825 0.08361734 -0.5083251 0.124669746 0.113733284
-0.20118257 0.065873876 0.19094554 0.27943727 -0.16027473 0.4170237 0.03938002 0.12667154
-0.14892676 0.09956187 -0.06470365 -0.062649064 0.001603556 -0.039084848 0.028060911 -0.17418334
0.1519864 0.60812414 -0.3079936 -0.32496843 -0.045223918 -0.51315945 0.3257941 -0.58860874
0.13356127 -0.6990213 -0.107175745 0.15262803 0.14325206 0.23598178 -0.21836513 -0.2794624
0.264031 -0.32745454 -0.017537238 -0.1234828 0.46346456 0.2647941 -0.19435024 0.11057832
-0.04661855 -0.10414468 0.29270253 -0.197915 0.13825335 -0.09579002 -0.26362202 0.15172207
-0.10106809 -0.20907705 -0.22608069 -0.34585047 0.24440043 -0.32396066 -0.5778813 0.35220414
0.083463304 0.063890316 -0.6316874 -0.5303552 -0.1623218 -0.3169117 0.029919963 0.1978413
-0.063881494 -0.31785724 0.21853694 0.25716087 -0.19463319 0.17013119 -0.35204852 -0.07407669
0.44542363 0.46014258 -0.18320984 -0.020360574 -0.5918482 0.37140033 -0.30671516 -0.0554458
-0.43196124 -0.25530583 -0.21452034 -0.29435608 -0.16185857 -0.03522152 0.3619871 -0.06414365
0.42258537 -0.07589488 0.06605858 -0.11072659 -0.11635764 0.18024118 -0.43284917 -0.44998762
0.18154255 0.13911514 0.044943273 -0.3483372 0.13774744 -0.06678362 0.12922098 0.06865541
0.9414051 0.0023087787 0.1631271 -0.43103072 0.51971644 -0.087031454 0.15614237 -0.25600576
-0.20344682 0.17482463 -0.24157435 -0.3335671 -0.19169088 -0.34758264 0.17746925 -0.32378945
-0.36351806 0.070616044 0.2373687 -0.05958643 -0.75411916 -0.49062583 -0.18529129 0.17021811
0.74626654 -0.0445058 0.14981009 0.046745095 0.0368778 0.086042926 0.030943066 -0.22385171
-0.21378528 0.22766218 -0.35104644 -0.0636204 0.08902573 0.59702206 -0.06602906 0.1651406
-0.26015517 -0.010817472 -0.18440121 -0.045262348 0.33788857 -0.0073249084 -0.07456948 0.18017888

gru.weight_hh_l0 f4 [192, 64]
00000000: 3560 62bd fefe e6bc 47b6 c23d 7674 8fbd
00000010: 6411 cfbb 19be 653c ea94 19bd d27d 6abd
00000020: cad6 bb3d 8c1d 8a3d 6cf4 a0bd 28bc ee3b
00000030: 0d14 0a3c e8ad d8bd 7513 a93b 0374 ac3d
00000040: 54d8 65bd 6048 27bd 5039 62bd 8031 dd3c
00000050: 2925 be3d 7abb 9ebd 4519 b3bd e135 debd
00000060: 0742 d43d b8fe 75bd 1c5d e3bd 81b2 ed3d
00000070: f38d 913c b325 aabb 5c28 40bd c232 d2bd
00000080: 4029 abbd f075 bf3d cd76 d03d 607c ddbd
00000090: 3250 663d 57dd d13c e727 0c3a ceeb 773d
000000a0: 5c85 f63d e572 c1bd 5509 c53d ade1 9a3d
000000b0: 581a 7d3d 758c b63b 2a94 8abd dddd dcbd
000000c0: 302e 21bd 25d2 3a3d 66b7 c13d 2936 ae3d
000000d0: 71a4 e43d b621 b2bc 5f7e ed3d 6acb 593d
000000e0: 0339 a2bd b912 cc3d bc17 d2bd 6a47 b8bc
000000f0: f8ac 953d c78f b53d a8f8 1f3b 9902 893a
00000100: 233a 5ebd 92ab f1bd 534b 293d 84f0 98bc
00000110: 177a e73d f12c 9cbc 5476 8fbd 875f d03d
00000120: b9d0 d13d c80d da3d be4c e63c 8e7b 5cbc
00000130: 1d16 22bd 3618 c33d 9e1d 503d 79d9 9cbb
00000140: 3076 eebd bed6 db3b 9eeb 373d 3c3a e3bd
00000150: 5427 663b fa01 1d3d 6e6c 8bbc 49e4 5dbd
00000160: 1119 98bd abdf dcbb 379b da3c 34cb 87bd
00000170: 795d e1bd 9b37 bc3d 5834 dfbd ed64 993d
00000180: 63f7 11bc 3608 cc3d 97f4 99bc c31c e63d
00000190: 909f dbbd 7f78 a9bd 499e f63d ff39 873d
000001a0: 4b03 b5bd 83c9 b6bd 10df 84bd b59d 3d3d
000001b0: c3ba 033c 8c47 6c3d 3d8c b1bd c6b5 9ebd
000001c0: 4b5d f03d b75d 0abd 6968 31bc 7ddd 9f3d
000001d0: e798 4f3b bba9 d83d 9268 b1bd 4bed 42bd
000001e0: df27 3ebb ea20 f6bd c5aa f2bd c615 2fbd
000001f0: 2553 7bbd 6e82 653d fcf7 993a 10d6 e33d
00000200: d589 80bd d412 353d 48e7 fb3c 12ea e9bd
00000210: 411b d93a 4d97 e83d df51 6cbc 985e 8dbd
00000220: f606 93bd 2a17 5bbd e02c e53d d053 4dbd
00000230: 57e6 123d 9ebc fcbc 2fc7 9abd 3863 19bd
00000240: b77c a43d d43f 983d a918 e73d 8978 c0bc
00000250: aa53 88bb 0b10 d2bd 0491 f33d dec4 a4bd
00000260: e87d b9bd ccdf ae3d 7210 68bd 119c aa3d
00000270: 8462 cd3d 780b 163d f64a 943d 6ea1 85bd
00000280: c30d 26bd 5deb f23d 7722 043d 19dd e9bd
00000290: 6302 f3bd d62a c1bd 06a5 c13d f5c2 2f3c
000002a0: cd53 d53d 849f 27bd a230 cd3d 91e0 683d
000002b0: acfd 7a3d 383a f1bd 6871 593d 93e3 3b3d
000002c0: a7fe bd3d 2110 b23c a028 723c 97d7 96bd
000002d0: 86a3 bebd 2a40 9ebd 2bdf d0bd d2f8 5ebd
000002e0: 0dcd 03bd 9ec1 2cbd ac19 48bc 56f2 d5bd
000002f0: 0d31 123d eee4 87bd 1dcd 4c3d 3f2f 2dbc
00000300: 4170 e5bc cc12 573d 40f6 d9bd d1ad e1bd
00000310: a968 1fbd deff 8bbd d5d0 dbbd 2465 e3bd
00000320: f6b2 643d 0bbe b23c 9a5c ebbd b634 303d
00000330: eee8 02bd 6e32 f2bd 8bdb 413c d55e d8bd
00000340: b0c8 aebd ada2 9c3d 227f d83c f5c0 b03d
00000350: ffab c0bb 7044 093d bd74 4c3d 757e eabd
00000360: 5107 fbbc c537 f03d 02b3 8f3a 2b9b c83d
00000370: e28f b0bd 146e d73c a3d8 f0bd 2d40 d33c
00000380: 67a6 093d e52c c5bd a441 de3d 471a a6bd
00000390: 9236 7b3d 1a17 e3bc 20d4 aabd cf88 b73d
000003a0: 8940 8fbb 289e 9dbb 4b3d 46bd 3465 92bd
000003b0: 6e14 2c3d 4d71 d63d 4908 d6bd 23b3 c8bd
000003c0: 5ea7 f53c 55f2 26bd 19f1 993d c046 c2bd
000003d0: f83d 62bc f1b8 253d 64d0 fd39 c2ab 00bc
000003e0: 85c9 873d 30d5 a3bd 46ee bebc 6d11 6c3d
000003f0: a16b 9e3d d1c3 90bd eaa2 e1bd c534 8f3d
-0.05526753 -0.028197762 0.09507423 -0.07004635 -0.006319212 0.014022374 -0.03749553 -0.057248898
0.09171827 0.06743917 -0.0785912 0.0072856136 0.008427632 -0.10580045 0.00515979 0.08420565
-0.05611451 -0.040840507 -0.05523044 0.027001143 0.092844315 -0.07750602 -0.08745054 -0.1085012
0.10364156 -0.06005737 -0.111017436 0.116063125 0.017767882 -0.0051924824 -0.04691349 -0.102635875
-0.08357477 0.09348667 0.101789095 -0.10814738 0.056228824 0.025618238 0.0005346522 0.060527615
0.12037155 -0.094457425 0.096209206 0.075625755 0.0617927 0.005570943 -0.06766541 -0.107845046
-0.03935069 0.045610566 0.094588086 0.08506424 0.11164177 -0.02174459 0.11596369 0.053172506
-0.0792103 0.099645086 -0.10258433 -0.02249499 0.07308382 0.08865314 0.0024409685 0.0010453045
-0.054254662 -0.118003026 0.0413316 -0.018669374 0.11302584 -0.019064398 -0.07004991 0.101744704
0.10244889 0.1064716 0.028112765 -0.013457192 -0.03957187 0.09526102 0.050809495 -0.004786667
-0.11643636 0.006708949 0.044902436 -0.11095092 0.0035118656 0.038331963 -0.017019477 -0.054172788
-0.07426656 -0.0067405305 0.02668534 -0.06630555 -0.110041566 0.091902934 -0.10898656 0.07489953
-0.008909079 0.099625036 -0.018793387 0.112359546 -0.107237935 -0.08274936 0.12041909 0.06602859
-0.08838519 -0.08925154 -0.06487858 0.04629298 0.008040133 0.05768542 -0.086693265 -0.07749514
0.11736544 -0.03378078 -0.010828116 0.078059174 0.003167683 0.105792485 -0.08662523 -0.04758958
-0.0029015464 -0.120179966 -0.11848978 -0.042745374 -0.06135859 0.05603259 0.0011746879 0.111248136
-0.062762894 0.04420741 0.030749932 -0.114215985 0.0016563908 0.11356983 -0.014423816 -0.06902808
-0.07179062 -0.053488888 0.111902 -0.050128758 0.0358642 -0.030851658 -0.075575225 -0.037448138
0.080316 0.07434049 0.112840004 -0.023494976 -0.004160364 -0.10256966 0.11892894 -0.08045362
-0.09057218 0.085387796 -0.05665631 0.083305486 0.10028556 0.03663203 0.0724086 -0.06524931
-0.040540468 0.11861298 0.03225943 -0.11419124 -0.118656896 -0.094319984 0.09455304 0.010727634
0.10416374 -0.04092361 0.100190416 0.05685479 0.061277077 -0.117786825 0.05308667 0.04587133
0.09277087 0.021736206 0.014780194 -0.07365339 -0.09308533 -0.07727082 -0.10198816 -0.054436512
-0.032177974 -0.042176835 -0.012213152 -0.104466125 0.03569131 -0.06635462 0.0500003 -0.010570346
-0.028007628 0.05250816 -0.106426716 -0.11019481 -0.03891817 -0.06835912 -0.10733191 -0.111032754
0.055834733 0.021819135 -0.11492272 0.04301902 -0.03196042 -0.11826025 0.011832128 -0.10564963
-0.08534372 0.076482154 0.02642781 0.08630554 -0.0058798785 0.033512533 0.049916018 -0.11449901
-0.030643137 0.11729387 0.0010963383 0.09795221 -0.086211935 0.026297607 -0.1176007 0.025787437
0.03360596 -0.096277036 0.10852364 -0.08110481 0.06133134 -0.027720977 -0.08341241 0.08961641
-0.004371707 -0.0048101135 -0.048398297 -0.07148209 0.04201167 0.10470829 -0.10450799 -0.097997926
0.029987033 -0.04075845 0.07516689 -0.09486151 -0.01380872 0.040459577 0.00048411184 -0.00785345
0.06630234 -0.07999647 -0.023306977 0.057633806 0.07735372 -0.07068599 -0.110174015 0.06992487

gru.bias_ih_l0 f4 [192]
00000000: 2f36 4fbe b12e 123e 8afe 1f3e f2bd af3d
00000010: dfbd 17be 0132 7e3e 5393 e13d abf1 42be
00000020: 7c67 003e 70be bdbd 95ee 8abd 2067 6c3e
00000030: 50f2 b83e 94af 493e 43e6 913e 1ab8 483e
00000040: 5969 523e a6bd f1bd baee dfbd f83e 98bc
00000050: ca62 473e 4abd 593e 8c1b 243d 4d78 28be
00000060: dea2 1ebe 941b 38be 37d0 7c3d 26f3 2b3e
00000070: 1b00 f9bd 73cc 8c3e 22bc 5c3e 90ce 9bbc
00000080: f8b0 99bd 1ded b63e ac25 113e 5e88 a9bd
00000090: b69d 813e 319b f7bd 6989 d8bd 2cb2 783e
000000a0: 7190 7abe deae 3cbe f36f cf3b 4366 97bb
000000b0: 6fcc 2b3e d9c3 8cbe fbef 0e3d e61a d7bd
000000c0: 3c9c 9bbd d80c c33d 9e25 c73d 30bf d23d
000000d0: 4626 a2be 7984 ad3c 0128 52be 0c19 253e
000000e0: 0183 423e ebf2 2a3d a8a9 c13d 950d 53bd
000000f0: cbbe 30bd b0fc 513e b6cd 8f3d 7a3a c73c
00000100: e3bf 6fbe 80fb 15bf 4911 9ebe 6857 87bd
00000110: 4491 85be e815 eebe 10a7 0ebe 1eef 893e
00000120: 2d80 91be d85a d0bd 77f2 0f3e 8049 243d
00000130: 1c80 6cbd 4763 dcbe 7392 a8be f289 69be
00000140: aa7c a03e f536 1ebe eda4 42be 64fa 3abe
00000150: f123 e7be 6b42 e1be 7b9a 9fbe 6c46 f2be
00000160: f349 b53d aedb b8be dc32 6abe e0c7 78be
00000170: 7253 6fbe 59d4 93be 7890 10bf 4f64 e93c
00000180: 28df 46bd 51d1 82be 86ea 0dbe e9b0 983d
00000190: 910b 87be 0112 debe 19fe 50be 5adf 05bf
000001a0: 3a27 d8be 0082 8cbd 1319 cd3d 1adf bd3c
000001b0: f426 bcbd c06a c7be 97eb 0cbd 9b0e cebe
000001c0: 2837 a5be 6f7d a6bc a6f3 96be 49f5 5dbe
000001d0: 3065 aebe ee17 80bd c547 06be 67ea 843e
000001e0: 9b0e 17be bb96 79be d8c8 443e 48c7 96be
000001f0: a609 77be c80e 46be 3232 31be dece febe
00000200: bad5 38bd 3750 5ebe 7095 003d 8fd6 1d3e
00000210: 85ef 92be c62f ab3e 8982 88bd 4e84 9ebe
00000220: ece3 bd39 a6ac 873c 2594 9dbe ee31 273e
00000230: 83b9 74be 1911 ecbe 4998 253e 4225 873e
00000240: 296c 48be e699 be3d 3863 0a3b d87f f1bd
00000250: 93e4 e7bd ddfa c4be a418 4d3a 8077 903e
00000260: 4486 87bb 3b42 823d 3223 1bbc fc99 0bbe
00000270: ba1a 26bd 4a6c 7abe df17 9fbe b901 e6bc
00000280: c66e 1cbd 4ce7 023e 03bd 07bd 6a16 71bd
00000290: 6ea3 453e 70f2 503c e4b3 a8bd 422d b33e
000002a0: a573 87be 899a 7c3e 0320 39bd 5e6a db3d
000002b0: b022 773d 6caf e3bd fc7a 44be d9dc 5abd
000002c0: 42a7 583e 46dd 013d 4f3c 463e 7ed0 1a3e
000002d0: 37e0 1cbe e82e 01be 94f4 06be 5f10 15ba
000002e0: 9ce5 ad3e abb2 f43b aeb4 813e 8151 65be
000002f0: 9dcb 22be acfe d43d b40e 34bd 7f63 08be
-0.20235513 0.14275624 0.15624443 0.08581151 -0.14818524 0.24823762 0.11014428 -0.19037502
0.12539476 -0.09264839 -0.06783787 0.23086214 0.3612237 0.19695884 0.28495988 0.19601479
0.20548 -0.11803751 -0.10934205 -0.018584713 0.19471279 0.21263614 0.040065333 -0.16452141
-0.15491816 -0.1797927 0.061722007 0.16791973 -0.12158223 0.27499732 0.21556142 -0.019019395
-0.07504457 0.35727778 0.14174527 -0.08277963 0.25315636 -0.12090147 -0.10573084 0.24286717
-0.24469163 -0.18426082 0.006330484 -0.004620345 0.16777204 -0.2749317 0.034896832 -0.10503177
-0.07598159 0.09523934 0.09723972 0.10290372 -0.31669825 0.021181332 -0.20523073 0.16122836
0.18995287 0.04173557 0.094561875 -0.051526625 -0.043150704 0.20506549 0.07021658 0.024319876
-0.23413043 -0.58586884 -0.30872563 -0.06608468 -0.2608739 -0.46501088 -0.13930917 0.26940244
-0.28418103 -0.10173577 0.14057337 0.040109158 -0.057739362 -0.43044493 -0.32924232 -0.22806528
0.3134511 -0.15450652 -0.19008227 -0.18259579 -0.4514461 -0.43995985 -0.31172547 -0.47319353
0.08851995 -0.36105102 -0.22870964 -0.24294996 -0.23371676 -0.28872946 -0.5647044 0.028490214
-0.048552662 -0.2555032 -0.13858995 0.07455618 -0.26376012 -0.4337311 -0.2040943 -0.5229393
-0.42217427 -0.06860733 0.10014548 0.023177672 -0.09187117 -0.3894863 -0.034404363 -0.40245518
-0.32268643 -0.020323483 -0.29482764 -0.216756 -0.34061575 -0.06254564 -0.13113315 0.25960085
-0.14751665 -0.24373905 0.19217241 -0.29448915 -0.24124774 -0.19341576 -0.17304304 -0.49767202
-0.0451257 -0.21710287 0.031392515 0.15413879 -0.28698364 0.33434886 -0.066655226 -0.30960315
0.00036218704 0.016561817 -0.30777088 0.1632764 -0.23898892 -0.46106794 0.16171373 0.26395613
-0.1957251 0.093066975 0.0021116268 -0.117919624 -0.11322894 -0.38472643 0.0007823801 0.2821617
-0.0041358788 0.06360289 -0.00946884 -0.13632959 -0.040552832 -0.24455371 -0.310729 -0.028076993
-0.03819158 0.12783545 -0.03313924 -0.058859266 0.19300625 0.012753114 -0.082374364 0.34995466
-0.26455417 0.24668325 -0.045196544 0.10713647 0.060335815 -0.111174434 -0.1918754 -0.053433273
0.21157554 0.031705163 0.19358943 0.15118596 -0.15319906 -0.1261555 -0.13179237 -0.00056863384
0.3396424 0.007467588 0.2533316 -0.22394373 -0.15897985 0.10400137 -0.043959334 -0.13319205

gru.bias_hh_l0 f4 [192]
00000000: e207 39bd cd83 653e cd33 8e3d 2c5f bc3b
00000010: 813a 81be 8407 c43e 5747 143e 148a 5bbe
00000020: 43cd 953d 785a dd3d fada be3c 5480 a23e
00000030: fa6a 373e 7dd5 283e adb0 993d e88a 353e
00000040: ec9a 203e 6299 1bbd f1e9 06be 69a4 b43d
00000050: db36 393e d3f7 e43d 771f af3d 3a90 c5bd
00000060: 1f1e b33c 3013 00be d0a1 31bd 0a83 213e
00000070: 17d2 0cbe cf74 b33e 3f4a 6a3e 4f58 41bd
00000080: a17e 9dbc f906 8c3e c440 c13d a72a 353d
00000090: 0de2 423d 9e80 6cbe 8bdd 9d3c 6edb a33e
000000a0: 8474 24be daa1 febd 7421 91bc 1f7c 9abd
000000b0: 62f6 593e 90c8 57be d782 923c 1bdb 45be
000000c0: a588 d43c 3786 9fbc 5b2b 493e 969d 383e
000000d0: effb cbbd 0d93 0d3e ce73 b1bc adb5 25bc
000000e0: ff4d 8b3e 3798 02bd 87b5 5b3e 4f80 893d
000000f0: 60dd 19be 4832 083e 04be 233e 26b8 543e
00000100: 6a26 30bd 30f1 07bf 4ae2 84be effd bbbd
00000110: dfaa 04be 63c9 c6be fbaa 72be a238 073e
00000120: 9c9e aebe 7ebc e7bd 04dd 103e a60b ddbd
00000130: 3e32 32be be79 b5be d0cb cabe c538 99be
00000140: e375 953e 97a3 c1be c46d b5be 333b 80be
00000150: 2cb4 cebe ac2f 01bf 0744 9fbe ec4b b7be
00000160: a5a2 e0bd 7af3 1bbe 60fc aebe 5135 bcbd
00000170: abd2 63be 158e d6be 09df 35bf 9cba 2e3d
00000180: 1282 80be 55d3 abbe 7aa3 5cbe 758b d5bd
00000190: 8b16 61be d5ba 89be 01c8 92be afc5 0cbf
000001a0: bab2 c4be fe41 41be d8d2 62bd fffd 05be
000001b0: 2b0c 08be 6f6a dbbe 6de6 68be 17d7 08bf
000001c0: 0c2b 96be 5395 a33d e7fe b5be 907b 41be
000001d0: 4b30 acbe 9d74 b93b 40fd 3a3d 881c 0d3e
000001e0: a803 92be 2d61 8fbe 4115 4b3e b344 81be
000001f0: 743d c0be 6e61 5ebe 9818 2cbe c0ab ecbe
00000200: acf0 c8bd 7b44 05bf 2b38 a53e 285c 9f3d
00000210: a029 993e 889d 123f a8f3 a2be 6adb 1d3e
00000220: 54df 97be 13df 3ebe f434 67bd 0241 1b3f
00000230: 94da edbe 5655 97be f9cf ff3e f3c4 dd3e
00000240: 630b b9be 01cc a8bd bdec 67be 9106 a3be
00000250: b5b7 0bbf 2a2a acbe 6876 a9be b4e5 28bd
00000260: 7c1a 53ba 63e7 f43d abfd 2bbe db4f b2be
00000270: 4df4 a1bc 1827 17bf 1742 10bf ef46 3b3e
00000280: 1a40 44be 0312 ce3e 3c7a 5cbe 3f05 c33d
00000290: affe 5f3e 003b b2bd c1ed 7cbe 8738 ff3e
000002a0: 4299 ff3d 2f03 03be e896 963c 9f12 503e
000002b0: bdbd 853e 3a4d 623e 6c64 b0be 3ab1 983e
000002c0: 2595 3b3d 63d9 8dbe ed2b ad3e 8bee f33d
000002d0: c020 e63d c441 59be ae6b 493d b591 0a3e
000002e0: 5800 eb3e 873a f13d f2c8 2d3e 0938 60be
000002f0: 8ada 733d 97b6 083f 5331 493e 6304 babe
-0.045173533 0.2241356 0.06943474 0.00574865 -0.25239947 0.38286984 0.14480339 -0.21439391
0.07314541 0.10808271 0.023297776 0.31738532 0.17911902 0.1648769 0.07504401 0.1772877
0.15684098 -0.037988074 -0.13175179 0.08820421 0.18087332 0.11180081 0.08550923 -0.0964665
0.021864949 -0.1250732 -0.043367207 0.15772644 -0.13752018 0.35050055 0.22879885 -0.04720336
-0.01922542 0.2734907 0.09436181 0.04423013 0.04757886 -0.23095939 0.019270679 0.3200335
-0.16060072 -0.124332145 -0.017716147 -0.075432055 0.21285394 -0.21072602 0.017884655 -0.19321863
0.025944063 -0.019473178 0.19645445 0.18028864 -0.09960162 0.13825627 -0.021661665 -0.010114116
0.27207944 -0.031883445 0.21455966 0.06713926 -0.15025854 0.13300431 0.15990454 0.20773372
-0.043005385 -0.531024 -0.25953895 -0.09179293 -0.12955807 -0.3882552 -0.23698036 0.13205197
-0.34105384 -0.11315249 0.14146811 -0.107932374 -0.17401978 -0.35444444 -0.39608622 -0.29926124
0.29191503 -0.37820122 -0.35435307 -0.25045165 -0.40371835 -0.50463367 -0.31106588 -0.3580011
-0.10968522 -0.15229598 -0.34176922 -0.09189857 -0.22248332 -0.41905275 -0.7104345 0.042658433
-0.25099236 -0.3355967 -0.21546736 -0.1042699 -0.21981256 -0.26900354 -0.28668216 -0.5498914
-0.38417608 -0.1887283 -0.055376858 -0.13085173 -0.13285892 -0.4285464 -0.2274415 -0.534532
-0.29329717 0.07987466 -0.35546038 -0.18894792 -0.33630595 0.0056596533 0.045651674 0.13780415
-0.28518414 -0.28003827 0.19832326 -0.25247726 -0.37546885 -0.21716854 -0.16806257 -0.46224785
-0.098115295 -0.5205762 0.32269415 0.07781249 0.2991457 0.57271624 -0.3182652 0.15415731
-0.29662573 -0.18639784 -0.056446984 0.6064607 -0.46455824 -0.29557294 0.49963358 0.43314323
-0.361415 -0.08242036 -0.22648902 -0.31840947 -0.5457719 -0.3362592 -0.3309815 -0.041234687
-0.0008052958 0.11958196 -0.16795985 -0.3482655 -0.019769812 -0.5904403 -0.56350845 0.18288778
-0.19165078 0.40248117 -0.21531004 0.09522485 0.21874498 -0.087026596 -0.24700071 0.49847814
0.124804035 -0.12794183 0.018382505 0.20319603 0.2612132 0.22099772 -0.34451616 0.29822713
0.045796532 -0.27704915 0.33822575 0.11910733 0.11236715 -0.21216494 0.049174957 0.13532145
0.458987 0.11778741 0.16971186 -0.21896376 0.059534587 0.5340361 0.19647722 -0.36331472

fc.weight f4 [3, 64]
00000000: 7ff0 eebe dec3 1cbf 0703 23bf e503 06be
00000010: 7bca 2b3f 989e 8f3c e7af 9bbd 9834 72bf
00000020: b18e 27be d452 323f 42fc 003f 36c9 43bf
00000030: 8d50 de3e 1996 153d 810e c93e 7824 653e
00000040: c990 32bf e8b2 38bf a9b7 f53e 1309 d33d
00000050: d8fd 31bf cece 53be 5141 2ebf 2e85 b5bd
00000060: fb85 75be 7664 2e3f bfb1 f7be 654e a4be
00000070: 0807 123f 3b56 29be e442 a03c d2ee 11bf
00000080: 1f77 d93e 0441 663e ba00 b4be b591 f63e
00000090: 688b d43e 5529 4abf 9ad4 fbbe 99ec f23d
000000a0: 399d 693f c1c9 bcbe be63 0d3f fde3 fb3e
000000b0: 22da eabe 036c 483f 4aa4 afbe be18 2c3f
000000c0: b528 af3c 77af 303f d483 183f 79e3 8b3e
000000d0: 12c7 15bf 5108 013f f942 8abe 8c57 84be
000000e0: 013b a43e 5410 0c3f ec58 ebbe ccf5 cfbe
000000f0: bc14 07bf 4575 3f3f a1d2 273f 3813 f4be
00000100: c0e3 113f a38b 7d3d 1aef b83e 3350 cf3e
00000110: 1dc4 14bf 0ee6 893e 5bcc 9ebe 9519 1c3f
00000120: eba8 37be d05b 4cbe 1de3 72be 3526 2a3f
00000130: eb55 2fbf fbf2 06bf f44f 843e 2777 e53e
00000140: 1e9e c03e 8713 b23e ee70 02bf 8899 d0be
00000150: 2eca 5bbc f499 52be d4ad 553c 83ec c13e
00000160: 2d6f 8c3e 62c8 76be 05e9 903e 9412 56be
00000170: 01a6 cebe ee5b ffbe f0fc e1be a9fb 033f
00000180: 2136 b4bd 6f53 9b3e d5de 7a3e 61fc d2be
00000190: 060d 823c 4532 a73e 236a c03d e2b3 f23e
000001a0: 4734 b2be 70dc 7b3e 0515 fdbe 2aa8 6abd
000001b0: badf 043e 0fd3 54be 281c b1bd 42bf 92be
000001c0: 0c4e 543e d4ba 04bf 6fe7 95be d428 f6bc
000001d0: 6bf0 a13e 8710 43bf e320 de3e cee1 bd3e
000001e0: df0d a03e 09f8 c0be 8330 db3e 3dd0 c5be
000001f0: 203d cb3d a466 c1be 3a9b 1ebf 6f87 30bd
00000200: af49 10be db08 203f e11b d23e 3a5e 4fbe
00000210: 8edf d3bc a785 82bf 7c52 403f 020e d53e
00000220: 4aa1 3e3f a067 9bbe 7f8d 41bf d0aa 903d
00000230: 792b 033d e030 353f d6d6 3abf 2cdc 37bf
00000240: 3c69 cd3e 7387 a83e 21e6 843e a572 663e
00000250: e8f5 2e3f 3f49 ca3e 69b5 0b3f cd1a 0fbf
00000260: 1aa1 073e 75c5 4bbe 3f75 bf3e 63b4 533f
00000270: 76c4 f2be 9d7c 0d3f a769 253f 5a31 3abc
00000280: 5591 07bf e765 38bf 2ad3 903e 8fdf 30bd
00000290: 3b9b 1cbf efb2 0d3f cdba 283f 10a3 19bf
000002a0: 5e00 1ebf 5aed bb3e 2e89 a43c 72e4 ffbe
000002b0: eea3 9c3e be48 f9be 63ca 1d3f f7f5 27bf
000002c0: 13b8 39bf e0b1 19be 13ed 1ebf dcdc eabe
000002d0: ac1d 173f 77ca 423e 4a33 153d 2e3f ccbc
000002e0: 2844 27bf 1ee2 67be ec39 94bd 1df4 293f
000002f0: 59db 923e 1041 3bbf 87ea 773e 1988 5b3f
-0.4666786 -0.6123637 -0.63676494 -0.13087423 0.67105836 0.017531678 -0.0760191 -0.946115
-0.16363026 0.69657636 0.50384915 -0.764789 0.4342083 0.036520097 0.39268878 0.22377193
-0.69752175 -0.7214799 0.47991684 0.10304465 -0.6952796 -0.20684358 -0.68068415 -0.08863293
-0.2397689 0.6812204 -0.48377797 -0.3209106 0.5704198 -0.165368 0.019563146 -0.57005036
0.42473695 0.22485739 -0.35156804 0.4815804 0.4151261 -0.7896932 -0.4918564 0.11861534
0.9125553 -0.36872676 0.5523032 0.4919738 -0.45869547 0.7828981 -0.3430503 0.67225254
0.021381715 0.6901774 0.59576154 0.27321985 -0.5850688 0.50403315 -0.2700422 -0.25848043
0.32076266 0.54712415 -0.4596628 -0.40617216 -0.52766013 0.74788314 0.6555577 -0.47670913
0.56988144 0.061900746 0.3611992 0.40490875 -0.58111745 0.2693333 -0.31015286 0.60976535
-0.17935531 -0.19956899 -0.2371945 0.6646455 -0.68490475 -0.5271451 0.2584225 0.4481747
0.37620634 0.34780523 -0.5095357 -0.40742135 -0.013414903 -0.20566541 0.013041932 0.37875757
0.2742857 -0.24099877 0.2830278 -0.20905524 -0.40361026 -0.49874824 -0.44138288 0.5155588
-0.08799387 0.30337092 0.24499066 -0.41208175 0.01587535 0.3265554 0.09395244 0.47402865
-0.3480551 0.24595809 -0.494301 -0.05728928 0.1297597 -0.20783637 -0.086479485 -0.28661543
0.20732898 -0.5184758 -0.29278132 -0.030048765 0.31628737 -0.76197094 0.43384466 0.37086338
0.31260583 -0.37689236 0.4281045 -0.38635436 0.09923768 -0.3777362 -0.61955607 -0.04309791
-0.14090608 0.6251351 0.41036895 -0.20250788 -0.025863435 -1.0197037 0.7512586 0.4161225
0.7446486 -0.30352497 -0.7560653 0.0706383 0.03202388 0.707777 -0.72984064 -0.7182033
0.4011935 0.3291584 0.25956824 0.22504671 0.68343973 0.39509007 0.54573685 -0.5590027
0.13245049 -0.19899543 0.3739414 0.82697123 -0.47415513 0.5526827 0.6461434 -0.011364305
-0.52956134 -0.7203049 0.28286105 -0.043181952 -0.6117436 0.55351156 0.65910035 -0.6001444
-0.6171931 0.36704522 0.020084944 -0.49978977 0.30593818 -0.4868831 0.6163694 -0.6560969
-0.725465 -0.1500926 -0.62080497 -0.45871627 0.5902965 0.19022547 0.036425866 -0.02493247
-0.65338373 -0.2264485 -0.0723761 0.6638811 0.28682974 -0.7314615 0.24210559 0.85754544

fc.bias f4 [3]
00000000: 2ce8 123d 6883 de3d 76fd adbe
0.035865948 0.108649075 -0.33982438
