Demo/results/models/肌肉疲劳分类标签_linear_lstm.pth (torch, 81928 bytes, 6 tensors)

lstm.weight_ih_l0 f4 [256, 11]
-0.022598619 0.03051004 0.41654202 -0.60306436 -0.19444878 0.12173832 -0.014481806 -0.1188919
0.23121567 -0.34231085 -0.62823826 0.22709438 0.29601058 -0.3625169 0.6496807 -0.40656576
-0.05020804 -0.27692053 0.111164644 0.18490069 -0.019834032 -0.38208497 0.17835955 0.17766911
-0.56163335 0.25778764 0.20838758 -0.24617599 0.17921734 0.0056675076 -0.52035457 -0.12970293
0.32158053 0.49166647 0.15558869 0.40969482 0.2580801 -0.2920984 0.61568475 -0.39964134
0.34350553 -0.010286888 -0.50600994 -0.8093449 -0.12423623 -0.4785424 -0.027007626 0.11527183
-0.6922495 0.16699412 -0.34992382 -0.11278498 -0.004573796 -0.32968083 0.008548513 -0.81199056
0.13987985 0.35179412 -0.3193897 -0.51644284 -0.3087102 0.6219252 -0.11945505 -0.20341064
-0.26914293 -0.7023322 -0.072568126 -0.5842094 0.16890104 -0.102058746 -0.021466127 -0.048518203
-0.42668223 0.012904898 0.13381667 0.3096037 0.6361978 0.30897132 -0.33602864 0.25620288
-0.93082947 0.12332625 0.5427559 -0.43701956 -0.116441235 0.7650565 -0.014664117 0.21470325
0.36037302 0.26394826 -0.26469514 -0.06471644 -0.1268875 -0.37614685 0.15832222 -0.24779491
-0.33038715 -0.6437054 -0.40066555 -0.1448235 -0.12157502 -0.2460314 -0.24039587 0.058108296
-0.7030871 0.6648155 -0.35012347 -0.46765682 0.20397134 0.08664253 -0.061742242 0.24434204
0.26450032 -0.44597998 0.13487925 -0.15649913 0.1530135 -0.025637869 0.50795996 0.20010054
-0.5843649 0.4221277 0.21185474 -0.6365068 0.36786196 -0.07286597 -0.2398118 0.29705778
0.14351729 -0.19002545 -0.31802368 0.28315815 0.33015332 0.041375663 -0.26513386 0.5108432
0.42102525 -0.30899486 -0.12094185 -0.115223736 -0.23015504 0.6401776 0.58001804 -0.55519664
-0.371219 -0.44225234 -0.08092779 0.04657624 0.137678 -0.47741506 -0.11670696 -0.21302824
0.3937693 0.44351426 0.5763701 -0.09132973 -0.20527937 -0.41143712 0.19256559 0.055108417
0.05797834 -0.25071567 0.15094073 -0.14140816 0.4122956 0.33186248 0.15096794 -0.36026183
0.56624097 0.21259256 -0.2946013 -0.08510542 -0.03350236 -0.3296086 0.06805754 0.44275892
0.27215225 0.39830387 0.45613286 0.116046734 -0.26490396 -0.38108727 0.3577175 -0.6529798
-0.5055773 0.9675347 0.71295065 0.013234774 0.47690958 -0.46797982 0.51305366 0.5457379
-0.44837204 -0.17952655 -0.2806611 0.6084463 0.19508108 0.30655634 0.5702694 -0.55029804
-0.21753411 -0.27957374 -1.1084536 0.014099557 -0.40156353 0.03981023 -0.5218327 -0.651753
-0.24802992 0.47320578 0.37049347 -0.4519755 0.33665675 0.1962881 -0.4038192 -0.13629046
-0.057155795 -0.27389893 0.21787053 0.37086317 0.371005 -0.2655698 -0.52177536 0.29956964
-0.020273885 -0.018096084 -0.49639925 -0.017685799 -0.462842 0.24712425 0.3433698 0.11308016
0.24155809 0.47653428 -0.73744184 -0.25696304 0.01686788 0.17316054 -0.17140545 0.09015989
-0.15602213 -0.6593531 -0.71660966 -0.34694082 0.51218337 0.3548883 -0.22838397 0.13248141
0.45443675 0.5407859 0.27970994 0.29802743 0.4539823 0.14998938 0.11608594 -0.1880606
00000000: bd20 b9bc 31f0 f93c ff44 d53e 6d62 1abf
00000010: 951d 47be f151 f93d 1945 6dbc 997d f3bd
00000020: cdc3 6c3e 5e43 afbe 39d4 20bf 6e8b 683e
00000030: b38e 973e d19b b9be 7951 263f 6329 d0be
00000040: f2a6 4dbd 87c8 8dbe 4aaa e33d 9b56 3d3e
00000050: fb7a a2bc a4a0 c3be e3a3 363e e4ee 353e
00000060: 34c7 0fbf befc 833e 8e63 553e 8f15 7cbe
00000070: c084 373e 80b6 b93b f535 05bf d8d0 04be
00000080: 34a6 a43e b5bb fb3e a452 1f3e 85c3 d13e
00000090: 1323 843e ec8d 95be 849d 1d3f ca9d ccbe
000000a0: f5df af3e 568a 28bc de89 01bf 3a31 4fbf
000000b0: 916f febd 8203 f5be 193f ddbc a313 ec3d
000000c0: 4337 31bf 8200 2b3e 3729 b3be d0fb e6bd
000000d0: c8df 95bb edcb a8be 100f 0c3c 9dde 4fbf
000000e0: aa3c 0f3e 5c1e b43e 0c87 a3be 9935 04bf
000000f0: 430f 9ebe 7d36 1f3f d9a4 f4bd e14a 50be
00000100: 1acd 89be 0bcc 33bf 999e 94bd bf8e 15bf
00000110: 65f4 2c3e 2d04 d1bd bbd9 afbc 06bb 46bd
00000120: 1876 dabe 116f 533c 3d07 093e 6084 9e3e
00000130: dcdd 223f 7d31 9e3e f20b acbe 062d 833e
00000140: d74a 6ebf 7992 fc3d 0df2 0a3f 07c1 dfbe
00000150: be78 eebd beda 433f c441 70bc 2bdb 5b3e
00000160: d082 b83e 3a24 873e 1f86 87be 0e8a 84bd
00000170: ccee 01be 5296 c0be 381f 223e f3bd 7dbe
00000180: 8128 a9be e1c9 24bf 0924 cdbe 9d4c 14be
00000190: 53fc f8bd a8ef 7bbe 562a 76be f702 6e3d
000001a0: 84fd 33bf 5931 2a3f 6243 b3be b770 efbe
000001b0: dddd 503e a471 b13d 6fe5 7cbd cd34 7a3e
000001c0: 966c 873e 7d57 e4be c91d 0a3e 4f41 20be
000001d0: 92af 1c3e 8206 d2bc aa09 023f 28e7 4c3e
000001e0: f098 15bf 1f21 d83e 73f0 583e 1cf2 22bf
000001f0: 6758 bc3e c13a 95bd 3991 75be f517 983e
00000200: 32f6 123e 0896 42be 00d4 a2be 1bfa 903e
00000210: db09 a93e 8779 293d a0bf 87be 9fc6 023f
00000220: 9f90 d73e 9334 9ebe 5cb0 f7bd 6cfa ebbd
00000230: c3ad 6bbe aee2 233f 107c 143f 5e21 0ebf
00000240: 6b10 bebe e66e e2be 78bd a5bd bac6 3e3d
00000250: 76fb 0c3e bf6f f4be 0f04 efbd 1324 5abe
00000260: 219c c93e 4d14 e33e fe8c 133f 150b bbbd
00000270: c134 52be e3a7 d2be ea2f 453e 5db9 613d
00000280: b27a 6d3d ce5d 80be 3590 1a3e 4dcd 10be
00000290: 6918 d33e e1e9 a93e 5797 1a3e 3d74 b8be
000002a0: 2bf5 103f ddb1 593e fbd5 96be c04b aebd
000002b0: c539 09bd 75c2 a8be c061 8b3d 4cb1 e23e
000002c0: 8a57 8b3e 7cee cb3e 3f8a e93e e9a9 ed3d
000002d0: 7ea1 87be df1d c3be c026 b73e af29 27bf
000002e0: 846d 01bf 5bb0 773f ef83 363f aad6 583c
000002f0: 7e2d f43e 0d9b efbe 7c57 033f 7bb5 0b3f
00000300: 0591 e5be cfd5 37be d0b2 8fbe 23c3 1b3f
00000310: 56c3 473e f4f4 9c3e 2dfd 113f 55e0 0cbf
00000320: 43c1 5ebe 4a24 8fbe cfe1 8dbf d401 673c
00000330: bc99 cdbe 0d10 233d d496 05bf 49d9 26bf
00000340: 8efb 7dbe 0748 f23e 52b1 bd3e 5569 e7be
00000350: 465e ac3e bfff 483e 64c1 cebe ba8f 0bbe
00000360: 321c 6abd 7b3c 8cbe 7419 5f3e c7e1 bd3e
00000370: 5ef4 bd3e c4f8 87be 1293 05bf 3161 993e
00000380: 6b15 a6bc 3d3e 94bc 0b28 febe cfe1 90bc
00000390: a0f9 ecbe 240e 7d3e 2bce af3e 9296 e73d
000003a0: 015b 773e 4dfc f33e fdc8 3cbf a990 83be
000003b0: 822e 8a3c ff50 313e e984 2fbe c0a5 b83d
000003c0: 44c4 1fbe 5dcb 28bf bb73 37bf 3aa2 b1be
000003d0: 731e 033f ebb3 b53e 7ddd 69be 35a9 073e
000003e0: efab e83e f270 0a3f 2436 8f3e 0d97 983e
000003f0: 5e70 e83e d196 193e 77be ed3d f592 40be

lstm.weight_hh_l0 f4 [256, 64]
-0.0051992433 0.071429886 0.04630919 0.02107835 -0.023695322 -0.0006514056 0.04369697 0.015798366
0.013832346 -0.047229066 0.07256002 0.017816447 0.025900261 -0.11058206 -0.032591194 -0.08340594
-0.010143673 -0.10540922 -0.1125932 -0.043987695 0.06589327 -0.0911079 -0.013435011 0.11673427
0.08159461 -0.060074545 -0.10816181 0.09852976 0.11294216 -0.06385881 -0.028168166 0.06796126
0.04129022 0.096254356 -0.05754341 -0.057068378 -0.07447564 0.09667165 -0.05652618 -0.009035829
0.058164176 0.10424776 0.113174796 0.11112473 -0.0025670263 -0.03975596 -0.11655758 0.023261096
0.049423043 -0.0811182 -0.103550486 -0.08775139 0.0700544 -0.004806739 -0.0833762 0.082944654
-0.06648232 -0.07271786 -0.08845922 0.05168045 -0.085321024 -0.04534345 0.09659552 -0.070684925
0.05377301 -0.048134007 0.055547755 -0.020688144 0.020439634 0.002958049 0.03654152 -0.08767744
0.009731278 -0.09654621 0.08063459 -0.06938474 -0.041018214 -0.07417102 0.016769871 0.07032065
0.02458533 0.034881238 -0.006720506 0.061805815 0.0679854 0.10976062 0.11804753 0.120478764
-0.07574666 -0.02704676 -0.017823007 -0.017109828 0.02045685 0.1018516 0.04885569 -0.006791864
-0.05851123 0.06626485 0.04332653 -0.04751761 -0.049828425 0.053950287 0.11583023 0.08432257
0.016676866 -0.10894351 0.112399496 0.0023658155 0.057676025 -0.038351223 0.026840147 -0.032019842
-0.035359584 0.0077074254 0.11821869 -0.067345165 -0.020464785 0.04011521 -0.06947878 -0.0964418
-0.005039267 -0.036526076 -0.07443471 -0.11854846 0.09769953 0.0038088732 0.0796577 0.011897178
0.0025040328 -0.07578145 -0.0842692 -0.055635028 0.114842296 0.010388547 -0.08001451 0.07108366
-0.06636769 0.004447503 -0.040202264 0.030397378 0.11316855 0.10746301 -0.07894718 -0.021065732
-0.006272228 -0.019731853 -0.053729944 0.058358908 -0.054697607 -0.02253044 -0.02988669 0.034996442
0.078199334 0.021857074 0.093110986 0.11821644 -0.07390644 0.0029215843 -0.016383113 0.00040137087
-0.053038873 -0.057442784 0.0921803 -0.0058822506 0.0019523904 0.036243934 -0.05123474 0.114576064
0.0015174291 -0.08710218 0.07632822 -0.023194373 -0.00952332 0.033429924 0.010839474 -0.08277823
-0.011974971 -0.026265275 0.10233502 0.062716916 -0.015785933 -0.11688902 -0.11238929 -0.09226033
-0.015863054 0.06545387 -0.09344591 0.07874115 0.04839669 0.0730808 0.06937716 0.09503579
-0.035942655 -0.12102744 0.10718931 -0.018544108 -0.032196242 0.06117792 -0.09055348 -0.088380545
0.037851613 0.12109525 -0.08738971 -0.11331534 -0.018269805 0.1146287 0.07860826 0.043797765
0.0010451685 0.11989297 -0.047836117 0.030560361 0.03850281 -0.09856055 -0.11660043 -0.09089782
-0.036225896 -0.11755625 -0.056431502 -0.0058581172 0.074249715 -0.056224965 -0.048122186 0.09348509
-0.017787822 0.09211738 0.058174696 0.018655203 -0.05729645 -0.079233944 0.08476569 -0.09825701
0.009300076 0.003070713 -0.09245051 -0.11797056 0.023823097 0.044869315 -0.068588965 0.08665562
-0.06545138 0.11553201 -0.033198398 -0.023853442 0.040554505 -0.09783837 0.049360562 0.017388891
-0.096844286 0.08847023 -0.07306296 0.07720194 -0.08691054 0.051664952 0.0970375 0.054545294
00000000: 6a5e aabb d549 923d b5ae 3d3d 81ac ac3c
00000010: b11c c2bc 17c3 2aba 98fb 323d 936b 813c
00000020: 10a1 623c 4473 41bd 599a 943d ccf3 913c
00000030: c92c d43c d978 e2bd 587e 05bd bcd0 aabd
00000040: a631 26bc cae0 d7bd 4397 e6bd 712c 34bd
00000050: 0df3 863d c796 babd 851e 5cbc 6012 ef3d
00000060: 131b a73d ba10 76bd f083 ddbd f9c9 c93d
00000070: 384e e73d 68c8 82bd edc0 e6bc 462f 8b3d
00000080: ef1f 293d 0121 c53d a4b2 6bbd 88c0 69bd
00000090: af86 98bd c9fb c53d ff87 67bd 040b 14bc
000000a0: 8f3d 6e3d d97f d53d 30c8 e73d 5d95 e33d
000000b0: 8e3b 28bb 25d7 22bd beb5 eebd 0e8e be3c
000000c0: d16f 4a3d 4d21 a6bd 4712 d4bd 00b7 b3bd
000000d0: ae78 8f3d d981 9dbb 24c1 aabd e3de a93d
000000e0: e227 88bd 1aed 94bd 1c2a b5bd e1ae 533d
000000f0: cabc aebd 0eba 39bd dfd3 c53d 42c3 90bd
00000100: 1641 5c3d 2a28 45bd 0b86 633d 2f7a a9bc
00000110: 0571 a73c d4db 413b 90ac 153d 3b90 b3bd
00000120: f06f 1f3c 05ba c5bd bf23 a53d 9619 8ebd
00000130: b702 28bd fae6 97bd f860 893c 4604 903d
00000140: 2d67 c93c a1df 0e3d b137 dcbb 1828 7d3d
00000150: ee3b 8b3d 2dca e03d e7c2 f13d 92bd f63d
00000160: 1121 9bbd 2b91 ddbc 8e01 92bc e929 8cbc
00000170: 2095 a73c 9297 d03d e71c 483d 498e debb
00000180: 79a9 6fbd deb5 873d 2977 313d d3a1 42bd
00000190: e418 4cbd fafa 5c3d 6638 ed3d 50b1 ac3d
000001a0: ec9d 883c c61d dfbd b531 e63d cc0b 1b3b
000001b0: b23d 6c3d 2c16 1dbd dedf db3c 3d27 03bd
000001c0: 36d5 10bd 928e fc3b a41c f23d 43ec 89bd
000001d0: c4a5 a7bc d94f 243d e44a 8ebd 4783 c5bd
000001e0: 6f20 a5bb 5e9c 15bd 3a71 98bd 89c9 f2bd
000001f0: b116 c83d 4a9e 793b 9423 a33d 62ec 423c
00000200: b31a 243b 4e33 9bbd 5595 acbd 8ee1 63bd
00000210: 7032 eb3d b934 2a3c a6de a3bd 4f94 913d
00000220: c9eb 87bd 5cbc 913b 21ab 24bd ec03 f93c
00000230: eac4 e73d 9115 dc3d 0faf a1bd 0b92 acbc
00000240: 4387 cdbb b2a4 a1bc ee13 5cbd c009 6f3d
00000250: 990a 60bd c291 b8bc efd4 f4bc 6e58 0f3d
00000260: f926 a03d 9b0d b33c f9b0 be3d 761b f23d
00000270: 425c 97bd 0d78 3f3b e135 86bc 166f d239
00000280: 4a3f 59bd 2049 6bbd 06c9 bc3d e5bf c0bb
00000290: 5ae7 ff3a 8574 143d 85db 51bd dba6 ea3d
000002a0: 79e4 c63a a162 b2bd f851 9c3d 2002 bebc
000002b0: b307 1cbc d1ed 083d 0d98 313c a287 a9bd
000002c0: ab32 44bc 462a d7bc 0695 d13d ba71 803d
000002d0: 8051 81bc 8363 efbd 5b2c e6bd fcf2 bcbd
000002e0: 3cf3 81bc ae0c 863d 9260 bfbd 0a43 a13d
000002f0: 9c3b 463d 63ab 953d 9d15 8e3d 20a2 c23d
00000300: 9b38 13bd 3cdd f7bd 1286 db3d d0e9 97bc
00000310: 35e0 03bd b395 7a3d 1a74 b9bd dc00 b5bd
00000320: 4b0a 1b3d c900 f83d 60f9 b2bd df11 e8bd
00000330: 8faa 95bc 74c2 ea3d 5efd a03d 4965 333d
00000340: 09fe 883a 728a f53d ceef 43bd b959 fa3c
00000350: 1fb5 1d3d 1dda c9bd 35cc eebd a328 babd
00000360: 9b61 14bd 55c1 f0bd b824 67bd 73f5 bfbb
00000370: 3c10 983d 264c 66bd c51b 45bd 1c75 bf3d
00000380: c4b7 91bc 09a8 bc3d 9748 6e3d ccd2 983c
00000390: afaf 6abd 6845 a2bd a299 ad3d f93a c9bd
000003a0: 595f 183c 043e 493b b156 bdbd 8d9a f1bd
000003b0: a828 c33c e3c8 373d 5f78 8cbd 8078 b13d
000003c0: 600b 86bd 0c9c ec3d 0bfb 07bd 4b68 c3bc
000003d0: 7b1c 263d 7c5f c8bd 4d2e 4a3d 2673 8e3c
000003e0: 4c56 c6bd e12f b53d 08a2 95bd 0d1c 9e3d
000003f0: 27fe b1bd a19e 533d 99bb c63d e36a 5f3d

lstm.bias_ih_l0 f4 [256]
0.34289983 0.37176636 0.28424153 0.04394043 0.36182576 0.3016988 0.3984169 0.08909705
0.3685111 0.44571057 0.51475954 0.33882257 0.3612341 0.21406904 0.37608194 0.38785067
0.24754505 0.43936753 0.84580195 0.28339306 0.59111995 0.56217146 0.092106 0.33842838
0.3362454 0.5097038 0.38334918 0.5938168 0.5642535 0.32073683 0.4014817 0.36621585
0.3479612 0.47102234 0.40829265 0.5537945 0.28594252 0.74647987 0.4509926 0.23592024
0.6277378 0.111279234 0.43990773 0.5211301 0.26057798 0.36216137 0.36288652 0.20803536
0.39261 0.38270798 0.26165307 0.204912 0.41210264 0.7020029 0.34268042 0.37813225
0.5831932 0.02345169 0.15904169 0.5616349 0.5042853 0.45356315 0.28344357 0.26707554
-0.049620066 -0.040178906 0.11056308 0.002400271 0.110087134 -0.08969119 0.10574241 0.11594567
0.009345142 0.05041402 0.052821964 -0.041442774 -0.010789006 -0.022800075 -0.022023192 0.11608459
-0.06917001 0.088829435 0.05974446 0.0961413 0.10960815 0.04747067 -0.003465948 -0.02270096
-0.09052451 0.05645717 0.1072112 -0.01709195 0.10092745 -0.07428679 0.013167447 0.015297004
-0.006940466 0.11014391 -0.06736822 0.057184473 0.04318583 -0.11718288 -0.09968252 -0.10631352
-0.04278662 0.106508635 0.046137236 -0.10659481 0.085448325 -0.054409567 0.051928844 0.042909384
0.024887653 -0.02106842 0.08627155 0.0056419675 -0.0640336 -0.048415396 0.084198855 -0.037567887
0.05755566 0.11865197 0.016021814 -0.030755166 -0.024892053 -0.00038613236 0.0941289 0.054311823
-0.16307867 -0.18626663 -0.059239425 0.0929765 -0.22791316 -0.03916412 -0.1706628 0.014936891
-0.023765393 -0.082662106 0.022342734 0.08735506 -0.12797941 -0.0067972974 0.20948209 0.0075001637
-0.0035677564 0.0578855 -0.24075715 0.061200052 0.11310869 0.06763157 -0.22625788 0.08136299
-0.033281263 0.10584632 -0.26051566 0.22041558 -0.107900366 -0.20494078 0.08930641 0.31430173
0.334579 -0.049100984 0.18613045 0.053729318 -0.09257024 0.08835478 0.07594667 -0.17107554
-0.10858579 -0.068540566 0.44939798 -0.26403463 0.13192047 0.0010055893 -0.043826852 -0.13400385
0.12507597 0.20188561 0.067436054 0.1748542 -0.21173163 0.33049446 0.028131634 -0.083196916
0.29664642 -0.16226569 0.09406023 0.22393034 0.047652688 0.11475677 0.1079852 0.077330306
0.28010505 0.39994243 0.18099996 0.24851589 0.44408485 -0.00023119066 0.4380524 0.42079508
0.3579442 0.2482022 0.41732064 0.19093107 0.3249472 0.16384085 0.31805167 0.3386081
0.5224025 0.45794687 0.73936343 0.24045913 0.5540297 0.53085214 -0.014759184 0.26876086
0.35787252 0.5557568 0.42433178 0.5812307 0.47117847 0.4623511 0.5241372 0.39692888
0.4529919 0.5287246 0.33140892 0.6446231 0.22089629 0.65418637 0.48961616 0.35767803
0.6099061 0.23418367 0.45723626 0.6047904 0.20738457 0.48704556 0.5897653 0.34983635
0.47803172 0.56806713 0.10563115 0.23918393 0.5625568 0.7061595 0.23535849 0.38233584
0.5666459 0.20980535 0.2013182 0.39511338 0.19331026 0.60988235 0.29968008 0.427318
00000000: 9190 af3e 2958 be3e 1b88 913e e1fa 333d
00000010: 3a41 b93e 4478 9a3e 4dfd cb3e 8478 b63d
00000020: 7dad bc3e 2d34 e43e 48c7 033f 277a ad3e
00000030: adf3 b83e ea34 5b3e d08d c03e 5d94 c63e
00000040: 737c 7d3e c8f4 e03e 7a86 583f e518 913e
00000050: a353 173f 78ea 0f3f 12a2 bc3d 7c46 ad3e
00000060: 5b28 ac3e f37b 023f 5846 c43e 6104 183f
00000070: eb72 103f 9e37 a43e 028f cd3e a580 bb3e
00000080: f827 b23e d729 f13e bc0b d13e 7ac5 0d3f
00000090: 0f67 923e 4e19 3f3f 81e8 e63e 1395 713e
000000a0: 6db3 203f 5ee6 e33d 963b e13e c868 053f
000000b0: 7a6a 853e 376d b93e 43cc b93e 3907 553e
000000c0: 2e04 c93e 4df2 c33e 64f7 853e 74d4 513e
000000d0: 1eff d23e 76b6 333f cf73 af3e 8d9a c13e
000000e0: 264c 153f c21d c03c d3db 223e 4ec7 0f3f
000000f0: d718 013f 6e39 e83e 841f 913e 20be 883e
00000100: 693e 4bbd a392 24bd e56e e23d dd4d 1d3b
00000110: 5d75 e13d 04b0 b7bd 7a8f d83d ec74 ed3d
00000120: 5e1c 193c ee7e 4e3d d85b 583d e6bf 29bd
00000130: 5fc4 30bc 39c7 babc fb69 b4bc c2bd ed3d
00000140: 02a9 8dbd 35ec b53d 9bb6 743d bbe5 c43d
00000150: 3d7a e03d 9b70 423d f524 63bb 5df7 b9bc
00000160: ea64 b9bd a23f 673d 8c91 db3d 6b04 8cbc
00000170: 0db3 ce3d ac23 98bd 47bc 573c 49a0 7a3c
00000180: d96c e3bb 2193 e13d 59f8 89bd 443a 6a3d
00000190: a0e3 303d 94fd efbd 5926 ccbd e7ba d9bd
000001a0: 0641 2fbd 3321 da3d 66fa 3c3d 614e dabd
000001b0: 88ff ae3d 91dc 5ebd 57b3 543d c0c1 2f3d
000001c0: 31e1 cb3c ae97 acbc 23af b03d 41e0 b83b
000001d0: 0c24 83bd 394f 46bd 7370 ac3d c9e0 19bd
000001e0: 7cbf 6b3d ceff f23d 2e40 833c 42f2 fbbc
000001f0: 6bea cbbc cf71 cab9 a7c6 c03d 1376 5e3d
00000200: 18fe 26be aebc 3ebe 0aa5 72bd 776a be3d
00000210: 1162 69be 8e6a 20bd 3bc2 2ebe ddb9 743c
00000220: a4af c2bc c04a a9bd 1c08 b73c 36e7 b23d
00000230: 090d 03be ddbb debb 7982 563e efc3 f53b
00000240: 05d1 69bb 5919 6d3d 0b89 76be e8ac 7a3d
00000250: 87a5 e73d 6c82 8a3d 25b0 67be a4a1 a63d
00000260: ef51 08bd f5c5 d83d 4f62 85be 9fb4 613e
00000270: defa dcbd ffdb 51be 47e6 b63d 28ec a03e
00000280: f04d ab3e 1d1e 49bd fb98 3e3e 4613 5c3d
00000290: 7795 bdbd 5af3 b43d ed89 9b3d 6d2e 2fbe
000002a0: 3a62 debd ff5e 8cbd 7e17 e63e 8c2f 87be
000002b0: 2916 073e facd 833a c983 33bd 4e38 09be
000002c0: ea13 003e 1abb 4e3e ea1b 8a3d fb0c 333e
000002d0: 2dd0 58be 9236 a93e 5074 e63c 2563 aabd
000002e0: 0ae2 973e fa28 26be a6a2 c03d ff4d 653e
000002f0: 772f 433d 9905 eb3d 5827 dd3d 5a5f 9e3d
00000300: ee69 8f3e 41c5 cc3e 0e58 393e f37a 7e3e
00000310: 175f e33e c56b 72b9 6748 e03e 7472 d73e
00000320: 7644 b73e b828 7e3e 0dab d53e 6f83 433e
00000330: 7b5f a63e e5c5 273e abd7 a23e 0a5e ad3e
00000340: 2cbc 053f 0378 ea3e ec46 3d3f eb3a 763e
00000350: e4d4 0d3f ede5 073f 81d0 71bc 069b 893e
00000360: 113b b73e 1446 0e3f 0442 d93e 89cb 143f
00000370: 4e3e f13e 49b9 ec3e db2d 063f 433a cb3e
00000380: 8eee e73e 7f5a 073f 6eae a93e 0506 253f
00000390: a332 623e c278 273f f8ae fa3e 9321 b73e
000003a0: ce22 1c3f d8cd 6f3e df1a ea3e 8bd3 1a3f
000003b0: 9f5c 543e 095e f93e dcfa 163f c01d b33e
000003c0: 93c0 f43e d96c 113f 2555 d83d a2ec 743e
000003d0: b903 103f dec6 343f d101 713e 86c1 c33e
000003e0: b50f 113f 37d7 563e 5c26 4e3e 4d4c ca3e
000003f0: 20f3 453e 4021 1c3f ab6f 993e 6dc9 da3e

lstm.bias_hh_l0 f4 [256]
0.33834952 0.41506448 0.18395592 0.11132121 0.4525105 0.11779008 0.43026775 -0.0066423803
0.34347218 0.33993495 0.4819735 0.30203205 0.48894846 0.13871738 0.3020578 0.2721731
0.41515568 0.3624135 0.75348055 0.29256728 0.6887473 0.6641328 0.004460283 0.5453105
0.20896347 0.43246922 0.32558554 0.5928063 0.4515269 0.28284097 0.55784875 0.33170208
0.4251792 0.52359 0.34891096 0.48457175 0.20648138 0.5976198 0.6036336 0.18773839
0.5135109 0.14969973 0.4964745 0.39336634 0.07635413 0.3669478 0.5305959 0.25433874
0.51468134 0.3976735 0.13204215 0.3611116 0.5117976 0.71271175 0.41373655 0.23628715
0.47708642 0.16523056 0.051363163 0.40880245 0.40433177 0.6161162 0.29711547 0.4308605
0.024577437 -0.062894166 -0.0429167 -0.09267287 -0.06094443 0.01610558 -0.08853853 0.010175789
-0.04507651 0.037876554 -0.06503943 0.015413877 -0.116100796 0.096564814 -0.008104257 0.07348508
0.11928103 0.099838026 -0.11394364 0.11684112 0.021251738 -0.08129006 -0.10026538 -0.0039424794
-0.016474266 0.0628994 -0.06684223 -0.06387414 -0.05223014 -0.088841684 0.073723786 0.088094324
0.04763839 -0.025705302 0.027609808 0.114011 0.03973394 -0.09455359 -0.057307344 0.06380661
0.034460187 0.03419448 0.06333872 0.062085513 -0.009327941 0.10895179 -0.044858564 -0.048794813
-0.11404641 -0.026478924 0.039450876 -0.006656545 0.11737105 0.112127945 -0.06021621 -0.006925975
-0.049762685 -0.0049684816 0.117685445 -0.061826654 -0.094842955 -0.10395767 0.054412533 -0.041545074
-0.05313281 -0.17176504 -0.08515131 -0.05578982 -0.3400663 -0.19603373 -0.18272465 -0.028185599
-0.13103639 -0.08440771 -0.040923823 0.097141735 0.043392174 -0.21023677 0.25352722 -0.028711554
-0.05894395 0.20046407 -0.08265597 0.0591522 0.085289314 -0.0091849165 -0.1687671 0.19417444
0.16088404 0.16071245 -0.2620736 0.15199591 0.030674217 -0.13349925 -0.1133757 0.21587247
0.35519305 0.018118124 0.1531024 0.01954914 -0.023186246 0.04588097 0.00961221 -0.18287489
-0.03908169 -0.05345166 0.45031503 -0.343133 0.2704644 -0.020554205 -0.13682769 -0.11144849
0.01800528 0.12110688 0.07837832 0.23783727 -0.06871148 0.27538222 0.03385564 -0.20969659
0.29682285 -0.18298796 -0.016757922 0.26053783 -0.089577585 0.07384578 0.10511376 0.22185223
0.3741816 0.32741082 0.13846077 0.26224792 0.6224236 -0.0043054637 0.5082829 0.3016056
0.38413277 0.1732293 0.43999442 0.20056856 0.33988032 0.09885423 0.29156205 0.271078
0.4271478 0.40528756 0.70664525 0.30890974 0.5182293 0.578312 0.04380482 0.32582104
0.34149677 0.40322718 0.56048405 0.7732054 0.4975404 0.4686482 0.48150575 0.36509907
0.4426622 0.65347046 0.33081105 0.5812982 0.17484742 0.61159796 0.4600102 0.20530061
0.59304756 0.058092073 0.4047057 0.5394898 0.3242526 0.37954497 0.42411837 0.3452591
0.34771678 0.3779584 0.2897974 0.3078872 0.5628414 0.75013244 0.3550398 0.28406182
0.4095063 0.06435696 0.09660714 0.40649855 0.36748442 0.40556446 0.33233312 0.2481157
00000000: 263c ad3e 5583 d43e f15e 3c3e 60fc e33d
00000010: 75af e73e ed3b f13d 0e4c dc3e 53a8 d9bb
00000020: 96db af3e f40b ae3e 3bc5 f63e f2a3 9a3e
00000030: 7457 fa3e ee0b 0e3e 52a7 9a3e 465a 8b3e
00000040: 498f d43e 438e b93e 1ae4 403f 61cb 953e
00000050: be51 303f 9b04 2a3f 9127 923b 7899 0b3f
00000060: 85fa 553e 9b6c dd3e 26b3 a63e 27c2 173f
00000070: 892e e73e 88d0 903e 2dcf 0e3f dbd4 a93e
00000080: 17b1 d93e ff09 063f 75a4 b23e ca19 f83e
00000090: db6f 533e 9cfd 183f bb87 1a3f 7e3e 403e
000000a0: 7375 033f e34a 193e e831 fe3e 5067 c93e
000000b0: 8e5f 9c3d 95e0 bb3e 22d5 073f b038 823e
000000c0: 28c2 033f dc9b cb3e 0f36 073e 9fe3 b83e
000000d0: 2b05 033f 4774 363f 47d5 d33e 42f5 713e
000000e0: ac44 f43e 3332 293e 2e62 523d 8e4e d13e
000000f0: 9304 cf3e cbb9 1d3f 851f 983e bf99 dc3e
00000100: 9f56 c93c a8ce 80bd 6cc9 2fbd 46cb bdbd
00000110: dea0 79bd d9ef 833c b053 b5bd 5ab8 263c
00000120: 26a2 38bd 7224 1b3d 6533 85bd 7c8a 7c3c
00000130: 41c6 edbd c6c3 c53d b8c7 04bc 587f 963d
00000140: 9d49 f43d e177 cc3d 485b e9bd 664a ef3d
00000150: 2018 ae3c 677b a6bd f057 cdbd ea2f 81bb
00000160: 0af5 86bc 67d1 803d 94e4 88bd 72d0 82bd
00000170: 45ef 55bd a1f2 b5bd 7ffc 963d cc6a b43d
00000180: 7920 433d ed93 d2bc f72d e23c 997e e93d
00000190: 0ec0 223d 50a5 c1bd 1bbb 6abd 0aad 823d
000001a0: 2026 0d3d 830f 0c3d bbb7 813d 614d 7e3d
000001b0: 38d4 18bc 1e22 df3d 9dbd 37bd 12dd 47bd
000001c0: 2a91 e9bd 54ea d8bc 3e97 213d 261f dabb
000001d0: 3c60 f03d 56a3 e53d 46a5 76bd 4af3 e2bb
000001e0: f5d3 4bbd a5ce a2bb 1105 f13d f23d 7dbd
000001f0: 063d c2bd c2e7 d4bd addf 5e3d 2b2b 2abd
00000200: caa1 59bd 2de3 2fbe cf63 aebd de83 64bd
00000210: 2c1d aebe 11bd 48be 2c1c 3bbe 7ce5 e6bc
00000220: 672e 06be f3dd acbd bd9f 27bd 3ff2 c63d
00000230: febb 313d 4f48 57be 52ce 813e 7e34 ebbc
00000240: 366f 71bd 7446 4d3e 8847 a9bd 9449 723d
00000250: 2aac ae3d 557c 16bc 48d1 2cbe aad5 463e
00000260: c9be 243e ce91 243e 832e 86be d1a4 1b3e
00000270: 7f48 fb3c 07b4 08be 8531 e8bd ac0d 5d3e
00000280: dddb b53e 766c 943c e0c6 1c3e 8525 a03c
00000290: 15f1 bdbc afed 3b3d 887c 1d3c 8e43 3bbe
000002a0: 1f14 20bd 21f0 5abd b18f e63e 21af afbe
000002b0: 4f7a 8a3e 4b61 a8bc 8f1c 0cbe 1b3f e4bd
000002c0: cf7f 933c e206 f83d d084 a03d 9d8b 733e
000002d0: 9bb8 8cbd e6fe 8c3e 36ac 0a3d b4ba 56be
000002e0: 2af9 973e 3261 3bbe e947 89bc 3765 853e
000002f0: 7474 b7bd 753c 973d e245 d73d 3b2d 633e
00000300: bb94 bf3e 64a2 a73e a9c8 0d3e 5c45 863e
00000310: 2757 1f3f d914 8dbb d41e 023f 0d6c 9a3e
00000320: 0dad c43e 0663 313e f346 e13e d861 4d3e
00000330: cb04 ae3e 1674 ca3d 9f47 953e bcca 8a3e
00000340: 1eb3 da3e da81 cf3e b4e6 343f 6b29 9e3e
00000350: adaa 043f 410c 143f af6c 333d 04d2 a63e
00000360: aad8 ae3e cb73 ce3e e27b 0f3f caf0 453f
00000370: 9ebd fe3e a8f2 ef3e ec87 f63e 44ee ba3e
00000380: 9fa4 e23e d749 273f 1160 a93e f5cf 143f
00000390: 340b 333e af91 1c3f 7586 eb3e 533a 523e
000003a0: f7d1 173f f4f1 6d3d 9635 cf3e 011c 0a3f
000003b0: 7004 a63e b853 c23e 0b26 d93e cdc5 b03e
000003c0: ef07 b23e c383 c13e 5360 943e 64a3 9d3e
000003d0: 6016 103f ae08 403f c7c7 b53e 8d70 913e
000003e0: cfaa d13e 95cd 833d f7d9 c53d 9420 d03e
000003f0: eb26 bc3e 25a6 cf3e 9127 aa3e 0b12 7e3e

fc.weight f4 [3, 64]
0.6333716 -0.24138762 -0.5279122 -0.64206815 -0.2091073 0.8728929 -0.14397289 -0.42778218
-0.49628082 -0.5499045 -0.64117604 -0.89026946 -0.60862404 0.75409514 0.037687365 -0.6678179
-0.8834475 0.18801363 1.0794543 0.43199658 -0.91374975 -0.7521249 -0.79090774 -0.1376624
0.6267111 0.2053861 -0.40262014 -0.8307714 0.66283524 -0.08939255 -0.8724312 0.07476634
0.32146296 0.97737634 0.418265 0.9480292 -0.7205059 -0.51023895 0.58707106 -0.6433461
1.0925032 -0.76654637 0.23981874 -0.24283828 -0.06827731 -0.67249024 -0.2352896 -0.31097877
0.6961068 0.23613787 -0.39359736 0.8049514 -0.29655704 0.3648547 0.6568118 0.025093302
-0.7102379 -0.90400076 -0.7834796 0.7386967 0.43287727 -0.6746995 0.30851287 0.46894935
-0.4896409 -0.3846275 0.13154736 0.6655112 -0.27849984 -0.5737984 -0.46449262 0.88787436
0.009861454 0.47718886 -0.049562983 0.3522393 0.121516526 -0.6453431 0.39563164 0.18926974
0.65665174 0.4649822 -0.6142086 0.05422875 0.39113864 0.25024316 0.57124674 0.41781938
-0.5144839 0.33401635 -0.20349047 0.69548243 -0.36718217 -0.26413804 0.35377038 0.49755323
0.14076324 -0.5224375 0.40313867 -0.70873165 0.89517254 0.72135305 0.12969021 0.2913575
-0.4810527 0.7626535 0.34420466 -0.0707251 0.5262743 -0.16141355 -0.42071012 0.03505308
-0.34451064 0.43254346 0.6391623 -0.29691702 -0.17046426 0.123819984 -0.72587055 -0.47725776
0.6133661 0.6269392 0.72011274 -0.28440535 -0.6119002 0.46921483 0.23482819 -0.041867692
-0.14114931 0.8003061 0.5825217 -0.06658695 0.7738261 -0.24115573 0.736841 -0.6257951
0.51229656 0.43672308 0.65938205 0.5297363 0.869941 -0.38491789 -0.6099572 0.6591806
0.22612455 -0.90532285 -0.22832343 -0.79116637 0.6474746 0.44329777 0.29112747 -0.6508848
-0.31678617 -0.83291984 0.55299985 0.37802905 -0.40982056 0.68851495 0.79816973 -0.6787829
-0.7282663 -0.52057266 -0.8148242 0.17985292 -0.13477583 -0.11955286 -0.79593086 0.47360736
-0.68412274 -0.20097989 -0.57572186 0.8727576 -0.720558 0.9406768 0.7455005 0.696225
-0.3025643 -0.9146897 -0.4517843 -0.62705755 0.8241192 -0.87522006 0.14297442 0.59661084
0.5971163 0.32977226 0.49994284 -0.73358047 0.23617907 0.2712797 -0.5312832 -0.45200285
00000000: a424 223f 512e 77be 4125 07bf 945e 24bf
00000010: 3920 56be e975 5f3f a16d 13be 4406 dbbe
00000020: 8518 febe 8bc6 0cbf 1d24 24bf b3e8 63bf
00000030: c9ce 1bbf 610c 413f 115e 1a3d 1df6 2abf
00000040: 9e29 62bf a586 403e 8f2b 8a3f a82e dd3e
00000050: 81eb 69bf 428b 40bf ee78 4abf 5ff7 0cbe
00000060: 2370 203f bc50 523e 3a24 cebe 6fad 54bf
00000070: 92af 293f 7113 b7bd a757 5fbf 181f 993d
00000080: cb96 a43e 5635 7a3f d526 d63e 0bb2 723f
00000090: 1373 38bf 059f 02bf 4a4a 163f 54b2 24bf
000000a0: 25d7 8b3f 623c 44bf 0b93 753e 99aa 78be
000000b0: f9d4 8bbd 5228 2cbf c2ef 70be 9c38 9fbe
000000c0: 0e34 323f 20ce 713e 9885 c9be 4c11 4e3f
000000d0: 53d6 97be 3cce ba3e d124 283f 7890 cd3c
000000e0: 27d2 35bf 986c 67bf 1e92 48bf 3a1b 3d3f
000000f0: 17a2 dd3e 1bb9 2cbf 66f5 9d3e 211a f03e
00000100: 36b2 fabe e5ed c4be 5ab4 063e f15e 2a3f
00000110: 8897 8ebe 74e4 12bf fad1 edbe bc4b 633f
00000120: f091 213c 1952 f43e 8e02 4bbd b658 b43e
00000130: a8dd f83d 3535 25bf 3b90 ca3e edcf 413e
00000140: 541a 283f 2612 ee3e c63c 1dbf f71e 5e3d
00000150: 5343 c83e df1f 803e 3a3d 123f 6cec d53e
00000160: 38b5 03bf 3104 ab3e ce5f 50be 230b 323f
00000170: 4dff bbbe 1a3d 87be 6421 b53e 4cbf fe3e
00000180: 3d24 103e 77be 05bf 3168 ce3e 706f 35bf
00000190: 072a 653f 98aa 383f 83cd 043e cf2c 953e
000001a0: 8a4c f6be 433d 433f 983b b03e 52d8 90bd
000001b0: eab9 063f 9849 25be 5167 d7be d293 0f3d
000001c0: b363 b0be 5676 dd3e 24a0 233f 8205 98be
000001d0: 2f8e 2ebe 5595 fd3d a7d2 39bf 215b f4be
000001e0: 9005 1d3f 167f 203f 4f59 383f 949d 91be
000001f0: 7ea5 1cbf ed3c f03e cd76 703e 757d 2bbd
00000200: 7289 10be dce0 4c3f 2420 153f bd5e 88bd
00000210: 7819 463f 87f1 76be 9da1 3c3f 1c34 20bf
00000220: de25 033f 2b9a df3e 43cd 283f cc9c 073f
00000230: 74b4 5e3f f513 c5be 2826 1cbf 0fc0 283f
00000240: 328d 673e 3dc3 67bf 9ecd 69be e189 4abf
00000250: e5c0 253f edf7 e23e a90e 953e 63a0 26bf
00000260: cc31 a2be 3c3a 55bf 6691 0d3f 068d c13e
00000270: 00d4 d1be 8442 303f da54 4c3f b7c4 2dbf
00000280: a96f 3abf 4044 05bf 5298 50bf 5d2b 383e
00000290: ad02 0abe 21d8 f4bd 20c2 4bbf aa7c f23e
000002a0: ab22 2fbf accd 4dbe 8262 13bf 0b6d 5f3f
000002b0: 7d76 38bf 32d0 703f 1fd9 3e3f cd3b 323f
000002c0: b5e9 9abe 1b29 6abf 4650 e7be d886 20bf
000002d0: 7af9 523f 6c0e 60bf e367 123e 7dbb 183f
000002e0: 9ddc 183f e9d7 a83e 82f8 ff3e eecb 3bbf
000002f0: edd8 713e 2ce5 8a3e 2d02 08bf eb6c e7be

fc.bias f4 [3]
0.1608817 -0.00488728 -0.3630558
00000000: 2cbe 243e 7a25 a0bb 73e2 b9be
