Demo/results/models/蛋白供应分类标签_backward_gru.pth (torch, 62216 bytes, 6 tensors)

gru.weight_ih_l0 f4 [192, 11]
-0.31155604 0.49470377 0.05474448 -0.19867297 -0.3416747 -0.009147617 0.08860587 -0.32477078
0.05056679 -0.40645456 0.12029663 0.22190729 -0.14122227 -0.45381933 0.26866266 -0.22405815
-0.29935345 0.17248888 -0.16497603 -0.78167546 -0.5864776 -0.42080638 -0.25896105 -0.64304847
-0.545039 0.39896464 0.31242916 -0.34467053 -0.21515773 0.20916194 0.119869284 0.36203215
-0.67765266 -0.40633094 -0.1668323 0.064090945 0.62721723 -0.10139343 0.10144212 -0.19506998
0.06107949 -0.09326381 -0.01675731 0.47556916 -0.21511225 -0.02746098 -0.037546817 0.26860458
-0.14299385 -0.057629693 0.1660734 0.15632972 -0.025769068 -0.06341521 0.25044903 -0.26597646
-0.08751872 0.11294149 -0.3766636 -0.21684067 0.09820131 0.20513603 0.06882761 -0.29890633
-0.21435803 0.48512673 -0.24179286 -0.13723058 0.06711932 0.07801459 -0.09797795 -0.21003835
0.24954417 -0.07370255 -0.26756293 0.034409627 0.24178852 0.14715242 -0.10001756 -0.17545162
0.19096254 -0.20450607 0.19263598 -0.21122026 -0.042921808 -0.48022148 -0.072981015 0.44551477
-0.30667445 0.22599906 0.31907862 -0.05511289 -0.115604304 -0.28562766 0.19375677 -0.011041533
0.58756274 -0.14547177 0.042303536 -0.19045605 0.359411 0.004337479 0.14243181 -0.14268573
0.021198954 -0.04364773 0.013879862 0.15025651 -0.19356725 0.25393772 -0.30663845 0.07533096
0.10578643 0.19282916 -0.07231088 0.018085595 0.18770795 0.09325062 -0.25848633 -0.015008734
0.57493824 -0.0138566615 0.39061192 0.006469389 0.44880503 -0.10386058 -0.47512206 0.046153337
-0.34657645 0.11266134 -0.5062449 0.39390978 0.1484818 0.3252845 0.00540701 0.3509137
0.04170022 -0.15583703 -0.17846736 -0.29366398 -0.09175135 -0.058528848 0.04553438 0.18715762
0.0821522 -0.0011443698 0.17337999 0.14000039 0.025122548 -0.16604419 -0.019176098 0.37217936
0.19502036 -0.033799395 -0.36034548 0.17797066 0.1962254 0.145687 0.10927666 -0.01915153
0.021373678 -0.1166652 -0.09453722 0.17878695 0.38675702 -0.13668564 -0.21147476 -0.050073326
0.10670362 -0.3035556 0.13348188 -0.30724505 0.5757896 0.39377925 -1.2853727 0.7535212
-0.41644916 0.0025647306 0.120196 0.29359457 6.109303e-05 0.080789 -0.21115823 0.057269115
-0.026397906 0.014389941 0.42071864 -0.39616936 0.027679972 0.06455184 0.033677086 -0.19652596
-0.28767845 0.22257367 -0.13009605 -0.29070532 -0.019473197 0.10104331 -0.24845505 -0.04640196
0.04753258 0.34622854 -0.23942067 0.2144603 -0.39002573 0.100496784 -0.0230993 -0.47344413
0.5411583 -0.20456536 0.041600537 0.036002956 0.2284411 -0.044319954 -0.24728416 0.23454997
0.15904716 -0.18628219 -0.053362623 0.2142338 -0.017543696 -0.2194258 -0.065451875 -0.017064821
-0.15273856 0.36461732 -0.5290198 -0.21169108 -0.46701318 0.18930176 0.05452265 -0.1633611
0.18317407 0.1861798 -0.16061854 -0.2334362 -0.24088398 0.1301618 -0.35132906 -0.22592017
0.067639545 -0.08828455 0.2081418 0.43354943 0.31233272 -0.1014512 -0.19691646 0.21024053
0.2828226 -0.20425314 0.14171472 0.23079315 0.3093249 -0.03429087 -0.14165018 0.1381433
00000000: 4684 9fbe d049 fd3e bf3b 603d ed70 4bbe
00000010: fcef aebe e3df 15bc ff76 b53d 5b48 a6be
00000020: 1f1f 4f3d d01a d0be 145e f63d aa3b 633e
00000030: 929c 10be 025b e8be 278e 893e 806f 65be
00000040: db44 99be eda0 303e 7aef 28be e21b 48bf
00000050: 6523 16bf ef73 d7be 8b96 84be d39e 24bf
00000060: ad87 0bbf 1845 cc3e b7f6 9f3e a878 b0be
00000070: 4f52 5cbe 8c2e 563e 077e f53d 475c b93e
00000080: a57a 2dbf 9c0a d0be 16d6 2abe 1d42 833d
00000090: 4f91 203f 5ca7 cfbd e3c0 cf3d 6dc0 47be
000000a0: 7d2e 7a3d 1901 bfbd a046 89bc cd7d f33e
000000b0: 6346 5cbe d9f5 e0bc b1ca 19bd 8a86 893e
000000c0: fb6c 12be 1d0d 6cbd 250f 2a3e e614 203e
000000d0: a719 d3bc d5df 81bd db3a 803e 112e 88be
000000e0: 043d b3bd de4d e73d 0dda c0be 7b0b 5ebe
000000f0: c51d c93d 2e0f 523e 7df5 8c3d 400a 99be
00000100: ac80 5bbe 8862 f83e 8c98 77be 2c86 0cbe
00000110: db75 893d 1dc6 9f3d aaa8 c8bd 4b14 57be
00000120: 8288 7f3e 5df1 96bd 02fe 88be 1cf1 0c3d
00000130: 6997 773e 20af 163e 02d6 ccbd 97a9 33be
00000140: af8b 433e 0a6a 51be 5e42 453e 204a 58be
00000150: c7ce 2fbd 97df f5be 1277 95bd 831a e43e
00000160: 6f04 9dbe 4c6c 673e 465e a33e 0ebe 61bd
00000170: f3c1 ecbd ca3d 92be 2d68 463e 8ce7 34bc
00000180: 836a 163f 8df6 14be 7946 2d3d e906 43be
00000190: b804 b83e 6921 8e3b a5d9 113e 351c 12be
000001a0: 6ea9 ad3c f6c7 32bd 5c68 633c d8dc 193e
000001b0: 7e36 46be 2004 823e b7ff 9cbe 1e47 9a3d
000001c0: 8ea6 d83d 0275 453e ba17 94bd 3e28 943c
000001d0: 8336 403e 2efa be3d 5258 84be 31e7 75bc
000001e0: 272f 133f 0d07 63bc 49fe c73e 2bfd d33b
000001f0: c6c9 e53e dbb4 d4bd 3343 f3be 480b 3d3d
00000200: 7872 b1be fdba e63d 4499 01bf 8bae c93e
00000210: 9d0b 183e b18b a63e 4a2d b13b f6aa b33e
00000220: dacd 2a3d be93 1fbe 26c0 36be 205b 96be
00000230: 22e8 bbbd f2bb 6fbd 4282 3a3d 3fa6 3f3e
00000240: 6a3f a83d aefe 95ba 868a 313e 435c 0f3e
00000250: cdcd cd3c 7d07 2abe 3117 9dbc 4b8e be3e
00000260: 6bb3 473e 3c71 0abd 347f b8be f13d 363e
00000270: 50ef 483e f92e 153e 71cc df3d abe3 9cbc
00000280: da17 af3c 2aee eebd bb9c c1bd ed13 373e
00000290: 0405 c63e 52f7 0bbe d78c 58be b019 4dbd
000002a0: 6d87 da3d a46b 9bbe 79af 083e 394f 9dbe
000002b0: f266 133f 6f9d c93e 1887 a4bf c4e6 403f
000002c0: d338 d5be 0a15 283b 5229 f63d 0752 963e
000002d0: 121f 8038 b474 a53d dd39 58be 0593 6a3d
000002e0: 6c40 d8bc c9c3 6b3c 6f68 d73e b6d6 cabe
000002f0: 1cc1 e23c c133 843d fcf0 093d 1a3e 49be
00000300: 974a 93be 5aea 633e e637 05be 54d7 94be
00000310: 4186 9fbc cbef ce3d 006b 7ebe fb0f 3ebd
00000320: 86b1 423d de44 b13e b12a 75be 7b9b 5b3e
00000330: 74b1 c7be 42d1 cd3d be3a bdbc 4567 f2be
00000340: 5a89 0a3f 9579 51be 5365 2a3d d677 133d
00000350: 77ec 693e d788 35bd 0f38 7dbe de2d 703e
00000360: 42dd 223e c2c0 3ebe c492 5abd 1b60 5b3e
00000370: ccb7 8fbc 28b1 60be a20b 86bd 86cb 8bbc
00000380: 7f67 1cbe 1faf ba3e d76d 07bf 8cc5 58be
00000390: 5a1c efbe 52d8 413e 2453 5f3d 2248 27be
000003a0: fc91 3b3e eba5 3e3e 3079 24be e609 6fbe
000003b0: 4aaa 76be 2349 053e 67e1 b3be 9e57 67be
000003c0: 9a86 8a3d 88ce b4bd 2023 553e 31fa dd3e
000003d0: 13ea 9f3e a6c5 cfbd 78a4 49be 4b49 573e
000003e0: 20ce 903e bc27 51be aa1d 113e 0a55 6c3e
000003f0: d55f 9e3e 9574 0cbd bf0c 11be 7075 0d3e

gru.weight_hh_l0 f4 [192, 64]
-0.080539405 0.04398513 -0.031323735 -0.09264535 0.10646931 0.02398275 0.039734088 0.10244031
-0.0005081253 0.06017407 -0.025770852 0.09679331 -0.039659597 -0.09432848 0.006323988 -0.04839909
0.04291977 0.0081347 0.11370384 0.09455515 0.0065492 0.048049618 0.07260111 0.08601449
-0.09475725 0.058729522 -0.042016257 0.09950299 -0.03644096 0.0052303327 -0.046013404 -0.03128987
-0.10817661 -0.10961344 -0.056733605 -0.053437665 -0.008468114 -0.09207883 -0.0008937425 0.019690849
-0.11636606 0.01015467 0.10179083 -0.08333527 -0.10013588 0.060199145 -0.08382008 0.12027273
-0.09935903 0.041554563 0.013126497 0.02033392 -0.098703034 -0.074787915 -0.051346887 0.046418037
0.115358524 0.03270467 -0.002532416 0.116546944 0.015548381 -0.052625034 -0.056490287 -0.098584816
0.07112844 0.04811094 -0.06562634 -0.066040374 -0.11350636 0.027760822 -0.045327637 -0.06111024
0.03798373 -0.08276688 -0.07264088 0.119591005 -0.017992942 0.10317647 0.091418795 0.12111826
-0.074969254 0.011357752 -0.11152777 -0.07558859 -0.10589134 -0.040309843 -0.031322733 0.059500303
-0.1100718 0.10108476 0.09285168 -0.06289492 0.059776142 -0.11146146 0.11647393 0.03212477
-0.042216156 0.018167606 -0.06762918 0.028022755 0.045607496 0.057338435 -0.083724014 0.073459245
0.0066206693 -0.07499224 0.04293938 -0.014914077 0.058265097 -0.07072367 -0.031845607 0.09775084
0.022025859 -0.11481534 0.076801986 -0.026531156 0.011352946 -0.106380425 -0.050037168 -0.019667968
0.0220193 -0.12118929 0.0910985 -0.051726438 -0.081939116 -0.03817469 -0.08232987 -0.06737759
-0.002082498 -0.01736233 -0.11920762 -0.0854396 -0.037590984 0.08028687 -0.004120397 0.11150099
0.056801684 0.01997494 -0.08161445 0.047537416 -0.00826742 -0.10413616 -0.12000993 -0.058387436
-0.11825365 0.060413327 0.053056005 -0.10841916 -0.0032882208 -0.022939987 -0.11933246 -0.04570086
0.012115946 -0.075747915 0.062447928 -0.012718763 -0.057979777 0.10662044 0.07171255 0.05479826
0.078630105 -0.092133604 0.055452403 0.050367236 -0.011738381 -0.1042955 -0.07691263 0.074384265
0.04225939 -0.116998054 0.060817447 0.093306206 0.0414822 0.027171355 -0.109606676 -0.064719535
0.028429892 -0.010977136 -0.10023281 -0.076511525 -0.03277248 -0.10285627 0.040557668 0.02999263
-0.0358755 0.03303467 0.07776481 0.027674215 -0.01136879 0.055095214 0.052670747 -0.10248836
0.026058387 0.08250264 0.09889559 0.09076985 0.025705142 -0.08495122 -0.08670558 0.10681161
0.0756461 0.014479227 -0.05976453 0.10166977 -0.049013842 0.08997942 0.093507625 0.096026435
-0.07350356 0.079665616 -0.047009118 0.010385183 0.107587375 0.099434346 0.064199984 -0.09444457
-0.047544703 0.014452645 0.0646005 -0.11035058 0.088711284 -0.106519 -0.0060099056 -0.087784365
-0.08734582 0.0058716317 -0.01823128 -0.0519606 0.00967079 0.10400232 -0.08591239 -0.04770769
0.11341635 0.08925007 -0.105402045 -0.052318618 -0.08902763 -0.046550505 -0.0972751 -0.071400076
-0.12004839 -0.09302241 0.025330218 -0.09984576 -0.027670562 -0.037882112 0.032629132 0.01166049
-0.010389652 0.092374586 0.013318259 0.0050878497 0.08893445 0.0058832048 0.010716186 0.069635056
00000000: d8f1 a4bd c029 343d 514d 00bd d8bc bdbd
00000010: 950c da3d 7977 c43c 36c0 223d 3acc d13d
00000020: b633 05ba 1679 763d 651d d3bc 923b c63d
00000030: 1a72 22bd 4a2f c1bd 7539 cf3b 203e 46bd
00000040: a4cc 2f3d 6847 053c 8fdd e83d 21a6 c13d
00000050: ac9a d63b adcf 443d e4af 943d 5d28 b03d
00000060: 1710 c2bd 5e8e 703d 3d19 2cbd 39c8 cb3d
00000070: 1e43 15bd 3663 ab3b 8d78 3cbd cf29 00bd
00000080: b38b ddbd 037d e0bd 7f61 68bd 74e1 5abd
00000090: d8bd 0abc d393 bcbd 0b4a 6aba b44e a13c
000000a0: 5451 eebd c65f 263c b677 d03d afab aabd
000000b0: 0a14 cdbd 6193 763d dda9 abbd 8d51 f63d
000000c0: bf7c cbbd 1e35 2a3d 8510 573c 5293 a63c
000000d0: d124 cabd 682a 99bd 1d51 52bd d720 3e3d
000000e0: 1741 ec3d 55f5 053d e4f6 25bb 2ab0 ee3d
000000f0: a3be 7e3c 598d 57bd 5c62 67bd d6e6 c9bd
00000100: caab 913d fa0f 453d 1a67 86bd 2d40 87bd
00000110: 0676 e8bd aa6a e33c 79a9 39bd bb4e 7abd
00000120: d494 1b3d af81 a9bd bec4 94bd 21ec f43d
00000130: ef65 93bc 2f4e d33d c739 bb3d da0c f83d
00000140: 7b89 99bd dd15 3a3c ac68 e4bd 31ce 9abd
00000150: 8fdd d8bd ef1b 25bd 444c 00bd 97b6 733d
00000160: 536d e1bd 8705 cf3d 0629 be3d 0dcf 80bd
00000170: d4d7 743d e845 e4bd e289 ee3d 4395 033d
00000180: d9ea 2cbd 3bd4 943c 2b81 8abd fa8f e53c
00000190: edce 3a3d b5db 6a3d 7f77 abbd cd71 963d
000001a0: 33f2 d83b 8895 99bd 34e1 2f3d 2c5a 74bc
000001b0: 62a7 6e3d 92d7 90bd 8a70 02bd 9831 c83d
000001c0: 936f b43c 4e24 ebbd 5c4a 9d3d de57 d9bc
000001d0: b501 3a3c fbdd d9bd c6f3 4cbd b81e a1bc
000001e0: d261 b43c 1732 f8bd da91 ba3d 1adf 53bd
000001f0: b2cf a7bd 105d 1cbd 909c a8bd 43fd 89bd
00000200: 857a 08bb 723b 8ebc 2023 f4bd f5fa aebd
00000210: 01f9 19bd 716d a43d 6504 87bb a25a e43d
00000220: e2a8 683d 7ca2 a33c 7a25 a7bd 98b6 423d
00000230: 1374 07bc 5745 d5bd c4c7 f5bd aa27 6fbd
00000240: f82e f2bd f773 773d 4151 593d dd0a debd
00000250: 317f 57bb a4ec bbbc 9464 f4bd d330 3bbd
00000260: f681 463c b921 9bbd 66c9 7f3d 5c62 50bc
00000270: 347c 6dbd d15b da3d 08de 923d 2474 603d
00000280: d208 a13d 8bb0 bcbd 0f22 633d e04d 4e3d
00000290: 5752 40bc e198 d5bd 5e84 9dbd c756 983d
000002a0: 2f18 2d3d ad9c efbd b71b 793d 5317 bf3d
000002b0: 3de9 293d 7696 de3c 7779 e0bd ad8b 84bd
000002c0: cee5 e83c 72d9 33bc dc46 cdbd 13b2 9cbd
000002d0: 703c 06bd 4fa6 d2bd cc1f 263d 1bb3 f53c
000002e0: 30f2 12bd 5d4f 073d 2843 9f3d 09b5 e23c
000002f0: 2944 3abc 85ab 613d 48bd 573d 6be5 d1bd
00000300: 6678 d53c 25f7 a83d c589 ca3d 8be5 b93d
00000310: 9793 d23c e8fa adbd b292 b1bd 0cc0 da3d
00000320: 58ec 9a3d 483a 6d3c a7cb 74bd 3e38 d03d
00000330: bdc2 48bd 2147 b83d ed80 bf3d 82a9 c43d
00000340: 0989 96bd ba27 a33d a28c 40bd 9d26 2a3c
00000350: c556 dc3d 3ca4 cb3d 487b 833d 286c c1bd
00000360: 3cbe 42bd c9ca 6c3c 444d 843d 7cff e1bd
00000370: 43ae b53d a226 dabd beee c4bb 4ac8 b3bd
00000380: 5ee2 b2bd d166 c03b c459 95bc a3d4 54bd
00000390: 3c72 1e3c 2bff d43d d6f2 afbd 2469 43bd
000003a0: d546 e83d bec8 b63d 07dd d7bd 0c4c 56bd
000003b0: 1e54 b6bd beab 3ebd 2b38 c7bd 343a 92bd
000003c0: eedb f5bd 8982 bebd 5181 cf3c ef7b ccbd
000003d0: 60ad e2bc 462a 1bbd 20a6 053d a40b 3f3c
000003e0: 5c39 2abc e32e bd3d d434 5a3c fab7 a63b
000003f0: 4423 b63d e6c7 c03b f192 2f3c d39c 8e3d

gru.bias_ih_l0 f4 [192]
0.11565496 0.37063414 0.16160932 0.061178897 0.30846852 0.0777095 0.049404334 0.16704486
0.250877 0.2847716 0.2262532 0.036479857 -0.06727018 0.06814035 0.12964836 0.07820087
0.012974337 0.31538853 0.22127393 0.19490747 0.1215382 0.07343559 -0.0714986 -0.0019575707
0.25821292 0.2138531 0.1984615 -0.06714457 0.087317385 -0.10641432 0.05184629 0.16935043
-0.07162549 -0.33924583 0.12295461 0.25206435 -0.11688609 0.43640327 0.15777044 0.15592936
0.118219145 0.24798876 0.028869238 0.2057836 0.11619062 -0.051150355 0.24722007 0.19861755
-0.1308258 -0.10320572 0.31345335 0.046614684 0.1349018 0.1426497 0.2736294 -0.17701061
-0.045414146 0.03540916 0.03758769 -0.030339368 0.060054492 -0.017066149 0.16895957 0.28846988
-0.48965955 -0.32717234 -0.5118664 -0.5426383 -0.16778271 -0.0072245253 -0.106669635 -0.573311
-0.26781008 -0.1895553 -0.1169568 -0.3399207 -0.1352415 0.07178387 0.08878022 -0.3953097
-0.058274005 -0.2982311 -0.37672722 -0.28800324 -0.11018435 -0.04090233 -0.058918852 -0.06257975
-0.35664672 -0.49786368 -0.5521784 -0.40578687 -0.12533116 -0.102551654 -0.3504306 -0.18764703
-0.11761787 -0.36203992 -0.085759334 -0.35101253 -0.45986897 -0.4722968 -0.571851 -0.19934347
-0.49636087 -0.5364105 -0.12349664 -0.11054777 -0.11001316 -0.059681196 -0.48403051 -0.34227693
-0.22526528 -0.22565784 -0.24403964 -0.27405953 -0.32858634 -0.2737852 0.072145656 0.013847657
0.043061413 -0.24171521 -0.5041825 -0.36410847 0.057973538 -0.3471978 -0.5105884 -0.116678365
-0.11116321 0.107614465 -0.06311395 0.029473785 0.21459185 0.13281439 0.082070515 -0.26376197
-0.2006055 -0.3574098 0.1658765 0.16223717 -0.018668145 0.062145337 0.24086057 -0.13974132
0.10217467 -0.17768152 0.37972608 -0.29856962 0.047192283 0.17354454 0.043459006 -0.14093627
0.2678981 -0.24379753 0.19213678 0.0596859 0.16392836 -0.15180588 -0.24646862 0.13680911
-0.16644962 -0.26288587 0.16086751 0.335401 0.041776303 0.3898623 -0.29902053 -0.21794644
0.31569463 0.24311094 0.19177593 -0.22037725 0.091538146 0.03994278 -0.06569035 0.18956688
-0.12757462 -0.19126923 0.1703533 -0.15735854 -0.24039723 -0.097302854 -0.20626384 0.22942433
-0.09026127 -0.08972738 -0.066653565 0.11146861 -0.03868062 -0.029461205 -0.23793098 -0.35103765
00000000: 82dc ec3d c2c3 bd3e ea7c 253e b996 7a3d
00000010: 96ef 9d3e 2926 9f3d 335c 4a3d cf0d 2b3e
00000020: f372 803e 95cd 913e ebae 673e e76b 153d
00000030: f3c4 89bd 2b8d 8b3d 8ac2 043e c727 a03d
00000040: 5092 543c 9b7a a13e a295 623e d395 473e
00000050: 05e9 f83d 6665 963d dc6d 92bd 964a 00bb
00000060: 7c34 843e 4ffc 5a3e 7e39 4b3e 1883 89bd
00000070: 75d3 b23d c0ef d9bd c65c 543d 336a 2d3e
00000080: 63b0 92bd a1b1 adbe a0cf fb3d 940e 813e
00000090: f961 efbd 4070 df3e 938e 213e f2ab 1f3e
000000a0: e11c f23d c4f0 7d3e 2e7f ec3c f0b8 523e
000000b0: 59f5 ed3d 0983 51bd 4227 7d3e 6662 4b3e
000000c0: 33f7 05be 855d d3bd f57c a03e 0aef 3e3d
000000d0: b323 0a3e c312 123e 2719 8c3e 4542 35be
000000e0: 2f04 3abd 3209 113d 8df5 193d 448a f8bc
000000f0: b3fb 753d 4fce 8bbc bd03 2d3e 53b2 933e
00000100: a8b4 fabe 2283 a7be ad09 03bf 58ea 0abf
00000110: 3bcf 2bbe b6bb ecbb 9c75 dabd 82c4 12bf
00000120: 671e 89be c91a 42be 0c87 efbd 160a aebe
00000130: bf7c 0abe 6c03 933d 67d2 b53d 0866 cabe
00000140: b9b0 6ebd bfb1 98be 64e2 c0be 2975 93be
00000150: 55a8 e1bd 3489 27bd e554 71bd d029 80bd
00000160: 669a b6be fde7 febe 905b 0dbf 4cc3 cfbe
00000170: d056 00be 9a06 d2bd a46b b3be 8b26 40be
00000180: a3e1 f0bd 4c5d b9be 97a2 afbd eab7 b3be
00000190: f273 ebbe e3d0 f1be d464 12bf b220 4cbe
000001a0: 0323 febe 3352 09bf ceeb fcbd df66 e2bd
000001b0: 944e e1bd 4574 74bd d9d2 f7be ec3e afbe
000001c0: f1ab 66be d912 67be 87e5 79be 8851 8cbe
000001d0: 783c a8be 932d 8cbe 1ac1 933d 48e1 623c
000001e0: 2a61 303d 3184 77be 1b12 01bf 6d6c babe
000001f0: a975 6d3d e9c3 b1be ecb5 02bf 11f5 eebd
00000200: 89a9 e3bd f964 dc3d e341 81bd 0273 f13c
00000210: f7bd 5b3e 7f00 083e 9614 a83d cf0b 87be
00000220: 876b 4dbe 6bfe b6be 87db 293e 8021 263e
00000230: f0ed 98bc 1c8c 7e3d 27a4 763e 5918 0fbe
00000240: f440 d13d 25f2 35be 756b c23e 1ede 98be
00000250: b24c 413d a9b5 313e 1202 323d 9951 10be
00000260: f129 893e 0fa6 79be 81bf 443e 3479 743d
00000270: d6dc 273e 0073 1bbe 4562 7cbe b017 0c3e
00000280: c571 2abe fa98 86be 74ba 243e aeb9 ab3e
00000290: a11d 2b3d 089c c73e 3819 99be 5a2d 5fbe
000002a0: baa2 a13e 13f2 783e e960 443e 93aa 61be
000002b0: 5a78 bb3d 0a9b 233d aa88 86bd d21d 423e
000002c0: eca2 02be 15dc 43be 1871 2e3e 9922 21be
000002d0: b12a 76be b846 c7bd d436 53be 36ee 6a3e
000002e0: e7da b8bd fdc2 b7bd aa81 88bd a849 e43d
000002f0: 926f 1ebd a058 f1bc 2ea4 73be 35bb b3be

gru.bias_hh_l0 f4 [192]
0.32840407 0.27175605 0.014947151 0.07169824 0.13910003 -0.120835006 0.06523032 0.08550512
0.3068208 0.44551805 0.073977575 0.07410156 -0.116909854 0.049681738 0.09843878 0.071839646
0.048541408 0.20354979 0.32835174 0.33975017 0.26857433 -0.019684149 -0.14916414 0.060734488
0.24271302 0.28762582 0.32493111 -0.1744241 0.040069327 -0.12950201 0.051270187 0.15474817
-0.119973764 -0.2519906 0.10102484 0.2630857 -0.05801605 0.21517342 0.20358062 0.26065853
0.17738847 0.25224206 0.06701719 0.05163318 -0.0392227 -0.06420159 0.16881062 0.35950089
0.05663394 0.06175397 0.114956506 -0.030010056 0.27544612 0.044249583 0.25791347 -0.1960915
-0.08373859 0.0043210518 0.09532603 -0.05954828 0.05202634 -0.019687004 0.35870278 0.21911709
-0.36200115 -0.33915094 -0.4963432 -0.5027735 -0.044085685 0.043568604 -0.105555825 -0.6091808
-0.22535822 -0.20107926 0.05432712 -0.44975013 -0.21156211 0.057824194 0.11556465 -0.4198013
-0.040669255 -0.30006802 -0.5718441 -0.24430859 -0.2994737 -0.13582909 0.02573718 -0.11874912
-0.3044139 -0.48922086 -0.50889426 -0.57176477 -0.29449612 -0.0065119006 -0.19163369 -0.20719609
-0.14889237 -0.4536957 -0.051804055 -0.27530593 -0.2765002 -0.5737077 -0.4707484 -0.23657691
-0.44019768 -0.4617219 -0.02586445 -0.052438505 -0.12828654 -0.145264 -0.42391548 -0.43080834
-0.2043466 -0.066211395 -0.12589163 -0.3945133 -0.46854982 -0.13857728 0.19502105 -0.07911321
0.005302765 -0.23638184 -0.40999886 -0.27324373 0.1135349 -0.25983572 -0.44348386 -0.12831225
-0.45001805 0.62842625 0.45130494 0.4465076 0.22578585 0.2621732 0.19310564 -0.26534876
-0.32619807 -0.35239938 0.21733373 0.38090345 -0.21407045 -0.20066872 0.2394247 0.39410466
0.22634685 -0.2949582 0.5203496 -0.36561456 0.25466818 0.15963307 -0.11667015 0.08218898
0.53706574 -0.32811296 0.43730703 -0.35585308 0.16049749 0.06654733 -0.26623407 0.14595298
0.35589936 0.19193418 0.33725473 0.5380492 -0.3126353 0.49348247 -0.40814337 -0.49601543
0.33645672 0.51148635 0.2444948 -0.39309537 0.18295304 0.23963273 -0.45703498 0.4672408
0.1264973 -0.122939005 0.36958808 -0.2624543 -0.28999877 -0.2953715 -0.31029284 -0.013875994
-0.08721539 0.23420103 -0.23106217 0.070387535 -0.1293656 0.2365874 -0.5131529 -0.28247586
00000000: 9424 a83e 9c23 8b3e e5e4 743c 87d6 923d
00000010: 3d70 0e3e 5878 f7bd 7997 853d 4f1d af3d
00000020: 9e17 9d3e f11a e43e 8e81 973d 8fc2 973d
00000030: 6f6e efbd 147f 4b3d 459a c93d aa20 933d
00000040: 5bd3 463d 5b6f 503e b81d a83e bcf3 ad3e
00000050: 9382 893e a740 a1bc 7cbe 18be bac4 783d
00000060: c389 783e b143 933e 5f5d a63e 3b9c 32be
00000070: bc1f 243d 2d9c 04be b000 523d 4e76 1e3e
00000080: ceb4 f5bd e904 81be 1ce6 ce3d 2bb3 863e
00000090: 3da2 6dbd 6c56 5c3e 7077 503e 0975 853e
000000a0: 53a5 353e df25 813e 4f40 893d 507d 533d
000000b0: fba7 20bd 207c 83bd b1dc 2c3e 8010 b83e
000000c0: fef8 673d bbf1 7c3d 516e eb3d a6d7 f5bc
000000d0: 4607 8d3e 0d3f 353d 3c0d 843e 36cc 48be
000000e0: 237f abbd 9c97 8d3b 4b3a c33d e6e8 73bd
000000f0: 9219 553d a446 a1bc e4a7 b73e 3b60 603e
00000100: 3758 b9be 31a5 adbe b220 febe c4b5 00bf
00000110: 3193 34bd fe74 323d a72d d8bd 46f3 1bbf
00000120: 4ec4 66be b9e7 4dbe 1d86 5e3d a645 e6be
00000130: bda3 58be 10d9 6c3d 29ad ec3d 32f0 d6be
00000140: ce94 26bd 84a2 99be 6064 12bf 082c 7abe
00000150: 9e54 99be c816 0bbe c7d6 d23c bd32 f3bd
00000160: 24dc 9bbe 287b fabe e546 02bf 2d5f 12bf
00000170: 32c8 96be c861 d5bb 9f3b 44be 362b 54be
00000180: 3e77 18be ce4a e8be 7d30 54bd e6f4 8cbe
00000190: 6f91 8dbe 82de 12bf ef05 f1be 3841 72be
000001a0: 9761 e1be d066 ecbe afe1 d3bc c2c9 56bd
000001b0: 8c5d 03be 16c0 14be 730b d9be e992 dcbe
000001c0: 3c40 51be d799 87bd bce9 00be a6fd c9be
000001d0: c3e5 efbe 34e7 0dbe 99b3 473e 1b06 a2bd
000001e0: d1c2 ad3b 150e 72be 5feb d1be 9ae6 8bbe
000001f0: fc84 e83d 3009 85be 5110 e3be 4964 03be
00000200: c468 e6be 8be0 203f 7111 e73e a59c e43e
00000210: 6834 673e 913b 863e 7cbd 453e cbdb 87be
00000220: 6f03 a7be b16d b4be bc8c 5e3e c705 c33e
00000230: 4935 5bbe 1a7c 4dbe c02b 753e 16c8 c93e
00000240: 78c7 673e c304 97be a235 053f d531 bbbe
00000250: de63 823e da76 233e c2f0 eebd b252 a83d
00000260: 247d 093f 6cfe a7be b5e6 df3e 6032 b6be
00000270: 7459 243e f749 883d d54f 88be b374 153e
00000280: 7138 b63e 658a 443e a7ac ac3e 98bd 093f
00000290: bc11 a0be bca9 fc3e 2bf8 d0be bcf5 fdbe
000002a0: 0e44 ac3e c5f0 023f d85c 7a3e cc43 c9be
000002b0: 0b58 3b3e 4862 753e 7d00 eabe 303a ef3e
000002c0: 8288 013e 72c7 fbbd a63a bd3e 6960 86be
000002d0: b87a 94be ef3a 97be b4de 9ebe 2358 63bc
000002e0: fb9d b2bd 65d2 6f3e 909b 6cbe 5727 903d
000002f0: 6a78 04be f843 723e fd5d 03bf ada0 90be

fc.weight f4 [3, 64]
0.03298135 0.617388 -0.75057113 0.4516032 0.47126177 0.42971617 0.45607457 -0.50546414
0.15888864 -0.12847175 0.5379638 0.049441434 0.03904476 0.45427394 0.3152871 -0.23873992
0.6698538 -0.32829344 0.24505058 -0.41642976 0.6839173 -0.06211614 -0.30648452 0.43426895
0.45660266 -0.39047533 0.56062263 -0.58385617 0.45992884 -0.4841018 -0.47662976 -0.065640904
0.6922931 0.7358007 0.45486045 -0.54204535 -0.69774103 0.46655414 -0.22797748 -0.85036016
0.4114193 0.15213732 0.4119785 -0.8506468 0.35482338 -0.121663064 -0.3733691 0.2708055
0.4675801 -0.13338992 -0.7381822 -0.46333018 -0.52809113 0.45126054 -0.5514348 -0.1792753
0.3975921 -0.22383635 -0.61044824 -0.15794702 -0.59629536 0.6104763 0.02457447 -0.18866497
-0.45962557 -0.6436333 0.32989663 -0.069487095 -0.19688722 -0.29523584 -0.11556353 0.031120483
-0.28923288 -0.22869924 -0.472821 0.40737212 -0.31796628 -0.34284878 -0.2913744 0.49209097
-0.22021772 -0.047720972 0.32667708 0.16860753 -0.41620266 0.3905005 0.29615012 -0.42899925
0.21423511 0.038694352 -0.17616777 0.28572705 -0.09060548 0.6659525 0.018536061 0.25510654
-0.4079378 -0.592668 -0.23933935 0.6902975 0.2730887 0.034508593 -0.08368332 0.82523984
0.055204168 0.3704194 -0.29039457 0.72944933 -0.086933695 0.32707044 -0.1505869 0.3142542
-0.36041102 -0.2108772 0.5908604 0.13268517 0.11843597 -0.29130366 0.39759743 0.3187339
-0.4809703 0.6505296 0.24955654 0.38582936 0.51378447 -0.22839054 -0.37794435 -0.0023818472
0.44420385 -0.031742446 0.52338636 -0.8857444 -0.3657712 -0.08579131 -0.4423114 0.5252591
0.35138386 0.4220973 -0.39702806 -0.63020986 0.47767648 -0.050844666 -0.19281863 -0.36436856
-0.24972433 0.49973038 -0.8142968 0.38397074 -0.3330214 -0.4223627 0.13136198 -0.15247287
-0.7774546 0.54556215 -0.51521665 0.7080157 -0.64893186 -0.33081856 0.59275395 -0.19396675
-0.32085702 -0.6623531 -0.16799341 -0.2887723 0.6865926 -0.5525514 1.028052 0.19864985
-0.5869899 -0.7223521 -0.39074928 0.39834008 -0.3975551 -0.38843977 0.9454991 -1.0032338
-0.016864493 0.71901304 0.06214278 0.48798153 0.51963353 0.24936683 0.3921479 -0.34466016
-0.1772617 -0.4405759 0.58143187 -0.68313104 0.06759265 -0.37493894 0.57781816 0.36720896
00000000: 7417 073d 240d 1e3f 6e25 40bf 8938 e73e
00000010: 3949 f13e c203 dc3e 9b82 e93e 1966 01bf
00000020: b4b3 223e 198e 03be ffb7 093f 1a83 4a3d
00000030: 66ed 1f3d 9896 e83e 506d a13e 3d78 74be
00000040: 8a7b 2b3f 1416 a8be 8aee 7a3e 4836 d5be
00000050: 3415 2f3f 7e6d 7ebd 8aeb 9cbe 8058 de3e
00000060: d3c7 e93e 62ec c7be f784 0f3f 9977 15bf
00000070: cb7b eb3e 31dc f7be d108 f4be bd6e 86bd
00000080: 1f3a 313f 6f5d 3c3f 78e3 e83e 7cc3 0abf
00000090: 289f 32bf 2fe0 ee3e ee72 69be 34b1 59bf
000000a0: 8da5 d23e e3c9 1b3e d9ee d23e fdc3 59bf
000000b0: 69ab b53e 7c2a f9bd 3c2a bfbe 05a7 8a3e
000000c0: a966 ef3e 5e97 08be 82f9 3cbf 9d39 edbe
000000d0: fb30 07bf 9f0b e73e d52a 0dbf f293 37be
000000e0: 3191 cb3e 5b35 65be 5646 1cbf ddbc 21be
000000f0: d0a6 18bf 2d48 1c3f 6650 c93c 6431 41be
00000100: 0b54 ebbe 27c5 24bf 36e8 a83e 404f 8ebd
00000110: ce9c 49be 2729 97be 92ac ecbd 62f0 fe3c
00000120: 5516 94be 2230 6abe 9815 f2be 1493 d03e
00000130: 7acc a2be e089 afbe 062f 95be 59f3 fb3e
00000140: c180 61be 1177 43bd 3842 a73e 74a7 2c3e
00000150: 8418 d5be aeef c73e fda0 973e caa5 dbbe
00000160: 7360 5b3e f87d 1e3d 5365 34be d14a 923e
00000170: 5e8f b9bd dd7b 2a3f f0d8 973c 539d 823e
00000180: 39dd d0be 17b9 17bf 6015 75be 56b7 303f
00000190: 48d2 8b3e e258 0d3d 2962 abbd eb42 533f
000001a0: c41d 623d 9da7 bd3e 99ae 94be 31bd 3a3f
000001b0: 4b0a b2bd c775 a73e 7433 1abe ede5 a03e
000001c0: cb87 b8be 31f0 57be a142 173f 9fde 073e
000001d0: 8f8e f23d c125 95be e491 cb3e 1731 a33e
000001e0: bd41 f6be 1c89 263f c08b 7f3e 6d8b c53e
000001f0: 6187 033f 36df 69be ec81 c1be c418 1cbb
00000200: b06e e33e 5e04 02bd a6fc 053f 25c0 62bf
00000210: 5d46 bbbe 5bb3 afbd a476 e2be 6177 063f
00000220: 96e8 b33e 231d d83e 4347 cbbe 6f55 21bf
00000230: 0392 f43e 7f42 50bd 3f72 45be 848e babe
00000240: bcb7 7fbe a9dc ff3e c175 50bf d097 c43e
00000250: c881 aabe ec3f d8be c183 063e d921 1cbe
00000260: 4407 47bf f6a9 0b3f 3de5 03bf 8440 353f
00000270: 6620 26bf 0d61 a9be b9be 173f 389f 46be
00000280: 5f47 a4be f98f 29bf 7706 2cbe f7d9 93be
00000290: 88c4 2f3f 0274 0dbf 3597 833f de6a 4b3e
000002a0: f844 16bf 11ec 38bf 4a10 c8be 3bf3 cb3e
000002b0: 588c cbbe 94e1 c6be 3b0c 723f f769 80bf
000002c0: 6827 8abc 3d11 383f 6d89 7e3d b7d8 f93e
000002d0: b406 053f 055a 7f3e 9cc7 c83e 4c77 b0be
000002e0: 1784 35be 2a93 e1be b8d8 143f ade1 2ebf
000002f0: 046e 8a3d fff7 bfbe e4eb 133f d002 bc3e

fc.bias f4 [3]
0.1395692 -0.01118757 -0.25030768
00000000: 3aeb 0e3e 124c 37bc 5428 80be
