Demo/results/models/蛋白供应分类标签_linear_lstm.pth (torch, 81928 bytes, 6 tensors)

lstm.weight_ih_l0 f4 [256, 11]
000000 ae 43 43 3f 56 8f 0f be bd 1b c0 be fc 81 cc be
       0.76275146 -0.14019522 -0.37521163 -0.3994292
000010 6e 2c 05 3e 1b 93 ea be e9 a7 8a 3e 07 fb 95 be
       0.1300523 -0.45815358 0.2708123 -0.2929308
000020 4f 3a be be 04 43 b6 bb e4 7f 05 3f eb cb a8 be
       -0.3715386 -0.005562188 0.5214827 -0.32968077
000030 e1 4e 57 bd 3d 22 aa bd a7 cd 8c be b4 92 52 3d
       -0.05256546 -0.08307312 -0.2750065 0.05140944
000040 ca f3 cf be 2b 92 6f 3f 9c 59 ea bd e0 ea bb 3e
       -0.40615684 0.9358241 -0.11442873 0.36702633
000050 95 e1 09 bf f7 ac 6a 3d 3d 45 7e be 5c 6c 11 bf
       -0.53859836 0.05729386 -0.248311 -0.5680597
000060 cd 97 06 bf 8c 4e 18 3f a9 ec ab 3d 7b e7 07 bc
       -0.5257538 0.59494853 0.08394749 -0.008294935
000070 16 6d a1 3d 40 7f 2b be f5 92 59 bd f9 cb 47 3f
       0.078821346 -0.16747761 -0.053118665 0.7804561
000080 b2 f7 75 3e ce 07 79 bd 9b 7d f3 be 3b f0 f0 bd
       0.2402027 -0.06079846 -0.47556767 -0.1176457
000090 8a 6d d3 3e 3c 89 58 3d e5 17 63 3d 4e db 1a bc
       0.4129451 0.052865252 0.05544271 -0.0094517
0000a0 05 a1 6e be b7 8e 88 be 59 95 8d 3e 3a a9 11 be
       -0.23303612 -0.26671383 0.27653006 -0.14224711
0000b0 d2 c1 be 3d 45 7a a0 be f1 bf 5e be 29 a0 c5 3d
       0.09314312 -0.31343284 -0.21752907 0.09649689
0000c0 3a 05 a5 3e a8 44 88 be 57 7f d8 bd 2c 48 cc be
       0.3223055 -0.2661488 -0.10571163 -0.39898813
0000d0 52 48 aa 3e 44 0d 1b 3f d0 f7 05 3f ff ff ce bd
       0.332583 0.60567117 0.52331257 -0.10107421
0000e0 55 86 9b 3e 1c 8d 22 3d 4f 6e 00 bf bc d8 0b bf
       0.30375925 0.039685354 -0.5016832 -0.54627585
0000f0 3f 8b ae 3e f5 97 05 3f 1b 34 63 3f c7 4a 8d 3e
       0.3409061 0.52184993 0.8875138 0.27596113
000100 2a 10 b3 be fa bf 93 3e 0f f8 08 bd 46 8a e0 be
       -0.3497327 0.28857404 -0.033439692 -0.43855494
000110 72 04 26 3e 8a 2a a5 3d c7 f8 8d ba c1 76 4a 3e
       0.16212633 0.08064754 -0.0010831588 0.19771864
000120 ba ce fe be 5c 07 d0 be 1d 9a b8 be 6b 71 63 be
       -0.49767095 -0.40630615 -0.3605508 -0.22211234
000130 8a b0 3b 3d 97 03 89 3e b0 dc fb 3e 16 a6 ff 3d
       0.045822658 0.2676055 0.4919181 0.1248285
000140 28 c8 c8 bc e3 b5 86 be 2f 84 56 be a3 d4 32 3f
       -0.024509504 -0.26310644 -0.20948862 0.6985571
000150 d0 a7 a4 3c 59 66 1b 3e 01 08 4e bf 70 06 53 3d
       0.02009955 0.15175761 -0.80480963 0.05151981
000160 32 b3 e7 3e e7 a3 a8 3e 5f eb e7 be 49 3f ca 3e
       0.45253903 0.32937548 -0.4529676 0.39501408
000170 9c 63 cc bd 2c de 03 bf 44 5b 91 3e eb fc 09 bf
       -0.099799365 -0.5151088 0.28389943 -0.5390155
000180 ce 66 8c be cc e7 b2 bd f2 69 d0 be 77 d1 6e be
       -0.27422184 -0.08735618 -0.4070583 -0.23322092
000190 a3 1c 8b 3d c7 b1 60 be 17 13 f4 3e ca 32 77 bf
       0.067925714 -0.21942817 0.47670814 -0.9656187
0001a0 57 b3 43 3f b8 7b 41 bf e7 f6 27 3d 9b 92 23 bf
       0.76445526 -0.75579405 0.04100695 -0.6389558
0001b0 a8 af c2 be 00 12 95 3e f2 fc 43 3e 77 67 1b 3e
       -0.3802464 0.29115295 0.1913946 0.15176187
0001c0 b7 2e 88 be c6 d2 18 3e 65 69 ce 3d 88 35 10 be
       -0.2659814 0.14924154 0.10078696 -0.1408292
0001d0 e5 a3 46 3b 64 7c ef bd 4e 91 7b 3e 09 cd 30 3e
       0.003031009 -0.116936475 0.24567148 0.17265715
0001e0 06 aa eb 3d a9 56 0e be b3 fe 51 3e 9b ee 73 3e
       0.11507039 -0.13900246 0.20507316 0.2382149
0001f0 2e e6 a7 3d 2e 35 48 3e e2 9a 59 3d 47 3f 0f be
       0.081982 0.19551536 0.053126223 -0.13988982
000200 52 6e ee be ec be 18 be eb 7c 0a 3e 69 b7 05 3f
       -0.46568543 -0.14916581 0.13524215 0.52232987
000210 d9 7e 80 3e eb 35 da 3e 9c 44 81 3e a3 53 cb 3e
       0.25096777 0.4261926 0.25247657 0.39712247
000220 c2 89 00 3e 5c 9d d7 be 19 3d 59 3e 5c 87 9c 3d
       0.1255255 -0.42112243 0.21214713 0.07643005
000230 0c 53 a2 3e a2 cf 19 3f 7e 7c 2b be f9 e7 96 3d
       0.31703985 0.6008245 -0.16746709 0.07368464
000240 b5 9f 6e 3f 78 8a 66 be a3 75 90 be 7b b5 12 be
       0.93212444 -0.22513759 -0.2821475 -0.14327042
000250 49 7a 53 3d 7e c7 be 3c fa 29 24 be 15 09 aa 3d
       0.051630292 0.023288485 -0.16031638 0.083025135
000260 f3 b2 74 bd 09 95 45 bb 68 35 f9 be 0a b3 ef bd
       -0.05974097 -0.0030148646 -0.48673558 -0.11704071
000270 5b 58 c9 3d 11 e5 28 3e 9a 01 02 3e 26 19 69 3d
       0.098313056 0.16493632 0.12695923 0.05690875
000280 b2 e8 a9 be 1d ec 5c be bb e5 c4 bd 8f 88 ad 3e
       -0.33185345 -0.21574445 -0.0961413 0.33893248
000290 4b 90 4a 3f 21 18 a7 3e 83 c1 91 3e 75 d4 8b 3e
       0.79126424 0.32635596 0.2846795 0.2731053
0002a0 01 1f ee be f6 86 43 be b6 37 90 3e 35 9b 80 be
       -0.4650803 -0.19094452 0.28167504 -0.25118414
0002b0 be 63 94 3d b0 dc 28 bf b2 70 80 3e 85 5b 76 3d
       0.07245587 -0.6596174 0.2508598 0.060145874
0002c0 e6 a2 8d 3e cd 6c d0 3e 58 49 93 3e 61 77 e6 be
       0.27663344 0.40708008 0.28766894 -0.45012954
0002d0 7d 48 a9 be a9 7f c1 3e 1d 49 6c be 54 4d 22 be
       -0.33063117 0.3779271 -0.23074766 -0.15849811
0002e0 b5 3a ab be 06 54 85 3e 29 18 d6 3d bc cb 07 3b
       -0.33443227 0.26040667 0.10453827 0.00207208
0002f0 ce c3 ce be 53 30 e0 be 89 80 84 3f 8f e1 8a be
       -0.40383762 -0.43786868 1.0351726 -0.27125213
000300 36 ad cb bd 75 35 fa be 31 94 5d bd 66 ef 11 be
       -0.09945147 -0.4886891 -0.054096404 -0.1425148
000310 84 97 e7 bd 93 4c 66 bd fc 81 aa be b9 23 ab be
       -0.11308196 -0.05622537 -0.33302295 -0.33425692
000320 31 0e bf 3e fe 78 bc 3d d9 8b ed 3c 2c 49 4c be
       0.37315515 0.09202765 0.028997349 -0.19949788
000330 8c ec 53 3e 42 29 c9 3e 3a d9 16 3c a9 40 17 bf
       0.20695704 0.3928929 0.009207064 -0.5908304
000340 0b b3 7e 3e f8 d1 db 3e 85 0f ff bd 48 bc 5b be
       0.24872987 0.4293363 -0.12454132 -0.21458542
000350 14 30 8e 3e 85 49 63 be 7f bc 9f be 90 9c 86 3e
       0.27771056 -0.22196014 -0.311985 0.26291323
000360 7e 77 28 be 12 f9 27 bf e1 4c 59 bf 04 a8 22 3d
       -0.16451833 -0.65614426 -0.8488293 0.039711013
000370 fd e0 83 be 79 e2 26 bf 0c 7b 02 bf fe bb d1 bd
       -0.2575759 -0.6518932 -0.50969005 -0.10240935
000380 58 ac 3d bd 79 fe e9 3d 33 82 68 be 56 47 e6 bd
       -0.046306938 0.1142549 -0.22705917 -0.11244075
000390 23 0b 90 3c 4a 6f b1 3d 5c b9 93 3e 8b 1f 0d be
       0.017583435 0.08663805 0.28852355 -0.13781564
0003a0 99 57 60 be 45 5d 6e 3d 2d 9e f6 3e 96 87 43 3e
       -0.21908416 0.058194418 0.48167554 0.1909469
0003b0 49 d4 64 3e aa 77 44 bf 5f 4b 69 be 3a 45 f3 be
       0.22346605 -0.7674509 -0.22782658 -0.47513753
0003c0 a1 a7 03 be 8e b9 2b 3e 39 1a 8c be 70 43 06 3e
       -0.12856914 0.16770002 -0.27363756 0.13111663
0003d0 c2 95 8f bd b3 d0 91 be 28 35 82 3e 05 31 01 bf
       -0.07010986 -0.28479537 0.2543118 -0.5046542
0003e0 42 12 3d 3f 04 33 30 bf 46 98 0f 3f 45 47 c3 be
       0.73855984 -0.68827844 0.56091726 -0.38140312
0003f0 3f 4c 07 3e fc 14 b9 bd 5a d7 49 be c0 67 28 bf
       0.1321268 -0.090372056 -0.19711056 -0.6578331

lstm.weight_hh_l0 f4 [256, 64]
000000 3a 40 11 3c 94 53 74 3d 80 41 dd 3d 0b 11 34 bd
       0.00886541 0.05965002 0.10803509 -0.043961566
000010 f4 a8 3c 3d 3c d4 86 bd 48 dd 4e bd 62 c3 93 3d
       0.046059564 -0.06583449 -0.050504 0.07215001
000020 b2 56 ad bd 6b 6d de 3d 9b 41 8e bd e1 6d 88 3d
       -0.084638014 0.108607136 -0.06946107 0.06661583
000030 91 0c 80 bd 87 f6 cf bd 01 5b 06 bd e9 fa e6 bd
       -0.06252397 -0.10154443 -0.03280163 -0.11278326
000040 dc 66 29 bd 04 e3 d1 3d c2 d0 7c 3d fb 83 6d 3d
       -0.04135786 0.10248378 0.061722524 0.057987195
000050 77 a4 57 3d 8e ab 9d 3d 3e 6e 8f 3d 4b 56 c1 3d
       0.05264708 0.07698737 0.07003449 0.09440287
000060 e7 54 a1 3c 8d e9 39 3d b6 b7 7c bd 5c ef 9a bd
       0.019693805 0.045388747 -0.061698638 -0.075651854
000070 ad 0d a8 3d fe 38 64 3d 52 bd b2 bd e5 7d 5c bd
       0.082057334 0.055718414 -0.08727516 -0.053831
000080 00 30 53 3d 02 53 e1 3d 2b 90 66 bc f5 b5 59 bd
       0.05155945 0.110021606 -0.014072458 -0.053152043
000090 9c 31 64 bd 0b 47 97 bd 53 34 9d 3b 8f 66 ac bd
       -0.055711374 -0.07386597 0.0047974973 -0.08417999
0000a0 8e e4 3b bd e7 7c 63 ba 02 30 e8 bd 10 34 42 3d
       -0.045872264 -0.00086779747 -0.11337282 0.047412932
0000b0 32 56 53 bb c5 ad 39 bc 3c 5b d8 bd ea 79 7c bc
       -0.0032247421 -0.011332934 -0.105642766 -0.015409926
0000c0 80 dd 50 bd f9 26 d5 bd 78 d0 89 bd 22 18 55 3d
       -0.05099249 -0.10407824 -0.067292154 0.052024968
0000d0 32 c6 dc 3d 64 ba cd 3b cb 09 ba 3d 8e 95 9c 3d
       0.1077999 0.006278323 0.09083899 0.07645713
0000e0 74 04 a4 3d 71 c4 ab bc 6d 36 4a bd 4d 53 ca 3d
       0.08008662 -0.020967694 -0.04936831 0.098791696
0000f0 03 3f e1 bd fb f3 33 3b 0b eb a9 3d 51 5f 6c bd
       -0.10998347 0.0027458656 0.08296784 -0.05770809
000100 4e 82 b3 bd 79 e7 ae 3d c5 76 e7 bd 50 3e ab 3c
       -0.08765088 0.08540244 -0.1130195 0.020903736
000110 8f 8d 47 3d 10 5d b5 3c de 11 a6 3c 8f 6a f4 3c
       0.048718985 0.022139102 0.020272192 0.029835967
000120 f6 4a cd bd 15 ed af 3d bb fd df 3d a7 8e f3 3c
       -0.10024063 0.08590142 0.10937067 0.029731108
000130 0d 2f c1 3d d1 a8 d3 bd 7f 2b 9e bd 75 4f b7 3d
       0.09432802 -0.103349335 -0.0772314 0.08950702
000140 69 ee e5 bc 24 d9 2f 3d 71 3e d3 bc e4 60 a3 bc
       -0.028067784 0.04293169 -0.02578661 -0.019943662
000150 9c f7 1b bd 9d c8 cc bd 88 ef e1 3d 9b 5e a8 3d
       -0.038077936 -0.099992014 0.11032015 0.082211696
000160 e2 9a 45 3d e7 40 ce 3b bc e3 e1 3d 26 fa 8d bd
       0.04824341 0.006294358 0.11029765 -0.06932478
000170 cb 0f 13 b9 c6 ae 94 bd d4 cf b0 3d 20 e0 e6 3d
       -0.00014024896 -0.07259898 0.0863339 0.11273217
000180 59 6c 58 3d 4f 70 61 3c a8 63 12 3d 10 47 b4 3d
       0.052837703 0.013759687 0.03573957 0.088026166
000190 b1 57 98 bc b9 ad 2e 3d 86 3d be bd ee 04 e5 bc
       -0.018596502 0.042646144 -0.092890784 -0.027956452
0001a0 af 94 cb 3d b1 5a b3 3c 8b 41 94 3d 11 04 da 3d
       0.099404685 0.021893831 0.07239064 0.10645307
0001b0 e7 cc 5e bb 36 b3 a6 3c f2 67 ad 3d 90 52 bd 3d
       -0.0033996643 0.020349126 0.084670916 0.09244263
0001c0 e6 91 fb bc 9a 9d 82 3d 24 61 33 bd 70 e5 98 bc
       -0.030709218 0.06377716 -0.043793812 -0.018664092
0001d0 88 5b 77 3d a5 89 80 bd e2 fa a1 bd 40 f4 a9 3d
       0.060390025 -0.062762536 -0.0790918 0.0829854
0001e0 a6 08 d2 bd cf 7e 68 bd 84 91 8d bd 8b a8 fa 3c
       -0.10255556 -0.05676156 -0.069125205 0.030597946
0001f0 8c e3 d4 3d 77 f2 96 3d da c6 fb 3c 73 88 79 3a
       0.103949636 0.07370465 0.030734468 0.0009518929
000200 85 d8 ac 3d e9 df 9c 3d 88 a4 36 3d a0 fc 90 3d
       0.08439735 0.07659895 0.044590503 0.070794344
000210 8f b9 d8 3d 90 b2 f5 bd 8f 5c 6f 3d 6d af 78 bd
       0.105822675 -0.11996949 0.05843788 -0.060714174
000220 98 ae f3 3b 5e 53 5a bd 3a d4 17 3d 95 46 f0 bd
       0.0074365847 -0.05330216 0.03706763 -0.117322125
000230 3a bb 1c 3c ed fc 89 3d 80 02 0a 3c 6e 10 84 bc
       0.009566123 0.06737695 0.008423448 -0.016121116
000240 cd c0 b9 3d 14 11 e4 3d 8b e9 b2 bd 84 67 89 bd
       0.09069977 0.1113607 -0.08735951 -0.06709197
000250 76 2d eb 3d 14 38 f8 bc 8e 76 6a bc 50 b1 e6 bd
       0.1148328 -0.030300178 -0.014310492 -0.112642884
000260 14 49 c8 3d ea ec e9 3d 3c 09 25 3d 04 6e 99 3d
       0.097795635 0.11422141 0.04029201 0.07491687
000270 ca e2 b2 bb 92 17 90 bd 8b b0 54 3b 5e 21 ea bd
       -0.0054591643 -0.07035746 0.003245386 -0.114321455
000280 ab c9 41 bd 90 eb ea bc 63 4a bd 3d dc cc 71 bd
       -0.047311466 -0.028676778 0.09242704 -0.05903326
000290 c0 16 d5 3c 67 db 56 3c 56 29 ed bd 11 19 86 3c
       0.026011825 0.013113833 -0.1158015 0.016369374
0002a0 dc bc 82 bd 92 d3 99 3a 17 1e d4 3d 89 b3 c7 bd
       -0.06383678 0.0011736026 0.10357302 -0.097510405
0002b0 33 fc 8d bd 5e 98 a1 3c 11 88 25 bc 92 cd 7f bd
       -0.06932869 0.019725975 -0.010103242 -0.062451907
0002c0 23 81 be bd 7f f8 ce 3b 3f 90 a6 bc 83 21 3e bc
       -0.093019746 0.006316244 -0.020332454 -0.0116046695
0002d0 31 00 63 bd 2c 63 f0 bd 10 e5 bf 3b bd fe ca bb
       -0.055420104 -0.117376655 0.005856164 -0.006194918
0002e0 2e fa e3 3d 1f 4e 83 3d fb 02 8c 3b 23 46 dc 3d
       0.11131702 0.06411385 0.0042728162 0.10755565
0002f0 cb b1 5c bd 34 47 71 3c 4b d2 12 3c bf e8 53 3d
       -0.053880494 0.014726449 0.008961271 0.051735636
000300 ea c9 38 bc 24 6b 91 bd 71 69 73 3c f9 22 ad bd
       -0.011278609 -0.071005136 0.014856682 -0.08453936
000310 6f 17 c0 bd 57 d3 4c 3d 55 17 cf 3b 19 7a d9 bd
       -0.093794696 0.050006237 0.00631992 -0.106189914
000320 77 d5 a6 bd 7a fc 05 3c 3d 18 cc 3b a7 7e ec 3d
       -0.08146184 0.008177871 0.0062284754 0.115475945
000330 fc ad 84 3d 9a 1e d6 3c e3 06 f9 bc b5 a6 56 3d
       0.064784974 0.026137639 -0.030398792 0.052405078
000340 4b 9c 12 bd 24 b0 d6 bd 87 77 a4 3d f6 72 9c 3a
       -0.035793584 -0.10482815 0.080306105 0.0011936116
000350 90 6b 96 3d ff 39 23 3d 12 d5 8b 3c 1a 3a 30 3d
       0.07344735 0.03985023 0.017069373 0.04302416
000360 f2 54 34 ba 00 f1 ef 3d 62 f8 bb bd a5 99 69 3b
       -0.0006879113 0.11715889 -0.09178235 0.0035644558
000370 59 f9 38 3d 87 21 be bd 10 c0 d0 bd 4d 5f 9b bd
       0.04515967 -0.092837386 -0.10192883 -0.075865366
000380 6f dc 40 bd 0b 9d ae bd 48 96 27 bd 48 f5 cb 3c
       -0.04708522 -0.08526047 -0.040914804 0.024897233
000390 34 45 95 3d 6b 66 78 bd bd d4 ba 3c c5 82 3c bd
       0.0728859 -0.06064455 0.02280652 -0.04602315
0003a0 94 da eb bd 05 a8 b7 bd 73 07 cf bd b2 40 bf 3d
       -0.115163 -0.08967594 -0.10108843 0.093385115
0003b0 13 73 93 bd 87 86 ce 3d 0e 87 17 bc b9 e0 ec 3d
       -0.07199683 0.10084253 -0.009248508 0.115663
0003c0 c0 12 a1 bd 98 88 f0 bd e2 3b 77 bd ef 6c 75 3d
       -0.078649044 -0.11744803 -0.060359843 0.05991834
0003d0 30 92 d3 3c 24 30 0e bd 8e 0d fd 3c 37 f7 54 3d
       0.025826544 -0.03471388 0.030890252 0.051993575
0003e0 f7 46 55 3d d7 0c dd bd 98 2e ea bc 4a e4 06 bd
       0.05206963 -0.10793465 -0.02858667 -0.032932557
0003f0 2e 69 4b 3c f2 0c db 3c 94 5a 8f bc b3 17 f8 3c
       0.0124152135 0.026739571 -0.017499246 0.030284738

lstm.bias_ih_l0 f4 [256]
000000 be d5 9d 3e 1c 91 86 3e b8 e6 2a 3f f1 ea 59 3e
       0.30827135 0.26282585 0.667583 0.2128103
000010 f0 03 0e 3f 44 98 11 3f ae 9d 8d 3e a7 ec 29 3e
       0.5547476 0.56872964 0.27659363 0.16594182
000020 f2 94 d4 3e 7d 84 2e 3f f8 99 1e 3f ab f9 8e 3e
       0.41519886 0.6817091 0.6195369 0.27924857
000030 8e 21 1f 3e 25 05 4e 3f 2c c6 14 3f 04 6d 20 3f
       0.15540144 0.804766 0.58114886 0.62666345
000040 d6 eb 1d 3f 9a f3 b2 3e c9 5c 28 3f 09 06 85 3e
       0.6168798 0.34951478 0.6576658 0.25981167
000050 d1 1f 25 3f d4 c9 5b 3d 5f 2b 6f 3d d5 54 08 3f
       0.64501673 0.053659275 0.05839097 0.53254443
000060 71 15 ac 3e b8 af 11 3f fe 0c cd 3d 9a 89 9a 3e
       0.33610108 0.5690875 0.10012244 0.30183107
000070 b1 33 3b 3e 57 c9 d5 3e 91 cd 23 3f d5 e8 20 3f
       0.18281437 0.41755173 0.63985544 0.62855273
000080 27 3a aa 3e 8c 4e 06 3f 25 3e ab 3e c1 bf 03 3f
       0.33247492 0.52463603 0.3344585 0.5146447
000090 27 c9 ba 3e 94 e0 84 3e 1c 86 4a 3e d0 a8 23 3e
       0.36481592 0.2595259 0.19777721 0.15982366
0000a0 e9 d3 a2 3e f3 3a 69 3e 2e 02 32 3f a9 a6 bf 3e
       0.318023 0.22776394 0.69534576 0.3743184
0000b0 8f 86 08 3f 20 6b 84 3e 64 f9 ba 3e b3 af ec 3e
       0.5333032 0.2586298 0.36518395 0.46227798
0000c0 e9 c6 87 3e 89 ee 42 3d 03 ef ac 3e 1a 8f f9 3e
       0.26518944 0.047590766 0.337761 0.4874199
0000d0 35 ae a4 3e db e4 ab 3e 14 07 04 3f e3 07 4a 3f
       0.3216416 0.3357304 0.515733 0.78918284
0000e0 5b 25 cc 3e be 3e 1e 3f 09 e5 5a 3f fb 07 3c 3e
       0.3987225 0.61814487 0.8550573 0.1836242
0000f0 ce 2b 10 3f e1 47 ed 3e fd d4 87 3e b4 29 20 3f
       0.5631684 0.46343902 0.26529685 0.62563634
000100 53 51 d0 3d e9 69 d6 bd d0 d8 cd bd e9 f0 c1 bd
       0.10171761 -0.104694195 -0.10051119 -0.09469778
000110 93 18 d7 bc d3 37 9f bd 8e c9 67 3d bb 03 86 bd
       -0.026256835 -0.077743195 0.056588702 -0.0654368
000120 90 01 99 39 72 0a aa bd e5 95 a2 3c 2c f1 ee 3d
       0.00029183598 -0.083027735 0.019846866 0.11667094
000130 4d 30 20 3d 7e d7 3d bd f4 69 ad bd 68 13 69 bc
       0.039108563 -0.046348087 -0.084674746 -0.014225818
000140 07 91 b2 bd 77 33 e8 3c 0d a3 4a bd 45 55 5e bd
       -0.08719068 0.028344853 -0.049471904 -0.054280538
000150 a9 6f 3d bc 6a 68 65 3d 57 8c 96 bc eb 45 8b 3d
       -0.011562266 0.05600778 -0.018377466 0.06800445
000160 38 75 9b bd 7a f0 12 3c f3 ae 0d 3d 6a ba 16 3d
       -0.07590717 0.008968467 0.034590673 0.036798872
000170 8d 67 ac 3d 33 49 f5 bc 69 97 af bd 7a 01 48 bc
       0.08418188 -0.02994213 -0.08573801 -0.012207383
000180 34 93 a0 3d 59 68 3a bc 82 85 b4 bd 5f b5 6b bc
       0.07840577 -0.0113774175 -0.08814527 -0.014386504
000190 45 8d b4 bd 1e 17 8d 3d f1 5b 5e bc 19 90 4c bc
       -0.088160075 0.06889175 -0.013571725 -0.012485527
0001a0 90 69 51 bd 81 19 14 bc 03 f2 8e 3d 49 96 7e bd
       -0.051126063 -0.009039284 0.06979754 -0.06215504
0001b0 6b 22 f5 bd 3b 4b 53 3d b5 52 d6 3d 10 7d 55 3d
       -0.11969455 0.051585417 0.10464994 0.052121222
0001c0 3c 65 4d bd 45 d1 2d bc 0c 65 c1 3d 37 2d e5 bd
       -0.050145373 -0.010608976 0.09443101 -0.11190265
0001d0 1f 66 87 bd d6 49 d6 bd 40 1c e6 3d 3f 35 d9 3d
       -0.06611275 -0.10463302 0.11235857 0.10605859
0001e0 7a cc 12 bd 82 f3 cd bd d2 27 9d 3d a0 8c 9c 3d
       -0.035839535 -0.10056211 0.07673611 0.076440096
0001f0 19 2f c8 bd 63 9a 2a bd 11 3a ed 3c e7 8d 31 bd
       -0.09774608 -0.04165114 0.028958352 -0.04334822
000200 ab c3 b7 3e 9c cc ef bb 1e f5 af be 6d 7c 16 be
       0.3589147 -0.0073180925 -0.34366697 -0.14695902
000210 a9 45 8d 3d bc 64 a8 3d aa eb 84 be 47 34 e6 bc
       0.06898052 0.082223386 -0.25961047 -0.0281011
000220 87 f3 57 be 29 69 c6 3d e4 56 3c 3e 71 46 81 3d
       -0.21088992 0.096880265 0.18392521 0.06312264
000230 69 32 ca 3d 09 5c 9c be fb 2a eb bc 00 6f a0 3d
       0.09872896 -0.30538967 -0.028707018 0.078336716
000240 d2 38 91 be c9 57 48 be d2 66 41 bc cb 20 b9 be
       -0.28363663 -0.19564737 -0.011804299 -0.36157832
000250 5e 52 9f 3e 86 ca e2 3d 70 37 21 bb 3f e3 7f be
       0.3111753 0.110737845 -0.0024599694 -0.24989031
000260 9d 18 b5 3e d6 52 eb be 12 d4 a7 be b4 22 20 3e
       0.3537034 -0.45961636 -0.32778984 0.15638238
000270 49 5c 7a 3c d5 4d 93 3d 06 66 b9 3e b9 0e 86 be
       0.015280792 0.0719258 0.3621065 -0.26183107
000280 fd 0b 47 bd 27 0b 43 3e 87 f7 e9 3c f7 89 01 3f
       -0.048595417 0.19047223 0.028560413 0.5060114
000290 99 3d 7e be 4c 28 b9 3d 43 99 dd bd a4 f7 46 3d
       -0.24828185 0.09040889 -0.10820248 0.048576012
0002a0 0f f6 09 bc a2 1a 5c 3d f4 ff a6 bd 2f c7 9e be
       -0.008420481 0.053736337 -0.08154288 -0.3101134
0002b0 b2 61 6c be c1 71 22 be 04 cf e7 bd 46 3b 45 3d
       -0.23084143 -0.15863706 -0.11318782 0.04815223
0002c0 c6 9f 9c 3e f2 55 4d be 4a 07 64 3e a4 da 0e bd
       0.30590647 -0.20052317 0.22268406 -0.03487648
0002d0 43 74 f9 3b 8f 31 1e be 23 67 4c 3e 75 b0 a5 bd
       0.0076127364 -0.15448593 0.19961219 -0.08090297
0002e0 95 9b cc bd 70 d4 66 3e 1f 25 cf bc 8d 8c 0c be
       -0.099906124 0.22541976 -0.025286255 -0.13725491
0002f0 91 b3 5e 3e 1b 13 94 be 13 7a 6c be 0c 7d 9f 3e
       0.21748187 -0.28920826 -0.23093443 0.3115009
000300 28 cb ee 3e a9 b2 88 3e 0c 2c 11 3f 21 a2 a5 3e
       0.4663937 0.26698807 0.56707835 0.32350257
000310 03 14 1c 3f 64 67 02 3f 7b 54 53 3e 27 9b 82 3e
       0.60968035 0.5093901 0.20637695 0.25508997
000320 fd 5a ba 3e b0 d6 cf 3e f5 93 e0 3e 21 90 b6 3e
       0.36397544 0.4059348 0.43862882 0.35656837
000330 79 8d b4 3e df ce 0d 3f 4b 0c 07 3f 7c bb 28 3f
       0.35264185 0.55393785 0.5275313 0.6591108
000340 1b 36 3b 3f 12 c7 b4 3e 92 84 4a 3f 60 b6 81 3e
       0.73129433 0.3530813 0.79108536 0.25334454
000350 7a 0d 0f 3f f2 52 94 3e 49 03 ab 3e a0 9e e7 3e
       0.5587994 0.28969532 0.33400944 0.4523821
000360 1f 52 de 3e 23 3d 03 3f 11 06 be 3e 48 6c 51 3e
       0.43422028 0.5126516 0.37114003 0.20451462
000370 f3 1c 25 3e 17 7e 14 3f 07 37 1f 3f 64 96 30 3f
       0.16124325 0.580049 0.6219334 0.6897948
000380 e5 05 9f 3e 77 e6 0d 3f a6 02 f9 3e 9e 05 01 3f
       0.31059185 0.55429786 0.48634833 0.50399196
000390 9b c3 0f 3f d3 b4 87 3e 4c f3 92 3e 13 38 b6 3e
       0.56157845 0.26505145 0.28701246 0.35589656
0003a0 23 79 d1 3e b1 4e 0e 3e b0 0c 1d 3f 16 85 06 3f
       0.40912732 0.13897206 0.61347485 0.52546823
0003b0 0d 4f c1 3e 93 bc 37 3e ca 27 3e 3f e7 29 a9 3e
       0.37755623 0.17943029 0.74279463 0.3303978
0003c0 f2 21 51 3e 0e c6 6a bd 48 e6 d5 3e 21 7b 92 3e
       0.20423105 -0.057317786 0.41777253 0.28609565
0003d0 bc 0c a8 3e 71 76 df 3e f4 7e a8 3e 1c 51 12 3f
       0.32822216 0.4364505 0.32909358 0.57155013
0003e0 df a9 cb 3e 45 46 eb 3e 80 75 50 3f 64 81 97 3e
       0.3977804 0.4595205 0.8142929 0.29590905
0003f0 3d 8a 34 3f fe 9e fc 3e 9c 4c 84 3e cb 0e 00 3f
       0.70523435 0.4934005 0.25839698 0.5002257

lstm.bias_hh_l0 f4 [256]
000000 7f 4d 0a 3f ea 1d 3c 3e 9f cf 22 3f 0f 9a 80 3e
       0.540245 0.18370786 0.63598055 0.25117537
000010 ac ec 1f 3f 47 cb 03 3f 64 10 6c 3e 75 af 91 3e
       0.6247051 0.5148205 0.23053128 0.28454176
000020 cc 4e fd 3e df c4 16 3f 51 11 0a 3f c6 f4 77 3e
       0.4947418 0.5889415 0.5393267 0.24214467
000030 8f 34 4f 3e fc 6b 5a 3f 2e 80 27 3f 69 63 21 3f
       0.20234893 0.8532102 0.6542996 0.6304231
000040 a6 b7 28 3f 52 c5 9e 3e 4c c5 0c 3f 12 ae 48 3e
       0.65905225 0.31009918 0.5498855 0.19597653
000050 5a 31 e4 3e 2c 61 4c 3e 1b 7e 70 3e e6 01 f2 3e
       0.44568902 0.19958943 0.23485605 0.47267073
000060 98 d7 b8 3e 36 3a f8 3e 6a 7e ac 3d 5c da c1 3e
       0.36101985 0.4848191 0.08422549 0.37861907
000070 f1 9d 1c 3e 6a aa ae 3e c8 5d d6 3e f1 a6 19 3f
       0.15294625 0.3411439 0.41868424 0.6002036
000080 a5 7a 8f 3e fd 9a b6 3e a3 52 d1 3e 64 9e 0e 3f
       0.28023258 0.35665122 0.4088336 0.55710435
000090 38 f4 fc 3e e4 0e 75 3e 1c 5d b8 3e 08 a2 47 3e
       0.49405074 0.23931462 0.36008537 0.19495404
0000a0 ae fe 4b 3e e5 c1 0e 3e b6 54 63 3f e5 25 cf 3e
       0.19921371 0.13941152 0.88801134 0.404586
0000b0 c6 84 e4 3e 02 81 8a 3e 5c 71 f3 3e 96 fa 0b 3f
       0.44632548 0.2705155 0.47547424 0.5467924
0000c0 63 a9 b2 3e 93 aa da 3d dc b4 db 3e 8d 7b e5 3e
       0.34894857 0.10677066 0.42911422 0.44820824
0000d0 da 13 ea 3e 5f ed bf 3e bb 73 b3 3e 75 da 56 3f
       0.4571827 0.37485787 0.35049233 0.8392709
0000e0 97 0e 9d 3e e0 61 1f 3f 76 cb 2f 3f 12 35 83 3e
       0.30675194 0.6225872 0.6866983 0.25626427
0000f0 4a f1 21 3f 13 26 f7 3e cf 64 9b 3e 9e 3b 1c 3f
       0.632588 0.48271236 0.30350348 0.6102847
000100 98 e7 db 3d 26 8c c2 3d 33 70 06 3d 46 ae 95 bc
       0.107375324 0.094993874 0.032821845 -0.018271577
000110 1d 12 82 3c f5 0f cb bd 26 08 85 bd c3 19 cb bd
       0.015877778 -0.09915153 -0.06495695 -0.09917023
000120 d0 a7 a1 bd 55 39 e5 3d 1f 6e cc 3d 54 0b ab 3d
       -0.07893336 0.11192576 0.099819414 0.0835177
000130 5b 12 49 bd 7a 72 71 bd 35 d6 a8 bd 6e de 4d 3d
       -0.04908977 -0.058947064 -0.08243982 0.050260954
000140 4c 4b 20 bb 55 60 cc 3c dc 3c c1 bd 08 b5 a6 3d
       -0.0024458943 0.024948278 -0.09435436 0.08139998
000150 42 23 48 bb 30 eb 3c 3c e5 ce f7 bc 14 c7 eb 3d
       -0.0030538593 0.011530682 -0.030250022 0.115125805
000160 69 7d 94 3d 2d 0b de 3d 53 78 9f 3a f2 fc 11 3d
       0.072504826 0.10841975 0.0012166597 0.035641618
000170 1d 08 a7 3c 0f d9 40 bc 0e 74 02 bd 75 89 e6 3d
       0.02038961 -0.011770501 -0.03184896 0.112566866
000180 1a 70 58 3d 02 87 00 bd 72 25 bb 3d b1 2f ca bc
       0.052841283 -0.031378753 0.091380015 -0.024680944
000190 c6 d2 92 3d 3e af 92 3d 27 22 ef 3a 90 b4 b4 3d
       0.07169108 0.07162331 0.0018244431 0.08823502
0001a0 d5 b6 98 3d 2f 52 ee bd a3 e6 a9 3d ef 05 76 bc
       0.074567474 -0.11636769 0.082959436 -0.015016063
0001b0 1b f6 9f 3d 02 60 ee bc 70 db a2 bd dd 0d 6e bd
       0.07810613 -0.029098514 -0.07952011 -0.05811869
0001c0 cb 12 53 3d 0d 87 a0 3d aa 15 b7 bb 55 11 41 bd
       0.051531594 0.07838259 -0.0055872994 -0.04713567
0001d0 78 c2 cc bd 9e fe 72 3d 30 e3 f1 3b 31 07 f8 bd
       -0.099980295 0.059324853 0.007381819 -0.12110747
0001e0 9f ae f3 bc dc fa e5 bc 6d c0 f0 bd e6 0c 23 bd
       -0.029746352 -0.02807372 -0.11755452 -0.039807223
0001f0 d0 4b 85 3d 80 2a fb 3c 2b 47 df 3c 4c 3e 28 3a
       0.06508601 0.030659914 0.027255615 0.00064179744
000200 09 82 ad 3e 5e 44 c0 3b e5 8b 51 be 08 2b 73 be
       0.3388827 0.005867525 -0.20463522 -0.23746884
000210 d5 c1 e7 3d 0c 19 56 3c fc 7a 9d be c3 6c 1c be
       0.113162674 0.013067495 -0.30757892 -0.15275864
000220 a2 87 5c bd 82 95 6f 3e 6a af 14 3d ec a6 04 3e
       -0.053840287 0.23396876 0.0363001 0.129543
000230 bc 2e 86 bb bc 21 af be 8c 49 21 be 65 30 3f 3e
       -0.0040949266 -0.34205425 -0.15750712 0.18670805
000240 6f c2 32 be da dc 1f be c5 2a 89 bd ed 19 71 be
       -0.17456983 -0.15611592 -0.06697611 -0.23545046
000250 49 06 41 3e 2d 1c 55 bc 18 56 37 bd 2d 9e bf bd
       0.18850054 -0.013007206 -0.04475984 -0.093563415
000260 c2 18 a0 3e 8e 01 85 be f7 d7 9e be fb 9e 83 bd
       0.3126889 -0.2597775 -0.31024143 -0.064268075
000270 9b c6 04 3e aa 1f 1c bd e8 12 bc 3e 66 75 91 be
       0.12966387 -0.038116135 0.36733174 -0.2840988
000280 d2 6e d1 bd d6 ff 1d 3e 12 56 23 3e 5e 6e a7 3e
       -0.102262154 0.15429625 0.15950802 0.3270139
000290 2f 03 73 be 7c 17 81 3e 64 65 10 be e3 38 0e 3e
       -0.23731683 0.2521323 -0.14101177 0.13888888
0002a0 37 3e 28 be 17 0b 98 3d fc bf 7a 3d 14 2f 4e be
       -0.16429983 0.0742399 0.061218247 -0.20135146
0002b0 d3 f0 0b be e1 4b 42 be d3 35 b7 3d 3f 3f cf 3c
       -0.13666086 -0.18974258 0.08945813 0.025298713
0002c0 15 15 3f 3e ba bf 94 be 2f 96 77 3e 42 33 5b be
       0.18660386 -0.29052526 0.24178384 -0.21406272
0002d0 83 e0 3a 3e ab 16 70 be 58 b1 9b 3e 83 a1 86 be
       0.18249707 -0.23446147 0.3040874 -0.262951
0002e0 69 30 ec bd 92 b2 c3 3d 9b 9c 6d be e5 1f c1 bc
       -0.11532671 0.09555544 -0.23204271 -0.023574779
0002f0 0c 01 83 3d ad d9 bd be 66 e3 76 be db 62 9c 3e
       0.06396684 -0.37080136 -0.24110183 0.3054417
000300 15 2a 05 3f 9d 8a 4b 3e ae bd 21 3f c6 fa 1a 3e
       0.5201734 0.19877096 0.63180053 0.15134725
000310 c7 dd 10 3f 4a e2 24 3f c4 00 0d 3e 0c 31 15 3e
       0.56588405 0.6440779 0.13769823 0.14569491
000320 7c 79 0b 3f 12 80 89 3e 17 3d 93 3e 5e 31 4c 3e
       0.54482245 0.26855522 0.28757545 0.19940707
000330 48 87 ae 3e 1e 8d 10 3f 8a 77 07 3f cc 9c 2c 3f
       0.34087586 0.5646533 0.5291678 0.67426753
000340 c6 75 0c 3f 8b dd 9a 3e 67 60 1c 3f 8a d0 1e 3e
       0.5486721 0.3024715 0.610846 0.15509239
000350 cd 4a 0e 3f e9 7f e0 3d 1b ac c0 3e a9 a4 de 3e
       0.55582887 0.10961897 0.37631306 0.43485
000360 b6 f0 b6 3e b4 bd 02 3f 93 7c 63 3e bc 17 58 3e
       0.35730523 0.51070714 0.2221549 0.21102804
000370 da c1 00 3e a4 ba 1c 3f 0b 65 1d 3f 5b 98 21 3f
       0.12573949 0.6122229 0.61482304 0.631231
000380 7a 3b a9 3e 44 6e 16 3f c0 be 26 3f e2 df 10 3f
       0.3305319 0.58762 0.6513481 0.5659162
000390 67 4a 19 3f e7 ad 87 3e 82 58 8f 3e d3 b3 4e 3e
       0.59879154 0.26499864 0.27997214 0.20185785
0003a0 3a 47 02 3f 03 da 72 3e 58 d2 21 3f 37 48 ba 3e
       0.50889933 0.23715977 0.63211584 0.3638322
0003b0 33 e9 e2 3e b1 9c 7c 3e 36 c7 0e 3f 4a 2f f0 3e
       0.44318542 0.24669148 0.5577272 0.4691108
0003c0 60 0b a7 3e a1 53 96 bd 37 05 02 3f 20 3e c1 3e
       0.32625866 -0.0734017 0.5078921 0.3774271
0003d0 c5 95 4d 3e 3a 15 a6 3e d4 10 c1 3e fc 03 04 3f
       0.20076664 0.3243807 0.3770815 0.5156858
0003e0 53 f5 89 3e 75 b1 07 3f 7c 35 1c 3f 35 80 4d 3e
       0.2694498 0.5300515 0.6101911 0.20068438
0003f0 ec ab 27 3f e3 e8 19 3f 56 14 8e 3e cf 03 f7 3e
       0.65496707 0.6012098 0.2774989 0.48245093

fc.weight f4 [3, 64]
000000 6a 21 31 3e 3c 1f 3c 3f 01 0b d7 be 5c 34 b0 be
       0.17297903 0.7348516 -0.42000583 -0.34414947
000010 25 2e 39 bf c2 af 37 bf ed a6 0b bf d2 93 3e bf
       -0.72336036 -0.7175256 -0.54551584 -0.74444306
000020 c4 fc b1 be 25 6c 69 3f df 14 29 bd 38 07 0f 3f
       -0.34763157 0.9118064 -0.04127967 0.5587039
000030 5b 33 0b 3f ac d9 0c bf 6d e2 27 bf 8c af 16 3f
       0.5437524 -0.5501964 -0.65579873 0.58861613
000040 5e 36 18 bf 6b ed 4d bf e9 23 86 be fd 6a 14 bf
       -0.5945796 -0.80440396 -0.26199272 -0.5797575
000050 b3 2b 98 3e 8a 78 2c 3f 7f d6 34 3f fa 82 08 bf
       0.2972084 0.6737143 0.70639795 -0.53324854
000060 92 91 95 3e 19 53 aa be dc f6 d2 be 7f e2 f7 be
       0.29212624 -0.33266523 -0.41203964 -0.4841499
000070 22 d0 7b be 20 81 3a bf d3 9e 68 3e 87 ee 88 bc
       -0.24591115 -0.7285328 0.22716837 -0.016715301
000080 24 ae 54 bf 88 18 16 3e 4f 3c a7 3e 1e 6d c2 3e
       -0.8307822 0.14657795 0.326632 0.37973875
000090 f7 c9 53 3f d6 d9 e9 be ac 75 2f be 78 8c 77 3f
       0.8273005 -0.45674008 -0.17134732 0.96698713
0000a0 f2 46 25 bf b4 b7 e5 be 13 11 35 bf c1 06 0f bf
       -0.6456138 -0.44866717 -0.7072918 -0.5586968
0000b0 1d d1 02 bf 8f 55 38 bf 5a 11 3c bf a0 a1 fe 3e
       -0.5110033 -0.7200555 -0.73463976 0.49732685
0000c0 ac c2 41 3f c2 6f 7e bf 2e 1d 4b 3f cb 49 d6 be
       0.7568767 -0.9938928 0.793414 -0.41853175
0000d0 e8 e5 2d 3f 7d 83 de be c1 15 1c 3f e6 ea 45 bf
       0.67928934 -0.43459693 0.60970694 -0.7731155
0000e0 55 cf 2e bf a6 6a 51 be be 4f 5e 3f 1a 8e ac 3e
       -0.68285114 -0.2045084 0.86840427 0.33702165
0000f0 8d 4d d6 3e 03 de dc be 79 eb db be b8 cd c8 3e
       0.41856042 -0.43138131 -0.4295309 0.3921945
000100 67 1f cf 3e 80 ab 0c bf 40 52 fd bd 94 4c 5f 3e
       0.40453646 -0.5494919 -0.123692036 0.21806556
000110 3c 68 0c 3f 3d c5 bb 3e 85 89 c4 3e 54 a8 25 3f
       0.5484655 0.36673918 0.3838617 0.64709973
000120 c4 39 12 3f d6 fa 00 bf e9 c9 f5 3e c9 9a 82 be
       0.57119393 -0.50382745 0.48005608 -0.25508717
000130 27 8c fe be fb 88 81 3c 3c 7f bd 3e c4 ce a1 bc
       -0.49716303 0.015812388 0.37011135 -0.019751914
000140 32 72 83 3e 50 56 2d 3f 58 d8 0f 3f 94 45 2f 3f
       0.25673062 0.6770983 0.5618949 0.6846554
000150 ed 68 ab 3e 5d 6d 10 bf 4f e1 02 bf 2f 15 02 bd
       0.3347849 -0.56416875 -0.51125044 -0.031758483
000160 f7 bb 2e 3e b4 31 b0 be 38 7d d9 bc d3 c2 97 3e
       0.1706389 -0.3441292 -0.026548967 0.29640827
000170 4b 1b de 3e c7 25 26 3f 9f 58 95 3e f5 5e d9 be
       0.43380198 0.64901394 0.29169175 -0.4245526
000180 dd 2b 52 3f e7 e2 49 bf 72 fe fe 3e e4 97 87 3e
       0.8209818 -0.7886185 0.498035 0.2648307
000190 e0 c3 6a bf c4 15 2a 3f ee 35 cd be 80 d0 5e bf
       -0.9170513 0.6643946 -0.40080208 -0.87036896
0001a0 1e c4 a4 3e 2d cc b5 3e d2 2c 86 3e d0 f8 11 be
       0.32180876 0.35507336 0.2620607 -0.1425507
0001b0 96 72 aa 3e 31 02 1d 3f 3e ea f3 3e dd 25 35 bf
       0.33290547 0.6133147 0.4763965 -0.707609
0001c0 cb 37 af be 15 d3 54 3f 85 2e 2c bf 4a c4 98 3c
       -0.34222254 0.83134586 -0.67258483 0.018648285
0001d0 f3 aa f1 be 30 16 67 3c e3 d1 85 be 4e ea 4b 3f
       -0.47200736 0.014104411 -0.26136693 0.79654396
0001e0 a8 bc 03 3f 36 59 24 3f 73 e8 c7 be c7 4e dc be
       0.5145974 0.64198625 -0.39044532 -0.43028852
0001f0 14 ba 73 39 c4 de 1e be 43 df 7e bd 2e 6a 50 3e
       0.00023243605 -0.15514666 -0.062224638 0.20353004
000200 b9 41 47 bf 8e 15 9f be 76 8f 62 3f 31 e5 eb 3e
       -0.7783466 -0.31071132 0.88500154 0.46073297
000210 ac 55 1f 3f 75 cc 42 3f aa 06 db 3e 46 2f 05 3e
       0.622401 0.76093227 0.42778522 0.13006315
000220 3f 0e 11 bf d2 b8 a8 be d7 c0 1a bf 27 33 ff be
       -0.5666236 -0.32953507 -0.604505 -0.49843714
000230 cd c3 00 bd e7 aa 45 3f 67 81 16 3f 65 9d 3f bf
       -0.03143673 0.772139 0.587912 -0.7484954
000240 72 9d 0c 3f 5b 1a bc 3e 19 62 f2 be b4 4c 27 be
       0.5492774 0.36738858 -0.47340468 -0.16337854
000250 eb a0 8d bf 6a 02 20 be 3e 0e d1 be 97 c8 6e 3f
       -1.1064733 -0.15625921 -0.40831178 0.93274826
000260 01 c9 3a bf d3 43 82 3f 29 f9 01 3f 53 f5 f9 bd
       -0.7296296 1.0176948 0.50770813 -0.12204995
000270 a2 b5 ee 39 69 61 17 3d b8 c8 51 bf 52 d1 05 3f
       0.00045530224 0.036958132 -0.819469 0.5227252
000280 f4 66 84 be d0 f7 77 3f 2a 7c 79 bf be 6c 1b bf
       -0.25859797 0.96862507 -0.97455084 -0.607128
000290 ee b6 8d 3e a9 bf 11 3d e3 5c 48 3f 46 b6 8c bd
       0.27678627 0.035583172 0.78266734 -0.068707034
0002a0 37 e1 03 3f ea 63 15 be e9 8b 52 3f 29 95 55 3f
       0.51515526 -0.14588895 0.82244736 0.83430725
0002b0 ff 45 dc 3e 33 26 0e 3f 21 a6 07 3f 70 5a 07 3f
       0.43022153 0.5552704 0.5298787 0.5287237
0002c0 aa 76 e2 be 93 3d 4f bd 5a 8f df bc 1e 1c 19 3f
       -0.44231158 -0.05059583 -0.027290035 0.5980853
0002d0 e4 af bb be 80 fd 43 3f 33 14 c4 be 5c e0 e4 3e
       -0.3665763 0.76558685 -0.3829666 0.44702423
0002e0 2f 44 cf 3e 13 e2 13 bf ca bc 37 bf 2d a0 32 3e
       0.40481707 -0.57766837 -0.71772444 0.17443915
0002f0 12 b1 64 bf 47 47 2e 3f 9a b4 21 3f 2c bf 1b bf
       -0.8933269 0.6807751 0.631662 -0.6083858

fc.bias f4 [3]
000000 16 f1 4d 3e 66 cd 2d 3e 0e 72 95 be
       0.20111498 0.16972885 -0.2918858
