Demo/results/models/血糖分类标签_backward_lstm.pth (torch, 81928 bytes, 6 tensors)

lstm.weight_ih_l0 f4 [256, 11]
00000000: 954b f73e b4b6 08be 34c0 50bf 359a 9f3c
00000010: 5413 1b3e 09d5 84bd 6690 0ebe 5be5 f2bd
00000020: e2b6 cbbe ab1a e3be 5fbd dd3d 688b 253f
00000030: 8b51 c3bd ecba cb3a 594e a6be 29f2 9fbe
00000040: 9198 03bf 81e0 873e 2f70 bbbe 55ce 07bf
00000050: d446 42bf 1c33 e63e a3c0 6c3e 3209 b7bd
00000060: 298e 31bf d26a 4e3e 3fd4 923e c02c 47bf
00000070: ee37 f63e ccd6 dabe a584 f3be 0b70 5cbe
00000080: 08cf 2f3f 2294 c2be 66fc 693e 1bef 653e
00000090: 9b4f 0e3e 3bb7 43bd a6fe 26be f6ec 183e
000000a0: a581 c6be 3455 3d3e 4ebb 453e 9927 20be
000000b0: 236a 293d c612 9e3d 1854 5bbe 6344 053f
000000c0: 9847 bb3e 8dd3 03bf 867a 35be c0c7 9bbe
000000d0: 0a4c 233e 3600 a83e a306 333f 909f 5fbe
000000e0: e5be 773d a029 e6bc 3522 353f 769c dd3d
000000f0: e515 38be 872a 7fbe d80d 5fbd dd49 ea3e
00000100: 5d39 1a3f 6203 3c3f 3a54 913d ad67 40be
00000110: 40cc 12bf 1fb9 d43d 8fb1 203e fa7e 2abe
00000120: 9c20 233e b8ab aa3d a45c 0d3e bfb1 05bd
00000130: bf88 efbd 8648 84bd d395 debe df3d b5be
00000140: dd73 983e 88bb 9cbd 8562 e93d 4c21 5dbe
00000150: a38f 233e 2c80 27bd 12d8 473e 3dd4 22be
00000160: aa5a 5fbe e5c7 11bd b429 2bbe 38b8 a83e
00000170: f7c5 033f 26ce a5be a996 713d 63e6 963d
00000180: a584 d33e ccc4 343d b38a 053f 20c3 853e
00000190: 655f eabd 78b0 8fbe b78a f83c 64f6 03be
000001a0: 9a32 83be 9032 7d3e 7ecb d8bd 1630 c5be
000001b0: 4c41 f1be bd94 2cbe f0ad c33e f2ef d43e
000001c0: 7af3 073e 2b73 65be 9204 c9bd f89e d3be
000001d0: 9eca b93e 6d0f d0be 43d5 45bf 0e75 9abe
000001e0: eee0 9bbd 9a19 d63c 91e0 8ebe 0b21 cf3c
000001f0: 1ba3 babe de5c c9bc 371b 8d3e b261 f0bc
00000200: 7873 06be 3fd2 b6bb 2f22 b2be a44c efbe
00000210: 389d 7d3d 6322 543e bade 9e3e 4b7c 08bf
00000220: 897f 7e3d eedf 47bf 00e2 153f 0cf1 f3be
00000230: b7c4 e8bd b710 71be e56e e23d 8c23 113e
00000240: 84d2 e5be 47e3 bcbd 79f5 d43e 4594 103e
00000250: ad03 27bd 48f2 b0be 824e 86be c3c3 76bd
00000260: edbb 373f fe67 103f 9b1b 89be c7ea fe3e
00000270: 2854 2abd 3f1f d73d c4cf 9a3e 2d37 fbbe
00000280: 251d fe3e 0f5e e8be 04e7 103f 1fed 72bd
00000290: 2aa7 7cbe 41c1 46bd 977f bebe e5e9 11bf
000002a0: 4a99 7d3d d2c7 61be c100 06be f94a 2dbd
000002b0: e318 c4be e1a9 00be 5767 a8be f1b6 1fbb
000002c0: c0e5 c73e f64d 94be c096 483e 0810 aebe
000002d0: fd69 67be 6a8e 32be 4613 00be 128a f2be
000002e0: b0bc 0dbf 7814 0cbe 1af4 52be ff1a e63e
000002f0: 95d5 b1be c37f 0bbf 83cd 043d 9c46 d6be
00000300: 6164 203e 911c 66be d5f0 7d3d 6591 f7bd
00000310: d01a 12be 1041 92bc 2e96 1abe 4dbb 07bf
00000320: 984d babe 35ee 363e a090 84be b600 28be
00000330: 9d16 5abe 7564 ccbe af84 5fbe d4f5 fdbe
00000340: 675a 11bf 7633 c53e 6789 a5bc 3f92 80bc
00000350: 4316 ccbe 3151 9e3c cb26 eabe 48fe 363e
00000360: b2c8 36bf c020 afbe 54f4 3cbf e10d a23e
00000370: efdd 89be fbee 093e 8528 15be e0d6 dd3e
00000380: d6a2 663e 1f2e 0bbe 6649 bbbd 741b 8f3d
00000390: 37c8 9e3e 6008 e53e b957 3a3f 121d a2be
000003a0: c35c 76be ffdb 07bf f09b 4a3f c8c9 b23e
000003b0: 2be2 7fbd 22a3 d0bd d572 253a acc5 da3e
000003c0: 5bc3 7c3e e175 273e 27fd 263e 1518 8c3d
000003d0: c645 e6be f440 313e e109 7dbd aede 47bd
000003e0: fe44 943e 738f 993d 719b 753e c05f e3bd
000003f0: 525d 243e 4ab1 a43e 7eb6 00bf 31b3 74be
0.48299852 -0.13350946 -0.8154328 0.019482711 0.15144092 -0.06485946 -0.13922271 -0.11860152
-0.39787966 -0.44356284 0.10827135 0.6466584 -0.095370375 0.0015543378 -0.3248165 -0.3123944
-0.5140467 0.2653847 -0.36609027 -0.5304921 -0.75889325 0.44960868 0.2312036 -0.08937301
-0.69357544 0.20157936 0.28677556 -0.7780266 0.48089546 -0.42742002 -0.47562137 -0.21527116
0.6867528 -0.3800364 0.22850189 0.22454493 0.13897555 -0.047782164 -0.16308078 0.14934143
-0.38770786 0.18489534 0.19309732 -0.15640105 0.041360985 0.077184245 -0.21418798 0.52057475
0.3657806 -0.51494676 -0.1772252 -0.30425835 0.15946975 0.3281266 0.69932 -0.21838212
0.060484786 -0.02809602 0.7075532 0.10820858 -0.17977102 -0.24918567 -0.05445656 0.45759478
0.6024378 0.7344266 0.07096143 -0.18789549 -0.5734291 0.103868715 0.15692733 -0.1665
0.15930408 0.08333534 0.13804871 -0.032640215 -0.11696004 -0.06459145 -0.43473682 -0.35398766
0.29775897 -0.07652956 0.11395744 -0.21594733 0.15972762 -0.04089372 0.19516018 -0.15901275
-0.2181193 -0.035591025 -0.16715127 0.32953048 0.51473945 -0.3238384 0.05898157 0.073681615
0.41312137 0.044132993 0.52164763 0.2612543 -0.11443976 -0.28064322 0.030339582 -0.1288696
-0.25624543 0.2472632 -0.10585688 -0.3851325 -0.4712013 -0.16853614 0.3821864 0.41589314
0.13276473 -0.22407214 -0.09815325 -0.4133222 0.36287397 -0.4063677 -0.77278537 -0.3016743
-0.07611261 0.026135255 -0.27905706 0.02528431 -0.36452565 -0.024580415 0.27559826 -0.02934346
-0.13129985 -0.0055792625 -0.34791705 -0.4673816 0.061917514 0.20716242 0.31029302 -0.53314656
0.062133346 -0.78076065 0.58547974 -0.47644842 -0.113656454 -0.23541532 0.11056308 0.14173716
-0.44887173 -0.09223037 0.4159353 0.1411906 -0.04077499 -0.34559846 -0.26231772 -0.060245287
0.71771127 0.5640868 -0.26778874 0.49788496 -0.041584164 0.105040066 0.30236638 -0.49065533
0.4963161 -0.4538426 0.566025 -0.059308168 -0.24673143 -0.048524145 -0.37206718 -0.5699752
0.061913766 -0.22048882 -0.13086225 -0.042307828 -0.38300237 -0.12564804 -0.32891342 -0.0024370516
0.39042473 -0.2896573 0.19588757 -0.33996606 -0.22599025 -0.17437139 -0.12507352 -0.47370964
-0.5536604 -0.13679683 -0.2060093 0.4494247 -0.34733263 -0.54491824 0.032422554 -0.41850746
0.15663292 -0.22471835 0.061997253 -0.12088279 -0.1426804 -0.01785329 -0.15096352 -0.53020173
-0.36387324 0.17864306 -0.2589159 -0.16406521 -0.21297689 -0.39920393 -0.21827959 -0.49601614
-0.5677857 0.38515824 -0.02020712 -0.015694736 -0.39860734 0.019325824 -0.45732722 0.17870438
-0.71399987 -0.34204674 -0.73810315 0.31651214 -0.26927134 0.1347007 -0.14566238 0.43328
0.22523054 -0.13591813 -0.09144859 0.06987658 0.31012127 0.44732952 0.72790104 -0.31662804
-0.24058823 -0.5307006 0.7914419 0.34919572 -0.06247155 -0.10187365 0.0006311362 0.42728937
0.24683897 0.16353561 0.16307507 0.06840531 -0.44975108 0.17309934 -0.061777 -0.04879635
0.28958887 0.07498064 0.23985077 -0.11102247 0.16051224 0.3216651 -0.5027846 -0.23896481

lstm.weight_hh_l0 f4 [256, 64]
00000000: 9f9a cabd 23e2 f9bb a266 0fbd 3761 883d
00000010: dce7 573c 59e7 e83d c7b1 d1bd 0d0d f83d
00000020: 8fc8 613d 1bc7 d2bd 4f9d 81bd 6d17 e5bb
00000030: 756b ed3d 5442 4cbd 0ca1 013d a241 fdba
00000040: 5867 27bd 4a73 2dbc c84d 6ebd 3bc6 a03d
00000050: e985 c63d d99b 57bd 7c9b 07bd 215b e2bc
00000060: 91b9 9dbd 821c fcbc 887a c13d 89a3 79bd
00000070: dd64 a03d 4ca6 f33d 1335 81bd 3efd da3d
00000080: a1d0 3dbc 0512 7abd 9b27 e53c ebf0 033d
00000090: 03f6 f1ba 9a37 ff3c 028c a23d e7b1 2bbd
000000a0: 887f 64bd b150 ccbd 99d3 7a3c 0b6e f03d
000000b0: 2838 203c 43d0 bebd ed62 dabd 5292 47bd
000000c0: 621c bc3c e0d2 dbbd 7610 7ebd 704c 98bd
000000d0: eacf 7f3a 7dd8 973d ba84 963c c226 cebd
000000e0: 6a1d 58bd 8e69 693d be47 adbb 71d8 ef3d
000000f0: 43aa 8b3d 6ead 96bd 2404 72bd 501b bebd
00000100: 82f1 87bc c1cd df3d 9dc4 873c 93cb e63d
00000110: 81be 473c 070e b5bd c983 77bd eb86 dfbd
00000120: b759 b93d 48b4 8a3c 8ede a9bd bc0c 393d
00000130: 0055 ffbc b0c3 8c3d acc1 873d b79a d73c
00000140: b7e5 bf3d 82a2 d5bd aa17 3f3d 43e3 8c3d
00000150: 4f3e 61bd 973b b6b9 e18a de3a 2c27 aabd
00000160: ab40 e1bd d176 b9bd ecc3 66bd bdf9 54bd
00000170: 6729 e63d bd14 f2bd 9616 88bd d378 eb3c
00000180: 2f04 fe3c 0fda 0f3d 2d0b a53c 43d8 dcbb
00000190: b9ae 2fbd 7596 cbbd 95b9 88bd c90a bc3d
000001a0: ce39 38bd 7f44 d13d d36b 2f3c 94b4 ef3d
000001b0: 6598 ac3d a260 ce3d c728 a23d 87e6 9f3d
000001c0: 44a5 6bbd 4342 dfbd f31c 083d be45 b53d
000001d0: bec4 793d 821e 8d3d 9f10 5c3d 3425 cebc
000001e0: 0435 bd3d 6a45 533d ee4c 8dbd c996 ddbb
000001f0: eaa7 f33d 7b43 b63d 99a5 8c3a f018 e5bc
00000200: abf1 9e3c b14f bdbd 8ee2 92bc 45e2 9b3d
00000210: 9421 6abd 1706 6a3d 918f a6bc e3e4 f33d
00000220: 5c5a cabd 5222 cfbd 31c4 8ebd 7f29 26bd
00000230: 47c0 e8bd ed52 d7bd 08bd d5bc 2808 acbd
00000240: dfab c4bd 4dbc cf3d c984 54bb 165d 7f3c
00000250: 1a42 8dbd 8e40 02bd 4083 473c 2f98 3e3d
00000260: e06c 2c3c f033 59bd 4dc3 703d d45f a1bd
00000270: 3741 bb3c 955c adbd 2412 af3d 0786 f73d
00000280: f2d4 f63d 537c 663c 0287 87bd 7eb7 c83d
00000290: f18a a2bd 8757 e6bd c719 80bd 8fb9 a33d
000002a0: 6a67 203d 6982 3a3d bba3 0b3d 181e c63d
000002b0: e795 143d 7909 56bd 2cc2 d6bd 9395 533d
000002c0: e1d2 65bd 3b44 2fbd 68b2 99bd a46f a43d
000002d0: b5b8 92bc c348 cabc 7c6e 0bbd 0ec0 c63d
000002e0: 7637 b2bd fea2 ffbb 27f4 66bd da19 07bd
000002f0: e4f6 a5bb d016 25bd 972c 19bc 26c8 31bd
00000300: a272 9c3d bd13 de3d bcee bebd 7fac c2bc
00000310: 016b 043d 3692 383c 21e5 983d a177 94bc
00000320: b0f5 953d b8b4 fc3c b32d aabd 608a a3bd
00000330: 0f6a dfbd 45eb acbd 4842 4ebc 3c18 95bd
00000340: 3d1e c93d c40d 5a3b bbc5 a5bd f9c9 3a3d
00000350: c8fd e3bd dca8 ed3c 6345 e2bc 90d3 a33d
00000360: 740b 07bd a3be 4dbd c40d 46bd 258e e43d
00000370: f8b0 f13d 6207 5b3c 9eef d9bd adce 0a3d
00000380: 3184 c43d 67b2 a53b 702c 85bd 1014 c3bd
00000390: 4753 813d 9bdb 753d 8084 ac3c ac9d ef3d
000003a0: 6cff cf3d 02a7 e4bc f9b4 8b3d fb16 57bc
000003b0: 3577 c9bd 712e 04bd 999c f23d 41d0 d83d
000003c0: 5a79 eabd 0d29 e1bd d004 94bd c7ee c73d
000003d0: 5353 073d d6d7 3cbd c5e6 533d 9ffc cabd
000003e0: 7515 25bd 8c22 ad3d 1855 94bd 1c6d dbbd
000003f0: 2ac3 073c 0d58 0cbd 184e 9b3b 2a95 d0bd
-0.09892773 -0.0076258346 -0.035009988 0.06659167 0.013177838 0.11372251 -0.102389865 0.12111864
0.05512291 -0.102918826 -0.06328832 -0.006991318 0.115927614 -0.049867943 0.031647727 -0.0019321928
-0.04087004 -0.010586569 -0.058179647 0.078503095 0.0969351 -0.052638862 -0.033107266 -0.027631344
-0.077014096 -0.030775312 0.09447199 -0.060946975 0.07831738 0.11896953 -0.06308951 0.10692833
-0.011585386 -0.06105234 0.027972987 0.03221218 -0.0018460158 0.031154443 0.079368606 -0.041917708
-0.055785686 -0.09976328 0.015309238 0.11739739 0.009779014 -0.093170665 -0.106634 -0.048723526
0.022962753 -0.107335806 -0.062027417 -0.07436454 0.00097584596 0.07414339 0.018373836 -0.10065986
-0.052762426 0.05698543 -0.0052880934 0.11711205 0.06819584 -0.07357298 -0.05908598 -0.09282553
-0.016594652 0.10927916 0.016573245 0.112692975 0.012191416 -0.08840566 -0.060428414 -0.109144054
0.09050315 0.016931668 -0.08294402 0.04517816 -0.03116846 0.06873262 0.06628737 0.026318891
0.093699865 -0.104313865 0.046653427 0.06879284 -0.054991063 -0.00034758143 0.0016978645 -0.08308253
-0.109986626 -0.090558656 -0.05633919 -0.05199598 0.112383656 -0.11820362 -0.06644933 0.028744137
0.031007854 0.035120066 0.02014693 -0.0067396476 -0.042891238 -0.09940807 -0.06676022 0.091817446
-0.044977 0.10218143 0.01070686 0.117043644 0.084275045 0.10077025 0.07917934 0.078076415
-0.057530656 -0.1090131 0.033230733 0.08851193 0.060978644 0.068905845 0.05372679 -0.025164224
0.092386276 0.05157987 -0.06899439 -0.0067623598 0.118972614 0.0889959 0.0010730504 -0.027965993
0.019402346 -0.092437156 -0.017930295 0.07611517 -0.05716093 0.057134714 -0.02033213 0.11908891
-0.09880516 -0.10113968 -0.06971014 -0.040566918 -0.11364799 -0.10513864 -0.026091114 -0.08399993
-0.09603094 0.101433374 -0.003242778 0.015586158 -0.068973735 -0.031799845 0.0121772885 0.046531852
0.010524005 -0.053028047 0.058780003 -0.07879606 0.022858245 -0.08464924 0.08548382 0.120861106
0.12052335 0.014067727 -0.066175476 0.09800623 -0.07936657 -0.11247163 -0.06254917 0.07994377
0.039161123 0.045534525 0.034091692 0.09673709 0.03627577 -0.052255128 -0.10486254 0.051656317
-0.056109313 -0.04278968 -0.075047314 0.08029106 -0.01791034 -0.024692899 -0.034040913 0.097046
-0.087019846 -0.0078014126 -0.056385186 -0.03298364 -0.005064832 -0.04030496 -0.00934901 -0.043403767
0.07639052 0.108436085 -0.09322879 -0.023763893 0.03232861 0.011265328 0.07465578 -0.01812345
0.07322252 0.030847892 -0.08309498 -0.07985377 -0.10908901 -0.084433116 -0.012589045 -0.07280013
0.098202206 0.0033272365 -0.08094355 0.045602772 -0.11132389 0.029011182 -0.027620977 0.07999337
-0.032969907 -0.050230633 -0.04835297 0.111599244 0.11801332 0.013368459 -0.106414065 0.033888508
0.09595526 0.0050566676 -0.065026164 -0.09525311 0.06314712 0.060023885 0.021059275 0.116999954
0.1015614 -0.027911667 0.06821627 -0.013128038 -0.0983719 -0.032270852 0.11846275 0.10586596
-0.11448927 -0.10994158 -0.072274804 0.0976234 0.03303845 -0.046104275 0.05173375 -0.09911465
-0.040303666 0.08453855 -0.07242793 -0.1071417 0.008286277 -0.03426366 0.004739534 -0.10184701

lstm.bias_ih_l0 f4 [256]
00000000: 24c3 753e cb57 b23e e300 993e 101c 053f
00000010: 6787 e03e 3ade fc3e 331e 103f 1d30 d83e
00000020: ccb1 dd3e e7be 9f3d d85a adbc 1f66 843e
00000030: 56e6 f43e 6a36 203f 82d8 1a3f efd2 ae3e
00000040: f170 213e 9c30 8d3e aac8 d23e d74b 9b3e
00000050: 27ba 073f ebcb 243f 74e5 ca3e 76d4 393e
00000060: bab3 0c3e 407f aa3e 66df fa3e 0312 fd3e
00000070: 5ff6 3c3e 8de8 863e e472 0b3f b489 ec3e
00000080: 86c3 9c3e ea0c af3e 983d c13e bf19 2e3f
00000090: 9276 c93e c8a0 983e 463c 0d3f eec3 ac3e
000000a0: 31ca aa3e 8435 093f 7c66 cf3e d4b4 e93e
000000b0: b969 123f 428d be3e f2ad f03e 67aa 593f
000000c0: 6ccb 3e3f f72c 913e 7d41 623e 3dd8 213d
000000d0: 8183 87bc 5af5 9e3e 2db1 b13e a7f5 193f
000000e0: 2411 073f def7 d03e 58c0 313f 98e6 fe3e
000000f0: 144d 1e3f 3743 3b3f 6e77 083f 2b25 ec3e
00000100: 69e9 b63d 58b4 ba3c 6046 83bc bbe2 8c3c
00000110: 46a4 873d d281 f63d 4f29 89bd ad65 04bd
00000120: efec cebd f650 553c 7a32 503d 76ee af3c
00000130: 866a a33b 176a f2bd 5300 a23d 9a19 f1bd
00000140: 9d5c 89bd 8839 043d 63f6 77bc df66 c93d
00000150: 4f46 963d 364c ebbd 2bbd c7bd 642a 8abb
00000160: 743c ae3d 89d2 acbd d7e5 93bd a631 e6bb
00000170: dc51 1cbd 050a b1bd feb5 a8bd 35e0 af3c
00000180: d0e6 3dbd 801a 98bd 3764 f43c 9b1d e7bd
00000190: 0507 36bd 7eec 4c3c 2723 e5bb 7441 cd3c
000001a0: 85b1 ec3d d109 25bb 8080 6e3b 463e 7f3d
000001b0: 5e3e 8e3d 338e 943d ae09 69bd b5d0 37bd
000001c0: a7d0 3abc a48c c8bc 73d7 8cbd 18bf bdbd
000001d0: 97ae 983d 9023 c23d 176b a13d 56a5 583b
000001e0: 3799 ddbd 63cb 763d 60bc 9e3d 9f37 293d
000001f0: 2fcf c9bd dfae c0bc 8d03 cbbd 7ee4 6fbd
00000200: 2881 553e 8641 803c aa7c fe3c 959d 8a3e
00000210: aa3e e1be 9816 aebe 90c0 a7be 3e4f 45be
00000220: 80b1 9f3e c6ec 633d 8dd3 9abd 806f ecbc
00000230: 1643 413d 8d56 8f3e daf4 b3be fb9e 59be
00000240: 1292 2cbe 58f9 f6bd ae75 11be 2f5c 84bc
00000250: 7f36 403e 597c 373e 2f9e 51be a273 3d3e
00000260: 46ba 58be 75f1 d0bd 6281 2c3e 3b0b 1f3e
00000270: e997 713e e417 023e c26a 5dbe 3097 9f3e
00000280: f11c 633e 3f3f 9f3c 64c0 09be 10a8 bcbd
00000290: 0de7 583e 731e e53c 0e35 af3e a728 60be
000002a0: 4c7a 913d 6bab de3c 79f4 8c3e c349 b8be
000002b0: 905e e4be 60c5 d53d 5642 27be 9da5 c63e
000002c0: d600 543d c014 333e b39e d23d d8c1 a13d
000002d0: 6733 b43d c0eb e1bd dfd3 503d 8fb0 6f3d
000002e0: bfdd 44bd 3e23 b93e 261a 34bd 3de1 d5be
000002f0: 26ad 573e 34de 72bd 166f 8d3c 0593 d3be
00000300: 3f05 ba3e 6456 453e a8b1 2a3e 6126 0c3f
00000310: af6d b53e 36cb 243f aa4b 043f 01e9 b83e
00000320: 07e4 ec3e 4a74 bdbc 118a 963e cea9 2f3e
00000330: 3c18 e73e 312e 403f bd87 223f fb8a 923e
00000340: 0cbe 5c3e 09f6 a43e e58b 6b3e b13e 9d3e
00000350: 5c22 1b3f 624a 333f c344 9d3e e37d 843d
00000360: 3cd4 093e cc8a e63e 2d5f a43e 1dc6 e63e
00000370: faff be3e e51e 943e bfa6 703e c729 d03e
00000380: ab5d c83e 4114 ec3e 8e35 883e bb15 3e3f
00000390: 393b 033f 756d 453e 661b 023f 207a ba3e
000003a0: 134a a33e c80c 1c3f cb50 8f3e 2673 bf3e
000003b0: 8e32 063f be49 a73e ddcc 893e 10c5 573f
000003c0: 0174 563f 0fc1 c43e 0851 903e 5d7f 853e
000003d0: b521 22b8 59bc 493e 502c 963e cb2e 113f
000003e0: add4 eb3e 99a4 cc3e 3ffb 2a3f 0c5e 033f
000003f0: 4cc2 553f 4927 4a3f 2e1f fc3e cbbc e23e
0.24000221 0.34832606 0.2988349 0.51995945 0.43853304 0.49388295 0.5629608 0.42224208
0.4329971 0.078000836 -0.021161482 0.25859162 0.47831982 0.6258303 0.60486615 0.34145305
0.1576574 0.2757615 0.4116872 0.303313 0.5301842 0.64373654 0.39628184 0.18147454
0.13740435 0.3330021 0.48998564 0.49427804 0.18453358 0.26349297 0.54472184 0.4619881
0.30617923 0.3418954 0.37742305 0.68008035 0.39348274 0.29810166 0.55170095 0.33743232
0.33357385 0.53597283 0.40507877 0.45645773 0.5719257 0.37217146 0.4700771 0.8502564
0.7452915 0.28354618 0.22095294 0.03951286 -0.016542198 0.31046563 0.34705487 0.6014046
0.5276053 0.40814108 0.6943412 0.49785304 0.6183636 0.73149437 0.53307235 0.46122107
0.08931238 0.022791073 -0.016024768 0.017197957 0.066231295 0.1203648 -0.06697332 -0.032323528
-0.10103785 0.013019791 0.05082939 0.021476012 0.004987064 -0.11836641 0.07910218 -0.11772461
-0.06707118 0.03228143 -0.015134427 0.09834074 0.07337629 -0.114891455 -0.09752878 -0.004216479
0.08507624 -0.08438594 -0.07221573 -0.0070249615 -0.038164005 -0.08644489 -0.08237837 0.021469215
-0.046362698 -0.074269295 0.029832942 -0.11284944 -0.044440288 0.012507556 -0.006992716 0.025055625
0.11557297 -0.0025182853 0.003639251 0.062315248 0.06945489 0.07253685 -0.056893997 -0.044876773
-0.011402286 -0.024481125 -0.06877031 -0.09264964 0.07455175 0.09479439 0.07881754 0.0033057532
-0.10820239 0.06025256 0.077507734 0.04131281 -0.0985397 -0.023520885 -0.09912787 -0.058567517
0.2085005 0.015656244 0.031065304 0.2707335 -0.4399312 -0.34001613 -0.327641 -0.1926851
0.3119011 0.055645727 -0.07559881 -0.028861761 0.04718312 0.2799572 -0.35147744 -0.21252052
-0.16852596 -0.12059277 -0.14205047 -0.016157238 0.18770789 0.17918529 -0.20470499 0.18501142
-0.21164808 -0.10202304 0.1684623 0.15531628 0.23593105 0.12704426 -0.21622756 0.31170034
0.22179009 0.019439338 -0.13452297 -0.09211743 0.21181889 0.02796862 0.34220165 -0.21890508
0.071034044 0.027181348 0.27530268 -0.35993776 -0.44603395 0.10438037 -0.16333899 0.38798228
0.05175861 0.17488384 0.10284176 0.07898301 0.08798867 -0.11031294 0.050983306 0.05851799
-0.048063036 0.361597 -0.04397025 -0.41773406 0.21062145 -0.05929394 0.017264884 -0.41323105
0.36332127 0.19271237 0.16669333 0.5474606 0.35435244 0.64372575 0.51677954 0.36115268
0.4626772 -0.02312674 0.2940221 0.17154619 0.45135677 0.7507048 0.6348837 0.2862166
0.21556872 0.3221896 0.23002584 0.30711892 0.60599303 0.70035374 0.30716524 0.064693235
0.13459867 0.4502777 0.32103863 0.45073023 0.3730467 0.2892982 0.23501109 0.40656874
0.39133963 0.46109203 0.2660336 0.7425191 0.5126224 0.19280036 0.50823057 0.364213
0.31892452 0.60957 0.27991328 0.3739254 0.5242089 0.32673448 0.2691411 0.8428507
0.8377076 0.38428542 0.28186822 0.26073733 -3.8655202e-05 0.19700755 0.29330683 0.56712025
0.46060696 0.39969328 0.6678962 0.5131538 0.834996 0.78966194 0.49242538 0.44284663

lstm.bias_hh_l0 f4 [256]
00000000: 289e 9b3e a071 473e 7a66 583e 2a64 de3e
00000010: 98ba f53e d754 ea3e ca0d 0f3f fa97 cb3e
00000020: b1af b73e 6629 383d 72f1 b7bb 86f9 0c3e
00000030: 8ef8 ec3e c082 3a3f 944f c23e 2729 803e
00000040: 4adf b43e 5055 b23e 08d9 c53e 1d32 5c3e
00000050: 9f45 ee3e 31f2 233f 7f37 c83e d5fd f33d
00000060: b325 3f3e e417 f33e e409 d73e 6ce8 fa3e
00000070: 242d c63e dd42 a33e fcf4 b43e 9a45 ac3e
00000080: 7d18 ca3e e67c f13e ad0d 473e 5551 453f
00000090: 708f 143f efa8 0c3e c130 153f 8d8e 393e
000000a0: 7d64 b93e e313 0f3f 0caf ee3e af4a 043f
000000b0: 1d33 ec3e 74ae 5c3e 221f ce3e eb9c 3b3f
000000c0: e6d7 543f b7d2 ab3e 8a0d 2a3e c19a 1a3e
000000d0: d682 8e3c 8518 013f f1fd 523e 90ad 253f
000000e0: 6914 df3e 136e 013f a9ad 1e3f 06c4 e93e
000000f0: ac14 463f cb93 0a3f 1187 d73e a463 cc3e
00000100: 49b9 753a 4e0b 8e3d cad8 9bbd 60b6 ebbd
00000110: 4e1f 0a3d a7e9 cabd c952 3dbc 7de0 d4bd
00000120: fe88 bb3c e61b 553d 008f e7bd 6f95 973c
00000130: c388 ecbc d3c1 c53a dabf aebd 8661 00bd
00000140: a811 5abd 2eea dbbc aceb 663d 7259 acbd
00000150: acdd d7bd 9f09 49bd be72 9bbd dfc7 a13d
00000160: 0e18 cebd 05a7 99bd e54e 5fbd 5ffe 283d
00000170: dc43 e4bd 213a 5c3b 0b63 b83c 0a72 92bd
00000180: 54a6 ad3d a70d 213d 4fe5 33ba a8e2 3ebd
00000190: aaab 71bd f6be 0ab9 facb 82bd f2d3 203c
000001a0: bcfc 8fbc 2718 80bd 75c5 c2bd f48b 0d3d
000001b0: a48f 1f3d 4f3d a5bd 4828 edbd 169a 45bd
000001c0: de54 1fbd 42b8 043b 91f7 c4bd 1390 81bd
000001d0: 3eca 52bd f7e2 66bd 3580 c0bd 1eaf cebd
000001e0: 0a2f 783c 4941 ec3d 0b71 d63d d0e6 9d3d
000001f0: 9091 923d 9bf4 9abd 4e01 a2bd 385f e6bd
00000200: c411 9e3e 4c70 9d3d cc96 2bbd bf0e 8d3e
00000210: 4582 9ebe e92c bbbe 907c 9fbe 6260 0ebe
00000220: 009e b63e 160e 79bc f8fb b73c b0ae 4fbe
00000230: 7ecf ab3d 05d6 4c3e 308f 87be f145 84bd
00000240: c4a5 44be 05ac 1abe da99 5dbe 9a87 f33d
00000250: 087c 613e 46ec c63d efab 93be c5a7 5d3e
00000260: 5423 83bd 4f4b 87be 6ddd 783e 5939 df3b
00000270: 9b1e 813e ca8c ff3d 1e12 14be 5aca c73e
00000280: d2bf 8b3e c738 ac3c 9742 08be a44f 2abe
00000290: 1a62 243c 8943 ce3d 33dc 9d3e ef01 4cbe
000002a0: cdad 623d bfb1 053d 9388 903e 18a3 83be
000002b0: e72d d0be d753 293e edc9 4fbe cf58 c63e
000002c0: 780a 8d3d 20e5 b43e f685 973e 535a 183e
000002d0: 725a ec3d 979d b7bd 6f74 483d 6e72 5c3e
000002e0: b037 44be 3d0b 8b3e d0ca ec3d 96e8 ecbe
000002f0: 005f a63e 40a5 18be 966b 1e3b 4462 b2be
00000300: a803 933e e5da 6d3e 7cfe 223d abca bd3e
00000310: b37f d03e ebc4 0b3f 66f6 093f 8c53 003f
00000320: 6bd4 e23e cc47 9d3d 03a8 6b3e bae3 a83e
00000330: 8efc df3e 6e85 303f f481 f33e 41f8 c33e
00000340: 88fd 913e 81bc 753e 4025 cb3e 83af 953e
00000350: 07ed 283f 2bc2 293f 625d af3e 05ce a53d
00000360: 8d9f 0d3e 51dd 0f3f 3086 983e ec22 c43e
00000370: a4f9 b53e 9d1a 5e3e 9e70 8f3e 7c4a fe3e
00000380: a7a6 9a3e b6ee ee3e b26a c23e 9378 423f
00000390: 7bd5 e03e 45cf 4d3e 17b5 033f 08ac d03e
000003a0: 0808 de3e c18e 183f 426b e13e a606 023f
000003b0: a089 323f 5329 ce3e dc2a 243e 854f 4d3f
000003c0: a200 423f 104c cc3e f65e 723e e396 7b3e
000003d0: 1613 ac3d 4198 db3e a9b4 b33e d7e9 473f
000003e0: ea1a e33e bfe7 083f 181c 163f e4e2 f53e
000003f0: 555a 223f 70ed 543f 3c7b aa3e 4990 9c3e
0.303941 0.19476938 0.21132842 0.43435794 0.47993922 0.45767853 0.55880415 0.39764386
0.3587623 0.044961356 -0.0056134993 0.1376706 0.46283382 0.7285576 0.37951338 0.25031397
0.35326606 0.34830713 0.38642144 0.21503492 0.46537492 0.6404143 0.3910484 0.11913649
0.18666725 0.47479165 0.41999733 0.4900545 0.38706315 0.3188695 0.35343158 0.33646852
0.39471808 0.47165602 0.1943881 0.7707723 0.5803137 0.13736318 0.5827752 0.18120785
0.3620948 0.5588972 0.46617925 0.5167646 0.46132746 0.21550924 0.40258127 0.7328631
0.83141935 0.335592 0.16606727 0.15098096 0.017396372 0.5042804 0.20604683 0.6471796
0.4357026 0.50558585 0.61983734 0.45657367 0.7737529 0.54131764 0.42095235 0.3991977
0.0009373618 0.0693575 -0.076097086 -0.11509395 0.03372126 -0.09907847 -0.011555382 -0.1039438
0.022892471 0.05202856 -0.11306572 0.018503873 -0.028873807 0.0015087671 -0.085326865 -0.031343006
-0.053239495 -0.026845064 0.056377098 -0.08415498 -0.105403274 -0.04908144 -0.07590245 0.078994505
-0.10063182 -0.075025596 -0.0545186 0.041258212 -0.11145756 0.0033603983 0.022508165 -0.071506575
0.0847899 0.03931966 -0.0006862478 -0.046602875 -0.059001602 -0.00013231844 -0.06386562 0.009816157
-0.017576568 -0.06254607 -0.09510318 0.034557298 0.038955346 -0.08068334 -0.11579949 -0.04824265
-0.038899295 0.0020251428 -0.09617532 -0.06326308 -0.051462404 -0.056368794 -0.093994536 -0.10091995
0.015147934 0.1153589 0.1047078 0.077100396 0.0715667 -0.07566186 -0.07910405 -0.1124863
0.3087293 0.076874346 -0.041891858 0.27550313 -0.30958763 -0.365577 -0.3114972 -0.13903955
0.3566742 -0.015201112 0.022459015 -0.20281482 0.08389185 0.20003517 -0.2647643 -0.06458653
-0.1920386 -0.15104683 -0.21640721 0.11891098 0.2201997 0.09713034 -0.28842112 0.2164603
-0.06403223 -0.26424643 0.24303217 0.0068122563 0.25218663 0.12478025 -0.14460036 0.3902157
0.27294785 0.021023167 -0.13306652 -0.16631943 0.010033155 0.10071475 0.3083206 -0.19922613
0.05534153 0.032640215 0.28229198 -0.25710368 -0.4066002 0.16535889 -0.20291872 0.3873963
0.068867624 0.35331059 0.29594392 0.14878206 0.115406886 -0.08965605 0.048939165 0.21528026
-0.19161868 0.27157012 0.11562121 -0.462712 0.32494354 -0.14906788 0.0024173013 -0.34840596
0.28713727 0.23228033 0.039793476 0.37068686 0.40722427 0.5459735 0.538916 0.5012748
0.44302687 0.0767971 0.2301331 0.32986242 0.4374737 0.689536 0.47560084 0.3827534
0.28513741 0.2399769 0.39676857 0.29235467 0.65986675 0.663119 0.34250933 0.08095936
0.13830395 0.5619708 0.29789877 0.38307893 0.35542023 0.2168984 0.28015608 0.49666202
0.3020527 0.46666497 0.37972027 0.7596523 0.43912873 0.20098598 0.51448196 0.4075625
0.43365502 0.59592825 0.44027144 0.50791395 0.6974125 0.40265903 0.16031975 0.8019946
0.75782216 0.3990178 0.23669037 0.24569277 0.08402078 0.42889598 0.3509877 0.78091186
0.4435647 0.53478616 0.5863662 0.48024666 0.63419086 0.831748 0.33297145 0.3057883

fc.weight f4 [3, 64]
00000000: 7acc 763e 60cd 22bf 4651 d73d cfb4 113f
00000010: 0a07 a5be 445b 1dbf 0903 ecbe 04bd d4be
00000020: 1b5a f93e 29b2 c23d 5f95 6a3e d354 b6be
00000030: 4e2e 5abf e3c6 1b3f 2043 03bf 7583 03bf
00000040: d541 a33e 76ef 1cbf ff0d 13bf c4de 11bf
00000050: 4510 2f3f 7930 4a3f 6721 c8be 1511 ec3e
00000060: 3740 98bc 5169 b7be 5bde df3e 1927 1d3f
00000070: d453 083f a137 3dbe 5511 453f c267 b13e
00000080: 62ce b23d c368 31bf 3333 e9be ef9f 37bf
00000090: 2f44 513f 3789 bebe fcca 3c3f 092b e4be
000000a0: 4ff2 263f 4d16 2e3f 7bbd e83e f2e6 f4be
000000b0: f9b5 01bf 15e1 d63e 3b14 d1be 878b e53e
000000c0: bee6 5e3f eb63 0c3f f222 a93e 858d 2a3f
000000d0: 6106 413e 18e3 ac3e e2f7 0abf 12c0 3f3f
000000e0: aa54 15bf e6d4 393f 46b4 703f 4753 fabe
000000f0: 876a 0d3f 6d50 2abf 39b1 193f 7b8d b6be
00000100: 5bc8 f73e 2b3b 5d3f 5fc6 163f f713 6fbd
00000110: dea2 91be 7d03 533d abe0 ad3d 2f10 b43e
00000120: dbf7 f93d ee7a c3be 3403 29bf d54a 9c3e
00000130: b5e1 c73e 9b4a 833e ba1b a9bd 68b1 c73e
00000140: 9e92 46bf e0e2 163f cc2e f13e 1105 6e3f
00000150: 148e 25be a097 d1be cc4e 943e 3276 1fbf
00000160: 50a9 00bf 43fb 03bf 4d8c eabe 38c3 66be
00000170: 488b a1be 113e 193f ff53 25bf b4e5 743e
00000180: 1bad c43e bcc0 d73e a08a bb3e 0e25 243e
00000190: 654b d1be 779f 4e3f e800 58bd 3c13 023f
000001a0: 8549 90be 35e5 bbbe 3f8a 4d3e d93b 64be
000001b0: fbeb 65be e311 42be a8c7 6dbe b70e 833e
000001c0: 8aed 0bbf 12e6 033e 345e df3d 5e1d acbe
000001d0: f35a aabe babb 34bf 7850 503f fe13 02bf
000001e0: 8326 b23e fc5f 48be 50f8 00bf 273d 8abe
000001f0: 5445 353d 7fe5 e93e a819 95be 2d35 d2be
00000200: 5885 72bf 1138 d4be bdf3 65bf 01fc 3ebf
00000210: 236a 613f af65 583f 0374 e03e 7e2b b93e
00000220: 3c8e 00bf d140 2b3e 5c2e d63e 94d0 843d
00000230: d5e7 6c3e cb95 78bf 5c52 2d3f e4be 683e
00000240: 9051 083f 68a8 d03d 2de6 5e3e 9dcf debe
00000250: 466b 12bf cfad 0bbf 272f a23e 8a04 e53d
00000260: a714 2b3f 1169 5a3f 5c23 d7be 98e3 abbe
00000270: b12c 2bbe 8c07 f6be 8509 acbb b07c 43bf
00000280: 119a 39bf 46bc 1b3e 3de3 8c3e 4e0a 393f
00000290: 703f debe 41a5 c4be 44ba 2cbf 1149 953d
000002a0: bb95 f4be 8637 eabe e67a 15bf 6ea2 2c3f
000002b0: 772a 6e3f 9134 9bbe 34e6 3d3f 435f 59bf
000002c0: 288f 01bf 71e9 22bf 0b6d 4cbf b8f3 19be
000002d0: 04f7 063e 2076 113f 6776 debe b755 13bf
000002e0: 1dbf ea3e 1d73 31bf 809f 18bf 05fb 303f
000002f0: c74f 4fbf 9d9e 233f 80f9 f2be 5b1f 673f
0.24101439 -0.6359463 0.105135486 0.56916517 -0.32231933 -0.61467385 -0.46096066 -0.41550457
0.48701558 0.095066376 0.22908543 -0.3561159 -0.85226905 0.6085035 -0.512743 -0.5137246
0.31886163 -0.6130289 -0.5744323 -0.5698054 0.683842 0.78980213 -0.39087984 0.46106783
-0.018585308 -0.35822538 0.4372433 0.61387783 0.5325291 -0.18478252 0.7697957 0.34649473
0.08730771 -0.6930048 -0.45546874 -0.71728414 0.81744665 -0.37214062 0.7374723 -0.44564083
0.65213484 0.6800278 0.45457062 -0.47832447 -0.50668293 0.419686 -0.40835747 0.44833013
0.87070835 0.5483996 0.33034474 0.6662219 0.1885009 0.3376701 -0.5428449 0.7490245
-0.5833231 0.7259048 0.94025075 -0.4889166 0.5524067 -0.6652897 0.60036045 -0.35654816
0.48395047 0.8641841 0.5889644 -0.05836865 -0.2844457 0.051517 0.08490118 0.35168597
0.12205478 -0.38179725 -0.6602051 0.30525842 0.39039388 0.25642857 -0.082572415 0.39002538
-0.7756747 0.58939934 0.47106016 0.9297648 -0.1616748 -0.40935993 0.28966367 -0.62289727
-0.5025835 -0.5155527 -0.45810166 -0.22535408 -0.31551576 0.5986033 -0.6458129 0.2391575
0.3841332 0.42139232 0.366292 0.1602976 -0.40877834 0.80712074 -0.05273524 0.508106
-0.2818109 -0.3669831 0.20072268 -0.22288455 -0.224533 -0.18952136 -0.23220694 0.25597164
-0.5465933 0.12880734 0.1090664 -0.33616155 -0.33272514 -0.7059895 0.81372786 -0.50811756
0.34795007 -0.19567865 -0.50378895 -0.2699978 0.04425557 0.45682904 -0.29121137 -0.41056195
-0.94734716 -0.41449025 -0.8982504 -0.7460328 0.88052577 0.84530157 0.4383851 0.36165994
-0.5021703 0.16723944 0.41832244 0.064850956 0.23135312 -0.97103566 0.67703795 0.22729069
0.53249454 0.10188371 0.21767493 -0.4351777 -0.57194936 -0.54562086 0.316766 0.111825064
0.6682839 0.8531657 -0.42019165 -0.33572078 -0.16716267 -0.48052633 -0.0052501583 -0.76362133
-0.7250071 0.1520854 0.2751712 0.7228135 -0.43407774 -0.3840733 -0.6747172 0.07289327
-0.47770485 -0.45745486 -0.58390653 0.6743535 0.93033546 -0.30313542 0.7417939 -0.8491098
-0.50609064 -0.63637453 -0.79853886 -0.15034378 0.13180166 0.5682087 -0.4344971 -0.57552665
0.45848933 -0.69316274 -0.5961838 0.69133025 -0.80981106 0.639139 -0.47455978 0.9028222

fc.bias f4 [3]
00000000: 79eb ca3d cfc0 60bd cbfb 8dbe
0.09908194 -0.054871377 -0.27731165
