Demo/results/models/血糖分类标签_backward_cnn-lstm.pth (torch, 145344 bytes, 8 tensors)

conv1d.weight f4 [64, 11, 3]
-0.087547705 0.12225645 0.13674675 -0.036475547 -0.23150094 -0.11454693 -0.08503205 -0.21297637
0.10439664 -0.091262646 -0.17411318 0.12617257 -0.0072022257 0.024001874 -0.14792968 -0.026185438
-0.06265928 -0.033175863 0.03366624 0.032328878 -0.08892089 0.07618632 0.0018465966 -0.1278758
0.1449603 -0.28189746 -0.00864145 -0.11127735 -0.07085454 -0.020373253 -0.08033738 -0.005246983
0.06823479 0.15304342 -0.069293104 0.15393329 -0.12840815 0.1535719 -0.09556414 0.07030856
0.31925213 0.16204199 0.058334947 -0.122616835 -0.04491804 -0.094039895 0.09953115 0.123295195
0.16732585 -0.30638006 -0.061563995 0.16354874 -0.10621827 -0.1708858 -0.14461577 -0.20872205
0.0130841695 -0.055887513 -0.004926245 0.16001233 -0.14793263 0.1476052 0.13644044 0.12432364
0.32611045 0.16252783 -0.16353518 -0.29284135 -0.08393188 -0.15465367 -0.024484308 -0.109360985
0.1550253 0.12213571 0.018971248 0.037118968 0.1699152 0.008115358 -0.08127018 -0.104596764
-0.12874286 -0.0036213454 0.1733928 0.117144406 -0.08721798 -0.08332408 0.14390786 0.09505402
-0.20853758 0.16961394 0.14345904 -0.032818563 -0.028352324 -0.07795583 -0.05681884 0.064612195
0.14890012 -0.2059923 -0.11020115 0.10280631 0.104413144 0.0975433 -0.13489702 0.0021316328
-0.09357676 0.06429727 -0.14494225 0.086444035 -0.16773029 0.14217296 -0.16713528 -0.14156803
0.059125602 -0.15832251 0.058387943 0.0523804 -0.11045267 -0.043634403 -0.016432993 0.011992199
-0.052303474 -0.017417725 -0.09142504 0.085782416 0.10517016 0.027782533 0.016648293 -0.46795112
0.15369672 0.13466306 0.081240654 -0.08377132 0.018578205 -0.03938616 0.10564314 0.11160612
0.10260824 0.06358162 -0.017623017 0.065244354 -0.098866284 0.123218894 -0.17905295 0.017267581
0.08237145 0.11065302 0.12131985 -0.14521925 0.005018824 -0.123558894 0.065517455 0.26855397
-0.14120795 -0.022176899 0.0619403 -0.046022702 -0.08250683 -0.046393476 -0.086005166 -0.15384981
-0.17493835 -0.13280483 0.13467696 -0.3330907 -0.14360096 0.04712109 -0.19689772 -0.10918983
0.09949115 -0.09682378 -0.10444488 -0.15939187 0.0037562079 -0.03614593 0.034667112 0.2542124
0.1299076 -0.11865107 -0.0018187677 0.10694999 -0.0030440718 -0.029294033 -0.050934054 -0.057855584
-0.19456315 -0.023693021 -0.03552392 0.0962603 0.09573123 -0.010949751 0.0047722613 -0.07508573
-0.13279329 0.06482964 0.09605783 0.03563624 0.14635414 -0.005603656 -0.06575066 -0.2583978
-0.16089962 -0.054811087 -0.09109526 -0.12938608 0.09113909 0.016579883 -0.024313217 0.0024443222
0.16783433 -0.013375241 -0.16799948 -0.054376516 -0.15216717 0.00033085243 0.15634711 -0.01807812
0.033922017 0.1014858 -0.06350778 -0.00218809 -0.001876686 -0.05099687 -0.067332566 -0.10391742
-0.10831876 -0.12928002 -0.1701227 0.16263461 -0.02755871 0.019826114 0.08288186 -0.11479004
0.13385183 0.0851849 -0.077677526 0.20151268 0.14873323 -0.14390759 -0.065779336 0.004358708
0.07323254 -0.12623492 0.13935928 -0.110269114 -0.12508951 -0.12541553 -0.13422325 0.07631798
0.0509305 0.10802984 -0.20740554 0.008989083 -0.010191367 0.131362 -0.081980504 0.06751479
00000000: 364c b3bd 9761 fa3d 5707 0c3e 6267 15bd
00000010: 950e 6dbe 9597 eabd 4925 aebd 7a16 5abe
00000020: e8cd d53d e9e7 babd ba4a 32be 6233 013e
00000030: a600 ecbb 949f c43c e17a 17be d882 d6bc
00000040: 8253 80bd 6ae3 07bd 9ce5 093d 496b 043d
00000050: 281c b6bd 9307 9c3d 8009 f23a e0f1 02be
00000060: 7970 143e dd54 90be de94 0dbc 61e5 e3bd
00000070: 2f1c 91bd cfe5 a6bc ed87 a4bd e2ee abbb
00000080: aebe 8b3d 6ab7 1c3e 8be9 8dbd b0a0 1d3e
00000090: 6d7d 03be f441 1d3e 22b7 c3bd effd 8f3d
000000a0: 0475 a33e 56ee 253e a0f0 6e3d 891e fbbd
000000b0: fbfb 37bd fd97 c0bd fdd6 cb3d 3182 fc3d
000000c0: 7857 2b3e d9dd 9cbe 872a 7cbd 5279 273e
000000d0: f788 d9bd b0fc 2ebe 2816 14be 3cbb 55be
000000e0: fc5e 563c 4eea 64bd 576c a1bb 46da 233e
000000f0: a77b 17be d125 173e 0bb7 0b3e 649d fe3d
00000100: f3f7 a63e b26d 263e c475 27be 4def 95be
00000110: 7ae4 abbd 885d 1ebe 5193 c8bc a7f8 dfbd
00000120: f4be 1e3e 4a22 fa3d 9769 9b3c 0f0a 183d
00000130: 40fe 2d3e 47f6 043c fb70 a6bd d436 d6bd
00000140: 2bd5 03be 1854 6dbb e28d 313e 68e9 ef3d
00000150: 579f b2bd d1a5 aabd 955c 133e afab c23d
00000160: e08a 55be 47af 2d3e ede6 123e c26c 06bd
00000170: 2243 e8bc 4ea7 9fbd dfba 68bd 6653 843d
00000180: 4679 183e a5ef 52be 24b1 e1bd 1d8c d23d
00000190: 8fd6 d53d c8c4 c73d 7222 0abe ddb2 0b3b
000001a0: 2ca5 bfbd 49ae 833d be6b 14be 9209 b13d
000001b0: 7dc1 2bbe ca95 113e 8325 2bbe 36f7 10be
000001c0: b02d 723d 4c1f 22be 3228 6f3d d58c 563d
000001d0: 0235 e2bd fdb9 32bd 7c9e 86bc ee7a 443c
000001e0: 2b3c 56bd 9eaf 8ebc 0d3d bbbd b1ae af3d
000001f0: 7463 d73d 3298 e33c 0062 883c 4a97 efbe
00000200: ac62 1d3e 1de5 093e 8061 a63d 4c90 abbd
00000210: 5231 983c 6253 21bd 6e5b d83d c091 e43d
00000220: 4524 d23d 1537 823d 255e 90bc d59e 853d
00000230: 687a cabd 305a fc3d a859 37be be74 8d3c
00000240: 5db2 a83d 0d9e e23d 8b76 f83d 5bb4 14be
00000250: f274 a43b 720c fdbd 042e 863d e87f 893e
00000260: d198 10be 54ac b5bc 1db5 7d3d 4d82 3cbd
00000270: 57f9 a8bd 1607 3ebd 7a23 b0bd ce8a 1dbe
00000280: 0a23 33be fdfd 07be c2e8 093e dd8a aabe
00000290: 210c 13be 0b02 413d 8e9f 49be eb9e dfbd
000002a0: 04c2 cb3d 8c4b c6bd 32e7 d5bd 9f37 23be
000002b0: b62a 763b c10d 14bd 1aff 0d3d 2128 823e
000002c0: 7f06 053e 55ff f2bd b863 eeba 9908 db3d
000002d0: 0d7f 47bb 0afa efbc 3aa0 50bd faf9 6cbd
000002e0: 903b 47be de17 c2bc 8881 11bd 1f24 c53d
000002f0: bc0e c43d 9666 33bc a160 9c3b 8cc6 99bd
00000300: f7fa 07be 67c5 843d f8b9 c43d 4ef7 113d
00000310: dcdd 153e e09e b7bb 48a8 86bd b74c 84be
00000320: dfc2 24be 9781 60bd 2790 babd c97d 04be
00000330: 22a7 ba3d 89d2 873c 832c c7bc ec30 203b
00000340: c3dc 2b3e d423 5bbc 0e08 2cbe e9b9 5ebd
00000350: b6d1 1bbe 4376 ad39 7519 203e 9118 94bc
00000360: d0f1 0a3d cad7 cf3d 5e10 82bd 0f66 0fbb
00000370: 22fb f5ba 18e2 50bd a8e5 89bd a8d2 d4bd
00000380: 3ad6 ddbd fb61 04be a534 2ebe b089 263e
00000390: cec2 e1bc 606a a23c f7bd a93d 0a17 ebbd
000003a0: 7410 093e 6c75 ae3d 6515 9fbd 5759 4e3e
000003b0: 864d 183e 835c 13be 51b7 86bd 7ed3 8e3b
000003c0: f1fa 953d ba43 01be 33b4 0e3e c6d4 e1bd
000003d0: 7717 00be ee6c 00be d271 09be 9a4c 9c3d
000003e0: 809c 503d c03e dd3d 1e62 54be f246 133c
000003f0: b1f9 26bc c383 063e 65e5 a7bd 3245 8a3d

conv1d.bias f4 [64]
-0.013424835 -0.1392431 0.14093387 0.03253536 -0.022842051 0.2083237 0.21806318 -0.08372621
0.074857086 0.20091431 0.031307742 -0.044045094 0.14434355 0.22676694 0.29268053 0.07136755
0.22764666 -0.0037296528 0.20906682 0.26748618 0.013086752 -0.08660156 0.007922362 0.028941274
0.24318738 -0.15978931 -0.03774817 -0.070576 0.21071492 -0.053457685 0.05494955 -0.04937607
-0.1550192 0.011402167 0.19360344 0.24066636 0.05246742 -0.12714484 0.2996358 0.06990958
0.14773802 0.038706943 0.21889082 0.13658153 0.1860301 0.11046307 0.24963428 0.2582806
0.15274116 0.14252666 0.14003076 0.08711353 -0.007831461 -0.052952927 0.22357386 0.19907841
0.3198171 0.14020556 0.30337125 0.15673807 0.24807204 0.13494082 0.15910552 0.0014835712
00000000: d7f3 5bbc be95 0ebe f850 103e cc43 053d
00000010: 411f bbbc cf52 553e f44b 5f3e a678 abbd
00000020: ac4e 993d 7bbc 4d3e 8c3c 003d a168 34bd
00000030: ccce 133e 9835 683e 39da 953e 2629 923d
00000040: 351c 693e 316d 74bb 9d15 563e f3f3 883e
00000050: d169 563c 295c b1bd cbcc 013c 4016 ed3c
00000060: 1d06 793e cf9f 23be d39d 1abd 268a 90bd
00000070: a7c5 573e 72f6 5abd c812 613d 903e 4abd
00000080: 5abd 1ebe 28d0 3a3c fb3f 463e 3e71 763e
00000090: 14e8 563d 4232 02be dd69 993e c12c 8f3d
000000a0: a348 173e 2c8b 1e3d ea24 603e 07dc 0b3e
000000b0: ad7e 3e3e 763a e23d 21a0 7f3e 5b3d 843e
000000c0: 2e68 1c3e 82f2 113e 3964 0f3e 9468 b23d
000000d0: 874f 00bc 2be5 58bd 8cf0 643e 36db 4b3e
000000e0: 11bf a33e 0c92 0f3e 7a53 9b3e f27f 203e
000000f0: 9906 7e3e ed2d 0a3e 8fec 223e 6474 c23a

lstm.weight_ih_l0 f4 [256, 64]
0.13968927 0.30967617 0.15324771 0.23006587 0.047887336 -0.07977954 0.20180133 0.29486948
0.37918624 0.21529175 0.14658286 0.15479565 -0.05575379 0.23082563 0.27413705 0.09749042
0.27264825 0.35587254 -0.013334958 0.14649455 0.08940727 0.018645039 0.15846913 0.1972774
0.17839576 0.14207545 0.4056548 0.059941385 0.17245767 0.20171532 0.20666929 0.3301215
0.32311574 0.16485396 0.018334882 0.2527516 0.30922917 0.17325914 0.14703569 0.19500887
0.11488605 0.23860405 0.3599439 0.36551583 0.17526418 0.30841854 0.04511163 0.15236501
0.12966451 0.010375559 0.3291378 0.13923414 0.033885635 0.057158507 0.17788944 0.35996172
0.20806552 0.14251642 0.12118926 -0.012620737 0.028931635 0.11362308 0.16250698 -0.037072178
0.06230787 0.04661009 0.106095545 0.29885548 0.1638524 0.19990988 0.07547311 0.27872717
0.21337485 0.16644593 0.24959283 0.2047529 0.18062884 0.32539147 0.14125916 0.17321384
0.29554617 0.18626799 0.34705293 0.18708946 0.09041913 0.22414769 0.18268177 0.342894
0.3457565 0.102360934 0.2349745 0.2529983 0.3177556 0.34096602 0.03247355 0.17451133
0.25353912 0.2510173 0.24874954 0.25905326 0.42748 0.09149712 0.33995876 0.15015645
0.058317427 0.33469155 0.16247249 0.29780674 0.07277706 0.28313234 0.09264606 0.18202664
0.41813344 0.10212431 0.29375148 0.3252028 0.19186337 0.23518057 0.13968462 0.08074695
0.28128278 0.2886779 0.22099222 0.1907309 0.21668479 0.31871367 0.32971254 0.11380805
0.22120307 -0.063542016 0.23652111 0.12708731 0.16194394 0.20801714 -0.023139646 0.12174666
0.12050861 0.2679597 0.10100473 -0.0051849224 -0.0131472815 -0.03320044 0.19955565 0.08862034
0.075435326 0.16069946 0.25631732 0.31440106 0.038494393 0.09618519 0.23988155 0.16733237
0.047924276 0.063352175 0.07767228 0.17702985 0.11970143 -0.04352518 0.16528742 0.0148774255
0.117469616 0.0657483 0.112669125 0.11020136 0.24845038 0.17516333 0.01695204 0.10942179
0.18933102 0.27364147 0.25132415 0.042171564 0.14170839 0.12516415 0.24971479 0.24226996
0.14493126 0.060466077 0.11855326 0.022669433 0.15139104 -0.036416076 0.11595379 0.18162899
0.22033253 0.12603682 0.058190826 0.20921761 0.22926408 0.20489818 0.27435884 0.2458946
0.169124 -0.078621 0.23551741 0.19188806 0.07319434 0.04669968 0.06060417 0.19440785
0.076182194 0.062988676 0.1428953 0.0132100135 0.11629224 0.08515969 0.13822794 0.08463944
0.04070249 0.18494691 0.09664914 0.093044534 0.22982658 0.06302255 0.14308156 0.11252161
0.095009945 0.101277724 0.07648357 0.20660275 0.10040822 0.18228212 0.10804725 0.17530595
0.16902994 0.12395973 0.111309454 -0.06854594 0.17741695 0.11732441 0.27356064 0.044864867
-0.002649019 0.34870458 0.28221056 0.054832574 0.13999824 0.30586398 0.15211472 0.14736754
0.11583644 0.048531294 0.14111668 0.13967149 0.22516823 0.038635056 0.12772577 0.22306961
0.1326995 0.022773633 0.14617085 0.18554999 0.22360602 -0.00017831026 0.054648872 0.13025902
00000000: b40a 0f3e e08d 9e3e f8ec 1c3e 6396 6b3e
00000010: 8325 443d 7563 a3bd 02a5 4e3e 22f9 963e
00000020: b324 c23e 7175 5c3e d119 163e c082 1e3e
00000030: 165e 64bd 8e5d 6c3e b15b 8c3e 0fa9 c73d
00000040: 8d98 8b3e ed34 b63e de7a 5abc ab02 163e
00000050: 291b b73d 7bbd 983c bb45 223e 1603 4a3e
00000060: 61ad 363e 3a7c 113e fcb1 cf3e 1985 753d
00000070: be98 303e 768e 4e3e 1da1 533e af05 a93e
00000080: 6d6f a53e 7acf 283e 0933 963c a868 813e
00000090: 4953 9e3e d86a 313e 8690 163e 68b0 473e
000000a0: 6149 eb3d 9f54 743e 914a b83e e424 bb3e
000000b0: 7478 333e 09e9 9d3e f9c6 383d 9305 1c3e
000000c0: c6c6 043e 40fe 293c c084 a83e 6593 0e3e
000000d0: aacb 0a3d 0a1f 6a3d a628 363e e74c b83e
000000e0: 210f 553e d3ef 113e 1332 f83d 35c7 4ebc
000000f0: 0902 ed3c 38b3 e83d 3b68 263e ffd8 17bd
00000100: 8936 7f3d 39ea 3e3d 9f48 d93d 9603 993e
00000110: ecc8 273e 2db5 4c3e a591 9a3d 54b5 8e3e
00000120: f07e 5a3e cd70 2a3e 4395 7f3e bfaa 513e
00000130: c4f6 383e b699 a63e 3ea6 103e f85e 313e
00000140: d451 973e 09bd 3e3e ecb0 b13e 6194 3f3e
00000150: aa2d b93d f986 653e ee10 3b3e cd8f af3e
00000160: ff06 b13e 9ca2 d13d 289d 703e fe88 813e
00000170: ddb0 a23e 1993 ae3e fc02 053d 19b3 323e
00000180: e1cf 813e 5785 803e 33b8 7e3e a1a2 843e
00000190: a9de da3e d862 bb3d 130f ae3e 9dc2 193e
000001a0: 41de 6e3d b15c ab3e 305f 263e 207a 983e
000001b0: 240c 953d b9f6 903e 38bd bd3d 3165 3a3e
000001c0: 9615 d63e 8d26 d13d 9866 963e fb80 a63e
000001d0: d577 443e 2dd3 703e 7c09 0f3e a85e a53d
000001e0: 4c04 903e 97cd 933e c94b 623e f64e 433e
000001f0: 9ee2 5d3e 702e a33e 15d0 a83e 3214 e93d
00000200: 0f83 623e 5122 82bd 9732 723e 2d23 023e
00000210: a2d4 253e 7202 553e 5b8f bdbc 5056 f93d
00000220: 38cd f63d 0432 893e 91db ce3d 48e6 a9bb
00000230: b267 57bc 2ffd 07bd 5158 4c3e 957e b53d
00000240: d67d 9a3d 668e 243e 063c 833e 2df9 a03e
00000250: 4cac 1d3d befc c43d 82a3 753e 2d59 2b3e
00000260: 3f4c 443d c9be 813d a512 9f3d 5047 353e
00000270: 0626 f53d 7647 32bd 1b41 293e 72c0 733c
00000280: e993 f03d 0ba7 863d 12bf e63d 40b1 e13d
00000290: c769 7e3e 045e 333e 01df 8a3c 8818 e03d
000002a0: fedf 413e bc1a 8c3e 8fad 803e 17bc 2c3d
000002b0: 011c 113e 082b 003e 3cb5 7f3e 9e15 783e
000002c0: dc68 143e 47ab 773d 0dcc f23d 3fb5 b93c
000002d0: 4106 1b3e 0629 15bd 2e79 ed3d f3fc 393e
000002e0: da9e 613e cc0f 013e 8159 6e3d 243d 563e
000002f0: 34c4 6a3e d4d0 513e c378 8c3e cbcb 7b3e
00000300: d82e 2d3e 0c04 a1bd 7a2b 713e 4e7e 443e
00000310: eae6 953d 2a48 3f3d 143c 783d da12 473e
00000320: 6905 9c3d 3500 813d 2553 123e d06e 583c
00000330: a02a ee3d 3468 ae3d a08b 0d3e 7157 ad3d
00000340: a7b7 263d b962 3d3e fcef c53d 228e be3d
00000350: a957 6b3e f711 813d f983 123e bb71 e63d
00000360: 9394 c23d b26a cf3d 6ba3 9c3d ac8f 533e
00000370: d3a2 cd3d 2aa8 3a3e e047 dd3d 6783 333e
00000380: 2f16 2d3e 99de fd3d 36f6 e33d d061 8cbd
00000390: caac 353e c847 f03d 2410 8c3e 39c4 373d
000003a0: 2a9b 2dbb 6889 b23e e77d 903e 1f98 603d
000003b0: b35b 0f3e 349a 9c3e f6c3 1b3e 84e7 163e
000003c0: a83b ed3d c0c8 463d e480 103e 0b06 0f3e
000003d0: 8092 663e cb3f 1e3d 8bca 023e 5c6c 643e
000003e0: 61e2 073e c58f ba3c d0ad 153e d100 3e3e
000003f0: faf8 643e ccf8 3ab9 7fd7 5f3d 9f62 053e

lstm.weight_hh_l0 f4 [256, 64]
-0.090478845 -0.10328587 -0.06926688 -0.066525705 0.01110605 -0.08633761 0.04922754 -0.11554588
0.04003703 -0.05339716 -0.11774863 -0.071089 0.08173187 -0.10579473 -0.10687055 -0.11709872
-0.0787317 -0.041352753 -0.09427769 -0.011623789 -0.06133575 -0.059926942 0.043929856 -0.04617275
0.0067482414 0.10600199 0.101854414 0.10166421 -0.039726272 -0.030676996 0.11622344 0.07189798
0.010227221 -0.11368999 0.011735833 0.0018095986 0.026653085 -0.007027431 0.09993783 -0.06662578
-0.049762126 0.036608342 0.097449265 -0.105021976 -0.047705583 -0.11726457 0.067239955 0.06599392
-0.10486033 -0.09967466 -0.10396212 -0.03657433 0.077227384 0.056184348 0.06154802 -0.09824639
-0.08228764 -0.030587625 -0.063256204 -0.0717787 -0.07559861 -0.08524204 -0.049239706 0.112725616
-0.08841133 0.09078034 0.12175887 -0.04643419 -0.01761967 0.03342723 -0.120160766 0.012353416
-0.089530796 -0.10776037 -0.119043335 0.01656736 -0.004152719 0.11319614 0.039846413 -0.041662037
-0.044081878 0.084236324 0.10321258 -0.024314106 -0.084140316 -0.02480042 0.092045724 0.06479102
-0.002187441 0.09260526 0.011190764 0.098826215 -0.007075179 0.018494293 0.012333235 0.11605276
0.040443204 -0.084333345 0.034043606 0.1176527 0.029240292 -0.045546487 0.10741987 -0.04995037
0.027781121 0.07890003 0.09979111 0.06859498 0.09999228 -0.09174464 0.019208673 -0.035634585
0.104458764 -0.08679529 0.10669913 -0.047157325 0.09406279 0.04740224 0.032338183 0.062503375
-0.05418233 0.07151428 0.073694274 0.11039734 0.018230736 0.12309813 0.020618182 0.0701463
-0.07072175 0.0060169143 -0.047830272 -0.097913206 -0.10986234 0.016160313 -0.007212789 0.1179416
-0.065464795 0.08989665 0.05090653 0.07760962 -0.09959768 0.117718115 0.10766153 0.011408912
-0.078862496 -0.09884644 -0.11129947 0.08432035 -0.1228263 -0.07562448 0.011437398 0.09341562
0.044913623 -0.08482873 0.09695683 -0.025543794 0.029261831 -0.07579669 0.0076008383 0.09260126
-0.00032496624 0.06801802 -0.07061036 0.10050805 0.11648294 -0.0017638823 0.024556948 -0.122914694
-0.037689272 -0.11483699 0.09622955 -0.11113891 0.115111485 -0.05863046 0.05025391 0.114868894
-0.027164666 -0.034465842 0.09776218 -0.0030041211 0.06865195 -0.004487477 0.10695787 -0.12214802
-0.09902909 0.07455848 -0.028623182 0.029131219 0.040367767 0.05788853 -0.049588595 -0.0011805355
0.12109571 0.03576702 0.036516804 0.032154277 -0.005939004 0.047867343 0.012104077 -0.07157005
0.04661335 -0.011587618 0.040112413 0.0046625054 -0.007890743 0.10006803 -0.015641151 -0.06638521
0.107514374 0.044437066 0.056135166 0.014806094 0.109395616 0.089264035 -0.06321052 -0.006141626
-0.036884256 -0.06549329 0.09416068 0.007802345 -0.057558052 0.049867608 -0.061045174 0.114231974
0.09857202 0.058812395 0.009109763 -0.1040505 0.011785824 0.048455447 0.1164418 0.033045985
-0.098041736 -0.041517906 -0.059521023 0.09237259 0.08998232 0.0424188 0.091999196 -0.09257793
-0.06991353 0.0564679 0.025998782 0.001070427 0.088135175 0.09496375 -0.020526048 -0.05021459
-0.021936309 0.07840912 -0.018107174 -0.057163324 0.10611246 0.0690257 -0.11811824 0.05775655
00000000: f94c b9bd 8b87 d3bd cbdb 8dbd a13e 88bd
00000010: 26f6 353c c6d1 b0bd d1a2 493d 51a3 ecbd
00000020: defd 233d fbb6 5abd 3226 f1bd 1c97 91bd
00000030: 0a63 a73d e8aa d8bd f2de dabd 74d1 efbd
00000040: 163e a1bd 8161 29bd a914 c1bd b471 3ebc
00000050: 323b 7bbd f475 75bd cbef 333d a31f 3dbd
00000060: 5a20 dd3b 9217 d93d 0c99 d03d 5335 d03d
00000070: 04b8 22bd 534e fbbc 8e06 ee3d 403f 933d
00000080: 1390 273c 4cd6 e8bd a747 403c 0e30 ed3a
00000090: 9257 da3c 5d46 e6bb 34ac cc3d 1973 88bd
000000a0: 5fd3 4bbd a1f2 153d 7b93 c73d c315 d7bd
000000b0: ee66 43bd 6828 f0bd 1ab5 893d d227 873d
000000c0: 03c1 d6bd 3a22 ccbd 18ea d4bd f7ce 15bd
000000d0: 6429 9e3d 8f21 663d c719 7c3d 6735 c9bd
000000e0: 6c86 a8bd e692 fabc 788c 81bd b600 93bd
000000f0: 72d3 9abd 6193 aebd 93af 49bd b0dc e63d
00000100: 0011 b5bd 0beb b93d b75c f93d c731 3ebd
00000110: 2057 90bc feea 083d d916 f6bd fb65 4a3c
00000120: ec5b b7bd 78b1 dcbd fecc f3bd 46b8 873c
00000130: 8813 88bb 61d3 e73d fe35 233d d0a5 2abd
00000140: 338f 34bd 1884 ac3d 1e61 d33d 602e c7bc
00000150: c251 acbd 402a cbbc 7882 bc3d 27b1 843d
00000160: 2c5b 0fbb d4a7 bd3d 7759 373c 6665 ca3d
00000170: e7d6 e7bb 5881 973c 5611 4a3c 12ad ed3d
00000180: c6a7 253d f6b6 acbd 4f71 0b3d e6f3 f03d
00000190: 5689 ef3c f48e 3abd f3fe db3d c298 4cbd
000001a0: 3c95 e33c 5796 a13d 485f cc3d 867b 8c3d
000001b0: c1c8 cc3d 9de4 bbbd 825b 9d3c 92f5 11bd
000001c0: 7aee d53d bbc1 b1bd 1385 da3d 0a28 41bd
000001d0: fea3 c03d da28 423d 0b75 043d c501 803d
000001e0: 4aee 5dbd 1476 923d 06ed 963d 0018 e23d
000001f0: a058 953c df1a fc3d 76e7 a83c dda8 8f3d
00000200: 91d6 90bd 8929 c53b ade9 43bd b886 c8bd
00000210: 82ff e0bd a262 843c 4259 ecbb 5e8b f13d
00000220: 6812 86bd bc1b b83d 5e83 503d cbf1 9e3d
00000230: def9 cbbd 3216 f13d a67d dc3d 72ec 3a3c
00000240: a982 a1bd 0170 cabd faf0 e3bd 26b0 ac3d
00000250: 5b8c fbbd 02e1 9abd ed63 3b3c b050 bf3d
00000260: 59f7 373d afba adbd 4d91 c63d 3841 d1bc
00000270: 82b6 ef3c 4c3b 9bbd 7410 f93b bba5 bd3d
00000280: 3b60 aab9 084d 8b3d 2a9c 90bd 2ad7 cd3d
00000290: 9c8e ee3d 1232 e7ba a72b c93c b3ba fbbd
000002a0: 1160 1abd a82f ebbd 0014 c53d cc9c e3bd
000002b0: 92bf eb3d 7e26 70bd 0bd7 4d3d 6240 eb3d
000002c0: 6f88 debc 0e2c 0dbd 8a37 c83d cae0 44bb
000002d0: 6599 8c3d af0b 93bb ba0c db3d be28 fabd
000002e0: c3cf cabd 1eb2 983d 2a7b eabc 98a4 ee3c
000002f0: ac58 253d 861c 6d3d 691d 4bbd 33bc 9aba
00000300: 0701 f83d 7080 123d a592 153d 34b4 033d
00000310: fa9b c2bb 8c10 443d 2e50 463c 5293 92bd
00000320: a4ed 3e3d fed9 3dbc ea4c 243d eec7 983b
00000330: 2d48 01bc 78f0 cc3d df21 80bc f8f4 87bd
00000340: 7f30 dc3d a403 363d fded 653d 4295 723c
00000350: cf0a e03d 10d0 b63d 8474 81bd b13f c9bb
00000360: f213 17bd 5921 86bd 51d7 c03d d0aa ff3b
00000370: fec1 6bbd fa41 4c3d 810a 7abd 74f2 e93d
00000380: 21e0 c93d 44e5 703d 1e41 153c 6e18 d5bd
00000390: 5419 413c 3879 463d 0a79 ee3d 3a5b 073d
000003a0: 1bca c8bd ae0e 2abd 51cc 73bd d72d bd3d
000003b0: a748 b83d 56bf 2d3d 136a bc3d 7f99 bdbd
000003c0: d32e 8fbd e24a 673d 66fb d43c 924d 8c3a
000003d0: 3780 b43d 5b7c c23d 3e26 a8bc d0ad 4dbd
000003e0: c6b3 b3bc f694 a03d 7f55 94bc 1724 6abd
000003f0: 7d51 d93d 595d 8d3d fae7 f1bd 2292 6c3d

lstm.bias_ih_l0 f4 [256]
0.2677364 0.38450086 0.14104067 0.08735096 0.4074187 0.26533836 0.13741146 0.29687724
0.28572443 0.2535002 0.16327403 0.29015335 0.14963956 0.13867898 0.35249773 0.09161541
0.11492852 0.17781796 0.2853127 0.054693114 0.06654149 0.20680824 0.13118376 0.2713382
0.1611055 0.08147111 0.11247316 0.3184077 0.2580311 0.37287834 0.17201065 0.36014748
0.24009101 0.16067588 0.16309278 0.18209915 0.1361702 0.18580058 0.21003027 0.29197142
0.21262035 0.25968966 0.04624922 0.3409843 0.37785742 0.18679717 0.26427063 0.12400161
0.24913241 0.25565895 0.29139832 0.27758753 0.293318 0.17333327 0.15456145 0.20094348
0.11392789 0.30869678 -0.020920912 0.44336691 -0.01894004 0.0833319 0.124901615 0.2237181
-0.08500341 -0.044334717 0.05816318 -0.09233471 0.075597346 -0.112159155 -0.06340037 0.112002105
0.010536533 0.050761912 0.009495932 -0.015838308 0.008635376 -0.030055221 -0.11831089 0.06461305
0.04970814 0.086443804 -0.10061837 0.023142839 0.11872867 -0.10104396 -0.025637925 0.08941828
0.11414054 0.10536929 0.09242021 0.05389083 -0.0060951007 -0.111105576 0.026880935 0.07019534
-0.11770807 0.08689648 0.010828942 -0.03411445 0.07948585 -0.0017909255 0.09216673 0.011541563
-0.10117292 0.0046312287 0.0990155 -0.032139283 -0.122152306 0.004771738 -0.04949041 0.036263097
-0.039118633 -0.06504474 -0.035981406 0.08038458 0.11700383 0.043253396 -0.050002728 0.06601742
-0.05454981 0.11789851 0.02265403 0.02295789 -0.096792154 0.0008721333 -0.052665107 -0.039866477
-0.060448967 -0.10402419 -0.05270687 0.06976582 0.08002841 -0.04587615 0.080266505 0.007188383
-0.029466528 0.02560609 -0.09129408 -0.12996687 0.003785476 -0.027269917 -0.047502324 0.069868065
-0.099848695 0.0151432855 -0.080160476 0.03212853 -0.14967455 0.11854123 -0.037145924 -0.05769253
-0.067271814 -0.083821915 0.04918242 0.01499098 -0.10965344 -0.043354455 -0.1040918 0.04851575
0.053095262 0.073341876 -0.0749785 0.06984295 -0.038645778 0.13099982 -0.055340957 -0.115895644
0.00033260835 0.08466426 -0.09499412 0.09308447 0.119707875 -0.05262693 0.018419275 0.006233502
0.0911172 -0.0339902 -0.120548576 0.074165925 -0.044157907 0.052140996 -0.085275136 0.04528424
-0.062151734 0.027336689 -0.085078776 0.010535589 0.00097449665 0.061112616 0.024763646 -0.12297102
0.3075674 0.33780512 0.08736083 0.19454622 0.34673232 0.22620644 0.09985817 0.23989639
0.21680138 0.35431385 0.16757189 0.29550228 0.091589436 0.25171107 0.16232489 0.17299618
0.21354952 0.1800769 0.26346707 0.11753912 0.13767739 0.19275235 0.15216209 0.22514096
0.17703211 0.095832 0.052032445 0.15490523 0.23937407 0.26278856 0.28267705 0.2879094
0.3155195 0.18094078 0.1891632 0.12913208 0.26121232 0.20416841 0.21537577 0.07707803
0.25201228 0.21430321 0.16778663 0.33088014 0.30823815 0.28832567 0.32936683 0.14234978
0.30110258 0.21599896 0.119979486 0.22255169 0.25528 -0.04595788 0.115707584 0.09231329
0.08700926 0.21086681 0.0018618671 0.39346835 -0.04792085 0.13812251 0.050201915 0.1703739
00000000: bf14 893e 4cdd c43e f76c 103e 0fe5 b23d
00000010: 2f99 d03e 6eda 873e 97b5 0c3e 4b00 983e
00000020: 794a 923e c7ca 813e 4f31 273e fb8e 943e
00000030: 1d3b 193e dd01 0e3e 957a b43e dca0 bb3d
00000040: a55f eb3d e915 363e 8214 923e e305 603d
00000050: e846 883d 8ac5 533e 0955 063e d7ec 8a3e
00000060: d7f8 243e 53da a63d 5458 e63d 5606 a33e
00000070: a71c 843e e9e9 be3e 8f23 303e 4065 b83e
00000080: 6bda 753e 3888 243e cb01 273e 3378 3a3e
00000090: 3370 0b3e 8242 3e3e 2d12 573e 477d 953e
000000a0: 26b9 593e 0bf6 843e d26f 3d3d 7f95 ae3e
000000b0: 8776 c13e c247 3f3e 7b4e 873e 8ef4 fd3d
000000c0: 911c 7f3e bbe5 823e 2932 953e f41f 8e3e
000000d0: c72d 963e 477e 313e 5b45 1e3e 21c4 4d3e
000000e0: 0753 e93d 810d 9e3e 5562 abbc fd00 e33e
000000f0: 2528 9bbc eaa9 aa3d 6bcc ff3d 5c16 653e
00000100: 4516 aebd 5298 35bd 843c 6e3d fb19 bdbd
00000110: c8d2 9a3d b3b3 e5bd 0ed8 81bd 5c61 e53d
00000120: 6ca1 2c3c b9eb 4f3d d394 1b3c 57bf 81bc
00000130: 647b 0d3c 5e36 f6bc fb4c f2bd d953 843d
00000140: c39a 4b3d 7309 b13d 0111 cebd 0d96 bd3c
00000150: 0428 f33d 23f0 cebd a006 d2bc ee20 b73d
00000160: 84c2 e93d dbcb d73d cf46 bd3d a2bc 5c3d
00000170: 69b9 c7bb 528b e3bd 6835 dc3c 93c2 8f3d
00000180: ee10 f1bd c8f6 b13d e06b 313c 98bb 0bbd
00000190: 7ac9 a23d 7dbd eaba e9c1 bc3d d318 3d3c
000001a0: bf33 cfbd 90c1 973b a3c8 ca3d 7ba4 03bd
000001b0: fd2a fabd 3d5c 9c3b 75b6 4abd 9d88 143d
000001c0: dc3a 20bd 2d36 85bd 3d61 13bd aca0 a43d
000001d0: b49f ef3d 792a 313d a9cf 4cbd 2434 873d
000001e0: 9f6f 5fbd c674 f13d f294 b93c 2f12 bc3c
000001f0: f73a c6bd e09f 643a 5eb7 57bd 084b 23bd
00000200: 5699 77bd a20a d5bd 29e3 57bd 62e1 8e3d
00000210: efe5 a33d a1e8 3bbd c462 a43d 878c eb3b
00000220: ca63 f1bc ddc3 d13c 64f8 babd 0916 05be
00000230: c015 783b 2965 dfbc cc91 42bd fd16 8f3d
00000240: 797d ccbd 8b1b 783c 2d2b a4bd 3599 033d
00000250: 4944 19be bfc5 f23d 5326 18bd 014f 6cbd
00000260: cec5 89bd d3aa abbd 8173 493d ba9c 753c
00000270: fc91 e0bd 7194 31bd 152e d5bd 73b8 463d
00000280: 6b7a 593d 4434 963d 548e 99bd d209 8f3d
00000290: 094b 1ebd d124 063e 33ad 62bd b25a edbd
000002a0: f061 ae39 7564 ad3d 478c c2bd 12a3 be3d
000002b0: 6729 f53d 568f 57bd 05e4 963c 6842 cc3b
000002c0: a89b ba3d 4f39 0bbd 2ce2 f6bd 4ee4 973d
000002d0: ecde 34bd cc91 553d bba4 aebd f87b 393d
000002e0: d192 7ebd 31f1 df3c c83d aebd 779d 2c3c
000002f0: 5d75 7f3a 3951 7a3d 21dd ca3c 3bd8 fbbd
00000300: 7979 9d3e cbf4 ac3e 3cea b23d 2037 473e
00000310: e686 b13e a9a2 673e 7182 cc3d 66a7 753e
00000320: 2e01 5e3e a068 b53e f797 2b3e 134c 973e
00000330: 3e93 bb3d 46e0 803e 7f38 263e e925 313e
00000340: baac 5a3e 1466 383e 28e5 863e 5ab8 f03d
00000350: 4dfb 0c3e df60 453e 61d0 1b3e 5a8b 663e
00000360: e847 353e 9143 c43d f91f 553d 7a9f 1e3e
00000370: 7a1e 753e 398c 863e 0cbb 903e dc68 933e
00000380: c68b a13e 8a48 393e ffb3 413e 333b 043e
00000390: 9fbd 853e 8611 513e 778b 5c3e 16db 9d3d
000003a0: c107 813e 4d72 5b3e 42d0 2b3e 1f69 a93e
000003b0: 64d1 9d3e 6c9f 933e c5a2 a83e 24c4 113e
000003c0: 1e2a 9a3e d52e 5d3e ceb7 f53d 97e4 633e
000003d0: 0fb4 823e 543e 3cbd 19f8 ec3d c00e bd3d
000003e0: e931 b23d 78ed 573e e509 f43a af74 c93e
000003f0: a748 44bd fd6f 0d3e 86a0 4d3d 7f76 2e3e

lstm.bias_hh_l0 f4 [256]
0.17158611 0.2926554 0.22789949 0.17487969 0.36931032 0.062781274 0.021224212 0.12386379
0.1672294 0.21027763 0.1846957 0.24322587 0.19404623 0.16236544 0.3066133 0.11968327
0.12828855 0.2300443 0.30980894 0.115082934 0.06983196 0.2513853 0.33289552 0.16981557
0.16811289 0.2772496 0.124989904 0.23914884 0.27118054 0.19820789 0.28281435 0.2586004
0.290571 0.14254124 0.04958116 0.21651544 0.1406258 0.1631564 0.19869424 0.06338529
0.19161265 0.14849134 0.14209703 0.18978006 0.22124578 0.1896209 0.17319027 0.21000029
0.35387558 0.092714556 0.20287758 0.3527859 0.3947245 0.09165138 0.13359863 0.20457481
0.21486965 0.15500435 0.12961675 0.4001323 0.10504785 0.010007867 0.16021855 0.21309948
0.10627825 -0.05247627 0.11941312 -0.061936364 0.04787623 0.00026790527 0.035806246 0.114430904
0.075109795 -0.080919705 -0.06606477 -0.051821005 -0.025054492 0.07901125 0.11669999 0.08951684
0.004536451 -0.09346009 -0.11673315 0.016692888 -0.021075234 -0.018180437 0.016616592 0.0897737
-0.09803822 0.045679387 0.008425111 -0.077629514 0.11949571 -0.085217014 -0.034729064 0.031883128
-0.11051605 0.104516536 0.05245435 -0.043480072 0.09183022 -0.020780886 0.0058450606 0.0029343762
-0.038120914 0.09689776 -0.016954767 -0.03407356 0.047287486 0.061266113 0.048349608 0.097134724
-0.026487298 -0.06328466 0.09064641 -0.11248987 -0.040634625 -0.074245796 0.0911175 -0.03427349
-0.040404756 0.0706928 -0.07059527 -0.091641694 0.035091754 0.004793166 -0.04066667 0.080224134
-0.07690313 -0.016150795 0.12387248 -0.11628911 0.006326898 -0.0812572 -0.13055702 0.11239355
0.044328075 0.08118263 0.012564874 0.09245048 0.10053772 0.05253883 0.036564212 0.051644884
-0.07729223 0.05553903 0.03406148 0.012667554 -0.051508375 0.12547673 -0.08507972 0.106385276
-0.08710998 0.10614457 -0.028693777 -0.06993908 0.057696145 -0.019583365 0.052965656 -0.009121092
0.0072369426 0.0019837979 -0.035980392 0.101539545 -0.04799509 -0.038305476 0.057722796 0.028946433
0.101941794 -0.07032515 -0.0013528046 -0.087480605 0.06992998 0.07464559 0.14363515 0.04950105
0.12274515 0.14984256 0.016933082 -0.030687721 0.09238219 -0.017429883 0.076949604 0.02755334
0.08841737 -0.017113142 -0.042280447 -0.023197856 -0.056358833 0.03923355 0.07891541 -0.09774441
0.25208756 0.27017725 0.24561077 0.14111973 0.37030095 0.20689242 0.10036431 0.2653867
0.2956235 0.3064443 0.21921885 0.19292797 0.18250826 0.13955292 0.3575609 0.19355635
0.15080057 0.14511804 0.37854826 0.13200854 0.037072018 0.30599546 0.24415532 0.09561384
0.3600528 0.3007125 0.048201364 0.32550824 0.101981446 0.21482572 0.13870077 0.14751537
0.3191182 0.17240958 0.020561049 0.12730551 0.07437512 0.4025583 0.22364086 0.08973914
0.31497568 0.18879886 0.32169184 0.21451415 0.28878286 0.21309897 0.21260448 0.29210383
0.121171966 0.21166994 0.25096345 0.17680643 0.304538 -0.06261128 0.32588896 0.20581046
0.28717715 0.17986745 0.095383786 0.34994903 0.106915675 0.12011868 0.19503912 0.23682661
00000000: 45b4 2f3e eed6 953e 7c5e 693e a913 333e
00000010: 3e16 bd3e 7893 803d 66de ad3c 4cac fd3d
00000020: 2f3e 2b3e 0553 573e df20 3d3e 3410 793e
00000030: 0eb4 463e 2043 263e 6bfc 9c3e 811c f53d
00000040: 135e 033e bc90 6b3e 479f 9e3e 9ab0 eb3d
00000050: 0f04 8f3d 93b5 803e 4871 aa3e 22e4 2d3e
00000060: c925 2c3e a9f3 8d3e b5fa ff3d 6fe3 743e
00000070: 2dd8 8a3e 02f7 4a3e 0bcd 903e 4667 843e
00000080: b9c5 943e 55f6 113e 9d15 4b3d 39b6 5d3e
00000090: 3600 103e 7912 273e 8176 4b3e 26d0 813d
000000a0: 1b36 443e 1d0e 183e e281 113e b455 423e
000000b0: 418e 623e fb2b 423e ca58 313e 510a 573e
000000c0: 2e2f b53e 21e1 bd3d 24bf 4f3e 5aa0 b43e
000000d0: 5419 ca3e b8b3 bb3d 14ce 083e 0f7c 513e
000000e0: ca06 5c3e 76b9 1e3e 41ba 043e 24de cc3e
000000f0: 5423 d73d 09f8 233c 5510 243e c036 5a3e
00000100: 69a8 d93d 5bf1 56bd de8e f43d fcb0 7dbd
00000110: de19 443d a375 8c39 92a9 123d c05a ea3d
00000120: 2ad3 993d 3bb9 a5bd f74c 87bd 4342 54bd
00000130: 143f cdbc a6d0 a13d 6800 ef3d 9b54 b73d
00000140: 82a6 943b 0168 bfbd ca11 efbd 86bf 883c
00000150: f8a5 acbc 24ef 94bc 851f 883c 46db b73d
00000160: 43c8 c8bd 4f1a 3b3d 7a09 0a3c 39fc 9ebd
00000170: 2bba f43d 4286 aebd 1040 0ebd e297 023d
00000180: 3d56 e2bd c40c d63d 5fda 563d 2918 32bd
00000190: 7b11 bc3d ad3c aabc ec87 bf3b aa4e 403b
000001a0: ad24 1cbd 5572 c63d b9e4 8abc b890 0bbd
000001b0: 86b0 413d 2df2 7a3d 3d0a 463d 92ee c63d
000001c0: e4fb d8bc 639b 81bd d3a4 b93d 1761 e6bd
000001d0: 7e70 26bd 2e0e 98bd d09b ba3d 5c62 0cbd
000001e0: 757f 25bd 63c7 903d 4194 90bd a4ae bbbd
000001f0: 5fbc 0f3d fe0f 9d3b 1892 26bd 8d4c a43d
00000200: 637f 9dbd ac4e 84bc dbb0 fd3d fc28 eebd
00000210: de51 cf3b 2d6a a6bd bdb0 05be 972e e63d
00000220: 5b91 353d 1443 a63d e7dc 4d3c ad56 bd3d
00000230: b8e6 cd3d f532 573d 5bc4 153d 9689 533d
00000240: 644b 9ebd e57c 633d 0d84 0b3d 938b 4f3c
00000250: 72fa 52bd f97c 003e 473e aebd 86e0 d93d
00000260: b866 b2bd 5362 d93d 360f ebbc 383c 8fbd
00000270: cb52 6c3d 4b6d a0bc 84f2 583d a270 15bc
00000280: e023 ed3b 9b02 023b 2d60 13bd f7f3 cf3d
00000290: 8096 44bd 34e6 1cbd bd6e 6c3d 1221 ed3c
000002a0: dcc6 d03d a206 90bd 9750 b1ba 0829 b3bd
000002b0: 7337 8f3d c9df 983d 1815 133e 9dc1 4a3d
000002c0: cf61 fb3d 5470 193e 3fb7 8a3c d164 fbbc
000002d0: e032 bd3d 1dc9 8ebc c197 9d3d 8bb7 e13c
000002e0: 2b14 b53d dc30 8cbc 432e 2dbd 6e09 bebc
000002f0: 85d8 66bd 5cb3 203d 679e a13d 392e c8bd
00000300: 9f11 813e ac54 8a3e 6481 7b3e b181 103e
00000310: 1698 bd3e 9bdb 533e ce8b cd3d c4e0 873e
00000320: f75b 973e 44e6 9c3e e87a 603e e98e 453e
00000330: 72e3 3a3e f6e6 0e3e 3912 b73e a333 463e
00000340: 776b 1a3e d399 143e 14d1 c13e 3f2d 073e
00000350: d4d8 173d 70ab 9c3e da03 7a3e 30d1 c33d
00000360: d758 b83e fdf6 993e cb6e 453d 04a9 a63e
00000370: a6db d03d 46fb 5b3e 9307 0e3e 450e 173e
00000380: 7663 a33e 238c 303e a56f a83c 605c 023e
00000390: fc51 983d 1f1c ce3e 1c02 653e 27c9 b73d
000003a0: 7e44 a13e 7d54 413e cbb4 a43e 99a9 5b3e
000003b0: 59db 933e 9e36 5a3e fdb4 593e a28e 953e
000003c0: 0229 f83d 01c0 583e 487e 803e bf0c 353e
000003d0: 68ec 9b3e 583a 80bd ebda a63e fabf 523e
000003e0: e208 933e 2c2f 383e 9358 c33d 852c b33e
000003f0: 9bf6 da3d c800 f63d 56b8 473e ad82 723e

fc.weight f4 [3, 64]
-0.13074964 0.2453393 0.23503903 0.3159705 0.1832572 0.3168016 -0.18903542 0.25077677
-0.25196958 0.07188144 -0.27144736 -0.25455856 0.35548005 -0.4041375 -0.23463649 0.30974784
-0.31653595 -0.2567024 -0.24707818 0.24153166 -0.2097203 0.16425976 -0.27457222 0.3881667
-0.24319844 0.41646314 -0.3642006 0.25651628 -0.36576623 -0.40560105 -0.37759653 -0.40219614
-0.29174247 0.22796376 -0.23941462 -0.17813618 -0.28834876 0.02591825 0.343059 0.3676516
0.2972018 -0.2979826 -0.14479633 0.08202488 0.13313618 0.39143062 0.17344138 -0.33709803
0.16575363 -0.0374193 -0.3454159 -0.19849221 0.33388734 -0.102683485 0.38959748 -0.20973568
0.25126597 0.3560223 -0.09374727 0.1489571 0.22273645 -0.19860739 0.21578483 -0.24095263
-0.4013998 0.3198523 -0.24756911 -0.17557193 0.29514024 -0.10440622 0.3170591 0.040496327
0.35111445 0.30248824 0.17627455 0.05732817 -0.15884164 0.17237443 -0.19393164 -0.23369655
0.05317601 0.25143802 -0.24682231 -0.17641167 0.24566351 -0.10239537 0.08311426 -0.19692573
-0.18606494 -0.28754774 0.16363686 -0.22328782 0.15219839 0.29203922 0.06252547 -0.014807339
0.13147162 -0.30246645 0.17950208 0.221605 0.17656033 0.14472431 -0.22191793 -0.15690078
-0.18029375 0.07306706 -0.255041 0.19582213 0.26213723 -0.15137947 0.039704762 0.12329006
0.17861712 -0.24763907 0.18679671 -0.24012785 0.21329859 0.21048746 -0.22589846 0.20492813
-0.32061544 -0.17918326 0.38740024 0.21741128 -0.22912022 0.1794739 -0.20775038 0.22070886
0.41532832 -0.50156575 -0.23529364 -0.12936974 -0.5137517 -0.16957206 -0.21173029 -0.23880143
0.16956495 -0.50387996 0.20817068 0.29339588 -0.26500046 0.30399463 0.4371047 -0.14310896
0.36982003 0.24681337 0.47353873 -0.1345356 -0.07153044 -0.34612703 0.20861557 -0.13135216
0.5226836 -0.062019877 0.14530319 -0.25205484 0.12874511 0.18824571 0.21649233 0.18770371
0.18452062 0.18091485 0.024550855 0.08986567 0.21756656 -0.5068852 -0.19230855 -0.29101348
-0.22395061 0.22035167 0.45564696 -0.5003787 -0.5644391 -0.13590854 -0.47480676 0.28204858
-0.42938343 0.3582153 0.18889768 0.4989335 -0.36275187 -0.19538596 -0.17250718 0.28273928
-0.12821826 -0.26178643 -0.16399638 -0.5626657 0.18005519 -0.15445173 0.101698086 0.21598716
00000000: 3ce3 05be 3a3a 7b3e 12ae 703e e3c6 a13e
00000010: c7a7 3b3e d233 a23e 8092 41be d065 803e
00000020: 2802 81be 9436 933d 26fb 8abe 8055 82be
00000030: 7b01 b63e 1ceb cebe 8c44 70be 4597 9e3e
00000040: 0011 a2be 7f6e 83be 1002 7dbe 1354 773e
00000050: ebc0 56be b633 283e bb94 8cbe c9bd c63e
00000060: 0309 79be a83a d53e 8078 babe 1a56 833e
00000070: b645 bbbe f1aa cfbe 5554 c1be a7ec cdbe
00000080: 455f 95be 556f 693e 1b29 75be 5569 36be
00000090: 73a2 93be 8352 d43c 6ea5 af3e d53c bc3e
000000a0: d62a 983e 2d91 98be 7d45 14be a9fc a73d
000000b0: da54 083e 9869 c83e 9e9a 313e 1d98 acbe
000000c0: 52bb 293e fb44 19bd 5ada b0be 8b41 4bbe
000000d0: 48f3 aa3e b84b d2bd 5279 c73e f3c4 56be
000000e0: efa5 803e 8e48 b63e 92fe bfbd 3688 183e
000000f0: 0615 643e bc5f 4bbe b3f6 5c3e 49bc 76be
00000100: 4684 cdbe aec3 a33e c282 7dbe 21c9 33be
00000110: 9f1c 973e eed2 d5bd 9255 a23e 7adf 253d
00000120: 46c5 b33e bddf 9a3e 5181 343e f1d0 6a3d
00000130: 62a7 22be ec82 303e 0496 46be 264e 6fbe
00000140: 16cf 593d 7cbc 803e fdbe 7cbe 43a5 34be
00000150: 378f 7b3e aab4 d1bd cf37 aa3d e6a6 49be
00000160: cf87 3ebe 7539 93be 6c90 273e 90a5 64be
00000170: e5d9 1b3e 2a86 953e 5b0d 803d 7b9a 72bc
00000180: 7fa0 063e e2dc 9abe 65cf 373e 6cec 623e
00000190: 3bcc 343e 9c32 143e 743e 63be 99aa 20be
000001a0: ed9e 38be 2fa4 953d bc94 82be 9985 483e
000001b0: da36 863e 3803 1bbe 76a1 223d 807f fc3d
000001c0: 68e7 363e 1995 7dbe a347 3f3e 13e4 75be
000001d0: f26a 5a3e 068a 573e ed51 67be aed8 513e
000001e0: b527 a4be d17b 37be 5359 c63e 10a1 5e3e
000001f0: 7e9e 6abe 02c8 373e 84bc 54be 8101 623e
00000200: eaa5 d43e 9d66 00bf d1f0 70be 8079 04be
00000210: 3b85 03bf 4ca4 2dbe d3cf 58be 5d88 74be
00000220: 6fa2 2d3e 47fe 00bf b22a 553e fc37 963e
00000230: 24ae 87be 2fa5 9b3e 30cc df3e 288b 12be
00000240: 0d59 bd3e a5bc 7c3e ab73 f23e b3c3 09be
00000250: 8d7e 92bd 9037 b1be 529f 553e 2e81 06be
00000260: 98ce 053f 8e08 7ebd 5cca 143e 550d 81be
00000270: c2d5 033e 7cc3 403e 2ab0 5d3e 6735 403e
00000280: f9f2 3c3e be41 393e e01e c93c 7e0b b83d
00000290: c5c9 5e3e 3ac3 01bf 88ec 44be b8ff 94be
000002a0: 4f53 65be dea3 613e 8f4a e93e d218 00bf
000002b0: 157f 10bf 9c2b 0bbe df19 f3be ac68 903e
000002c0: 25d8 dbbe ff67 b73e 656e 413e 3674 ff3e
000002d0: 9dba b9be 4213 48be b9a5 30be 34c3 903e
000002e0: a64b 03be df08 86be abee 27be dc0a 10bf
000002f0: 6360 383e 9828 1ebe 1647 d03d bd2b 5d3e

fc.bias f4 [3]
0.117509 -0.06522253 -0.12321533
00000000: 8fa8 f03d 6493 85bd 5258 fcbd
