Demo/results/models/血糖分类标签_linear_gru.pth (torch, 62216 bytes, 6 tensors)

gru.weight_ih_l0 f4 [192, 11]
00000000: 7654 ae3d bbf6 ea3d aa87 23be e06e 053f
00000010: 4b44 c83d f796 913e 611c 9dbe 2ba5 da3e
00000020: 3e58 0c3f 56dd 813e 1f25 e1bd e691 1bbe
00000030: a582 67be 8907 e23c 5b5f 783e 87d8 48be
00000040: d8ce 7d3e 2486 c2be f3dd a5bd 4f45 aebe
00000050: b324 a7be f51c 86bd a8d8 a5be aec3 f6bd
00000060: 1cf1 653e 4e6d 383e 6386 57be 0450 b73e
00000070: 4825 a8be 0d1b 503e cf07 80be 1ecc 8f3d
00000080: c432 ab3e 63eb e13d 8675 553e 9003 183e
00000090: f631 82be 3fc2 f0bd ba67 1dbe 614c 653e
000000a0: e9ea f8bc 3645 dbbe 41d5 adbd f722 673e
000000b0: 0a8b a0be 14b4 d0bd 070a 663d c9e8 963e
000000c0: 1c18 10be cd1a 6c3d b30e 9cbe 5eee 823d
000000d0: ba89 9dbe 1ccc 823c 0566 a83e 59c7 2e3e
000000e0: d9bb 92be f89a ca3b 7ee5 8abe 0df9 15be
000000f0: 6d99 5b3e 935e e6bd 8665 a03c 2cad c9be
00000100: 407d 0abd 3084 39be a692 82be 9805 243d
00000110: e209 0c3e be91 14ba 23f6 6f3b ec5e 4fbd
00000120: eeb5 1fbd 78a5 7bbd 9915 2cbe d62f 8bbd
00000130: 0b04 0d3e 2689 cfbe 9fcb 8fbd 7338 763d
00000140: a10d a73d 751c 75be d641 d53d cc80 71bd
00000150: 16e3 90be b84a b6be 8080 54be 7f22 93bc
00000160: 322c 3d3c 263d 65be 1a79 4d3e 7686 b5be
00000170: 79a9 f8bd b5ce 17be 287f d93e 0743 42be
00000180: eede 01bf 67f2 233e 5ea9 8d3c 57d4 c6bb
00000190: f745 e9bd 87f6 903e 959d ec3b 0678 293d
000001a0: 99ee 323e d87b 7abe 5e76 81be e4fe 983e
000001b0: 6f0b 6f3e 1d6e d3bd b393 df3d 333c b0be
000001c0: 2d5f 9d3e 4ffc f4be 5daa dcbd 4ce0 cb3d
000001d0: ff2d d63d 6904 06bd ad8b fbbe 9ec9 68be
000001e0: 9b63 3fbe 826b cbbd 8394 0d3e 501e 68be
000001f0: ffbc 703e 9209 273e ae06 713e 371b a4be
00000200: 58ec 1c3e bc88 b73e f58d 08be 0bc7 41be
00000210: bd47 26bc 2ce4 0f3e dfee a1bc e013 d23e
00000220: 0ef6 983c 60aa e43e 5d00 96be e87f e33e
00000230: c257 0a3f 78ee bb3d b8a4 18be 444a 08bf
00000240: c5eb ab3d 4d93 6f3e 0540 b13d cc6c 96be
00000250: 975f e1bd b8b7 1cbd 7f9d f9bd 8cbc acbe
00000260: ad1d 56bc 9696 c23d 20b8 b5be 7a84 b0bd
00000270: a993 1abe 7656 d33e 78f4 1bbd 41ec 903d
00000280: cb3e 86be e02f 1d3d 887e cdbd 1999 ae3c
00000290: 4c7f b23e ad0f 3dbe 5517 913e 7e7e e6bc
000002a0: a315 053e 1f13 dfbd 3390 0fbe d480 69bd
000002b0: f482 203d 2fb3 f03d 3954 a4be 4057 5a3e
000002c0: 27ee a6be af2f d63e cc99 3e3e ca0e 6d3d
000002d0: 8a7b 96be e51b 313e cfcd 563d 82d1 47be
000002e0: efd7 dc3c 3a5e d1be be74 153e f8cb c6be
000002f0: 4a98 bcbd c3c6 ff3d c8aa cbbd 1189 3abe
00000300: ad2b b4bc 637f 603d 9feb 24bd d05f d8be
00000310: 37b1 e1bc 7513 ec3d 3e26 4ebe 06b4 26be
00000320: c497 c03e 81d3 2abe 7779 45be 71b6 7fbd
00000330: a546 053e 82fd 24be e191 a5be c353 0a3d
00000340: c5dc c0be 36d9 ee3b 6fd1 9d3d d9c2 a53c
00000350: 794f bd3d 9e3e 16be b180 b53d f6bb d5bc
00000360: 51b2 87bd 8809 89bd 668d e93b e053 4bb9
00000370: 2d1f 82bd 4a6f 8bbe ebb1 273e 50e7 abbe
00000380: 55d2 7abe be58 df3d cfb2 183e 7c7d 0cbe
00000390: 5fe8 1dbf 0eda a8be 7736 fbbd 3c91 b7bd
000003a0: 49f6 273d bb06 89be 6895 d33c 8714 49be
000003b0: c850 193f 49c2 a7be 7936 f83c 7693 55bd
000003c0: 949f 27be 443b d3bd cbd3 9dbe cff1 75be
000003d0: 0b9a 08be 4d9b 62bd d69a 19be b739 2e3e
000003e0: ca47 36be b580 0f3d 3077 88be 9a50 d2bd
000003f0: 71e7 5abd b871 693d a723 933d a9b4 e13d
0.085122034 0.11472841 -0.1596972 0.52122307 0.09778651 0.2843549 -0.30685714 0.42704138
0.54822147 0.25364178 -0.109934084 -0.15192375 -0.2260843 0.027591484 0.24255125 -0.19613849
0.24785936 -0.37992966 -0.08098974 -0.34037253 -0.32645187 -0.06548492 -0.32391858 -0.12049042
0.22455257 0.18010446 -0.21047358 0.35803235 -0.32840943 0.20322819 -0.25005957 0.07021354
0.3343717 0.110312246 0.20845613 0.14845109 -0.25428742 -0.117557995 -0.153716 0.22392417
-0.030385451 -0.4282624 -0.084879406 0.22571932 -0.31356078 -0.10190597 0.056161907 0.29474476
-0.14071697 0.057642747 -0.30479965 0.06393121 -0.3076914 0.015966468 0.32890335 0.17068233
-0.2865894 0.0061830245 -0.27128214 -0.14645787 0.21445246 -0.11248507 0.01957966 -0.39389932
-0.033810854 -0.18116832 -0.2550251 0.040044397 0.13675645 -0.0005667469 0.0036615215 -0.050627634
-0.03899186 -0.0614371 -0.16805114 -0.06796233 0.13771074 -0.40534323 -0.070212595 0.060112428
0.081568964 -0.23936637 0.10412948 -0.05896072 -0.28298253 -0.3560388 -0.20752144 -0.017960785
0.0115461815 -0.22386608 0.20065728 -0.35454148 -0.12141699 -0.14824946 0.42479825 -0.18970881
-0.5073079 0.16010438 0.017292675 -0.0060677934 -0.11390298 0.28313085 0.0072209337 0.04137423
0.1747383 -0.24461305 -0.2528562 0.29881966 0.23344205 -0.10323737 0.10916843 -0.34420928
0.30736676 -0.47848746 -0.10774682 0.099548906 0.10457992 -0.03271905 -0.49130002 -0.22733161
-0.1869034 -0.09932615 0.13826184 -0.22667813 0.23509596 0.16312245 0.23537704 -0.32052013
0.15324533 0.35846508 -0.13335402 -0.18923585 -0.01014894 0.14051884 -0.019767223 0.41030788
0.018672016 0.44661236 -0.29297152 0.44433522 0.5404016 0.09176344 -0.14906585 -0.5323832
0.08394579 0.23396035 0.08654789 -0.2937988 -0.110045604 -0.038261145 -0.12188243 -0.337376
-0.013068599 0.09501378 -0.3549204 -0.08619018 -0.1509539 0.41276902 -0.03807494 0.07076312
-0.26219782 0.038375735 -0.100338995 0.021313237 0.34862745 -0.18463011 0.28338113 -0.028136488
0.12996535 -0.10892319 -0.14019851 -0.057007626 0.039187387 0.117529266 -0.32095507 0.21322346
-0.3260357 0.41833255 0.18613356 0.057875432 -0.29391128 0.17295797 0.052442368 -0.19513515
0.026958434 -0.40892202 0.14595315 -0.3882749 -0.09208734 0.12489083 -0.09944683 -0.18216349
-0.021993482 0.054808985 -0.04026377 -0.422606 -0.027550323 0.11527149 -0.20131776 -0.16279611
0.37615788 -0.16682245 -0.19284616 -0.06242985 0.1301523 -0.1611233 -0.3233786 0.033771288
-0.37668434 0.007289077 0.07705962 0.020234512 0.09243674 -0.14672324 0.088624366 -0.026090603
-0.06625808 -0.06691271 0.0071274517 -0.00019390834 -0.063536026 -0.27233344 0.16376464 -0.33574915
-0.24494298 0.10905598 0.1491196 -0.13719743 -0.61682695 -0.32978863 -0.12266248 -0.08963248
0.04100636 -0.26762947 0.025828078 -0.19636737 0.5988889 -0.32765415 0.030299412 -0.052142583
-0.16369468 -0.103140384 -0.30825648 -0.24018024 -0.13340013 -0.055323888 -0.15000471 0.17014204
-0.17800823 0.035034854 -0.26653433 -0.1026928 -0.053443376 0.056993216 0.071845345 0.11020786

gru.weight_hh_l0 f4 [192, 64]
00000000: 0152 4bbd bdac 75bd 9e86 393d 5eb3 913d
00000010: 7a32 a8bd a746 fabc afe0 9dbd e17e 903d
00000020: e175 da3d 6e20 c2bd a604 343d cf13 99bb
00000030: befc 5a3b 1961 983d 4c15 abbd 0f00 773d
00000040: c29f 723b 7d74 d73d 0d50 833d bfae d1bd
00000050: 60fd 563c e715 9dbd 3e3c 63bd f337 e6bd
00000060: 1aeb 7b3c c4a7 6ebd abe7 903d 6500 dc3d
00000070: 0eb5 88bd da22 9f3d 16e5 7a3d 49c3 683d
00000080: a10c 33bd 8627 42bc 6128 ba3d 4cd0 7e3c
00000090: 53e3 b1bd 6bf5 3fbd 17d9 51bd bd4e f7bd
000000a0: 9d72 4c3d f519 e63d 8d20 aa3d 7cc4 bdbd
000000b0: c441 7c3a 0a65 23bd 5018 dcbd 7aa9 6abd
000000c0: 8173 4abd 399e 34bd 7bb0 94bd 7886 253d
000000d0: 3467 363c 3228 d9bd 0c3e 903d 3af1 7bbc
000000e0: 9f0b d23c 7c9f 8cbd 72d6 ed3d 0d46 993c
000000f0: 5dcb b2bd 2355 dabd 8d0b aabd c84f 6dbd
00000100: 5c64 a0bc 3abc 653d 610f 4c3b 56ba 6fbd
00000110: ef39 c5bd 6353 993d 0d5c a53d 5f4b d53d
00000120: cbaa e03d 45cf be3d 7955 54bc 4b9d 173d
00000130: 35a7 d3bc de61 2f3d b364 b73d 9093 d6bd
00000140: 61f2 57bd 39d7 a33d efcf babd fcc4 5b3c
00000150: 4cb1 403d 8f6e 2a3d 8491 5b3d 847a ce3d
00000160: 19ec 18bd 78e8 14bd abfa 853d fd2d 27bd
00000170: 7694 19bd 61a0 14bd 57fd ad3d 5c4b eebd
00000180: 7d2d d0bd 7a2f 66bd 7b5a 47bd f50c 373b
00000190: 9695 cebd c986 47bb 1b24 91bd 8853 9abd
000001a0: 225b c4bd 15ba e4bc 0502 c6bb 0b8e ebbc
000001b0: c469 46bd 30b3 033d 80b7 3cbd 5853 ab3c
000001c0: 67ae 903d aa18 47bd 320d f33b 1155 f0bd
000001d0: 6a35 2d3d c756 2abd b724 b23d 0c98 efbd
000001e0: 56c8 f0bd ba17 d83d a7ba e8bb 2f6e 89bd
000001f0: d31d c53d f0c0 a23c e769 9ebd 7a0c d43d
00000200: 91b4 a7bc f7e0 2bbd d905 a33d c699 983d
00000210: 5607 b5bd 968e 94bd a72d cbbd 284b b9bc
00000220: 2e6b 0dbd c10a f7bd 7608 88bd a9ef 61bd
00000230: 21eb 4a3d 7da4 b93c 2ca1 f3bc a0b1 bebd
00000240: efa3 9fbd 9cef bcbd 9a05 8b3c 48be 7a3c
00000250: 9e70 7f3c ee71 203b 4be2 debd 27c9 b93d
00000260: 26a4 ee3d f240 b6bd b006 b03d 857a e23d
00000270: d21e a63c 62ee 38bd 0786 d23d 1b7e 84bc
00000280: 669d b8bd 2eb3 f6bd b8fe 0abd 1630 9b3d
00000290: 11d5 a83d 45b6 c9bd eb0a 8e3c 0c8a 86bd
000002a0: b3dd e2bd 6039 b7bd 641e db3d fcf4 07bc
000002b0: c1e4 5b3c f91e 203d 7b60 8d3c 7841 c2bd
000002c0: 4513 ecbc aae5 3b3d 8245 813d 530d 8abc
000002d0: 4522 953d 1c5f d93d d5c8 bf3c 38d4 3a3c
000002e0: 3ce6 a1bd b6ca d03d e3c3 d53d b4da 493d
000002f0: b780 95bd 73eb c53d 1087 65bc 2deb 8c3d
00000300: 0111 d93d 7374 91bc 65c5 f43b ed8a a33d
00000310: 0819 013d 1050 02bd 3e12 e5bd a1c5 cfbd
00000320: 0f0d 843d fec4 abbd 9912 dd3c 7a05 52bd
00000330: 7d8c 13bc 2b64 2dbc b9ad dd3c f168 083d
00000340: c275 963d 8985 623c 1d7a 093b d275 4ebd
00000350: 812f d3bd 13fe 98bc f7bb d9bd 08ee e3bd
00000360: 9157 90bd a698 593d 70ce 6a3d 4752 81bc
00000370: 4721 e93d 6f7a 70bd 9783 a5bd 5fbe ddbd
00000380: 21f2 c9bd 4f13 cc3d 4645 bf3c 1364 85bd
00000390: 19a5 db3c bf69 a53c 2a0a 683d fd83 9abc
000003a0: 5965 b5bc fdb3 013d 0f0f cb3d 236c d5bd
000003b0: ad86 0abd f704 83bd b247 d8bc fc0f 943d
000003c0: 3590 bbba f58e f33c 937f bc3d 1542 e03d
000003d0: ae61 68bd fb56 a3bc e3ea 363d 8dc9 1fbd
000003e0: 49d6 eebc 609e 983d 8fcb 9dbd 8394 acbd
000003f0: cc77 a9bd 5d89 9abc a5f3 49bd e0d7 12bd
-0.049638752 -0.05997919 0.045294397 0.0711429 -0.08212753 -0.030551268 -0.077088706 0.0705545
0.10667015 -0.09478842 0.043949746 -0.004671551 0.0033414806 0.07440395 -0.083536714 0.06030279
0.0037021493 0.10520265 0.06411753 -0.10238408 0.013121933 -0.07670193 -0.055477373 -0.1124114
0.015375877 -0.058265463 0.07075437 0.10742263 -0.066751584 0.07770319 0.06125363 0.056826863
-0.043713216 -0.011850243 0.09089733 0.0155525915 -0.08685937 -0.04686491 -0.051232424 -0.12075565
0.04991399 0.1123542 0.0830699 -0.09265992 0.0009622837 -0.03989128 -0.10746825 -0.05729053
-0.04942656 -0.044096205 -0.072602235 0.040411443 0.011133004 -0.1060337 0.070430845 -0.015377337
0.025640307 -0.06866357 0.11613168 0.01871016 -0.08730195 -0.1066077 -0.083029844 -0.057937413
-0.019579105 0.05608771 0.0031137096 -0.058527313 -0.096301906 0.07486608 0.08074198 0.104147665
0.10970076 0.09316877 -0.012959831 0.03701524 -0.025836566 0.042817943 0.08954754 -0.10477364
-0.052721385 0.08000035 -0.091216914 0.013413664 0.047044083 0.041609343 0.05360557 0.10081962
-0.037334535 -0.036354512 0.06541952 -0.040815342 -0.0374951 -0.03628576 0.08495586 -0.116354674
-0.10164926 -0.05619762 -0.048670273 0.0027931307 -0.10087125 -0.0030445328 -0.07086965 -0.075354636
-0.09587695 -0.027920762 -0.006042721 -0.028754255 -0.04844071 0.03215331 -0.046073437 0.020913765
0.070645146 -0.048607506 0.0074173445 -0.11734975 0.042287268 -0.041586664 0.08698409 -0.116989225
-0.11756961 0.105514005 -0.007102329 -0.06710469 0.09624829 0.01986739 -0.07735043 0.10353942
-0.020471843 -0.04196259 0.079601 0.07451205 -0.0883929 -0.072537586 -0.09920817 -0.022618845
-0.034526043 -0.12062598 -0.06642239 -0.0551602 0.049540643 0.022661442 -0.029739939 -0.09311223
-0.0779494 -0.09225389 0.016970444 0.015304156 0.015590815 0.002448197 -0.10883006 0.0907157
0.116524026 -0.08899106 0.085950255 0.11058525 0.020278368 -0.045149215 0.1027947 -0.016173413
-0.09014396 -0.120458946 -0.033934325 0.07577531 0.08243764 -0.09849218 0.01733919 -0.06569299
-0.11077442 -0.0894649 0.10699156 -0.008298155 0.013421238 0.039092038 0.01725792 -0.094851434
-0.028817782 0.04587332 0.06312086 -0.016852057 0.07281927 0.10613844 0.023411194 0.011403136
-0.07905242 0.10194914 0.10437753 0.049280837 -0.07299941 0.09664049 -0.014009252 0.06880794
0.10598946 -0.017755723 0.0074698203 0.07985482 0.031518012 -0.031814635 -0.1118512 -0.101451166
0.06447803 -0.08387183 0.026986407 -0.051274754 -0.009005663 -0.010582964 0.027060376 0.033303205
0.07346679 0.013825783 0.0020977326 -0.05040533 -0.10311795 -0.01867584 -0.106315546 -0.11129385
-0.07047952 0.053124093 0.05732578 -0.015786303 0.113833 -0.05871051 -0.080817394 -0.10827326
-0.098606355 0.0996462 0.023348462 -0.06513228 0.026812123 0.020192025 0.05665032 -0.018861765
-0.022143053 0.03166579 0.099149816 -0.10421016 -0.033819843 -0.06397431 -0.026401374 0.07229611
-0.0014309945 0.029731253 0.0920402 0.10950104 -0.05673378 -0.019938936 0.0446576 -0.039010573
-0.029154913 0.07452083 -0.07704841 -0.08426764 -0.082748026 -0.018864328 -0.049304623 -0.035850406

gru.bias_ih_l0 f4 [192]
00000000: d492 9b3d 94dd c83e b0e0 3d3e 039f eabd
00000010: 95f5 993e b4b1 8e3c f3ce 903d b28c e43d
00000020: df0f 21be 3e61 f7bd f8b2 20be 4444 763e
00000030: 5b5a 6a3e 55b7 813e ee8b 4e3e 0e02 933e
00000040: 3358 db3e 9fa0 da3d 691e 5f3b bf57 47be
00000050: 8458 c7bd dbfe f23e fa0b 893d e277 12bd
00000060: 9da0 e23e ad95 c23e 49bd 62bd 6946 a23d
00000070: b6b8 533e 9f39 ae3e d0d7 fe3d 123b af3e
00000080: d7a8 91bd 7d8f 823e 9712 803e 961a 2d3d
00000090: 2f57 e63e 8725 75be a5cf 983e b7af 863e
000000a0: 8fa7 02be 06a8 59bd d672 233d bc35 72bd
000000b0: 5f07 febd 049e 393e 76ee 933e f5a4 e73d
000000c0: 5aa1 dc3e 4038 e23e 75e2 5d3e 07eb 6b3e
000000d0: 6420 b93e 8fba 8a3e f9d3 733e 947d bc3d
000000e0: 58c8 593e 736a c13e c575 683e 5d9d 503e
000000f0: 5c74 87bd 3902 3b3e 8e46 723d 80b9 9f3e
00000100: 6bf2 18be b464 b8be b7e5 c5be 74df 5abd
00000110: a72a cebe 91a3 8cbe 4363 86bd 14f5 babe
00000120: 5c9e 07be 68b5 37be d814 92be 94ec 35bd
00000130: 686c 64be 0dc0 81be 3f98 36bf 6a41 f0bd
00000140: 5998 7cbe 48ef 57be 236b c8bd 38ff 9bbe
00000150: b55c b2be 0777 a1be 03cc 32be c4ed 15be
00000160: 1240 83be 87bc 0abe 10fc c4bd 1f3d a2bc
00000170: 9575 94bd 2652 a5be a050 f1be c443 93be
00000180: c7bb 03bf 5282 04be d599 26bf dade 16bd
00000190: 0e69 02be 0983 2cbf 0d2d 6bbe 1cb4 48be
000001a0: ee19 cc3c 55a8 a5be 14f4 e7bd 56f8 d0bd
000001b0: c33b 07be 7e6c 85be 3137 47be 5ac1 bebd
000001c0: 455d 7ebe 08f1 babe 63e7 7abe 9534 28be
000001d0: d3c9 a4be 31cf a8be 83f5 94be 5be0 eebd
000001e0: 0a1f d7bd 8912 cebd 5e67 82bd e7c6 31bf
000001f0: 1667 e8be 9a52 b3be eaaa 19bf 06c5 4bbe
00000200: f8d2 a43d 0f2e 913e 503f bebc ee00 ba3d
00000210: 51c4 da3e bc86 a1be e634 2c3c 23ce de3c
00000220: 54aa 96be 771d 693d 17c7 80bc 1d94 453e
00000230: c4a4 233e 9201 0b3e af77 28be a90b 7d3e
00000240: 8bc7 a8be 5868 3dbe 1329 b0be 9c35 82be
00000250: d809 4abd a21a d4be 76f2 6b3e f71e 193d
00000260: 02b8 de3e b593 283e 9c61 b43d 8781 20be
00000270: af2f 693e 4562 77be ec74 a6be 4ead 46be
00000280: 3838 7e3e 4c75 083e c76f c5bd 1af6 a3bd
00000290: a6f0 7cbe c34f 3fbe 7764 b43e 9fef 90be
000002a0: 5284 a83c 04ec e9bd cde4 1f3e 10e9 c2bc
000002b0: 7e62 383c c942 503e c18e 08be 9143 2ebe
000002c0: 5c21 f23e fec9 8bbe 44ed 12be 75aa bfbe
000002d0: 31c5 d63e cad1 77be efa8 163e 2708 abbc
000002e0: 3362 073e 9cab 9d3e ba87 49be 0057 bebd
000002f0: 5dee d0bd dfb4 cf3e 1d19 38bd 6196 583e
0.075963646 0.3923155 0.18542743 -0.1145611 0.30070177 0.01741872 0.070707224 0.11159648
-0.1572871 -0.12079094 -0.15693271 0.24049479 0.2288603 0.25335184 0.20170566 0.28712505
0.42840728 0.10675167 0.0034045225 -0.19467066 -0.0973368 0.47460064 0.066917375 -0.03575886
0.44263163 0.3800482 -0.055356298 0.07923586 0.2067593 0.34028336 0.12443507 0.34224755
-0.07112282 0.25500098 0.25014183 0.042261682 0.4498839 -0.23940097 0.2984592 0.26305935
-0.12759231 -0.053138755 0.039904438 -0.059133276 -0.1240375 0.18126684 0.2889287 0.1131076
0.4309185 0.4418354 0.21668418 0.23038875 0.36157525 0.27095458 0.2381133 0.092036396
0.21267831 0.37776527 0.22701176 0.2037253 -0.06613991 0.18262567 0.059149317 0.31196213
-0.14936225 -0.3601433 -0.3865182 -0.053435758 -0.40266916 -0.2746854 -0.065619014 -0.36515105
-0.13244003 -0.17940295 -0.28531528 -0.04441507 -0.22306979 -0.25341836 -0.7132606 -0.11731227
-0.24667491 -0.21087372 -0.0978606 -0.30468154 -0.34836355 -0.31536123 -0.17460637 -0.14641482
-0.2563482 -0.1354848 -0.096183896 -0.019804535 -0.072489895 -0.32289237 -0.47131824 -0.2876264
-0.514584 -0.12940338 -0.6507848 -0.03683362 -0.12735388 -0.67387444 -0.22966404 -0.19599956
0.024914708 -0.3235499 -0.11325851 -0.10203616 -0.13206391 -0.26059335 -0.19454648 -0.09314223
-0.24840267 -0.36512017 -0.2450233 -0.16426308 -0.3218523 -0.32970574 -0.2909356 -0.11663886
-0.10503967 -0.10062129 -0.06367372 -0.69444126 -0.45391148 -0.35023957 -0.6002642 -0.19899377
0.080480516 0.28355452 -0.02322355 0.090822086 0.42727903 -0.31548107 0.010510659 0.027197903
-0.29426825 0.056912865 -0.015719933 0.19294782 0.15980822 0.13574818 -0.16451906 0.24711479
-0.3296474 -0.18496835 -0.34406337 -0.25431526 -0.049325794 -0.4142657 0.2304171 0.037383046
0.43499762 0.16462596 0.0880768 -0.15674411 0.22772096 -0.2415858 -0.3251108 -0.19402048
0.24826133 0.13325995 -0.096404605 -0.080059245 -0.24701175 -0.1868277 0.352329 -0.28307816
0.020570908 -0.114219695 0.15614624 -0.023792773 0.011253951 0.20337977 -0.13335706 -0.17017962
0.47291076 -0.27302545 -0.14348322 -0.37434736 0.4194732 -0.24201122 0.1471288 -0.02087791
0.13221054 0.3079499 -0.19680682 -0.09293938 -0.10201714 0.4056768 -0.044945825 0.21151115

gru.bias_hh_l0 f4 [192]
00000000: 0bb0 0e3e a86b 4b3e 9741 913e 7ac5 5e3d
00000010: 5558 5f3e 4fd5 bb3d f11b 9e3d 217c a93d
00000020: 8707 abbe c494 08be 9455 a3be 09ca 333e
00000030: 0785 7a3e aae4 8c3e 3159 133e d598 e63e
00000040: f9dd ea3e a425 ac3d 5d5d 103e 1474 e43c
00000050: 499c 43be b7ec 913e e82d 063e 6a44 febd
00000060: 7035 a93e 93af a33e 5c7d 20be 23a6 2d3e
00000070: 292d f13d 743f 1c3e 5da0 83bb 2e63 9d3e
00000080: 2f0a 12bd adfc 363e d5cb 483d 3777 cf3d
00000090: 2bac a53e bc2a debd 8413 233e e387 613e
000000a0: 1595 4bbe 7fb1 913c 5141 3a3d 2100 993d
000000b0: 0313 253d 86dc 853e d802 523e 0a43 623e
000000c0: 01de ef3e 5cef e93e c12e ad3e 3d05 b73e
000000d0: 067b bc3e 8265 bf3e 0585 a03e 9f67 e83d
000000e0: 0b20 af3c af23 c03e b535 2e3e c4ae 003e
000000f0: dbee f13c 71f6 333e 429b 893e 334e 8f3e
00000100: 3f4f 97bd 348c a4be cf77 0abf 5939 e7bd
00000110: 250e c6be dbdd 78be 3fc2 00be 71e8 b7be
00000120: 9123 d3bd 1edf 81be 3c2d 90be 3b2c 74be
00000130: 894b 4cbe ea5d aabe 6894 37bf f593 53be
00000140: f22f 9abe b301 d6bd 13dc 6bbe dce4 33be
00000150: 0b4c a2be c11b 4abe 7891 4fbe 377b c2bd
00000160: 6146 6abe 6efb 3dbe 958c c2bc 2fd1 2bbd
00000170: 7ae0 e23c 46a0 81be d185 b4be 049d 69be
00000180: 9c49 09bf 6187 05be 3958 51bf 3041 60be
00000190: 8469 57be 71eb 44bf 9762 7dbe 4b1b f7bd
000001a0: a6f1 90bd 1e6b 3abe 1e44 c1ba 7f8f 83bd
000001b0: 2532 fa3c 85cd 89be a944 0fbe c70e e4bc
000001c0: 8929 aabe 44c3 edbe c4c0 eebe 550b 51bc
000001d0: cb3f bdbe 22e8 a7be 28cd c2be 3c5e 89be
000001e0: 0744 21bd 54fb 0abe 7c51 86bd a36b 25bf
000001f0: defa c7be 5415 c2be e0ce 0fbf e9a2 8dbe
00000200: 658b 98be ef09 9b3e 3ee7 b5be 1f6a b3bd
00000210: dbfe c13e 508b 43be 596c 36bd 4900 453e
00000220: 124e 0b3e e07f d4bc 7cc1 f23d 9148 ce3e
00000230: 4ae7 a93e d430 7c3e 2a82 e2be 8f6d f03e
00000240: 4438 febe 7252 babe 0efd 6cbe c4b9 f9bc
00000250: dde9 0d3e 74ac 18bf 7df2 973e aaf2 4b3d
00000260: e33b 0d3f bd10 ed3e 4b44 b13c 85d5 44be
00000270: 175d 183e c678 b0be c14c 8dbe 21cb d8be
00000280: f9fc 433e 58eb c03e a095 c9be fb27 3b3e
00000290: 5528 aabe c037 f93d 9b9f a73e 4882 a9be
000002a0: 0bee 60be 87a5 bcbe ede8 fb3d 5dee 51bd
000002b0: 517d 2c3e 4010 8e3e c164 a2be 1dff 70be
000002c0: 9b3b cc3e 1e82 14bf eb72 1abf 6d27 03bf
000002d0: 2359 fe3e 0e56 bdbe a52c a93e bad9 473e
000002e0: 6139 443e 6934 ea3e e81a 85be 4aa8 c9be
000002f0: 4969 47be 2656 f23e fae1 a7be 74c0 993e
0.13934343 0.19865286 0.28370354 0.054387547 0.2181104 0.09171545 0.07720173 0.08275629
-0.3340418 -0.13338 -0.31901228 0.17557539 0.24464808 0.27518207 0.14389493 0.45038477
0.45872477 0.08405617 0.14098115 0.027887382 -0.19102587 0.28500912 0.1310345 -0.12415393
0.33048582 0.3196989 -0.15672821 0.16957907 0.11776192 0.1525858 -0.0040169195 0.3073973
-0.035654243 0.17869826 0.049022514 0.1013016 0.32357916 -0.10847995 0.15925413 0.22024493
-0.19881089 0.017784832 0.045472447 0.07470728 0.040301334 0.2614481 0.20508897 0.22095886
0.46849063 0.4569043 0.33824733 0.35746184 0.3681261 0.37382132 0.31351486 0.11347889
0.021377584 0.37527224 0.17012675 0.12566668 0.02953284 0.17574479 0.26876265 0.2798935
-0.07388162 -0.32138216 -0.54089063 -0.11290235 -0.38682666 -0.24303381 -0.12574099 -0.35919526
-0.10309518 -0.25365537 -0.2815951 -0.23844998 -0.1995069 -0.33274776 -0.71710825 -0.2066191
-0.30114704 -0.10449543 -0.2303317 -0.17567772 -0.3169864 -0.1973715 -0.20270336 -0.094961576
-0.2287841 -0.18552944 -0.023748675 -0.04194754 0.02769493 -0.2531759 -0.35258344 -0.22813803
-0.53627944 -0.13039924 -0.8177524 -0.21899867 -0.21036345 -0.76921755 -0.2474464 -0.120657526
-0.07077341 -0.18204924 -0.0014745032 -0.06423854 0.030541489 -0.2691461 -0.13991036 -0.027839078
-0.33234814 -0.46438038 -0.46631444 -0.012759049 -0.36962733 -0.3279429 -0.38047147 -0.26829708
-0.039371517 -0.13572437 -0.06558511 -0.64617366 -0.39058584 -0.37906897 -0.5617504 -0.27663353
-0.2979385 0.30281016 -0.35527986 -0.08760475 0.37889752 -0.19096112 -0.044536922 0.1923839
0.13604 -0.025939882 0.118533105 0.4028974 0.33184272 0.24628001 -0.44239932 0.46958587
-0.49652302 -0.36391026 -0.23143408 -0.030484088 0.13858743 -0.5963814 0.2967719 0.04979197
0.55169505 0.46301833 0.02163901 -0.19222076 0.14879261 -0.34467143 -0.2759762 -0.42342475
0.1913947 0.37679553 -0.39371967 0.1827697 -0.33233896 0.121688366 0.32738957 -0.3310721
-0.21965806 -0.36845037 0.123002864 -0.05125271 0.1684468 0.27746773 -0.31717494 -0.23534818
0.39889225 -0.58011043 -0.603316 -0.51232034 0.4967738 -0.36979717 0.33041874 0.1951665
0.19162513 0.4574311 -0.2599709 -0.39386207 -0.19473757 0.4733135 -0.32789594 0.30029643

fc.weight f4 [3, 64]
00000000: ff41 e03e 1405 173f fc62 41bf 5e2c bdbe
00000010: ab82 c83e 2bf6 d7be 8862 e7be 0886 0b3f
00000020: 7808 1b3f ea31 413e d420 193f af1a 54be
00000030: 3ec6 a6bd 13dc ff3e 182a 13bf b9b5 fb3d
00000040: 6c2a 0bbf 9950 cebe 0089 ecbe 8522 07bf
00000050: 00a6 213f 892f dabd e409 893e 4709 a83e
00000060: b9d3 b63d 2771 ea3e 15eb 79be 00be e63d
00000070: f30a fabd 24d5 e4be ed66 12bf 7ee6 b8be
00000080: 25ae 123f 6104 e63e 70c2 1fbf f729 103f
00000090: 1380 18be ab9c 4a3f 0ad1 223f 74b3 e4be
000000a0: b032 71be 67fd 27bf 26c5 a23e efa4 92be
000000b0: 9767 cd3e 50dd cb3e 6607 f4be 2880 56be
000000c0: 7cf9 c43e 5c96 34bf a5b1 04bf b9aa 14be
000000d0: 01ee c03e 75ae 21bf 1496 e43e d299 06bf
000000e0: 88ec 223f d0ab 113f c8eb 52be 2b17 1dbf
000000f0: a4ec 39bf 4048 7c3e 0463 7cbf 6a84 f23e
00000100: eb0c 78bf ecb9 97bd c65d ab3e 21b5 b53e
00000110: 8bbe ecbc a6b8 fa3d d157 843e d08e 8fbe
00000120: 7aa6 75bf e946 a53e 915c dcbe 5668 0d3f
00000130: 2f98 dd3e 72a3 4dbe 51cd aabd fa61 8c3e
00000140: 6874 e3bd 8d60 973e 7f40 38be 8543 993e
00000150: 9c8a f6be db22 a0be c6d4 3ebe 5db9 97be
00000160: 0d7b d23e 406d 51b9 f9e1 da3e c11f 33bf
00000170: 1005 8d3e 08c9 c53d 171a 913d ffdb 07bd
00000180: 7c91 1abe ce15 fabd bb9d 163e 3169 c1be
00000190: 932c a7bd a7bb debe ebc6 fc3d 77bd d43e
000001a0: 08f1 f73e ea7c 043f 9764 a4be 1c2f 0c3f
000001b0: 5ed4 36bf 8c82 f1bd b8a5 9a3e b5a5 7cbe
000001c0: e8e1 273e 9f79 0ebc ef8d 22be 944d 87be
000001d0: 552b d53d 0ad9 f53d 6fe5 b2bd 6c3e d23e
000001e0: 2fd8 a0be 51d6 313e b3b5 bdbe 2fbc bc3d
000001f0: bd16 043e 13d3 b83e eda0 ca3e f11d 9cbe
00000200: 74e4 bf3e ebf8 1bbf bba8 0e3f 3bb2 70be
00000210: e355 31bf 7670 f63e d122 003e a368 07bf
00000220: 5e94 cb3e 1163 11bf 963a 88be 9706 cbbe
00000230: d8bf 07bf 888d eebe f8bf 653f e65a e3be
00000240: 6401 223f 7f0e b63e c27f 453f 47e1 373e
00000250: 44ed 443c 53f5 1d3f f10c b5be b1fe 9cbc
00000260: f5d3 24bf d037 0dbf eee9 0cbe 4dc0 0f3f
00000270: 8fd1 afbe 298b 893e 8dc3 e83e 87d7 143f
00000280: 5348 58bf f5d0 e3be b6fd 583f 1aed 86be
00000290: 9c5a ca3e 7432 29bf 59d4 21bf a751 223e
000002a0: 08be d6be 4eb3 da3e ebe3 15be a96e aebd
000002b0: 32fd b53e ad67 ffbe 7760 803e 722b 183f
000002c0: 567b 1cbf f6fc 0a3f b56d 393f ad04 4a3f
000002d0: 95b7 15bf 9231 063f 1595 c5be bad9 a63d
000002e0: 9931 75be 9415 1bbf 79ad 283f fcd6 5b3f
000002f0: 3b55 203f d146 34bf a863 d83e 02cf 7ebe
0.4380035 0.58992124 -0.75541663 -0.36947912 0.39162192 -0.4218 -0.4519236 0.5450139
0.605598 0.18866697 0.59815717 -0.20713304 -0.081432804 0.4997259 -0.57486105 0.1229052
-0.54361606 -0.40295866 -0.46198273 -0.5278705 0.6314392 -0.10653598 0.26765358 0.32819578
0.08927102 0.45789453 -0.24406083 0.112667084 -0.1220912 -0.44693863 -0.571883 -0.36113352
0.57296973 0.44925216 -0.62406063 0.56314033 -0.14892606 0.79145306 0.6360022 -0.44668162
-0.23554492 -0.65621036 0.31791037 -0.2864146 0.40118095 0.39817286 -0.47661895 -0.20947325
0.3847159 -0.7054193 -0.51833564 -0.1451825 0.37681583 -0.63156825 0.4464575 -0.5257846
0.6364217 0.5690279 -0.20597756 -0.61363477 -0.7262671 0.24636936 -0.98588586 0.4736665
-0.9689471 -0.07408509 0.3346998 0.35489753 -0.028899452 0.1224225 0.2584825 -0.28038645
-0.9595715 0.32280663 -0.43039373 0.5523733 0.4328017 -0.2008188 -0.08339942 0.274185
-0.11106187 0.2956585 -0.17993353 0.29934326 -0.48152626 -0.31276593 -0.18635854 -0.29633608
0.41109505 -0.00019972492 0.42750528 -0.6997033 0.27542925 0.09657484 0.07085054 -0.03316879
-0.1509456 -0.1221119 0.14708607 -0.37775567 -0.08162799 -0.43502542 0.12342628 0.415508
0.4842608 0.51753104 -0.32107994 0.54759383 -0.71417797 -0.11792478 0.30204558 -0.24672587
0.1639477 -0.008695989 -0.15874456 -0.26426375 0.104086556 0.120042875 -0.08735167 0.4106325
-0.31414935 0.17366911 -0.37052688 0.09215581 0.12899299 0.36098537 0.39575902 -0.30491593
0.37478983 -0.60926694 0.5572621 -0.2350549 -0.6927168 0.48132676 0.12513281 -0.5289404
0.39761633 -0.5679179 -0.26607198 -0.39653465 -0.53027105 -0.46592355 0.89746046 -0.44405288
0.6328337 0.35557935 0.7714807 0.1795703 0.012019459 0.6170246 -0.35361436 -0.019164415
-0.6438592 -0.5516329 -0.13761112 0.561528 -0.34339568 0.26863983 0.45461693 0.5814137
-0.8448536 -0.4449536 0.8476213 -0.2635277 0.39522254 -0.6609261 -0.6321464 0.1585146
-0.41941857 0.42714924 -0.14637725 -0.085172005 0.35544735 -0.49883786 0.25073597 0.5944129
-0.61125696 0.5429224 0.72433025 0.78913385 -0.5848325 0.5241939 -0.38590303 0.08146997
-0.23944701 -0.605798 0.658897 0.85874915 0.6263005 -0.7042056 0.42263532 -0.24883655

fc.bias f4 [3]
00000000: 3093 ba3d 63b5 cb3d c460 18be
0.09110105 0.09946706 -0.14880663
